LSTM/Data_2/LSTM10/model.pth (torch, 804707 bytes, 10 tensors)

lstm.weight_ih_l0 f4 [512, 3]
00000000: db48 0d3f d4fd 1fbe 0456 b53d 7d9c be3e
00000010: e1b8 01be 8ca6 11be 3d84 1d3e 050b 62be
00000020: b351 6ebf 9e30 fabd b8e7 973c 6b31 c4bd
00000030: 442f ecbc 12db 8ebf c3a4 2abf 6856 48be
00000040: b0f9 633d cf04 743c 322a 2fbf 6af6 a7bd
00000050: 3db1 123e 2606 abbe 9475 93be ef8a 80be
00000060: 1d8d 3d3e 1a2f cd3c 54da b63d b0a0 00c0
00000070: f929 43be 770c bebe 0b97 24be 95b7 6ebe
00000080: 67fa 1a3d 1a84 b0bd 73f4 1fbf 979e e5be
00000090: da43 3fbf fcd3 a9be cbb2 3bbd 148c 17bf
000000a0: 0197 133e 9aa2 4b3e ca47 eb3d dd8b 7dbe
000000b0: 2306 98bf 6ec7 19c0 e54d 40be adba 34be
000000c0: 47b8 39bf 40c5 d1bb c65f 063e b90b 1bc0
000000d0: 8824 9fbe 71e3 e1bd 9436 ea3e 6d69 523e
000000e0: ea86 8f3e 761b 4f3d b29f 68be 2935 7cbf
000000f0: fd29 d1bc 72e4 5ebe 78a9 fdbe 96a2 f4bd
00000100: f472 41bc 1339 823e 3638 24be cb6e d5be
00000110: 5ce9 82bf 65f6 953e 8ecd 30bf 0f63 76be
00000120: 3b40 8ebf d2d0 06bf 1d0e 19be 48d8 2fbe
00000130: c926 19bf dcec 65bf 393e edbd bce1 63be
00000140: d037 aebe 012e 4ebe a870 a2bd 3b65 2dbd
00000150: 2386 8cbf f322 54be 4bd1 ba3c 8fe4 913e
00000160: 98ca 26bd b1d6 4d3e 7ea4 dcbf bfdd fcbe
00000170: de19 33be 44fc 213e 4ebc d1bf fc32 1ebf
00000180: f313 59bf 9555 13bf 5cee 99be 2e83 bbbd
00000190: 679b 1dbe b80e b1be b3b6 f03e afb7 8a3d
000001a0: c9fb e43e 783c debe 221f 9dbe ac8c 33be
000001b0: 4a13 aebf af81 95be 2fd7 d3bd e6c0 88bf
000001c0: 7d5e 62bf b1d4 29bf 1460 8fbe 0f4f f9be
000001d0: 7ca0 20bf 7d95 04bf c944 e8be d17c 12bf
000001e0: 4f34 7ebd 9aa1 b5bf e278 56bf c6be f6bd
000001f0: 188b 813a 8fe2 323e 8f26 afbf 1374 96be
00000200: 6214 92be 532a 31bf 719f 6dbf dbba 6cbf
00000210: 583c a2be 43a6 14bf 1e52 50be 7cd6 5abe
00000220: da85 19bf 7075 8fbe 6934 0bc0 beba 55bf
00000230: 5137 10bf 5d62 27c0 64c9 73be f3b4 85be
00000240: 5077 82bf 7932 f73d 5b18 6d3d c99e fe3d
00000250: ade4 0ebd dca1 64be 7797 51bf dec3 c7be
00000260: 5fa9 e4be 4f70 0cc0 d1f4 a3be bb11 9abe
00000270: 425c c53e d88d 2abd 590d efbc 52a8 04bf
00000280: 1a11 51bd 2927 e23e 59b9 5ebc 8252 85bd
00000290: 7bb2 ea3d d540 11c0 d40a 97be 32b7 54be
000002a0: e7f7 b0bf 2747 a8be aee1 b3bd c977 05be
000002b0: eb7c 0e3e 8ccd 9f3e 03fa 373e c57e d13d
000002c0: f67c 0d3e 43aa 413c 2046 b6bf b238 12bf
000002d0: 506a 0abe 7a5b bcbe 9612 8bbf b9ba d2bf
000002e0: 6433 c9be c61f 1fbe 715f 87bf 16b7 dcb9
000002f0: 6eec c0bd a1ca 1abf 0ec1 4cbe 3e0f 183e
00000300: 69f4 13be 2218 c2bd ba94 42be 19ce 9dbe
00000310: a17c b9bd 2084 e5b9 de4c 84bf c97c fbbe
00000320: e01e c2be 962f ccbd af42 c2be 80bf 8cbf
00000330: e23b 2ebe 083f 9fbe 6870 57be 6ba0 2cbe
00000340: 2a76 873d 3763 293e 6b55 59be ac45 0fbf
00000350: da0e c6be 0c6a cebd 4a62 8a3e 183f 3e3e
00000360: 393f 6f3e 00e5 41be b1f2 72bf 5991 adbe
00000370: 9aa9 3ebf 8f1b 91bf b14a 843d aba1 b0be
00000380: b7ee 6fbf 2b52 1c3c df12 15bf 34dd 1bbf
00000390: 39da c4bf b575 933a 9022 9b3e dc38 0fbe
000003a0: 11ce c6be 50ef bdbe 26f4 f9bf 9032 80be
000003b0: 8342 85bd f00f 9fbf e153 3ebf 7340 06be
000003c0: a903 9cbf 1c35 babe 4537 15be 8f98 1fbf
000003d0: fab9 b6bd 5c66 96bd 0430 2c3e a546 fdbe
000003e0: 4d76 acbe 99f2 f1bd 6162 68be b671 b0be
000003f0: f8d7 133e 63d1 bebd 04ab 94bf 1c34 56bf
0.55189294 -0.15624171 0.08854297 0.37228766 -0.12668182 -0.14223689 0.15382476 -0.22074516
-0.93093413 -0.12216304 0.01854311 -0.09579738 -0.028831132 -1.1160605 -0.66657656 -0.19564211
0.055658042 0.014893725 -0.6842376 -0.08201297 0.14325424 -0.33403128 -0.28800642 -0.25105998
0.18510862 0.025046874 0.089283615 -2.0098076 -0.1905898 -0.37118885 -0.16073243 -0.23312218
0.03783646 -0.086189464 -0.62482375 -0.44847557 -0.7471291 -0.33169544 -0.045824807 -0.5919812
0.14413072 0.19886246 0.11488302 -0.24760385 -1.1876873 -2.4027972 -0.18779714 -0.17649336
-0.7254681 -0.006401688 0.13122472 -2.4225905 -0.3108256 -0.11029709 0.45744765 0.20548029
0.2803262 0.0505633 -0.22717169 -0.98518616 -0.025532717 -0.21766832 -0.49543357 -0.11945073
-0.011807192 0.2543417 -0.16037068 -0.4168609 -1.0227466 0.29289547 -0.6906365 -0.24061225
-1.1113352 -0.52662385 -0.1494679 -0.17172348 -0.59824806 -0.89814544 -0.11584134 -0.2225408
-0.34026957 -0.20134737 -0.07931644 -0.04233287 -1.0978435 -0.20716457 0.022804877 0.2849469
-0.040720552 0.2010143 -1.7237699 -0.4938793 -0.17490336 0.15818888 -1.6385591 -0.61796546
-0.84796065 -0.5755246 -0.30064666 -0.0915588 -0.15391313 -0.34581542 0.47014388 0.06773316
0.44723347 -0.4340551 -0.30687815 -0.17534131 -1.3599637 -0.29200503 -0.103437774 -1.0683868
-0.8842543 -0.66340166 -0.2800299 -0.4869313 -0.6274488 -0.517906 -0.4536498 -0.57221705
-0.062061604 -1.4189942 -0.837782 -0.12048106 0.0009883372 0.17469238 -1.3683642 -0.29385433
-0.28531176 -0.69205207 -0.92821413 -0.9247262 -0.31686664 -0.58066195 -0.20343825 -0.21370882
-0.59969866 -0.28019285 -2.1750739 -0.8348807 -0.56334406 -2.6153786 -0.23807293 -0.26114616
-1.0192661 0.12070174 0.057884555 0.124326296 -0.03488605 -0.2232737 -0.8187174 -0.39016622
-0.4466047 -2.1943548 -0.32022718 -0.30091652 0.3854695 -0.04163918 -0.02918117 -0.51819336
-0.0510417 0.44170502 -0.013593995 -0.06509878 0.11459824 -2.269582 -0.2950045 -0.20773008
-1.3825654 -0.32866785 -0.08783279 -0.13033976 0.1391484 0.31211507 0.17966466 0.102292575
0.138172 0.011820379 -1.424015 -0.5711776 -0.13517118 -0.3678854 -1.0865047 -1.6463233
-0.3929702 -0.15539464 -1.0576001 -0.0004209808 -0.094200954 -0.6046544 -0.1999552 0.14849564
-0.14448704 -0.09477259 -0.19002047 -0.30821303 -0.09056974 -0.00043776724 -1.0335958 -0.4911864
-0.3791418 -0.09970014 -0.379415 -1.0995941 -0.17015031 -0.31102777 -0.21038973 -0.1685807
0.06614335 0.16541754 -0.2122399 -0.55965686 -0.38683206 -0.100788206 0.27028114 0.18578756
0.23363961 -0.18935013 -0.9490157 -0.33899954 -0.7447754 -1.1336535 0.06459559 -0.34498343
-0.93723625 0.009541075 -0.5823192 -0.60884404 -1.5379096 0.0011250289 0.30299807 -0.13986534
-0.3882909 -0.37096643 -1.9527633 -0.25038576 -0.06506827 -1.2426739 -0.7434674 -0.13110523
-1.2188617 -0.36368644 -0.14571865 -0.6234216 -0.08922191 -0.07343742 0.16815192 -0.4946796
-0.33684006 -0.1181385 -0.22693779 -0.34461755 0.14437854 -0.09317281 -1.161469 -0.8367326

lstm.weight_hh_l0 f4 [512, 128]
00000000: 39c1 cf3d 4726 b23e 8793 59be 9384 833e
00000010: 1511 90bd 6d72 f9be cec1 b2be a135 a2be
00000020: 1965 b73d a12d b1be 7e92 0cbd cf8a 65be
00000030: 040c 40be 378a b4be 8f31 973d 8ba4 5e3e
00000040: 499f dc3d 5d93 b4be 02f8 5fbe 03c9 af3d
00000050: 68ae b7be 0f10 3e3d 1d8b 2ebe 3307 fd3d
00000060: 8b5f 953e 03e1 07be 58bc 6c3e 0757 5cbe
00000070: e344 8ebd 4ee3 30be 819e 053e c301 943e
00000080: 1f81 423e c9bb eb3e 71f8 6d3e 30f1 b03e
00000090: ee89 bb3d 0812 1bbf 5e0d debc ad08 6bbe
000000a0: 15d2 ba3e 065d 073f b480 3e3e 63f7 98be
000000b0: 5d62 20be 6e0f 0fbe a283 08bf 1a98 86bf
000000c0: d614 80be 869b 0f3f 5083 bb3d 013d 893e
000000d0: 8fd9 ccbe baa5 73be 82a6 d7bc 0860 4d3e
000000e0: 541a 5f3e 45d7 e13e 2127 883e 710f 913d
000000f0: 27ef 8a3d 910f 6e3e abe5 80be 2863 5fbe
00000100: 4792 d0bd 821e 5e3e f468 413e 738e 313e
00000110: bfb9 30be dac4 48be 2d81 23be ffa3 573e
00000120: 628e ecbc a170 a23c 132c 32bc 1a46 103e
00000130: 476f 5c3d 9533 63bd ae1c 0abe bfdb 67be
00000140: 881a a1bd 1641 a1be 4587 e0be aca2 85bd
00000150: 54f0 0ebe a2ad cabe bf60 54be 1159 633d
00000160: 1fee 063d eb94 5abe d0b8 40be dfbf c63d
00000170: e443 603e 44b5 e9be ca5e 98be 39c4 103e
00000180: 117e 24be 4c3f 073f dec9 b5bd 6a5a 88be
00000190: ccd9 29be 7a0d 873d 53e4 873e c91e 32bf
000001a0: 6aaf b23e 3b9f 53be 4da0 9cbc 7225 8bbd
000001b0: f2c9 9ebe af64 b4be 5a1b 293e 5517 ebbd
000001c0: 5fa4 a33e 9cfc f3bd e858 79be 962d 24be
000001d0: c137 833d 066e 7abe dc82 62be bd61 2a3e
000001e0: 3580 e6bd 2ce8 b63e 4534 48be 736a e63e
000001f0: 7702 c73e 421d 8d3d 9586 c5be 18c5 7a3e
00000200: cdfa 863c 23ae b33e d6c2 d83d a671 21bf
00000210: 86af 5ebe 77aa 353f a04a 98bc cc28 26bf
00000220: 0078 dabe eea3 a4be ab2b babe 4aab 373e
00000230: 07b8 68be 700e 54be b099 223d 740b fd3e
00000240: 6bf4 323f 68c5 04be a906 15be 9e4b 523e
00000250: 244e d03e e656 47be a46f 8c3d 490c 0b3e
00000260: 55e7 373d cb54 7d3b 389f f33d 2cfe cf3e
00000270: fee2 1a3e d438 c6be 14e4 b43e e39f 4f3d
00000280: ae8c cbbc 250b e8be fbf8 be3c ed7f cc3e
00000290: b312 063f 1e26 0bbc 79d6 d43e 0ee7 0abe
000002a0: 5986 9e3e 43be c33e d6aa 223f 784a 56bd
000002b0: 826a 94be 2f51 7cbe 9e6c 6dbc 4b32 d1be
000002c0: bd54 0c3f dc6a 85bd aaff f03b c41e f6be
000002d0: 3873 8c3e 75fa 64be 9f47 113f 1b59 ffbe
000002e0: e471 f53d 4587 7c3e f2b9 423e 332d 693e
000002f0: 4c42 a3bc 1467 9cbe 86ba 283c 0578 17be
00000300: 24ee 5d3e 67b4 d7be 4362 00be d234 8fbe
00000310: b70e d7bd eec4 263f a8a3 1b3e 2f83 13bf
00000320: 3cf7 20be d9ef 0abe 12c1 24be b3dc 323e
00000330: e244 5a3e 58fd b43d 4b98 8abe b0eb 2e3c
00000340: d3f1 3a3f 4072 60bf a040 58be 66ae 163f
00000350: e85e b53d 1d7f 0bbc dcd7 abbd d87b 783e
00000360: 90f5 5a3c 313b 6d3e 817b 82bd e6b3 aebc
00000370: 3c47 c8be 0c8e 25bd e61f 8dbe 72df cc3e
00000380: 0cf2 e53e 5a81 63bf da9e 8fba 8671 353e
00000390: 2cde e43e 98cd 2a3f f9cd 3a3e 580e ce3d
000003a0: 3686 0abe 20f3 96be e41a 9ebe 7f9d 533e
000003b0: f4c4 eb3e f3eb e93e 8133 5f3d 7171 8bbe
000003c0: 44fc 37bd cb58 6bbd 8b10 283f 29ef 083c
000003d0: 1336 9e3e 1f65 183f 1d21 c4be 671c 4c3f
000003e0: 50d9 d53d 964c dcbe 9cc9 f93c 9367 243e
000003f0: ab99 913d 31b6 023d d12f 323f 1951 9ebe
0.10144276 0.34794828 -0.21247683 0.25687084 -0.07034508 -0.48720112 -0.34913486 -0.3168154
0.0895483 -0.34605125 -0.034319393 -0.22416233 -0.18754584 -0.352617 0.073824994 0.21742456
0.10772569 -0.3526868 -0.21871951 0.08583262 -0.3587525 0.046402033 -0.17045255 0.12354889
0.29174456 -0.13269429 0.23118722 -0.21517573 -0.06946733 -0.1727421 0.13048746 0.28907594
0.18994568 0.46041706 0.23239304 0.3455901 0.091571674 -0.6057439 -0.027105983 -0.22952528
0.36488405 0.5287632 0.18603784 -0.2987624 -0.15662523 -0.1397073 -0.53325856 -1.0515168
-0.25015897 0.56096685 0.09155905 0.26804355 -0.40009734 -0.23793688 -0.026324514 0.20056164
0.21787387 0.4410955 0.26592353 0.07083023 0.06783896 0.23248126 -0.25175223 -0.21815169
-0.1018415 0.21691325 0.18887693 0.17339496 -0.17258357 -0.19606343 -0.15967245 0.21058653
-0.028876487 0.019829096 -0.010874766 0.14089242 0.05381706 -0.055469114 -0.13487503 -0.2264242
-0.078663886 -0.3149497 -0.43853202 -0.06525168 -0.13958865 -0.39585596 -0.2074003 0.055504862
0.032941934 -0.2134587 -0.188205 0.09704565 0.21900898 -0.45646107 -0.29759818 0.14137353
-0.16063716 0.5283096 -0.08876394 -0.2663148 -0.16586989 0.06594367 0.26541385 -0.69578224
0.34899455 -0.2066621 -0.019119406 -0.067942515 -0.31013447 -0.35233065 0.1651434 -0.114790596
0.31961343 -0.11913416 -0.24350321 -0.16033015 0.064071186 -0.24456033 -0.22120231 0.16638847
-0.11254922 0.35724008 -0.19551189 0.4500309 0.38869068 0.06890346 -0.3857924 0.24489248
0.016477013 0.35093793 0.10584037 -0.6306404 -0.21746644 0.70963234 -0.018590271 -0.64906
-0.42669678 -0.32156318 -0.3636144 0.17936435 -0.22726451 -0.20708632 0.03969735 0.494228
0.699042 -0.1296593 -0.14553322 0.20536658 0.40684617 -0.19466743 0.06857231 0.13578905
0.04489835 0.0038655277 0.11895603 0.40623605 0.15125653 -0.3871523 0.3533026 0.05068959
-0.024847355 -0.45321003 0.023312083 0.3994135 0.5237228 -0.008492975 0.4156988 -0.13564703
0.30961874 0.38231096 0.63541925 -0.052317113 -0.2898751 -0.24640344 -0.014491228 -0.40858683
0.548168 -0.065145224 0.0073546963 -0.48070347 0.27431655 -0.22361167 0.5674991 -0.4987267
0.119846135 0.24660976 0.19016245 0.22771148 -0.019929074 -0.30547392 0.010298377 -0.14791878
0.21672875 -0.42129824 -0.12537484 -0.27969986 -0.105008535 0.6514424 0.15199149 -0.57622045
-0.15719312 -0.13568057 -0.16089275 0.17467003 0.21315339 0.08837384 -0.27069315 0.0106763095
0.73025244 -0.8767433 -0.21118402 0.5885986 0.088559926 -0.008514193 -0.08390781 0.24265993
0.013364211 0.23167111 -0.06371213 -0.021326017 -0.39116848 -0.04041867 -0.275634 0.40014225
0.4491123 -0.8886925 -0.0010957376 0.17719087 0.44700754 0.6671996 0.18242635 0.100613296
-0.1352776 -0.29482365 -0.3087989 0.20665549 0.460487 0.45687827 0.054492477 -0.27234986
-0.044918314 -0.057457726 0.6565024 0.0083578015 0.3090063 0.595293 -0.38306513 0.7973084
0.1044184 -0.4302718 0.030491643 0.16055135 0.07109388 0.031912033 0.6960421 -0.30921248

lstm.bias_ih_l0 f4 [512]
00000000: 1d4b 343e 2097 113d b340 37bd dbb8 0abe
00000010: 2ba3 15bf a81d bdbc 12ea 26be 580c aebe
00000020: a9dc 4d3c fd1f 13bf 2738 91be bca6 01bf
00000030: fc19 07bf b3aa 10bd a432 ccbd 1fa0 dcbe
00000040: c834 2fbd bdf7 ebbe c3d6 b83e 9fea 09be
00000050: ca88 6ebe 2306 0dbe 0bfb b2be 4636 b0be
00000060: 2286 45bf 84fd c7be 7bea 66be 5b33 dabd
00000070: 347e efbe 8c43 0a3e 0a24 1fbf 4365 31bf
00000080: f235 47bf 5c62 85be bccc 4b3e 8bfe 95be
00000090: 0347 cebe a8ee 75bf 0a5f debe 5014 c1be
000000a0: 1972 3abf a98e 82bd 4b2c d1be c040 6cbf
000000b0: 46f4 c6be 39d2 aebe d906 99bf beaf 01bf
000000c0: 299b 4abd 4074 debb 3163 b7be c38b 0dbf
000000d0: a52e 1c3d d23e 3cbe b754 d5bd 8681 cfbe
000000e0: 1d4f eebe 37ec 02bc b200 913e 2e4f 2ebf
000000f0: fa43 b2be 7727 08bf 1a5e b3bd 2861 7fbe
00000100: 975e 5cbe 831d 0bbe 56c6 51bf 4455 aabe
00000110: f3c3 57be 523d 2b3b 4972 c1be 8e3d 413d
00000120: 419c c3bc aa41 1ebf 03d3 54be 7906 f6be
00000130: 3d74 b8be 1eda 84be ac66 fabe 367b 35bf
00000140: fb86 08bf e57d d3bd a660 73be 4051 8abd
00000150: 9e2b 0dbe 0c72 16bf 07ca 79be f901 e6bc
00000160: e441 dfbd 0f7d 1abf 7a7a 48bf c1f9 413e
00000170: db2d c5be 9cae 30be 8180 6ebe b4e4 25be
00000180: 4ce0 fbbe 9e63 a3be 67ca 6ebf cf97 b2be
00000190: b234 953e 2783 d1be 2baa 03be 5eb8 b3be
000001a0: 51f1 58bf 230b 0cbf 6c33 b6be 25e4 40be
000001b0: 8aab 9dbe 8b2b 0cbe 5555 3ebe 9787 50be
000001c0: 21af afbe 2b3b 42be e493 21be e268 c9be
000001d0: 458f dabe dd4f d9bc 7e60 d53d f7ac 4abd
000001e0: 7bb8 19bf 0392 05be fea3 36bf 7242 85bc
000001f0: 7c31 6ebe 30b9 00bf 348c d9be c0fb eebd
00000200: ca8b 153d 16f5 193e 196d 6abc bdd8 11bd
00000210: d46c c1be dd68 c73b 2f13 a9be 600c 0abe
00000220: 9bb7 993c 0752 64be 0fe9 28bd cb9c 04be
00000230: 7373 8bbe 9990 ecbd d8f4 1dbd 0e7e 82be
00000240: 8ffc 2bbe adcb 86be 38f9 a1bd 599d d8bd
00000250: 4e72 d63d 4c91 23bd cdac cdbb 1efe 43be
00000260: 04c1 20bf 801a 95be ccf9 7fbe 49df 83bd
00000270: c64d 99be c284 5bbb 9226 68be c813 4dbe
00000280: 37b1 cbbe b7d7 a63d 6688 493c 0741 083c
00000290: ab0e 26be e7f7 2cbf 01de a3bd d0a7 bbbe
000002a0: 13a8 f2be 6780 6dbe 41a6 5fbe 9491 18bf
000002b0: 3e29 b1be 434b cdbc 7f0b 34bf 3c51 b1be
000002c0: 8078 09be 3aff 0bbe 70c5 acbe 6b25 55be
000002d0: 33c8 0bbe 751c 41bd d73b 1c3d eb48 6cbe
000002e0: 3117 c2be 232b 693c 8458 0fbe 37a3 a1be
000002f0: 3a1d 9abb 7872 a7be 6c6a 16be cb31 81be
00000300: 8171 1fbe 3051 913d f85f c6be 4d42 2dbd
00000310: 2f02 79be 07e8 0dbd b954 63be 86fc 883d
00000320: 3919 f23d f318 bcbe 3ae7 68be c7a6 a7be
00000330: 8fac 4dbe 6236 95be b7ae 2dbe f725 bfbe
00000340: e4a6 c2be 8eeb fbbd 23d8 99be d897 14be
00000350: 2ee1 28bc 75a4 82be 370a 94be 8e65 5e3c
00000360: 3a4c 943c d783 91be ca64 66be d9fb b0bd
00000370: da7f edbd a2dc e2bd c1d4 62be 29f4 863d
00000380: 7199 92be 07e7 a0bd ba41 06bf 4681 2abe
00000390: 32a5 febd 3b41 c5be a196 64bd 8057 10be
000003a0: 8472 dfbe 07bc 44be 3dde adbe 83cb 1dbd
000003b0: cd13 96bd a091 eebc b3c2 bcbd 2093 06bd
000003c0: 6504 e8bd 5f52 fdbd c738 023c fc80 5abe
000003d0: d40f 5abe 9350 713d 421a 75bd ddf8 89be
000003e0: bf6b 4abe 6227 483e 0228 4cbe 4b25 29bd
000003f0: 995c 0fbe 9a3a dbbd 8311 62be e468 e6bc
0.17606778 0.035544515 -0.044739436 -0.1354708 -0.584521 -0.02308543 -0.16300228 -0.33993793
0.0125648165 -0.57470685 -0.28363153 -0.5064504 -0.52774024 -0.03531904 -0.099705964 -0.43090913
-0.042774945 -0.46087447 0.3610135 -0.13468407 -0.23294368 -0.13771872 -0.34957156 -0.34416407
-0.77157795 -0.39060605 -0.22550385 -0.106543265 -0.46775973 0.1350233 -0.62164366 -0.6929514
-0.7781669 -0.26051605 0.19902319 -0.29295763 -0.40288553 -0.96067286 -0.43431884 -0.3771081
-0.7283035 -0.063748665 -0.40854105 -0.922863 -0.3885824 -0.34144762 -1.1955215 -0.50658786
-0.04946438 -0.0067887604 -0.35817865 -0.55291384 0.03813042 -0.18383339 -0.10416549 -0.40528506
-0.46544734 -0.007990888 0.28320843 -0.6808957 -0.34817487 -0.5318522 -0.08758183 -0.24939406
-0.21520458 -0.13585477 -0.8194326 -0.33268178 -0.21070842 0.002612908 -0.37782505 0.047177844
-0.023878219 -0.61818945 -0.2078362 -0.48051813 -0.36026183 -0.2594766 -0.48906457 -0.7089113
-0.53330964 -0.10326747 -0.23767337 -0.067537785 -0.1378617 -0.5876777 -0.24393474 -0.028077113
-0.109012395 -0.60347074 -0.78311884 0.1894293 -0.38511547 -0.17254108 -0.23291208 -0.16200525
-0.49194562 -0.3191194 -0.9327759 -0.34881446 0.29141766 -0.40920374 -0.12857883 -0.35101599
-0.8474322 -0.54704493 -0.35586107 -0.1883703 -0.30794936 -0.13688485 -0.18587239 -0.20364223
-0.343133 -0.18967883 -0.15779072 -0.39337832 -0.4268743 -0.02652734 0.10418795 -0.04948136
-0.6004712 -0.1304398 -0.7134398 -0.016267035 -0.23261064 -0.50282574 -0.4248978 -0.11669111
0.036510266 0.15034899 -0.0143082375 -0.03560709 -0.37778342 0.0060854987 -0.33022448 -0.13481283
0.018764308 -0.22296916 -0.041237887 -0.12950437 -0.27236518 -0.11551017 -0.03856358 -0.25486797
-0.16795562 -0.26327267 -0.07908863 -0.10576887 0.10471021 -0.039933488 -0.006276703 -0.19139907
-0.6279452 -0.2912178 -0.24997634 -0.06439073 -0.2994215 -0.0033495878 -0.22670963 -0.20027077
-0.39783642 0.08146613 0.012300586 0.008316285 -0.16216533 -0.6756577 -0.08001328 -0.36651468
-0.47393855 -0.23193513 -0.21840765 -0.59597135 -0.34601778 -0.025060302 -0.7033004 -0.3463229
-0.13424873 -0.1367158 -0.33744383 -0.20815055 -0.13650589 -0.04714628 0.038143005 -0.23074691
-0.3790832 0.014231476 -0.1399861 -0.31569836 -0.004703191 -0.3270452 -0.14689034 -0.25233302
-0.15570642 0.070955634 -0.38745093 -0.042299557 -0.24317239 -0.034645107 -0.22200288 0.0668879
0.11821217 -0.36737785 -0.22744456 -0.3274443 -0.20085357 -0.29143053 -0.1696118 -0.37333652
-0.38017952 -0.12300788 -0.30047712 -0.14511049 -0.010307593 -0.25516096 -0.28914043 0.013574017
0.018102754 -0.28420898 -0.22499385 -0.08641786 -0.115966514 -0.110772386 -0.22151472 0.065895386
-0.28632692 -0.07856565 -0.5244404 -0.16650876 -0.12433852 -0.3852633 -0.055807713 -0.14095879
-0.43642056 -0.19212352 -0.33958617 -0.038524162 -0.073279954 -0.029122174 -0.092168234 -0.032855153
-0.11328963 -0.12369227 0.007948107 -0.21338266 -0.212951 0.058914732 -0.059839495 -0.2694768
-0.19767664 0.19546273 -0.19937137 -0.04129533 -0.14000167 -0.10704537 -0.22076993 -0.028126188

lstm.bias_hh_l0 f4 [512]
00000000: 23c1 413e a98d 6a3c 39c0 80bd 85af 0bbe
00000010: 6d7c 07bf 52ae 87bd 66ad 50be 4336 a5be
00000020: 13d1 ddbd c8b9 10bf 8bee 86be c677 01bf
00000030: 11ed 17bf a634 6bbd 5a2e e4bd b645 02bf
00000040: 4fcf 18be 9ff6 e1be a2be b23e 2a60 4fbe
00000050: f174 f9bd b5ab f8bd eab1 d2be 9015 65be
00000060: 88e5 3fbf 6566 febe 9d1f b9be e9ba 1dbe
00000070: 1ea2 0bbf 04db f03d 1bb1 30bf b75d 1ebf
00000080: 8073 3abf 6011 30be cea0 703e 04c9 84be
00000090: ca9d efbe 720d 88bf 2777 bebe 78f4 02bf
000000a0: f574 51bf 8ac7 293d 2f3d d2be 7d5c 57bf
000000b0: f85d ddbe 56de eabe f6bd 97bf 166d 0bbf
000000c0: b9ec 1abe 410c 1b3c 2773 afbe d0f5 02bf
000000d0: d004 ddbc 463c 6ebe 1494 f2bd b894 e7be
000000e0: 2215 d9be f020 29bd e14d 3f3e 60e1 31bf
000000f0: 4631 babe feb1 f7be 0e93 45be a036 9dbe
00000100: a3ca 21be e167 99bd 7338 47bf d8df a9be
00000110: 887a 84be 8e28 4cbd 3183 fdbe 895e 113e
00000120: 1762 45bd a7ec 09bf 0919 a4be c151 f5be
00000130: 0794 6fbe a9d2 75be 78f8 f8be fd9d 48bf
00000140: a56e 17bf 8fd1 62be 4e9b 85be 2c36 b7bd
00000150: 97ad c2bd 37da 1cbf 8d3c 78be 799a 0e3b
00000160: c77d 10be f7e7 1cbf c140 27bf 9b97 203e
00000170: 56ca abbe 59dd 8fbe 71fb 10be efd4 f4bd
00000180: 48ba 07bf 7d6a 9fbe 2f46 7dbf b4af b0be
00000190: dd00 513e 9853 04bf d865 8abe ab7a d6be
000001a0: 70d6 68bf 1acd d2be d215 aabe e0c6 21be
000001b0: 37dd 7cbe 3962 07bd ee4f 3cbe cdb1 c2bd
000001c0: a60f b0be d8a7 83be f66c 7ebe 27b2 f8be
000001d0: 51c9 d2be 96a3 d3bd 936e 3d3d dd12 53be
000001e0: d80e 2abf 1ccc 61bd e7b7 3ebf a70e ee3c
000001f0: f8fe 08be fb79 00bf f41d cfbe 328c 32be
00000200: e026 04be 0bb2 133e 7524 e03d 7a80 973d
00000210: ae3d 74be d51c ffba df09 82be f15b 87be
00000220: 18e0 1bbd e030 84be bab3 5dbd 15b0 98be
00000230: 5818 85be f7d0 32be b7ab a93d caf2 63be
00000240: de9c 73be ef5a 8bbe 57bc 403c 3dcc 05bb
00000250: fb45 103c e88c 66bd e016 0cbd 5dbc 30be
00000260: ab94 28bf c9fd 99be dcf1 80be d474 60bd
00000270: c6ac b9be 09c4 e03c c43c 92be 4d61 6abe
00000280: a647 81be e803 833d 9101 b83d 09ee 7c3d
00000290: 0bac 9ebe a57d 23bf d508 8cba e2f1 b7be
000002a0: c770 cdbe e11b 6abe 2a42 29be 001b 25bf
000002b0: a3c4 d9be 5567 1dbe a67d 36bf 0ab3 67be
000002c0: 4d38 08be c702 71be 7780 b1be 4f47 7ebe
000002d0: 71aa 22be 2e5d 30bd 9eaa 6abd 9e8d 83be
000002e0: 99a5 e7be c3e6 9abd 334f 81bd 5457 91be
000002f0: 9304 dfbd 7f6d aabe 40e5 47bc 053d 13be
00000300: b161 d0bd 9f95 1bbd 3c86 03bf 4b73 fdbc
00000310: aed7 20be 8688 6c3d 842b 19be 354a 6a3d
00000320: 1467 7d3d 3396 b5be 533f 92be 61ae 8ebe
00000330: cecf 0cbe 6e7c 7abe fd5b 23be eca3 bdbe
00000340: d36e 80be 060e aabd 5aa8 73be 5c50 13be
00000350: 25af 9bbc 5e50 a0be 0ec4 8cbe ed2d 6cbd
00000360: a029 9b3d 5b45 8abe 0bb2 9abe 6105 353c
00000370: d73a 16be 10dc 1fbe e2db 8fbe e278 5dbd
00000380: adb5 53be 1e4a 5ebd 38bf 07bf caea e1bd
00000390: 2f0b b0bd 6228 b2be a1f2 8fbc 0cfd 15be
000003a0: d4ab acbe 4d13 41be 0503 2bbe 9e8e 92bd
000003b0: ff2c 5d3b daf5 bf3d 5038 bdbd 538e f8bd
000003c0: ce61 e2bd 0c7c 27be 45e7 fb3c 9cd4 5bbe
000003d0: 2e21 96be fec8 a33d e0a5 2bbe 0821 88be
000003e0: b41c 1fbe 8141 523e a62b 81be af92 afbd
000003f0: 74d6 c8bc 97f2 66be 1540 5fbe d704 e2bd
0.18921332 0.014316001 -0.062866636 -0.13641174 -0.52924234 -0.06625046 -0.20378646 -0.3226796
-0.10830893 -0.5653348 -0.2635387 -0.50573385 -0.5934611 -0.057423256 -0.11141653 -0.5088762
-0.14922832 -0.4413347 0.34911066 -0.20251527 -0.12180508 -0.121421255 -0.41151363 -0.22371507
-0.7495961 -0.49687496 -0.36156932 -0.15403332 -0.54544246 0.11760524 -0.6902024 -0.6186175
-0.7283249 -0.17194128 0.23498842 -0.25934613 -0.4680007 -1.0629103 -0.3720028 -0.5115428
-0.8181909 0.04145006 -0.41062304 -0.841255 -0.43235755 -0.45872754 -1.1854846 -0.54463327
-0.15129365 0.009463371 -0.34267542 -0.5115633 -0.026979834 -0.2326518 -0.1184465 -0.4523065
-0.42398936 -0.041291177 0.18682052 -0.6948452 -0.36365718 -0.48377985 -0.19294378 -0.30705738
-0.15799956 -0.074905165 -0.7782051 -0.33178592 -0.25874734 -0.049843363 -0.49514154 0.14196219
-0.04818925 -0.5387673 -0.3205035 -0.47913936 -0.23396312 -0.24006142 -0.48627067 -0.7836607
-0.59153205 -0.22150253 -0.2609505 -0.08945879 -0.09505766 -0.6127047 -0.24241848 0.0021759553
-0.1411048 -0.6129145 -0.6533318 0.15682833 -0.33552808 -0.28098562 -0.14158417 -0.11954676
-0.5301862 -0.31135932 -0.98935217 -0.3450905 0.20410486 -0.51690054 -0.27030826 -0.41890463
-0.90952206 -0.41172105 -0.33219773 -0.15798521 -0.24693762 -0.033052657 -0.18389866 -0.09506569
-0.3438694 -0.25713992 -0.24846253 -0.4857342 -0.41169217 -0.10333936 0.04624803 -0.20612665
-0.664289 -0.055126294 -0.7449936 0.029059721 -0.13378513 -0.5018613 -0.4045254 -0.17436293
-0.12905455 0.14423387 0.109444536 0.07397552 -0.23851654 -0.0019463549 -0.25398156 -0.26437333
-0.03805551 -0.2581854 -0.05412648 -0.2982184 -0.25995135 -0.17462526 0.08284705 -0.22260585
-0.23790309 -0.27217814 0.011763654 -0.0020415925 0.008805747 -0.056286722 -0.034201503 -0.17259355
-0.6585185 -0.30076435 -0.25184524 -0.054798916 -0.36264628 0.027437227 -0.28561985 -0.2288868
-0.25249976 0.063972294 0.08984674 0.061750446 -0.30990633 -0.63863593 -0.0010683784 -0.3592673
-0.40125105 -0.22862197 -0.16529146 -0.64494324 -0.42532834 -0.1537145 -0.71285474 -0.22626892
-0.13302727 -0.23536216 -0.34668323 -0.2483189 -0.1588533 -0.043057613 -0.05729162 -0.25693983
-0.45243528 -0.075635456 -0.06313934 -0.2838694 -0.10889544 -0.33286664 -0.012200654 -0.14378746
-0.10174883 -0.037984487 -0.513767 -0.030938765 -0.15707275 0.057747386 -0.14958006 0.057199676
0.06186588 -0.35466155 -0.28563938 -0.27867416 -0.13751146 -0.24461529 -0.1595306 -0.37039125
-0.25084552 -0.08303456 -0.2379469 -0.14386123 -0.019004414 -0.31311315 -0.27493328 -0.057660986
0.07576299 -0.2700604 -0.3021396 0.011048646 -0.14670883 -0.15611291 -0.28097445 -0.05407036
-0.20674773 -0.054269902 -0.5302615 -0.110311106 -0.08595883 -0.34796435 -0.01757175 -0.14647311
-0.33724844 -0.18855019 -0.1670037 -0.07156108 0.0033748744 0.09373064 -0.092392564 -0.12136521
-0.11053811 -0.16355914 0.030749926 -0.21467823 -0.2932219 0.079973206 -0.16762495 -0.265877
-0.15538293 0.205328 -0.25228614 -0.085728996 -0.024516322 -0.22553478 -0.21801789 -0.110360794

lstm.weight_ih_l1 f4 [512, 128]
00000000: bfa5 373e 6d7f 4a3f cc27 c33e ede4 a0be
00000010: 36f1 b3bd e842 b9bd c9d7 89be 66a3 89be
00000020: 00ef 64bd ad09 273e d03b 15be ed80 803e
00000030: 6338 bbbd 5b11 373a 5815 063f 3858 69be
00000040: b9da 543e 5dbd 89be 6f0b 09bf 4bc6 983e
00000050: f771 183e 000d c43d dfc0 133e 081c 813c
00000060: 9584 c1bd 6415 223e eb67 e03c aabb c13e
00000070: 73cd a73d 691d 8abe bb3b 103f a8f2 d03c
00000080: 03ce dfbd 5bfa ff3d d5c1 ffbd 17d7 753d
00000090: 36a0 2a3f c7f6 a63d b877 d43e 1062 ff3d
000000a0: cae8 cf3d b56f 1d3f cca9 f53e 26f8 cf3e
000000b0: b067 eabe ab57 a1be 92f2 e3be 93d5 a2bd
000000c0: d78a d0bd 622c 8dbe 55bc 243f 148b ac3e
000000d0: 98f4 063f d4ca 2dbe 0679 633f cddd 943d
000000e0: a149 84bd 9d7d b43d d1cd 88bc 32b9 e9bd
000000f0: 21b2 90be f619 d23d 359b a83c 1e51 e6bd
00000100: cbe7 753e f6ac f7bd 24cb 0bbe e803 9dbd
00000110: e14b 20be 56d4 45bd 7379 7a3d c9a3 c0bd
00000120: 6eb4 2cbf 2d68 ac3e b71c b33d 14b6 ebbd
00000130: 0aeb 483e fffc 92bc a37c 5b3d 2a46 b53e
00000140: 5d47 3a3d f896 ebbe 8d1e 263e 5f67 213f
00000150: b93a b23d 4d0f f63d d962 523e 2d3f ce3e
00000160: 0e1f 423f 4bcb c6bd 3b30 aabd 1264 8e3e
00000170: 709a 59be 144f 06bd 0c96 30be 17d4 963e
00000180: 9493 3dbd 948e e13c 1baa d33e 5052 91bc
00000190: f5dd 373d 59ca 343e 0c4b 103f a842 a1be
000001a0: 4ca4 873d 2624 81be fa15 0bbc 08c6 153f
000001b0: 1b51 7b3e 564f b7bd bb76 ddbd fd35 a0be
000001c0: 5376 07bf 505c c13e 7fb3 38bc 84ab 023f
000001d0: 3574 2abd 55d1 93bd 24fa 02be e379 5f3d
000001e0: 335a 353e 7eef f93d 2a5a abbd dc93 923d
000001f0: 0bbb 9abe 0434 7d3c a4f3 4fbe e3d2 34be
00000200: 4b8b c83d 6d53 643d de4b 2c3f e411 423d
00000210: dc8e 7f3d 3875 3dbe 2547 00bd d959 853e
00000220: ec35 d5be c212 b73e 7c55 d9bd 0ba4 e63e
00000230: 64c8 033e 7012 6e3d d1a7 143f b66e 20be
00000240: 753f c8be a3ed 923d 7a1b f0bd dddf 163f
00000250: 06a3 d43e ac6b a53d bbf7 dd3e 1f45 0e3d
00000260: 954e 463e f98b fd3e a62a 49be 35a1 b63d
00000270: dab6 e4bd e3ab 03be d91e febe c9a9 a63e
00000280: fc98 86bd 4055 8fbd af5f 1e3e 56f5 833e
00000290: 4f8d 82be 5698 dd3d 246e eb3e 1d8b f53e
000002a0: 17ce c43d dcf6 dc3d f0af 11be 7875 943e
000002b0: 8c7a 403e 02e6 63be 73ef 73bd 5042 053e
000002c0: 91ff a6be 20cd df3d c175 78bd 9c16 e23d
000002d0: 875b 023d 7333 3d3e ab8f 483e d37a 483e
000002e0: 6050 643e 44a4 58be 3165 bc3d 52e6 0dbe
000002f0: 89fd e1be b5a8 a53e 5470 e8be ac3b 313e
00000300: 816d bd3e e1d4 49be 25f3 de3c 0df1 babe
00000310: bd40 99bd 14b7 88be b4de 873e f44c 9a3d
00000320: eebc 19bf f6fb b13e 9c98 363a 26f5 4f3e
00000330: baef 7bbe 092c f8be d10e 31be fcc5 81be
00000340: a840 b5be 847a 8c3e d571 acbe 9166 353e
00000350: 8247 f43e 1256 09be e8c5 6d3d 0e70 3fbe
00000360: d51a 85be d67b 353e ea3e 843d bfbd 443e
00000370: e62c b9be 1b87 9e3d 432d e6bd 05bd bc3d
00000380: fba2 ad3e f83b 1a3d 2558 80be f3df 3c3e
00000390: b7db 92be 1a54 1abf 9d34 16be d297 e63c
000003a0: f986 45be 490a b33e 68a0 52be 0137 62be
000003b0: f9da df3e 36bf 723e 8870 aebe 0ee2 3fbd
000003c0: 8bea 10be 6c23 f93e 1bde 35be 596b 9e3e
000003d0: 08a0 6b3c c231 31be c4f5 74be 438d 00be
000003e0: 3b70 be3d 2c0f 92be 4993 083e 4c23 133e
000003f0: ac7c 8a3e 2e1d 2cbe e37d 8dbe d342 9a3e
0.17934321 0.79100686 0.381163 -0.31424657 -0.08786242 -0.090459645 -0.26922444 -0.26882476
-0.05589199 0.16312285 -0.14573598 0.25098363 -0.09141614 0.0006983482 0.5237632 -0.22787559
0.20786561 -0.26902285 -0.5353307 0.29838786 0.14887224 0.09572792 0.14429043 0.015760437
-0.09449116 0.15828472 0.027393302 0.3783849 0.08193483 -0.26975563 0.5634114 0.025506333
-0.109279655 0.124989234 -0.124881424 0.06001958 0.6665071 0.08152538 0.41497588 0.12469876
0.10151823 0.61498576 0.47981107 0.4061901 -0.45782232 -0.31512198 -0.44521004 -0.07950892
-0.101827316 -0.27572924 0.6434987 0.33699858 0.5271697 -0.16971904 0.8885654 0.07268868
-0.06459356 0.08813021 -0.016699703 -0.11412276 -0.28260902 0.10258858 0.020581821 -0.112459406
0.24014203 -0.120935366 -0.13651711 -0.07666761 -0.15653946 -0.048298202 0.06115098 -0.094062395
-0.67462814 0.3367323 0.08745711 -0.11509338 0.1962091 -0.017942904 0.05358566 0.35405093
0.045478214 -0.46013618 0.16222592 0.63048357 0.08702607 0.12014637 0.2054552 0.40282574
0.75828636 -0.09706744 -0.083099805 0.27810723 -0.2125032 -0.03279026 -0.17244738 0.29458687
-0.04628332 0.027533807 0.41340718 -0.017739445 0.04488941 0.17655315 0.5636451 -0.31496167
0.06623134 -0.25222892 -0.008489126 0.58505297 0.24542658 -0.08950679 -0.10813662 -0.3129119
-0.52914923 0.3776574 -0.011273264 0.5104296 -0.04161473 -0.07217661 -0.12790734 0.0545596
0.1771019 0.12203883 -0.08366807 0.07157108 -0.30220827 0.015454296 -0.20307785 -0.17658572
0.09792193 0.055743624 0.67303264 0.047380343 0.0623921 -0.18501747 -0.03131785 0.2604511
-0.41642702 0.357565 -0.10612008 0.4504703 0.12869412 0.058123052 0.5806857 -0.15667233
-0.39110914 0.07174232 -0.11723991 0.5893534 0.41530627 0.080771774 0.43353066 0.034733888
0.19365914 0.49520853 -0.19645175 0.089174666 -0.11167689 -0.12858538 -0.4963291 0.3255141
-0.06572148 -0.06998682 0.15466188 0.25773114 -0.25498435 0.108200714 0.45982468 0.47957698
0.09609621 0.10789272 -0.14227271 0.28995872 0.18796748 -0.2225571 -0.05955453 0.13013577
-0.32616857 0.10927796 -0.060659174 0.11039469 0.03182557 0.18476658 0.19586055 0.19578104
0.22296286 -0.21156412 0.09198988 -0.13857391 -0.44138744 0.32355276 -0.453982 0.1730792
0.36997607 -0.19710113 0.02721555 -0.36512032 -0.07483051 -0.26702178 0.26537097 0.07534209
-0.6005391 0.34762543 0.00069654896 0.2030836 -0.24603167 -0.48471096 -0.17290808 -0.25346363
-0.3540089 0.27437222 -0.33680597 0.17714907 0.47710806 -0.1341174 0.058050066 -0.18695089
-0.25997034 0.17723021 0.064573124 0.19213007 -0.36167067 0.07740613 -0.11239102 0.0921574
0.33913407 0.037654847 -0.2506725 0.18444805 -0.28683254 -0.6028458 -0.14668508 0.028148565
-0.19289769 0.34968784 -0.20569003 -0.22091295 0.4372175 0.23705754 -0.3407023 -0.046846442
-0.14151971 0.48659837 -0.17760508 0.30941275 0.014381416 -0.17304137 -0.23921877 -0.12553887
0.0929875 -0.285272 0.13337435 0.14368933 0.27048242 -0.16808006 -0.27635106 0.30129108

lstm.weight_hh_l1 f4 [512, 128]
00000000: 26c6 6bbd f223 ba3e b9b3 6f3d 37c5 d0bc
00000010: e7b6 333d b2eb c63e 7c1f cfbe 34b9 723c
00000020: 2374 f93c 397b 3d3d 0dba 6dbe 7929 e03c
00000030: a349 c0bc a9c5 fcbd 0340 5b3e cac6 f6bd
00000040: db5f 0bbd 8dd4 c8bd d9fd 3d3e 600e 55be
00000050: dcfd be3e 1caf 6bbf 671b 58bd 2f80 40be
00000060: 8230 573e b5e4 98bd 7ddc 5dbe 2775 f53d
00000070: d985 44bd 4f85 8d3d 4abe 49bd 2a85 91be
00000080: 7c1b 193e b16c 41be 9619 453e 4350 303d
00000090: 1872 0e3e 85a4 85bc 1ea9 153e 397e 893f
000000a0: aee2 b73c a447 1f3e 95dd acbd adbe 1f3d
000000b0: d152 2d3e 28cd 8f3e aa16 d9bd 9e6b 39be
000000c0: 73f3 0abe 8772 913d 1f82 b5bd 44e3 09be
000000d0: 4fb3 dabe 3f50 ed3d 0fa9 73be 9cc4 273e
000000e0: af4f cc3d c498 1ebe 1ce4 c63d f1ce f7be
000000f0: 89bf 6b3e 1585 dcbe a8a8 853e 5690 3fbe
00000100: 961f b53e 19f1 b0be 5bd3 15be 8e72 febd
00000110: 51ba 9b3c d27d 89be 7736 7e3e a785 993e
00000120: a998 1b3e a3db 673e c432 19be a57f a03c
00000130: f0d5 72be 7966 41be 3a6c 203d 27a9 853e
00000140: 503d 49be bbb4 ec3d 78e8 20bd 99b9 adbd
00000150: 95ef 55bf b19d c63d 2b1d 933e 243b c2bd
00000160: f166 9b3d 30e9 bd3d 70f9 b1bd 00c1 f0bd
00000170: 80c2 0bbf 359c ddbd f348 61be 3ffc e93e
00000180: 86c1 c93d ae14 c23c 6f16 10bd 3c99 bebe
00000190: f74f 43bc 32da fe3e b7de 713e 8dc7 463a
000001a0: 4aca 453d bf98 923c 33cf 803d df77 2bbe
000001b0: 63b2 6cbe d993 f8bb 6243 2fbe 3915 97bd
000001c0: b50e c13d 80d6 9a3d 3e5c ca3d e01a 863c
000001d0: c47d 05be 6a21 cb3c 16ee 65be fc2d bebe
000001e0: 5bcd ccbe 6717 0a3e 66cf e1be cc8f e4be
000001f0: b443 9ebc 2458 e8bd 14be 203e 2fed b4bd
00000200: 444b 053f 51f5 8e3e 01b0 2e3d c888 ee3e
00000210: ff16 08be 030e 51be ad27 953d df6e a6bd
00000220: dcd6 043e c3ca 1e3e 46a5 ccbb bfbf 67be
00000230: 1e82 77be e132 263e 2a61 0abe 7c1b 993e
00000240: cad4 a1bd 8ec3 243f 6aea 923d 2f0a 80be
00000250: 26e4 a1bc 60c0 4bbe 8ac8 b9bd a45d 3cbf
00000260: d35b 4c3e c2b0 dd3e c665 bebd 8562 303e
00000270: 37f1 d53e 18af 23be a791 13bd d398 81be
00000280: b9a7 c33e 94f0 7f3e 91ac d83e 64cc 4dbf
00000290: 2fc3 1e3e 67c3 e3be 16cf c33e 44ec af3e
000002a0: e571 98bd 4860 ffbd f125 28bc fa6f a8bc
000002b0: 0db5 5abe 310d e53d 2f6b 24bd 2928 003e
000002c0: 9b18 5e3e b723 513d ade5 0c3d d416 293c
000002d0: fe80 21bf dffe 613d a353 813e d1f3 01bd
000002e0: 3a00 78be 66dd 8f3d 775c 20bd ce93 153e
000002f0: 1233 0abe a346 f5be 6fe9 183e 5177 bbbe
00000300: f655 243f 60f0 613d ce1b 0bbe d1de 903e
00000310: 5647 b7bd b74c 513d 2813 edbe 977b 4a3e
00000320: 13dd b6be 29d2 f13d 07b3 00bc 595b 93be
00000330: 2bd0 0fbf 6993 2fbe 267c 16be 3631 ac3e
00000340: f703 c8bd 85ea 9bbe 0fc5 b33e 0160 afbe
00000350: d349 9b3e be75 13bf f524 10bf 7fac 22be
00000360: 52c9 083f bd68 1cbf 9079 e13e 4fb5 29bf
00000370: 3901 b1be 8fa3 ce3d 7ade 853e f72d 1e3e
00000380: 7839 903e 6a23 643d d46e 893d e306 85be
00000390: 958e a6bd 7ae1 0fbf 085d 3cbe e0be dcbe
000003a0: 4877 99be ed73 ff3d 48f9 18be e214 93be
000003b0: 09d6 9a3d 577c 57be f9fb 723d 2990 6d3e
000003c0: 3702 e2be 25b5 ec3e c73c febd a1ea 833e
000003d0: 7322 1e3f 97a8 de39 0d6d 553e 5055 74be
000003e0: d669 07bd e70e 3c3e 76e2 cebb 673b 983e
000003f0: 295c 873c 20ca cfbe 3c58 20be 9b33 823e
-0.057562016 0.3635555 0.058521006 -0.025484664 0.0438756 0.38851696 -0.40453708 0.014814664
0.030450886 0.046260092 -0.23215504 0.027363526 -0.023472613 -0.12342388 0.21411137 -0.12049635
-0.03402696 -0.09806166 0.18553866 -0.20806265 0.37303054 -0.9206407 -0.052760508 -0.18798898
0.21014598 -0.074654974 -0.21666141 0.11985236 -0.04797921 0.06910192 -0.04925374 -0.2842191
0.1495189 -0.18889119 0.19248042 0.043045294 0.13910711 -0.0163138 0.14615294 1.0741645
0.022446956 0.15554672 -0.08440701 0.039000202 0.16926123 0.2808621 -0.10600026 -0.18107459
-0.13569431 0.071019225 -0.08862709 -0.13465601 -0.42714927 0.11587571 -0.2379496 0.16383594
0.09976136 -0.15487963 0.09711477 -0.4840007 0.23022284 -0.43070284 0.26105237 -0.18707404
0.3537566 -0.34558943 -0.14631407 -0.12424193 0.019009741 -0.26853806 0.24825464 0.2998478
0.15194954 0.22642379 -0.14960772 0.019592116 -0.23714423 -0.18886746 0.039165713 0.26105615
-0.19652295 0.11557909 -0.0392842 -0.084826656 -0.835687 0.09698046 0.2873319 -0.094839364
0.07587994 0.092729926 -0.086901546 -0.11755562 -0.5459366 -0.1082081 -0.22000484 0.4570026
0.09851365 0.023691501 -0.035177644 -0.37226284 -0.011920921 0.49775845 0.23620115 0.0007582836
0.04828862 0.0178951 0.0628952 -0.16744946 -0.23114924 -0.007585984 -0.17115548 -0.07377095
0.09426633 0.07560444 0.09880875 0.016370237 -0.13036257 0.024796207 -0.22454104 -0.37144458
-0.40000424 0.1348549 -0.44103545 -0.44640958 -0.019319393 -0.113449365 0.15697509 -0.08834302
0.5206797 0.27921537 0.04264832 0.4658873 -0.13290022 -0.20415501 0.07282958 -0.08126616
0.12972587 0.15507035 -0.006245288 -0.22631739 -0.2417073 0.16230346 -0.13513628 0.2990378
-0.079019144 0.6436089 0.07173617 -0.2500777 -0.01976211 -0.19897604 -0.09071453 -0.73580384
0.19956903 0.43298918 -0.092967555 0.17225082 0.41785595 -0.15984762 -0.036027577 -0.25311908
0.382139 0.24994117 0.42319158 -0.8039 0.15504144 -0.44485018 0.38243932 0.34359944
-0.07443599 -0.12469536 -0.010262952 -0.020561207 -0.21358128 0.11184157 -0.04014128 0.1251532
0.21689074 0.05105945 0.034398723 0.010320384 -0.6308745 0.055174705 0.25259122 -0.031726662
-0.24218836 0.0702465 -0.03915068 0.14607164 -0.13496044 -0.47905454 0.14932798 -0.3661447
0.64193666 0.05516088 -0.13584825 0.28294995 -0.08949153 0.05109855 -0.46303678 0.19773708
-0.3571554 0.11807663 -0.007855183 -0.2878063 -0.56177014 -0.17146076 -0.14695796 0.33631295
-0.09766381 -0.30452362 0.3511128 -0.34252933 0.3032976 -0.57601535 -0.5630639 -0.15886115
0.5343219 -0.6109732 0.44038057 -0.6629228 -0.34571245 0.1008979 0.261463 0.15447222
0.28168845 0.055697836 0.06710592 -0.25981817 -0.08132664 -0.56203425 -0.18394864 -0.43114376
-0.29973817 0.12473283 -0.14938843 -0.2872687 0.07560355 -0.21043526 0.05932233 0.23199524
-0.44142315 0.46231952 -0.12413936 0.25764945 0.61771315 0.0004246875 0.20842381 -0.23860669
-0.033059917 0.1836506 -0.0063136173 0.2973282 0.016523438 -0.40583897 -0.15658659 0.25429997

lstm.bias_ih_l1 f4 [512]
00000000: c911 a6be a043 aabd 98b6 30be 85bb eabe
00000010: fc7b 26be ea81 b9be 03ce 04bf afe8 373d
00000020: 6415 dbbe 360e 903e c71c a8be 7f6b 1bbf
00000030: 2d39 83be 3fce 00bd e85b 913c 8393 aebd
00000040: 7411 42bf 951d 1fbe a9bf d5be f447 3cbe
00000050: 4973 19be d654 b53d 68a0 05bf 1c8c 003e
00000060: 6541 57bd 5443 a7be b3e9 d5be 4012 e2be
00000070: 2f1c 0dbf 9114 96be 5ddf 293e bda2 f8bd
00000080: 4b55 303e cb38 2dbe 0c53 4ebe 66e5 bfbd
00000090: c20f f93c 560f a63d ddc7 ecbe 2fbf 6cbe
000000a0: c953 a8be 98e4 48be dbcd e2be 7f6a e9be
000000b0: 2902 f6be 4cd5 bbbe 1dec d0bd 5fab 1abe
000000c0: 12db 76bc f65c 2dbf ff35 0ebe 5815 a7be
000000d0: 5b7d 953e e622 0d3c c39c 35bd fd16 c4bd
000000e0: f9b5 f1bd b8c6 b2be f559 67be 1551 0abd
000000f0: ef86 f0be 5358 50be df28 e4be 7446 4ebf
00000100: 0e49 163e c435 66be 5630 933c bc1e bcbe
00000110: 9fb0 45be 92bf 9bbd 5245 9c3d 5703 9b3d
00000120: 1042 573e 7f6a 03bf b107 c0be ff73 0bbf
00000130: fb69 c2be 8c73 9fbe 798a e6be 0304 99be
00000140: 61f6 66be 731e 0e3e 5255 13be 987e d1be
00000150: f203 40bd 28e4 dfbd abc7 01bf eba3 5aba
00000160: 9b04 05be 2a90 bfbe 369a 14be 8749 72be
00000170: 9998 5dbe 3c41 7ebe 64da a5bd 7d14 2abd
00000180: 837b bcbe 2d5e 12bf 9366 8fbe a934 acbc
00000190: 80c0 0cbf 82c0 f5be 174b c0be 450e ec3d
000001a0: 7ecf 12bf 4be8 2dbf 7c40 adbe dff4 84be
000001b0: d154 bdbe dd31 12bf d701 0bbe f5ac 07be
000001c0: 48fe c4bd f0be 74be 611c 35be 1b2e 7fbe
000001d0: 9835 b9be 638d c8be 27ce 27bf 541d 12bf
000001e0: e095 e63d 2db7 7bbd 3c2e d33d d5fc d1be
000001f0: 88a7 e1be 12e1 b8be fed6 c8be 86c1 ae3e
00000200: a876 3bbc 556a 40be d391 cfbe 3c83 36bf
00000210: d434 0cbe 2414 ddbe 1d94 e5be 8578 183e
00000220: 6f3e 9bbe 38ea 1dbe 1a2b 8fbe b296 09bf
00000230: 7127 3cbe 6e39 45be a58d 2e3e a94d 833e
00000240: 58e8 3cbf 9087 80be db51 d4be 4450 4ebe
00000250: cc39 bfbd 9a98 ecbd 2e6e debe 14e7 49be
00000260: 0175 01bd b301 92be 2f32 1bbe 1d96 fabd
00000270: 1407 c0be 7d3d f4bd bc80 1d3e 6d3c 9e3d
00000280: 2720 9d3b 8f21 6ebe 0dec 2fbf 2113 11bf
00000290: bd79 8f3e 7db0 e7bd 3921 23bf 6438 83be
000002a0: 77e7 09bf c8fd cebc 92a3 a1be 7dda 39be
000002b0: ac8e 47be cec0 1fbf 8823 103e 511a 31be
000002c0: 3296 7bbe 9329 0bbf 111e a23d 9593 68be
000002d0: 5796 183d 862f cbbe 4a67 94be b122 52be
000002e0: 79eb 4c3c f9e2 2dbe 8665 36be eebd 853d
000002f0: fa5b bebe cc9b 36be 9ea3 6cbe 687d f3be
00000300: 8752 263c db8b 97bd 1f4a 803e 31df e4bd
00000310: ba44 ca3d 79ec db3d a4a4 d83d 93cd 7ebe
00000320: b008 b23e 2259 08bf 1ee2 93be bbd1 27bf
00000330: 50e2 c1be 4318 69be 30db 25bf cfe6 47be
00000340: cd82 efbd f760 66be 4b3f 6abe 36d4 cebd
00000350: 84ae f03d 429e 93be 7704 e4be 445c 7dbe
00000360: 56f4 5dbe 9d3d a0be 7400 b13c 18ae d6bd
00000370: 2f6c 40be 4dd0 7fbe 86dc 05be ee5e 653e
00000380: c935 70be 305b 02bf 2f6e dfbe 63a0 f5bd
00000390: 1133 79be 9a7d e4bd 990c d3be 56f4 5fbd
000003a0: df31 dabe 7721 fcbe 537e 92be 1e82 49bd
000003b0: f011 c0be 4c78 6cbe e073 0fbe 315b 5ebe
000003c0: 43be cbbd f626 1bbe 4e8e 073e 839a 6cbe
000003d0: 5ad6 0fbe 2247 9cbe 5bc8 0ebf 2e48 06bf
000003e0: a451 f0bc bab6 8abd fb67 803e d7d1 34be
000003f0: 8bfc a5bd 05f1 963e f624 81be 9d66 0abe
-0.32435444 -0.0831368 -0.17257154 -0.4584619 -0.16258234 -0.3623193 -0.5187685 0.04489964
-0.42789757 0.28135842 -0.32834455 -0.607109 -0.2562956 -0.03144669 0.01774402 -0.085242294
-0.7580788 -0.15538628 -0.41747788 -0.18386823 -0.14985384 0.08854072 -0.52197886 0.12553447
-0.0525526 -0.32668555 -0.4177986 -0.4415455 -0.5512113 -0.29312566 0.16589113 -0.12140415
0.17220037 -0.16916196 -0.20148867 -0.09369926 0.030403022 0.08108394 -0.46246234 -0.23119806
-0.32876423 -0.19618452 -0.4429768 -0.45589063 -0.48048523 -0.3668617 -0.10201285 -0.15104435
-0.015066879 -0.6771997 -0.13887785 -0.3263347 0.291972 0.0086142775 -0.044338953 -0.09574697
-0.11802287 -0.34917235 -0.2259291 -0.033768732 -0.46977946 -0.20346193 -0.44562432 -0.8057625
0.14676306 -0.22481447 0.017967384 -0.36742198 -0.19305657 -0.076048985 0.07630409 0.075689964
0.21021295 -0.51334375 -0.37505868 -0.5447387 -0.37971482 -0.31142843 -0.4502752 -0.29885873
-0.22554924 0.13878803 -0.14388016 -0.40916896 -0.046878763 -0.10932189 -0.50695294 -0.0008340466
-0.12990038 -0.37414676 -0.14511952 -0.23660861 -0.21640243 -0.24829572 -0.08098295 -0.041523445
-0.36812982 -0.5717495 -0.28007945 -0.021021204 -0.5498123 -0.47998434 -0.3755729 0.11526159
-0.5734786 -0.67932576 -0.3383826 -0.25968072 -0.36978772 -0.57107335 -0.1357492 -0.13249572
-0.09618813 -0.23900962 -0.17686607 -0.24919932 -0.361737 -0.3917037 -0.6554894 -0.57076
0.11259055 -0.061453987 0.10311553 -0.41013208 -0.4407313 -0.36109215 -0.39226526 0.34132022
-0.011441864 -0.18790562 -0.40540943 -0.71294 -0.13692027 -0.4317943 -0.44839564 0.14889725
-0.3032107 -0.15421379 -0.2796257 -0.5374557 -0.1837442 -0.19260189 0.1704622 0.25645187
-0.7379203 -0.25103426 -0.414687 -0.20147806 -0.09337196 -0.11552544 -0.43443435 -0.19717056
-0.031605724 -0.2851692 -0.15155862 -0.12235663 -0.375054 -0.119257905 0.1538114 0.07726369
0.0047950926 -0.23254989 -0.6871956 -0.56669813 0.28022566 -0.11312959 -0.6372257 -0.2562896
-0.5386881 -0.025267497 -0.31570107 -0.18149753 -0.19488019 -0.6240357 0.14076054 -0.17295195
-0.24569014 -0.5436031 0.07915891 -0.22712548 0.03725275 -0.39684695 -0.28985053 -0.20521046
0.012507313 -0.16981114 -0.17812166 0.06530367 -0.37179548 -0.1783287 -0.2310929 -0.47556615
0.010151512 -0.07399722 0.2505655 -0.11175383 0.0987639 0.10738463 0.10578278 -0.24883108
0.34772253 -0.53261006 -0.2888345 -0.655544 -0.37867975 -0.22763161 -0.6478758 -0.1952164
-0.1169487 -0.22497927 -0.22875707 -0.1009907 0.11752036 -0.2883168 -0.44534656 -0.24742228
-0.21675238 -0.31297007 0.021606661 -0.104824245 -0.18791269 -0.24981804 -0.13072404 0.22399494
-0.23458017 -0.5092039 -0.4363875 -0.11993482 -0.24335887 -0.11156769 -0.4122055 -0.054676376
-0.42616174 -0.49244282 -0.28612003 -0.049196355 -0.37513685 -0.23092765 -0.14009047 -0.21714474
-0.09948399 -0.15151581 0.13237879 -0.23105817 -0.14046612 -0.3052302 -0.5577447 -0.5245389
-0.029335804 -0.067731336 0.2507933 -0.17658173 -0.081048094 0.29480758 -0.2522351 -0.13515706

lstm.bias_hh_l1 f4 [512]
00000000: 3612 36be f5f0 2abe 7e7e 5abe 96a6 09bf
00000010: 0307 7fbe 948f dbbe 375a d5be 6cb8 e03d
00000020: 561f e9be 3b2c 943e 25e8 93be afd5 0ebf
00000030: d172 35be d554 ba3c 08f6 4c3d ff49 08be
00000040: 3d4c 46bf ac2f 53be 5871 d8be ba11 90bd
00000050: a88f 06be 0907 5b3e 84ee 1abf a5e5 843e
00000060: ebc7 8f3c 81d6 c0be 3e19 cbbe 6080 15bf
00000070: 970c 10bf be99 96be 0548 513e fe3e 46be
00000080: 438c 1d3e 014c acbe 3ae2 62be 50e4 c9bd
00000090: b08d b73c 085d 36bd eae0 f4be 6cad 91be
000000a0: 0ddd b6be d3f8 00be 737e edbe d760 c3be
000000b0: 5904 f2be 2349 babe c8c9 ecbd c0b5 8ebe
000000c0: aabe fbbd 7de8 25bf be27 95bd 3b78 c4be
000000d0: 52f8 913e 0206 cebd 0b1f fbbc 42c0 cebd
000000e0: 5c68 42bd 8c57 c7be 1e89 97be 0826 00be
000000f0: a0f4 12bf bbd2 27be a70c cdbe da21 26bf
00000100: 5a78 153e e93f 5cbe a28f 09be bc36 e0be
00000110: b4a0 59be 6ed0 87bc b22e 8c3d 67c7 503e
00000120: 27a9 b93e 37a4 18bf 86a8 e2be cae8 07bf
00000130: 4d85 73be cfe7 86be 038d e5be 8359 98be
00000140: efe9 58be 89a7 b93d 612d 85be f91a a3be
00000150: 7c7e 55bd 9ab3 30be a348 13bf 6b08 24be
00000160: d3fc 37be 7b62 d8be fe61 26be 4163 63be
00000170: 68c7 22be d477 85be 3fc1 febd f5d5 3b3d
00000180: 63ed 00bf 363b f7be 7708 8bbe d97f 503d
00000190: 5365 1cbf 16dd c6be 8b9c cbbe 4993 5d3e
000001a0: 3968 01bf 2451 1ebf 9c4b 87be 2145 4dbe
000001b0: 052d bdbe e6de 05bf 3705 42be 9ba2 3ebe
000001c0: 64c2 22bd 58b5 b7bd e659 82be 32b6 68be
000001d0: 88cf e7be d417 c5be e411 29bf 6317 01bf
000001e0: 63f5 2f3e 8bf3 c7bd 2a6e 3e3d 8cd2 90be
000001f0: f8d6 f6be 1ed4 c2be 561c 94be 1321 ed3e
00000200: 45f1 563d c1ee 9dbe 6c44 f1be 8c51 31bf
00000210: 03a2 44be 9451 f6be b796 f0be 650f 1d3e
00000220: 1c17 cdbe 3685 83bd 3816 c0be 7a78 dfbe
00000230: f887 20be 50fa 4cbe 722c 7d3d 1a55 773e
00000240: 642a 3ebf ac63 83be 303c babe d172 86be
00000250: aca9 80bd 97f3 19be 4cc1 8dbe 16e5 85be
00000260: d849 97bd 43ba 92be fb75 91be 900d f1bd
00000270: 1d90 9fbe 8617 35bc 65e1 643e 1c2d dc3d
00000280: a3b7 1cbe 5b74 65be 075a 2dbf beab 17bf
00000290: c36b 433e e840 4bbe 838a 36bf ef27 8dbe
000002a0: 7c66 0fbf 2474 163c d0b4 42be d3e7 8cbe
000002b0: 4ded 95be 1525 16bf 34c3 ec3d 3051 c5bd
000002c0: 5445 2abe d069 0abf 4814 2c3d f661 e6bd
000002d0: 4c44 a13d da68 f6be 4c2b b8be d2e8 5bbe
000002e0: 84f2 db3c e075 75be e620 31be 7a3a 023e
000002f0: f5d5 f0be c39c f8bc b2e4 c7be f095 eebe
00000300: cd31 b1bd 8469 46bd e1cd 883e 008c 5ebe
00000310: 5357 493c 3c32 263e c5f6 de3d 4aaa 60be
00000320: f858 ac3e f654 e8be b897 38be a0e4 17bf
00000330: 5ebd 9abe 3f6d 28be 7cc5 03bf 5709 62be
00000340: 8704 a13c b028 5dbe fc28 b4bd 4626 03bd
00000350: d9c9 ff3d d7c3 64be c5b4 b6be 24d6 7cbe
00000360: 8716 50be e8e7 eabe f486 d93d 40b0 2dbd
00000370: 04bb fabd 3eda 9ebe b1cc 60be bfee 353e
00000380: 6f6d 93be e263 ddbe 79cc c6be 4d45 05be
00000390: dbca 38be e772 2dbe f17e adbe 56e3 15bd
000003a0: b239 d8be 12e0 fabe 2e4c 3ebe d73e 0cbe
000003b0: 9832 c4be 5ed1 71be 9687 72bd 7a33 80be
000003c0: 042e 1bbe 520c cfbd f850 143d a743 31be
000003d0: 684d 8bbe 41e1 b2be ef7c e8be 5799 cebe
000003e0: 15ac ebbc 2d71 d7bd e11d 393e 404f 1fbe
000003f0: 7044 f5bd 0fcb 0b3e 27f7 09be 08ff acbd
-0.17780384 -0.1669348 -0.21337315 -0.53769815 -0.24905019 -0.4288298 -0.4167039 0.10972676
-0.4553172 0.28939995 -0.2888805 -0.55794805 -0.1771958 0.02274553 0.05003932 -0.13309477
-0.7746008 -0.20623654 -0.42273974 -0.07034631 -0.13140738 0.21389402 -0.60520196 0.25956455
0.017551383 -0.37663653 -0.39667696 -0.5839901 -0.5626921 -0.2941417 0.2043763 -0.19359967
0.15385537 -0.33651736 -0.22156611 -0.09858 0.022406429 -0.044522315 -0.47827846 -0.28452623
-0.35715523 -0.12594919 -0.46385536 -0.3815982 -0.47268942 -0.36383924 -0.11561924 -0.2787304
-0.12292226 -0.64807874 -0.07282971 -0.3837298 0.28509766 -0.1005974 -0.03065445 -0.10095264
-0.047462806 -0.3893398 -0.295968 -0.12514508 -0.5740452 -0.16388981 -0.40048715 -0.64895403
0.14596692 -0.21508755 -0.13433698 -0.4379176 -0.2125271 -0.01657888 0.06844844 0.20388566
0.36261865 -0.5962557 -0.44269198 -0.5308958 -0.23781319 -0.2634873 -0.44834146 -0.29755792
-0.21182989 0.09065158 -0.26011184 -0.31856516 -0.052122578 -0.17256013 -0.5753271 -0.16018836
-0.17967539 -0.42262635 -0.16248319 -0.22205831 -0.1589638 -0.26067984 -0.124392025 0.045858342
-0.50362223 -0.48287362 -0.27154896 0.050903175 -0.6109211 -0.3884055 -0.3976787 0.21638216
-0.50549656 -0.6184256 -0.26424873 -0.20045902 -0.3694841 -0.5229324 -0.18947302 -0.18616717
-0.039736167 -0.089701355 -0.25459212 -0.22725752 -0.4527552 -0.38494742 -0.66042924 -0.5042631
0.17183451 -0.09763249 0.04649178 -0.28285635 -0.48210883 -0.38052458 -0.2892787 0.46314296
0.052476186 -0.30846217 -0.47122514 -0.69265056 -0.19202428 -0.48109114 -0.46989986 0.15337904
-0.40056694 -0.06421892 -0.37516952 -0.43646604 -0.15676868 -0.20017362 0.061809964 0.24153557
-0.7428343 -0.2566198 -0.36374044 -0.26259473 -0.06282362 -0.15034328 -0.27686536 -0.2615134
-0.073871315 -0.2865773 -0.28410324 -0.11770165 -0.31164637 -0.011052972 0.22351606 0.107507914
-0.15304427 -0.22407667 -0.67715496 -0.5924643 0.19084077 -0.19848979 -0.713051 -0.2756953
-0.56015754 0.0091829635 -0.19014287 -0.27520618 -0.2928261 -0.5865033 0.115606695 -0.09634626
-0.16628009 -0.5406771 0.04201153 -0.11249153 0.07874355 -0.4812687 -0.35970533 -0.21475533
0.026849039 -0.23970747 -0.17297706 0.1271762 -0.47038236 -0.030348187 -0.39041668 -0.46598768
-0.08652077 -0.04844047 0.26719573 -0.21733093 0.012288886 0.162301 0.10886911 -0.2193996
0.33661628 -0.4537732 -0.18026626 -0.5933323 -0.302226 -0.16447924 -0.5147321 -0.22073875
0.01965548 -0.21597552 -0.0879688 -0.032018922 0.12489671 -0.22340332 -0.3568479 -0.24691063
-0.20321093 -0.45880055 0.106214434 -0.042404413 -0.12242702 -0.3102588 -0.21953084 0.17766856
-0.2879443 -0.43240267 -0.38827875 -0.13014717 -0.18046133 -0.16938363 -0.3388591 -0.036593758
-0.42231518 -0.48999077 -0.18583748 -0.13695846 -0.3831985 -0.23615023 -0.059211336 -0.25039274
-0.15154272 -0.10109772 0.03621003 -0.17310964 -0.27207494 -0.3493748 -0.45407817 -0.40351364
-0.028768579 -0.105196334 0.18077804 -0.15557575 -0.11975944 0.1365168 -0.13473187 -0.08447081
