LSTM/Data_2/LSTM1/model.pth (torch, 275939 bytes, 6 tensors)

lstm.weight_ih_l0 f4 [512, 3]
0	0xbf7cc56a	-0.9873873
1	0x3deae0cc	0.11468658
2	0xbed2a39f	-0.41140458
3	0x3ce0686e	0.027393546
4	0x3c85e116	0.01634268
5	0xbf1fb7be	-0.62389743
6	0xbbddc151	-0.00676743
7	0xbea0cc61	-0.3140593
8	0xbf17d095	-0.59302646
9	0x3ea8518f	0.32874724
10	0xbefeebeb	-0.49789366
11	0xbe6f3735	-0.23360904
12	0xbc6dbf52	-0.014510946
13	0xbe4a7d26	-0.19774303
14	0xbd76a9df	-0.060220595
15	0xbdb5309f	-0.08847164
16	0xbe1967de	-0.14981028
17	0x3e59ec48	0.2128154
18	0xbef7249c	-0.48270118
19	0xbee83519	-0.4535301
20	0xbf3b76bd	-0.73228055
21	0xba544eee	-0.00080989196
22	0x3a68a665	0.00088748924
23	0xbe96c086	-0.2944376
24	0x3e90a7e1	0.2825308
25	0xbe8117b7	-0.25213405
26	0xbf73fc6d	-0.95307046
27	0xbef005b1	-0.46879342
28	0x3cb8c0c2	0.022552852
29	0x3e0f15b8	0.13973129
30	0xbf3f2f81	-0.7468186
31	0xbe0007cc	-0.12502974
32	0xbe990918	-0.2988975
33	0xbee79f96	-0.45238942
34	0xbec536d2	-0.38518387
35	0xbef7ded9	-0.48412207
36	0xbef96275	-0.4870793
37	0xbe535bec	-0.20640534
38	0xbf20df82	-0.62841046
39	0x3e2aa02e	0.16662666
40	0xbf0f15b6	-0.55892503
41	0xbf339b2e	-0.7015866
42	0xbefd073c	-0.49419582
43	0xbe414e15	-0.18877442
44	0xbf1616e7	-0.58628696
45	0xbec31be9	-0.3810723
46	0xbf1926a5	-0.5982459
47	0xbed67f60	-0.41894054
48	0xc000a6ca	-2.01018
49	0xbe74d740	-0.23910236
50	0xbef89ae8	-0.48555684
51	0x3d9322aa	0.07184346
52	0xbeb5bea9	-0.35497025
53	0xbf759795	-0.9593442
54	0xbd046d43	-0.032330763
55	0x3e6714e5	0.22566564
56	0x3de31862	0.11088635
57	0xbe4d8ac1	-0.20072462
58	0xbeaa88c9	-0.33307484
59	0xbf14b3de	-0.58086956
60	0xbf6fc504	-0.93659997
61	0xbd594c23	-0.053051125
62	0xbe3511a8	-0.17682517
63	0xbf73280e	-0.94982994
64	0xbe6f4b27	-0.23368512
65	0xbf1ac4f7	-0.60456795
66	0x3d8320c3	0.06402733
67	0xbdac6d1e	-0.0841925
68	0xbe076ecf	-0.13225864
69	0xbd0e0570	-0.034673154
70	0x3d6200f3	0.055176686
71	0x3d1b52ed	0.03792088
72	0x3e9385cb	0.28813013
73	0xbd8a5397	-0.06754225
74	0xbef11d77	-0.47092792
75	0xbf43734a	-0.7634779
76	0x3dded632	0.10880698
77	0xbdf0de80	-0.117611885
78	0xbf268f7f	-0.6506271
79	0x3a818f64	0.0009884653
80	0x3ea4d637	0.32194683
81	0x3da28ade	0.07936643
82	0xbef0f880	-0.4706459
83	0xbe73ab34	-0.23795778
84	0x3ea2441e	0.31692594
85	0xbedabe2f	-0.42723224
86	0xbe3eda5a	-0.18637982
87	0xbeccd4eb	-0.40006194
88	0xbecfa74d	-0.40557328
89	0xbe22d9a9	-0.15903343
90	0xbedff2c8	-0.43739915
91	0x3c883202	0.016625408
92	0x3e7a5524	0.24446541
93	0x3d89a958	0.06721753
94	0xbe989436	-0.29800576
95	0xbf09a542	-0.5376779
96	0x3d75a71c	0.05997382
97	0x3ea3c021	0.3198252
98	0xbe15a4cc	-0.14613646
99	0xbe8da1de	-0.27662557
100	0x3d7fc9b2	0.06244821
101	0x3dadd787	0.08488374
102	0xbf4682ac	-0.7754314
103	0xbed90912	-0.42389733
104	0xbeeb2dd4	-0.45933402
105	0xbe38513e	-0.17999741
106	0xbe72149f	-0.23640679
107	0xbef8e0a9	-0.48608902
108	0xbe3b3ad6	-0.18284163
109	0xbe10f128	-0.14154494
110	0x3ea0ebe2	0.31429964
111	0xbf1c4a51	-0.610509
112	0xbec51015	-0.38488832
113	0x3c85a9fd	0.016316408
114	0xbdf742b0	-0.120732665
115	0xbf0d61dc	-0.55227447
116	0xbea93e46	-0.33055323
117	0xbef40f1e	-0.47667783
118	0xbed1d42d	-0.4098219
119	0xbe1cfee2	-0.15331605
120	0x3ef28efb	0.4737471
121	0x3d6851b4	0.056718543
122	0x3e086c61	0.13322593
123	0xbedc6236	-0.4304368
124	0xbea1c96d	-0.31598988
125	0x3e70721e	0.23481032
126	0xbf70c4ad	-0.94050103
127	0x3cfb2350	0.030656487
128	0xbea903d7	-0.33010742
129	0xbf0b2af8	-0.5436244
130	0xbe8bc225	-0.27296558
131	0xbf3b6883	-0.7320635
132	0xbf4b6a2e	-0.7945889
133	0xbe2f752a	-0.17134538
134	0xbdfe30d4	-0.12411657
135	0xbd9737c5	-0.07383684
136	0x3c40c64c	0.011766028
137	0x3e866abf	0.26253316
138	0xbecc7198	-0.39930415
139	0xbec49469	-0.38394478
140	0xbe21de81	-0.15807535
141	0xbe8cb09f	-0.274785
142	0xbe34cb25	-0.17655618
143	0x3ef49d50	0.4777627
144	0xbf5d9c41	-0.8656655
145	0xbf250c32	-0.64471734
146	0xbf5a4be9	-0.8527208
147	0xbfc319d5	-1.5242258
148	0xbe006fbb	-0.12542622
149	0x3ddf22fa	0.10895343
150	0x3eaf6837	0.34259197
151	0xbf132fc3	-0.57494754
152	0xbde99c75	-0.11406795
153	0xbcd5b697	-0.026088042
154	0x3e39af8c	0.18133372
155	0x3e245ad2	0.1605027
156	0x3e9a0db5	0.30088583
157	0xbddff1e4	-0.10934809
158	0x3e12650a	0.14296356
159	0xbe822524	-0.2541896
160	0xbe5a6a50	-0.21329618
161	0xbe77514f	-0.2415211
162	0xbdced6da	-0.100995734
163	0xbeb8a8b9	-0.36066225
164	0xbf3a6dea	-0.72823966
165	0x3f187e8b	0.5956809
166	0xbda36c54	-0.07979646
167	0x3e9cc50d	0.30619088
168	0xbe8a787e	-0.27045053
169	0xbece511e	-0.40296263
170	0x3d55b691	0.052176062
171	0xbf291d89	-0.6606069
172	0xbd843791	-0.06455911
173	0x3e1e793d	0.15475936
174	0xbfd8d11c	-1.6938815
175	0xbe95a57b	-0.29227814
176	0xbd38a208	-0.0450764
177	0x3e759723	0.23983435
178	0x3d0db43b	0.03459571
179	0xbe8c0f98	-0.27355647
180	0x3d2ec7e6	0.042671107
181	0xbec9108f	-0.39270446
182	0xbf0ace8a	-0.54221404
183	0xbe5aff0f	-0.2138636
184	0x3dde0f15	0.108427204
185	0x3e4504f2	0.19240168
186	0xbc8d9499	-0.017282771
187	0x3e6b7594	0.22994071
188	0x3eac116d	0.33607045
189	0xbe9106fb	-0.28325638
190	0xbe6d4c77	-0.231737
191	0xbd8dc7fa	-0.06922908
192	0x3e7c1056	0.24615607
193	0xbf37b0ea	-0.71754324
194	0xbc8089e1	-0.015690746
195	0x3ec26e11	0.379746
196	0xbe80bd0d	-0.25144234
197	0xbd4e0f2a	-0.05030743
198	0xbf0fdc4d	-0.5619553
199	0xbe138a9e	-0.14408347
200	0x3e3981a1	0.18115856
201	0xbcbf64af	-0.02336344
202	0xbe97eec4	-0.2967435
203	0xbf0d89af	-0.55288213
204	0x3dade0fb	0.08490177
205	0xbdf6b5ee	-0.12046419
206	0xbed519bc	-0.41621196
207	0x3d3aeafb	0.04563425
208	0xbea1d95e	-0.3161115
209	0xbedeba36	-0.43501443
210	0xbe87eaa7	-0.26546213
211	0xbe44c886	-0.19217119
212	0xbdb0e8ff	-0.086381905
213	0xbfa71d8f	-1.3055896
214	0x3c51e517	0.012810967
215	0xbec0d9b7	-0.37666103
216	0x3dc4b1b9	0.096042104
217	0xbf448d89	-0.76778466
218	0xbf497b8b	-0.78704137
219	0xbef6758b	-0.48136553
220	0xbe029455	-0.12751897
221	0xbf2065bc	-0.62655234
222	0x3d9bace1	0.076013334
223	0xbf93c39d	-1.1544071
224	0xbe861945	-0.26191154
225	0xbf85f280	-1.046463
226	0xbe9b74b5	-0.30362478
227	0xbec89194	-0.39173567
228	0x3cd55972	0.026043627
229	0xbebb9cf2	-0.36643177
230	0xbe92c9c6	-0.28669566
231	0xbebf6123	-0.37378797
232	0xbd832485	-0.0640345
233	0xbedef743	-0.4354802
234	0x3d17b8b2	0.037041374
235	0xbf639b6d	-0.88909036
236	0xbefd31c6	-0.49452037
237	0xbfdd358a	-1.7281964
238	0xbe91f8e7	-0.2851021
239	0xbdaaf7c2	-0.08348037
240	0x3ebc036f	0.3672137
241	0x3ee365f5	0.44413725
242	0x3e1f2689	0.15542044
243	0xbcf7d767	-0.030254079
244	0xbecd1776	-0.40056962
245	0xbf936ac6	-1.151696
246	0xbef0a7b6	-0.47002953
247	0xbee3c9cd	-0.444899
248	0xbea9db51	-0.33175138
249	0xbf2d6f9c	-0.6774843
250	0x3e6d2328	0.23157942
251	0x3e10ae98	0.14129102
252	0x3e66b3cc	0.22529525
253	0x3d800766	0.06251411
254	0x3e054302	0.13013843
255	0x3d12c57c	0.035832867

lstm.weight_hh_l0 f4 [512, 128]
0	0x3e97de00	0.2966156
1	0x3c20efde	0.009822814
2	0x3c46bb0f	0.012129559
3	0x3dda4fb7	0.10659736
4	0x3e1bd470	0.15217757
5	0xbe43001f	-0.19043015
6	0x3dc5870d	0.096448995
7	0x3c9253b3	0.017862177
8	0x3e3c4444	0.18385416
9	0xbd949b27	-0.072561555
10	0xbd5d61e3	-0.05404843
11	0xbd1ac97d	-0.03778981
12	0x3e25a127	0.16174756
13	0x3cde9ab1	0.027173372
14	0xbeb36c03	-0.35043344
15	0x3b949718	0.0045346133
16	0x3e9c09ed	0.30476323
17	0x3e2c4414	0.16822845
18	0x3da95493	0.082680844
19	0x3d5a6b18	0.05332479
20	0x3dc90bc5	0.09816698
21	0x3e937cf3	0.28806266
22	0x3db45443	0.08805134
23	0xbbabb5f8	-0.005240198
24	0x3e34b98c	0.17648906
25	0xbeebb767	-0.46038362
26	0xbe272a66	-0.16324767
27	0xbd8fb216	-0.07016389
28	0xbe1a90e1	-0.1509433
29	0xbc1f2dd4	-0.009715516
30	0x3edc5776	0.43035477
31	0xbe1b443c	-0.15162748
32	0xbe846655	-0.25859323
33	0xbd7a3241	-0.061083082
34	0xbdfc41b2	-0.12317218
35	0xbd9889f4	-0.074481875
36	0xbe172287	-0.14759265
37	0xbdffac74	-0.12484065
38	0x3b984452	0.0046468163
39	0xbda1c657	-0.078991584
40	0xbec59608	-0.38591027
41	0xbe8110f1	-0.25208238
42	0xbea3ad09	-0.31967953
43	0xbe973f2e	-0.2954039
44	0x3e413448	0.188676
45	0xbc466f2a	-0.0121114645
46	0xbd8192b3	-0.06326809
47	0xbe06c555	-0.13161214
48	0xbcc14ad0	-0.023595244
49	0x3e7856a6	0.24251804
50	0xbe1d5190	-0.15363145
51	0x3eb69e28	0.3566754
52	0xbe9c1348	-0.3048346
53	0x3e9e5aec	0.30928743
54	0x3e34d334	0.17658693
55	0xbe2efa83	-0.1708775
56	0x3cddc7bd	0.027072782
57	0xbdc05781	-0.0939169
58	0x3d5225a3	0.051305424
59	0x3ce26a00	0.027638435
60	0x3c22e9bc	0.009943422
61	0x3d561958	0.052270263
62	0xbed7c167	-0.42139742
63	0xbdb1ccbc	-0.08681628
64	0xbc9aba0f	-0.018887548
65	0x3cc521c4	0.024063952
66	0x3d7898cb	0.06069259
67	0xbdb34e87	-0.08755212
68	0xbe0d01a6	-0.1377016
69	0xbda21c55	-0.0791556
70	0x3e055fc2	0.1302481
71	0xbef85663	-0.48503408
72	0x3e6a5ccd	0.22886963
73	0x3da77cca	0.081780985
74	0xbe66b3a4	-0.22529465
75	0xbc41ff35	-0.011840631
76	0x3d86811d	0.06567595
77	0xbdfced59	-0.12349958
78	0xbd4256c7	-0.04744604
79	0x3e499590	0.1968596
80	0x3f02aeda	0.5104805
81	0x3e8b8059	0.2724636
82	0xbd004a2f	-0.031320747
83	0x3eefb05a	0.46814233
84	0x3e43d946	0.19125852
85	0x3da153f1	0.07877339
86	0x3da4fe72	0.08056344
87	0x3cb5a4ee	0.022173371
88	0xbda9519b	-0.08267518
89	0x3ecdc0da	0.40186197
90	0xbd93c027	-0.072143845
91	0x3eb040ce	0.34424442
92	0x3c326e97	0.0108906245
93	0xbe7fa2a9	-0.24964394
94	0xbe112127	-0.14172803
95	0x3e0bebcb	0.13664167
96	0x3ecd33a4	0.4007846
97	0xbe39449b	-0.18092577
98	0x3e147275	0.14496787
99	0x3e126736	0.14297184
100	0x3eda9f48	0.42699647
101	0xbb2ba66e	-0.002619173
102	0x3e3afad5	0.18259747
103	0x3d1ff6ec	0.039053842
104	0x3dd3a44f	0.10334074
105	0xbe2faa23	-0.17154746
106	0xbd764766	-0.060126685
107	0x3d2e9486	0.04262211
108	0xbe92522d	-0.2857832
109	0x3d798ceb	0.060925405
110	0x3e9d5774	0.30730784
111	0x3dc977e8	0.098373234
112	0xbde9ec39	-0.11422009
113	0xbe2f28bd	-0.17105384
114	0xbe57a168	-0.21057665
115	0xbd55bbe5	-0.052181143
116	0xbcc5caa7	-0.024144484
117	0xbec09035	-0.3761002
118	0xbe32b060	-0.17450094
119	0xbcd09285	-0.025460491
120	0xbd2715de	-0.04079234
121	0xbe685b57	-0.22691093
122	0x3eb1a28a	0.3469432
123	0xbe061ccb	-0.13096921
124	0x3e899476	0.2687108
125	0xbe172a47	-0.14762221
126	0xbee36bf2	-0.44418293
127	0xbe52c218	-0.20581853
128	0x3e7588eb	0.23978011
129	0x3dcf0357	0.10108059
130	0x3f142247	0.57864803
131	0x3ec12d2b	0.37729773
132	0xbf105395	-0.56377536
133	0x3ef535bc	0.4789256
134	0x3e3d8007	0.1850587
135	0x3de000e6	0.10937671
136	0x3e06ff1f	0.13183258
137	0xbeb7b624	-0.3588115
138	0x3e14e498	0.14540327
139	0x3e950834	0.2910782
140	0x3e7aac26	0.24479732
141	0xbda2d13f	-0.07950067
142	0x3e817e53	0.2529169
143	0x3f0aa2ee	0.5415486
144	0x3d8a7865	0.06761245
145	0xbe554f1f	-0.20830964
146	0xbf5725ca	-0.84042037
147	0xbf57f870	-0.8436346
148	0x3e829739	0.25506
149	0xbdfd18b7	-0.123582296
150	0x3e981dc1	0.297102
151	0xbf9aa7c3	-1.2082447
152	0xbeecbf9a	-0.4623993
153	0x3e94dd40	0.2907505
154	0xbdc4d5cd	-0.09611092
155	0xbd920817	-0.07130449
156	0xbf400bee	-0.75018203
157	0xbcd0c758	-0.02548568
158	0x3f137675	0.57602626
159	0xbe9437be	-0.28948778
160	0x3e954968	0.29157567
161	0xbdc18117	-0.0944845
162	0xbf1acedd	-0.604719
163	0xbf134f94	-0.575433
164	0x3ec10116	0.3769614
165	0x3e544002	0.20727542
166	0xbeac2420	-0.3362131
167	0x3da19883	0.078904174
168	0xbe9c65e6	-0.30546492
169	0x3c9a18fa	0.018810738
170	0xbdb91d50	-0.09038794
171	0xbe691f07	-0.22765742
172	0xbd332344	-0.043734804
173	0x3e7529cb	0.23941724
174	0x3eeed58e	0.46647304
175	0x3f771ade	0.9652537
176	0x3d4b13e5	0.04957952
177	0xbcb1e10b	-0.021713754
178	0xbedb212e	-0.42798752
179	0xbd8af2b7	-0.067845754
180	0xbec22265	-0.37916866
181	0x3d50380e	0.050834708
182	0xbd1c8760	-0.03821504
183	0xbd9b33c0	-0.0757823
184	0xbf3aa788	-0.7291188
185	0x3f0f2b9b	0.5592591
186	0x3e6bd874	0.23031789
187	0x3eb3979d	0.3507661
188	0xbf020eae	-0.5080365
189	0x3ebd5524	0.3697902
190	0xbf4debb0	-0.80437756
191	0x3ebe5934	0.37177432
192	0xbe078f5f	-0.13238285
193	0x3e94a953	0.29035434
194	0xbe80fd34	-0.2519318
195	0xbe228b38	-0.1587342
196	0xbcaf941a	-0.021432925
197	0x3ef49f70	0.4777789
198	0x3d93001e	0.07177757
199	0xbe9adf97	-0.3024871
200	0x3d64d7c4	0.055869833
201	0xbe644fe2	-0.22296098
202	0xbdc720ca	-0.09723051
203	0xbd944cfe	-0.072412476
204	0x3eb7574d	0.35808793
205	0x3d47a5b4	0.04874201
206	0x3e10a311	0.14124705
207	0x3d8f03a2	0.06983115
208	0x3f3980e9	0.72462326
209	0xbe90cfc3	-0.2828351
210	0xbe1958ff	-0.14975356
211	0xbdaa367c	-0.08311173
212	0xbbb548db	-0.0055323667
213	0x3d9aa056	0.07550113
214	0x3e9e07b1	0.30865243
215	0x3e187619	0.148888
216	0xbe616cce	-0.22014162
217	0x3e909d83	0.28245172
218	0x3e5ec67c	0.21755403
219	0x3ec85d3c	0.39133632
220	0xbe5d9ea8	-0.21642554
221	0x3ecf7195	0.40516344
222	0xbed96841	-0.42462352
223	0xbf09c65b	-0.5381829
224	0x3f0302c7	0.5117611
225	0x3b22cb2b	0.0024840336
226	0x3eb68400	0.35647583
227	0xbf00585f	-0.50134844
228	0xbe650703	-0.22365956
229	0x3d9da8a9	0.07698185
230	0xbea29692	-0.317555
231	0x3d4110df	0.04713523
232	0x3e085419	0.1331333
233	0xbe30fc01	-0.17283632
234	0x3df9f03d	0.12204025
235	0xbed3f5b8	-0.41398406
236	0xbe0ae282	-0.13562968
237	0xbdd31050	-0.10305846
238	0x3f2adf98	0.66747427
239	0xbf5ad0ba	-0.8547474
240	0x3e4cad31	0.19987942
241	0x3cef552b	0.029215416
242	0x3eb02d25	0.34409443
243	0x3f2653c2	0.64971554
244	0x3f0c37cf	0.5477266
245	0xbe133dcf	-0.14379047
246	0xbdd68629	-0.10474808
247	0xbe801c92	-0.25021797
248	0x3ed3e5d5	0.41386285
249	0xbdb7e9a4	-0.0898011
250	0xbe0539e9	-0.13010372
251	0x3cb5c8d2	0.022190485
252	0xbdcd8be3	-0.10036447
253	0xbe033a4c	-0.12815207
254	0xbe920675	-0.2852055
255	0xbdd8a9c5	-0.10579256

lstm.bias_ih_l0 f4 [512]
0	0xbe6d17d5	-0.23153622
1	0xbcfb123c	-0.030648343
2	0xbe034cf5	-0.12822326
3	0xbe65bdf4	-0.22435743
4	0xbe5aa1de	-0.2135081
5	0xbdb88fe1	-0.09011818
6	0xbec32b24	-0.3811885
7	0xbdc38897	-0.09547537
8	0xbd523d96	-0.051328264
9	0xbd9714e4	-0.073770314
10	0xbe42825e	-0.18995044
11	0xbefacb05	-0.48983017
12	0xbeb2158c	-0.34782064
13	0xbeaf4c74	-0.34238017
14	0xbee25509	-0.44205502
15	0xbf06d1be	-0.5266379
16	0xbee584d8	-0.44827914
17	0xbea122bf	-0.31471822
18	0x3d978cd9	0.073999114
19	0xbee09829	-0.4386609
20	0xbedb818f	-0.42872283
21	0xbeec9813	-0.46209773
22	0xbd7880b3	-0.060669612
23	0xbab262db	-0.0013609783
24	0x3d7caed9	0.061690185
25	0xbe5d10d6	-0.21588454
26	0xbe3b8023	-0.18310599
27	0xbe1c76a6	-0.15279636
28	0xbe44d5b9	-0.19222154
29	0xbeab20cc	-0.3342346
30	0xbdb6af10	-0.08920109
31	0xbec4b371	-0.38418153
32	0x3d7f7123	0.062363755
33	0x3c8287a8	0.015933827
34	0xbf2ff72b	-0.68736523
35	0xbe9be611	-0.30448964
36	0xbe8d091e	-0.27546018
37	0xbeec6302	-0.46169287
38	0xbf04426f	-0.5166387
39	0xbee63efc	-0.44969928
40	0x3e830e34	0.25596774
41	0xbec1ebc5	-0.3787519
42	0x3ccb213c	0.02479612
43	0xbee22314	-0.44167387
44	0xbe95c6c8	-0.2925322
45	0x3d105c04	0.035244003
46	0xbeb6bcfa	-0.35691053
47	0xbe868d27	-0.26279566
48	0xbf33c68e	-0.70224845
49	0xbe34e196	-0.17664179
50	0xbe94c66e	-0.2905764
51	0x3e588083	0.21142773
52	0x3d97d369	0.0741337
53	0xbe6129c0	-0.21988583
54	0xbe2c53e7	-0.16828881
55	0x3e76a881	0.24087717
56	0xbecc4d7c	-0.39902866
57	0xbe5140e1	-0.20434906
58	0xbeeae059	-0.4587429
59	0x3daa4b86	0.08315186
60	0xbea434f9	-0.32071665
61	0x3dd141e0	0.10217643
62	0x3e295b0f	0.16538642
63	0xbe92eebf	-0.28697774
64	0xbebea3e5	-0.37234417
65	0xbd4fb815	-0.050712664
66	0xbed0ce9c	-0.4078263
67	0xbe92e54c	-0.28690565
68	0xbdcf055c	-0.10108444
69	0xbed3e2b2	-0.41383892
70	0xbe244a78	-0.16044033
71	0xbe9aa1e9	-0.30201653
72	0xbf0cb327	-0.54960865
73	0xbe917298	-0.2840774
74	0xbeffaac7	-0.4993498
75	0xbf21da86	-0.63224065
76	0xbda6c494	-0.08142963
77	0xbe392aae	-0.18082687
78	0xbee7dfe7	-0.4528801
79	0xbeb90c36	-0.3614213
80	0x3e9e6d77	0.3094289
81	0xbe16f09a	-0.1474022
82	0xbf19eac8	-0.6012387
83	0x3d201f11	0.039092127
84	0xbd9ce650	-0.07661116
85	0xbe16d8e8	-0.1473118
86	0xbdcbd965	-0.09953574
87	0xbea9a309	-0.33132198
88	0x3b2678c9	0.0025401583
89	0xbd33c23b	-0.043886404
90	0xbe711eb3	-0.23546867
91	0xbe97acdd	-0.29624072
92	0xbe7d4019	-0.24731483
93	0xbe9ace00	-0.3023529
94	0xbe701110	-0.23444009
95	0x3d67f651	0.05663139
96	0x3e4d007e	0.20019719
97	0xbebcf132	-0.36902767
98	0xbf33e459	-0.70270306
99	0xbedc5fca	-0.4304183
100	0xbe9d27b2	-0.30694348
101	0xbf243027	-0.64135975
102	0xbea76247	-0.32692167
103	0x3ecb9959	0.39765432
104	0xbe4436ae	-0.19161484
105	0x3eb252d5	0.3482882
106	0xbe31b26f	-0.17353223
107	0xbe539d69	-0.20665516
108	0x3e04f5dc	0.12984413
109	0xbe6a8ad3	-0.2290452
110	0xbe30aef2	-0.17254236
111	0x3e7127e0	0.23550367
112	0xbedc30c2	-0.4300595
113	0xbf143507	-0.57893413
114	0xbf196d87	-0.5993275
115	0xbcaa5e63	-0.02079696
116	0xbe5e0e54	-0.21685153
117	0x3d6326b4	0.055456832
118	0xbde0ea27	-0.10982161
119	0xbb89ac86	-0.0042014746
120	0xbe16d555	-0.14729817
121	0x3d05931c	0.032610998
122	0xbda2c183	-0.07947066
123	0xbe6546c8	-0.22390282
124	0xbece83b2	-0.4033485
125	0xbe9df117	-0.30848
126	0xbc8be872	-0.017078612
127	0x3d123274	0.035692647
128	0xbe49baf7	-0.19700228
129	0x3dbf66ef	0.09345805
130	0xbe56d025	-0.20977838
131	0xbea758f4	-0.32685053
132	0x3e5ce3ec	0.2157132
133	0xbda62325	-0.08112172
134	0xbe8b4a68	-0.27205205
135	0xbe0c42bd	-0.13697334
136	0x3e847fa0	0.2587862
137	0xbe59625d	-0.21228929
138	0xbd9892ee	-0.074498996
139	0xbe754b06	-0.239544
140	0xbe5ef02f	-0.2177131
141	0xbe7cc4d6	-0.24684462
142	0xbdb83ccb	-0.0899597
143	0xbe8221db	-0.25416455
144	0xbdc353ee	-0.09537493
145	0xbdb256e0	-0.08707976
146	0x3e143c48	0.1447612
147	0xbe9e51a0	-0.3092165
148	0xbea2e402	-0.3181458
149	0xbe8f06c2	-0.27934843
150	0xbe73584c	-0.23764151
151	0x3e7bb318	0.24580038
152	0xbd35fe1d	-0.044431794
153	0xbd51773c	-0.0511391
154	0xbe8167e4	-0.25274575
155	0xbe6bd572	-0.23030642
156	0xbe5afae9	-0.21384777
157	0xbe9ac1ab	-0.30225882
158	0xbd907d19	-0.070551105
159	0xbe8916bc	-0.26775157
160	0x3f115b24	0.56779695
161	0xbe4c1c91	-0.19932772
162	0xbed10bd4	-0.40829337
163	0x3c3e6364	0.011620376
164	0xbdfa2af8	-0.12215227
165	0xbeaf0738	-0.34185195
166	0xbed5a628	-0.4172833
167	0xbd319d49	-0.04336289
168	0xbcf012be	-0.029305812
169	0xbed1af5c	-0.409541
170	0xbd84e00b	-0.06488045
171	0xbde30f89	-0.110869475
172	0xbea5ba59	-0.32368734
173	0xbdf60192	-0.12012018
174	0xbe41e72b	-0.1893584
175	0xbde82db1	-0.1133684
176	0xbecf49c9	-0.4048598
177	0xbe3550d6	-0.17706618
178	0xbeb728b9	-0.35773256
179	0xbd95ef58	-0.07321042
180	0xbdd5647c	-0.104195565
181	0xbe133059	-0.14373912
182	0xbea23f0e	-0.31688732
183	0xbd47cdf2	-0.04878039
184	0xbe4cbd34	-0.1999405
185	0xbe128a0e	-0.14310476
186	0xbe927608	-0.28605676
187	0x3e5d8a05	0.21634682
188	0xbe5bf872	-0.21481493
189	0x3d483561	0.04887903
190	0xbaca1d2e	-0.0015420073
191	0xbe949c72	-0.29025608
192	0xbe41e514	-0.18935043
193	0xbdebf983	-0.115222
194	0xbea055a2	-0.31315333
195	0x3d402db3	0.046918582
196	0xbe8cf350	-0.27529383
197	0xbe0dfdb4	-0.13866311
198	0xbdf19e6f	-0.11797797
199	0xbe77d581	-0.24202539
200	0xbe66eb29	-0.22550644
201	0xbdd1473a	-0.102186635
202	0xbe8fab50	-0.2806039
203	0xbf30043a	-0.6875645
204	0xbe1ebd4f	-0.15501903
205	0x3b76528e	0.0037585828
206	0xbea5d0b6	-0.32385796
207	0xbe232ca6	-0.15935001
208	0xbe36a903	-0.1783791
209	0xbe5ec4b7	-0.21754728
210	0xbe4322dc	-0.19056267
211	0xbe47c5c2	-0.19509032
212	0xbe2dad5c	-0.16960663
213	0xbdea3ce1	-0.11437393
214	0xbdfcf2da	-0.12351008
215	0xbe43dede	-0.19127986
216	0xbe2c6052	-0.16833618
217	0xbe52662c	-0.20546788
218	0xbe11f85d	-0.142549
219	0xbeb89172	-0.36048466
220	0xbecbc57b	-0.39799103
221	0xbe07661d	-0.13222547
222	0x3dd70d9c	0.10500643
223	0x3e042c63	0.12907557
224	0x3e89b199	0.2689331
225	0xbe82a233	-0.25514373
226	0xbefcabdd	-0.4934987
227	0xbeba3586	-0.3636896
228	0x3e9bbbd1	0.3041673
229	0xbe80c832	-0.25152737
230	0xbded3748	-0.1158281
231	0xbd2c4be5	-0.042064566
232	0xbd3d6e74	-0.046247914
233	0x3d1a7c63	0.03771628
234	0xbd27a3c3	-0.04092766
235	0xbe835e1f	-0.25657746
236	0xbdb5c118	-0.0887472
237	0xbeaf2fe2	-0.3421622
238	0xbe079369	-0.13239826
239	0x3ea54a2a	0.32283145
240	0xbdee258d	-0.11628256
241	0xbe9f1d37	-0.31076977
242	0xbeb332ab	-0.34999594
243	0x3da55743	0.080732845
244	0xbe344727	-0.17605267
245	0xbe39da0c	-0.18149585
246	0xbe8dd27b	-0.27699646
247	0xbccd91a4	-0.02509386
248	0xbe8f946e	-0.2804293
249	0xbdc0f04f	-0.09420835
250	0x3cda1ede	0.026626047
251	0xbd9a7278	-0.075413644
252	0x3c7b9e1a	0.015357519
253	0xbead17be	-0.33807176
254	0x3d33ca02	0.04389382
255	0xbdaba6ed	-0.08381448

lstm.bias_hh_l0 f4 [512]
0	0xbe02d118	-0.12775075
1	0xbe100c73	-0.14067249
2	0xbe3084a8	-0.17238104
3	0xbe19ad4b	-0.15007512
4	0xbde12ff9	-0.10995478
5	0xbe100299	-0.14063491
6	0xbee96d6c	-0.45591295
7	0xbdbceb64	-0.09224585
8	0xbe308050	-0.17236447
9	0xbde17148	-0.11007935
10	0xbe64604d	-0.22302361
11	0xbee8cacb	-0.4546722
12	0xbe8d791a	-0.27631456
13	0xbe90d31c	-0.28286064
14	0xbedd4b15	-0.43221346
15	0xbee54552	-0.4477945
16	0xbee371e9	-0.44422844
17	0xbe53b871	-0.20675828
18	0x3deb8148	0.11499268
19	0xbeb9e210	-0.36305285
20	0xbe95d01b	-0.29260334
21	0xbec6fec6	-0.38866252
22	0x3d840976	0.06447117
23	0x3c219a00	0.009863377
24	0x3da19268	0.07889253
25	0xbe445f6b	-0.19177024
26	0xbe678e61	-0.22612907
27	0xbe046d0c	-0.12932223
28	0xbe593403	-0.21211247
29	0xbe8ea5c8	-0.27860856
30	0xbd8c2ff9	-0.068450876
31	0xbec6751c	-0.38761222
32	0x3e4f14fb	0.20222847
33	0xbcc11820	-0.023571074
34	0xbf30c492	-0.6904994
35	0xbebf19b2	-0.3732429
36	0xbe51a1f5	-0.20471938
37	0xbeeed69e	-0.46648115
38	0xbf11fd9e	-0.57027614
39	0xbec306cb	-0.3809112
40	0x3e401403	0.18757634
41	0xbef4c7bd	-0.47808638
42	0xbdab002a	-0.08349641
43	0xbebe4045	-0.3715841
44	0xbe86766d	-0.26262227
45	0xbba3060a	-0.004975085
46	0xbed59c45	-0.41720787
47	0xbe22bd39	-0.15892495
48	0xbf3e0b0f	-0.74235624
49	0xbe8999e1	-0.26875213
50	0xbebdfbe7	-0.3710625
51	0x3d89a158	0.06720227
52	0xbcfffe57	-0.031249208
53	0xbe752f06	-0.2394372
54	0xbe6901d4	-0.22754604
55	0x3e6186de	0.22024104
56	0xbee3a899	-0.44464567
57	0xbe559af9	-0.20859899
58	0xbef1ef78	-0.47253013
59	0x3dd3ec83	0.103478454
60	0xbe50900b	-0.20367448
61	0x3d8fce5f	0.07021784
62	0x3e04d8f0	0.1297338
63	0xbea2f1d2	-0.3182512
64	0xbe95cd74	-0.2925831
65	0xbda245ea	-0.07923491
66	0xbeb1f55f	-0.34757516
67	0xbe8934a2	-0.26797968
68	0xbd8be081	-0.0682993
69	0xbe8f5866	-0.2799713
70	0xbdfbbd5b	-0.12291976
71	0xbe89fe7b	-0.26951966
72	0xbf09b414	-0.537904
73	0xbeaf7640	-0.34269905
74	0xbf0490de	-0.5178355
75	0xbf2321b7	-0.6372332
76	0xbe2136c4	-0.15743548
77	0xbe5fb88e	-0.21847746
78	0xbf02ea8d	-0.51139146
79	0xbede49c9	-0.4341567
80	0x3eb8218c	0.35963094
81	0xbe3fd9df	-0.18735455
82	0xbf14bb7c	-0.5809858
83	0x3d67f6e4	0.056631938
84	0x3db21356	0.08695094
85	0xbe1072e5	-0.14106329
86	0xbe294b31	-0.1653259
87	0xbe888616	-0.266648
88	0xbc3d865e	-0.01156768
89	0xbe1caaca	-0.15299526
90	0xbe9f2eeb	-0.31090483
91	0xbe6c4bee	-0.2307584
92	0xbe5cea19	-0.21573676
93	0xbe8798bb	-0.26483712
94	0xbe3b82d6	-0.18311629
95	0xbbe6e9f2	-0.0070469314
96	0x3e4c3dcd	0.1994545
97	0xbed64d8e	-0.41856045
98	0xbf25461c	-0.64560103
99	0xbef7b0bd	-0.48377028
100	0xbe898cca	-0.26865226
101	0xbf20ebd3	-0.6285984
102	0xbe9a6cbb	-0.3016108
103	0x3f0611b7	0.5237078
104	0xbe82a066	-0.25513
105	0x3e660a64	0.22464901
106	0xbdefe060	-0.11712718
107	0xbeace70b	-0.33770022
108	0x3e70d742	0.23519614
109	0xbeaccc71	-0.33749726
110	0xbde55689	-0.11198146
111	0x3e19fb99	0.15037383
112	0xbf064bbc	-0.5245931
113	0xbefc01a1	-0.49219993
114	0xbf127a5d	-0.5721796
115	0xbceaeeb8	-0.028678283
116	0xbe8a1a62	-0.26973253
117	0xbbd08120	-0.006363049
118	0xbe5bb27c	-0.21454805
119	0xbd188fbf	-0.037246462
120	0xbe9406c6	-0.28911418
121	0x3db5f277	0.08884137
122	0x3d0fed4e	0.03513842
123	0xbe8791b1	-0.2647834
124	0xbee6c339	-0.45070818
125	0xbe7f7ea7	-0.24950658
126	0xbdc90811	-0.09815992
127	0x3e102320	0.14075899
128	0xbdb1a3d3	-0.08673825
129	0x3cdb1bff	0.026746748
130	0xbe6a2267	-0.22864686
131	0xbe9ec4f3	-0.31009635
132	0x3ddb9381	0.107214935
133	0x3bbadd7e	0.0057026735
134	0xbe7955d8	-0.24349153
135	0xbe20c515	-0.15700181
136	0x3e13e092	0.14441136
137	0xbe03865a	-0.1284422
138	0xbd944916	-0.072405025
139	0xbe04e99a	-0.12979737
140	0xbe7faaf2	-0.24967554
141	0xbe586611	-0.21132685
142	0xbe72cb4b	-0.23710363
143	0xbe34e9cc	-0.17667311
144	0xbe1f038b	-0.15528695
145	0xbdedc5fb	-0.116100274
146	0x3e8d8b79	0.27645472
147	0xbe2c36ea	-0.16817823
148	0xbe7181b8	-0.2358464
149	0xbe8ebfe7	-0.27880785
150	0xbe187c33	-0.14891128
151	0x3e8b7677	0.2723882
152	0xbc8f5b74	-0.017499663
153	0xbe51bd26	-0.2048231
154	0xbe4a996b	-0.19785087
155	0xbe3041b1	-0.1721256
156	0xbe1316eb	-0.14364211
157	0xbe79c578	-0.24391735
158	0xbceb6509	-0.0287347
159	0xbea05cb5	-0.3132073
160	0x3f19a25d	0.6001337
161	0xbe7da325	-0.24769266
162	0xbecabcb6	-0.395971
163	0x3d9ab2d0	0.07553637
164	0xbe3db6e4	-0.18526798
165	0xbeac5d34	-0.33664858
166	0xbeda71bb	-0.42664894
167	0xbe11162f	-0.14168619
168	0xbe261955	-0.16220601
169	0xbea0c328	-0.31398892
170	0xbe39b506	-0.18135461
171	0xbe57197c	-0.21005815
172	0xbe97ad89	-0.29624584
173	0xbe5f633f	-0.21815203
174	0xbd8059b9	-0.06267113
175	0xbe585088	-0.2112447
176	0xbec784e9	-0.3896859
177	0xbe8c64f8	-0.27420783
178	0xbea1813e	-0.31543916
179	0xbe3e9e8a	-0.18615165
180	0xbda8989a	-0.082322314
181	0xbcad5add	-0.021161491
182	0xbe8ccfb7	-0.27502224
183	0xbcfb63b9	-0.0306872
184	0xbe683afe	-0.22678754
185	0xbde88d12	-0.11355032
186	0xbe8cfbd2	-0.27535874
187	0x3e2e2973	0.17007999
188	0xbe05c32f	-0.13062738
189	0x3e1afb6f	0.15134977
190	0x3ce9d41d	0.028543526
191	0xbe849f2f	-0.25902697
192	0xbe5e4492	-0.21705845
193	0xbd5c0cc5	-0.053723115
194	0xbe505cf1	-0.20347954
195	0xb900fd90	-0.0001230149
196	0xbe769f5a	-0.24084225
197	0xbd9f8a20	-0.07790017
198	0xbde577e4	-0.11204508
199	0xbe0cf946	-0.13766965
200	0xbe2e8e5a	-0.1704649
201	0x3c220639	0.009889179
202	0xbecd94a6	-0.40152472
203	0xbf1ad55a	-0.604818
204	0xbdf67f12	-0.120359555
205	0xbdcca099	-0.09991569
206	0xbea59bfc	-0.3234557
207	0xbd5e452a	-0.05426518
208	0xbdada0b3	-0.084779166
209	0xbe6071e6	-0.21918449
210	0xbe5579b1	-0.20847203
211	0xbda908d6	-0.082536384
212	0xbe1ec889	-0.15506186
213	0xbdbf606a	-0.093445614
214	0xbd1e4315	-0.038638193
215	0xbe8c2d3c	-0.2737826
216	0xbe42580a	-0.18978897
217	0xbe31974a	-0.17342868
218	0xbe1bd1a4	-0.1521669
219	0xbe95a34f	-0.29226157
220	0xbeab9cb4	-0.33517992
221	0x3bc30449	0.0059514386
222	0xbbfcbfa7	-0.0077132764
223	0x3da9ab0a	0.08284576
224	0x3e87dfc6	0.26537913
225	0xbe93704e	-0.2879662
226	0xbf0357aa	-0.5130564
227	0xbed4e88e	-0.41583675
228	0x3e72aef7	0.23699556
229	0xbe67a6f0	-0.22622275
230	0x3ba08e2b	0.0048997602
231	0xb93dab60	-0.00018088287
232	0xbe2be5fc	-0.16786951
233	0x3cd00fd7	0.025398178
234	0x3c1213bb	0.008915837
235	0xbeade781	-0.33965686
236	0xbe08b773	-0.1335123
237	0xbe8c182e	-0.27362198
238	0xbe10590e	-0.14096472
239	0x3ed7fdf1	0.4218593
240	0xbe0be2b5	-0.136607
241	0xbe886bdf	-0.266448
242	0xbeece4a2	-0.46268183
243	0xbbfe899c	-0.007767869
244	0xbe51a426	-0.20472774
245	0xbe46ba12	-0.19406918
246	0xbe84c0c6	-0.25928324
247	0x3db92c2f	0.090416305
248	0xbe9548c7	-0.29157087
249	0x3c822508	0.015886799
250	0xbd9618df	-0.073289625
251	0xbddca646	-0.10773902
252	0xbc816cf0	-0.015799016
253	0xbe82d6f4	-0.2555462
254	0x3e07be70	0.1325624
255	0xbe21e4aa	-0.15809885

fc.weight f4 [4, 128]
0	0xbf1ce8b5	-0.6129258
1	0xbdbbdfb8	-0.0917353
2	0xbd0587d7	-0.03260025
3	0x3fdd923e	1.7310255
4	0x3dbfc2f5	0.09363357
5	0x3e86ec80	0.2635231
6	0xbed25a5c	-0.41084564
7	0x3e4b4090	0.19848847
8	0x3dbb2d8c	0.09139547
9	0x3e0e379d	0.13888402
10	0xbf5c0a72	-0.8595344
11	0xc0188fb9	-2.3837721
12	0xbca483e4	-0.020082422
13	0xbf9c61af	-1.2217311
14	0x3e8514c8	0.25992417
15	0x3e1ceefe	0.15325543
16	0xbf651ae2	-0.89494145
17	0x3eeb76c6	0.45989054
18	0xbd21e97d	-0.039529312
19	0xbd8e69cb	-0.06953772
20	0xbfa55579	-1.2916709
21	0x3e2c4711	0.16823985
22	0xbe1da22d	-0.15393896
23	0x3e2f02c2	0.17090896
24	0xbe3d6032	-0.18493727
25	0x3db46c26	0.0880969
26	0x3f264546	0.6494945
27	0xbe1b95a8	-0.15193808
28	0x3e320565	0.1738487
29	0xbf238528	-0.63875055
30	0xbe1c7fb5	-0.15283091
31	0xbf184250	-0.59476185
32	0x3d16a817	0.036781397
33	0x3e57fb94	0.21092063
34	0x3e59a34d	0.212537
35	0x3eb0c900	0.3452835
36	0x3ea8c086	0.32959384
37	0x3e2af0cb	0.16693418
38	0x3e85fff9	0.26171854
39	0x3e23993c	0.15976423
40	0xbdeb8bcd	-0.11501274
41	0xbd51b7ea	-0.051200785
42	0x3ed56e45	0.4168569
43	0xbcca4b7a	-0.024694193
44	0x3d25d885	0.040489692
45	0x3e4b066b	0.19826667
46	0x3dd25382	0.10269834
47	0x3e70e2ca	0.23524013
48	0x3e507c5c	0.2035994
49	0xbf0f118f	-0.5588617
50	0xbf9cec76	-1.2259662
51	0xbe4f174b	-0.2022373
52	0xbea32ee9	-0.31871727
53	0xbfa423eb	-1.2823461
54	0xb8b04b9c	-8.406417e-05
55	0xbe1d3c14	-0.15354949
56	0x3e0e84ab	0.13917796
57	0x3ea02088	0.3127482
58	0x3dbff9ed	0.093738414
59	0xbbb724f5	-0.0055891224
60	0xbe436e4c	-0.19085044
61	0xbe95607f	-0.29175183
62	0x3db8f3c8	0.090308726
63	0x3e0f6bce	0.14005968
64	0x3e34ebc2	0.1766806
65	0x3e615c8f	0.22007965
66	0xbf1bf960	-0.6092739
67	0x3dd4752f	0.103739135
68	0xbd4b1c1e	-0.04958736
69	0xbc8c155d	-0.01710003
70	0x3f2dd552	0.67903626
71	0x402d8be7	2.711664
72	0xbe700959	-0.23441066
73	0x3dfed1fc	0.12442395
74	0x3f0f4346	0.55962026
75	0xbf1356ca	-0.57554305
76	0x3fa9dfd8	1.3271437
77	0xbcaafa1a	-0.02087121
78	0xbc4b74c1	-0.012417973
79	0xbda5be7c	-0.08092973
80	0xbe3a0d55	-0.18169148
81	0x3e41522b	0.18879001
82	0x3e0b1049	0.13580431
83	0xbdd936bd	-0.106061436
84	0x3ecf33b2	0.40469128
85	0xbe0b1523	-0.13582282
86	0x3f6b9f98	0.92040396
87	0xbe87dbc8	-0.26534867
88	0xbf1c15e3	-0.60970896
89	0xbecf4062	-0.40478808
90	0x3e8a5c81	0.270237
91	0x3f46ee35	0.77707225
92	0x3e8fab47	0.28060362
93	0xbe6eafc0	-0.23309231
94	0x3e7ca8ab	0.24673717
95	0xbde3d6f5	-0.11124984
96	0xbe4425ec	-0.19155091
97	0x3f85f5f4	1.0465684
98	0xbebcc494	-0.36868727
99	0xb9dcde06	-0.0004212709
100	0x3c82176d	0.01588031
101	0x3edd6495	0.432408
102	0x3d7aea39	0.06125853
103	0x3d917b06	0.07103543
104	0xbdbf8181	-0.09350873
105	0x3eafb362	0.34316546
106	0x3e1bc669	0.15212406
107	0x3e362b85	0.17790039
108	0x3f665aac	0.89982104
109	0x3d1723d6	0.03689941
110	0xbd60e2b4	-0.0549037
111	0x3d876c2e	0.066124305
112	0xbc45d949	-0.012075731
113	0x3f7aafac	0.97924304
114	0xbdaf906e	-0.0857247
115	0x3de821f6	0.113346025
116	0x3e260189	0.16211523
117	0x3be52d51	0.0069939275
118	0xbf2d28e5	-0.67640525
119	0xbdb3612e	-0.0875877
120	0x3ecca7db	0.39971814
121	0x3e683c46	0.22679242
122	0xbf18f17c	-0.59743476
123	0xbe19dd97	-0.15025936
124	0x3e46ff36	0.19433293
125	0x3dc56194	0.09637752
126	0x3e3b422b	0.1828696
127	0x3eb81da1	0.35960105
128	0x3d33670f	0.043799456
129	0x3e84649b	0.25858006
130	0xbcc65db2	-0.0242146
131	0xbe03b597	-0.1286224
132	0xbacc9430	-0.0015608128
133	0xbeec4bef	-0.46151683
134	0x3dc33086	0.095307395
135	0x3ea29b4e	0.31759113
136	0xbef271d3	-0.47352466
137	0xbe10a367	-0.14124833
138	0xbd89807d	-0.0671396
139	0x3ded3fbc	0.11584422
140	0xbed9ac89	-0.42514446
141	0x3d168c22	0.036754735
142	0x3eb4f964	0.3534652
143	0x3dd21ec0	0.10259771
144	0xbe8f89bb	-0.28034768
145	0xbdfef62b	-0.124492966
146	0x3e1099e7	0.14121209
147	0x3d9691dd	0.0735204
148	0x3caef30c	0.021356128
149	0xbe8f3f72	-0.27978092
150	0x3d3560f3	0.04428191
151	0x3e7f7101	0.24945451
152	0xbe31a1ea	-0.17346922
153	0xbead069c	-0.33794105
154	0xbe34aae8	-0.1764332
155	0x3e8a8b2b	0.27059302
156	0xbf319ce5	-0.6938003
157	0x3db0b486	0.08628182
158	0xbda949d6	-0.08266036
159	0xbe8348a2	-0.25641352
160	0xbea81507	-0.32828543
161	0xbf9f2499	-1.2433044
162	0x3dfd3aed	0.12364755
163	0xbe9e65a7	-0.3093693
164	0x3eae1945	0.34003654
165	0xbfa8dd12	-1.3192465
166	0xbe23af4b	-0.15984838
167	0xc06fa419	-3.7443907
168	0xbd94797b	-0.07249733
169	0xbe0a2e4e	-0.13494226
170	0xbdc8a0cb	-0.09796294
171	0x3e4a7bff	0.19773863
172	0x3e2e8dd6	0.17046294
173	0xbe8d3a77	-0.27583668
174	0xbd8cb443	-0.0687032
175	0x3dad1bf5	0.08452598
176	0x3e93c36f	0.28860041
177	0x3e2eabc8	0.17057717
178	0x3d8ebf57	0.06970089
179	0x3e764d76	0.24052987
180	0x3fa26ad3	1.268885
181	0x3e4f8b74	0.20268041
182	0x3f845846	1.0339439
183	0xbea4d50e	-0.32193798
184	0xbc6032bf	-0.013683974
185	0x3e9c995e	0.3058576
186	0xbf2b7de3	-0.6698896
187	0x3e5b6084	0.21423537
188	0x3f0a1504	0.5393832
189	0x3aaa7274	0.001300408
190	0xbdc68dc3	-0.09695008
191	0xbda8f533	-0.08249893
192	0xbdba1fd0	-0.09088099
193	0xbed0b229	-0.40760925
194	0xbe5e7e68	-0.21727908
195	0xbe7157c6	-0.23568639
196	0xbefa7d5f	-0.48923776
197	0xbf8d32a5	-1.103108
198	0xbe348365	-0.17628248
199	0x3d7f06fa	0.062262513
200	0xbeb7d258	-0.35902667
201	0x3e39d9f0	0.18149543
202	0x3f8980a6	1.0742385
203	0xbd0d2fbf	-0.034469362
204	0xbd1d66ff	-0.038428303
205	0xbcf6b17e	-0.030113932
206	0x3e1a1967	0.15048753
207	0xbe32e394	-0.17469627
208	0x3e623fef	0.22094701
209	0x3ea3d514	0.31998503
210	0xbeee4515	-0.4653708
211	0x3e2cf323	0.16889624
212	0xbde5ab69	-0.112143345
213	0xbdf3f6ae	-0.11912285
214	0x3d4cefda	0.050033428
215	0x3e3757b8	0.17904556
216	0x3e105dea	0.14098325
217	0x3e742a96	0.2384437
218	0x3c81f8fc	0.015865795
219	0x3cfcb11a	0.030846167
220	0xbd1876e7	-0.03722277
221	0x3e91747c	0.28409183
222	0xbed31672	-0.41228062
223	0x3dc2661a	0.094921306
224	0x3f03f570	0.5154638
225	0xbdc91985	-0.098193206
226	0x3d380013	0.044921946
227	0x3f537295	0.82596713
228	0x3e8c66df	0.27422234
229	0x3e2e2c30	0.17009044
230	0x3e270d27	0.16313611
231	0x3d2f538c	0.042804286
232	0x3e3e441b	0.18580668
233	0xbde5253d	-0.11188743
234	0xbe8110e9	-0.25208214
235	0xbcc13ba4	-0.02358801
236	0xbe364b46	-0.17802152
237	0xbf12118e	-0.57058036
238	0x3eae4660	0.34038067
239	0x3d4b9cca	0.049710073
240	0xbf76c974	-0.96401143
241	0xbdad3ef4	-0.08459273
242	0xbf80250e	-1.0011308
243	0xbdbbd6eb	-0.09171852
244	0x3ea10c7d	0.3145484
245	0x3cdb3fa5	0.026763747
246	0x3e68acbc	0.22722143
247	0xbd5ecd1d	-0.05439483
248	0xbdc7034f	-0.09717428
249	0x3e7c0739	0.2461213
250	0xbca05218	-0.019570395
251	0xbf67d1a9	-0.9055429
252	0x3d8e74be	0.069558606
253	0xbea32375	-0.3186299
254	0xbf5d59d6	-0.86465204
255	0xbe274acb	-0.16337125

fc.bias f4 [4]
0	0xbe97f4d3	-0.29678974
1	0xbe0d54a0	-0.13801813
2	0x3e13a58e	0.14418623
3	0xbc7ee857	-0.015558324
