LSTM/LSTM5/model.pth (torch, 275929 bytes, 6 tensors)

lstm.weight_ih_l0 f4 [512, 3]
0.082641214 0.26764718 -0.4163007 -0.052947275 0.3292354 -0.07737157 -0.14695169 -0.4451971
-0.30340403 -0.0149169685 -0.18593222 0.13010626 -0.78044206 -0.28759176 -0.42545968 -0.29676327
-0.70473206 -0.45303035 -0.093527965 0.07150376 0.09655127 -0.41971135 -0.27645174 -0.20254093
0.028248617 -0.5602716 -0.22185636 -0.3873122 -0.08988494 -0.33202827 -0.78489625 -0.7204178
-0.40509555 -0.04086248 -0.18129955 -0.44110346 -0.12856285 -0.12262231 -0.48583254 -0.36730245
-0.044246633 0.07018684 -1.3546888 -0.062154192 -0.17596635 0.0043470697 -0.27373013 -0.45405707
-0.18971264 -0.28599754 -0.2014716 -0.35439304 -0.46308476 -0.50905186 -0.10022206 -0.40119487
-0.34266597 -0.49144566 -0.2580016 0.1718383 -0.15500806 0.10592557 0.18646273 -0.42921963
-0.48177677 -0.03475732 -0.48809814 -0.5632205 -0.37018782 -0.194154 -0.2930674 -0.030772986
-0.32492337 -0.39193994 -0.15305899 -0.21700065 -0.23114718 0.09841095 0.025225231 -0.10212879
-0.50317097 0.07739536 -0.32548496 -0.46595022 -0.2609186 0.38551453 0.22270173 0.036190942
-0.13142131 -0.60411954 -0.15191717 0.13010025 -0.3304062 -0.6635331 -0.18272509 0.20707275
-0.77760077 -0.29585132 -0.5030857 -0.31174248 -0.34504002 -0.2083137 -0.0055169286 -0.09626779
-0.21469007 -0.5779781 0.12651664 -0.5355364 -0.055316683 -0.019084994 -0.53504205 -0.49731085
-0.016416894 -0.039720688 -0.05324154 -0.06564323 0.47340587 -0.09777048 -0.23222241 -0.72849804
-0.29217544 -0.0046339044 0.08495367 0.09150796 0.009975004 -0.14694336 -0.018813923 0.1709796
-0.6753498 -0.40371206 -0.85229146 -0.42532328 -0.3503793 -0.4883283 0.0057324036 0.3510888
-0.32786623 -0.19922525 -0.5017949 -0.09457814 -0.2384022 -0.2521918 -0.2579693 -0.27545467
-0.12568717 0.012073601 -0.7687587 -0.2750238 -0.7227877 -0.35558861 -0.090614036 -0.47620973
-0.083640635 0.47445467 -0.4865185 0.18911861 -0.118401214 0.05177756 -0.29592484 -1.1930989
0.011975726 -0.44015336 0.11106244 0.47769243 -0.20686968 -0.05252727 -0.8656858 -0.4157379
-0.19719288 -0.14352757 0.11486561 -0.946199 -0.2227682 -0.5459014 -0.17754172 -0.49685377
-0.27952376 -0.35197237 -0.27064034 -0.4675568 -0.001394495 -0.43221405 0.16825016 0.09685598
0.13253906 -0.40575108 -0.24998836 -0.23718984 -0.028617024 0.0883516 -0.026605746 0.30991068
-0.02552013 0.112200245 0.32381308 -0.101304464 -0.20992641 -0.3150365 0.1204165 -0.1407929
-0.16908929 0.16030134 -0.26119298 -0.084505446 -0.55482614 0.25242037 -0.30986825 -0.25106496
-0.38552344 -0.45818228 -0.13293467 0.01517593 -0.7763576 0.27740484 0.445484 0.042839393
-0.40760776 -0.14918348 -0.31094497 -0.04084023 -0.12093194 -0.2778286 0.25256062 -0.5163785
-0.12697516 -0.13429448 0.013612538 -0.2885864 -0.10205085 -0.1644041 -0.5791081 -0.6796947
0.22617461 -0.11708721 -0.74780726 -0.09116032 -0.42045024 -0.4161873 -0.09433823 0.08261622
-0.2179029 -0.6117233 -0.5324874 -0.4086843 0.10876867 -0.030342812 -0.04364986 -0.083301246
-0.01180156 0.20639257 -0.5180044 -0.117422074 -0.15587005 -0.05748553 -0.63187265 -0.054891106
00000000: cc3f a93d 0d09 893e 5e25 d5be 3edf 58bd
00000010: 8b91 a83e fc74 9ebd 817a 16be e0f0 e3be
00000020: c657 9bbe 4d66 74bc 0465 3ebe 933a 053e
00000030: 0dcb 47bf 3a3f 93be dad5 d9be 5bf1 97be
00000040: 5269 34bf 98f3 e7be 978b bfbd 9070 923d
00000050: acbc c53d 68e4 d6be 158b 8dbe e466 4fbe
00000060: a569 e73c f66d 0fbf 502e 63be c94d c6be
00000070: 9815 b8bd 9cff a9be f6ee 48bf 4d6d 38bf
00000080: af68 cfbe 6a5f 27bd 97a6 39be 50d8 e1be
00000090: fba5 03be 6821 fbbd 0bbf f8be 110f bcbe
000000a0: f53b 35bd 1ebe 8f3d 7166 adbf 6595 7ebd
000000b0: 8630 34be dd71 8e3b 5b26 8cbe 2b7a e8be
000000c0: 0844 42be 456e 92be 924e 4ebe 0173 b5be
000000d0: 7219 edbe 3951 02bf 3941 cdbd 6a69 cdbe
000000e0: ea71 afbe c49e fbbe c918 84be 61f6 2f3e
000000f0: 6fba 1ebe 81ef d83d 16f0 3e3e adc2 dbbe
00000100: 72ab f6be b15d 0ebd 00e8 f9be 382f 10bf
00000110: 4289 bdbe 4ed0 46be ee0c 96be a117 fcbc
00000120: 5b5c a6be 5aac c8be 7fbb 1cbe 6b35 5ebe
00000130: d9b1 6cbe ae8b c93d 25a5 ce3c e628 d1bd
00000140: d0cf 00bf 7581 9e3d f7a5 a6be 0791 eebe
00000150: 1f97 85be 2962 c53e ec0b 643e f43c 143d
00000160: 4f93 06be 94a7 1abf 2d90 1bbe 0039 053e
00000170: 002b a9be 4edd 29bf 491c 3bbe e10a 543e
00000180: d810 47bf d379 97be 39ca 00bf b69c 9fbe
00000190: 16a9 b0be 3050 55be 5ac7 b4bb 0c28 c5bd
000001a0: b7d7 5bbe 5ff6 13bf 948d 013e ea18 09bf
000001b0: bf93 62bd 2258 9cbc 84f8 08bf 879f febe
000001c0: b97c 86bc 29b2 22bd cd13 5abd f56f 86bd
000001d0: 4162 f23e e43b c8bd b6cb 6dbe d97e 3abf
000001e0: 0598 95be 02d8 97bb 31fc ad3d 8668 bb3d
000001f0: 336e 233c 5278 16be a81f 9abc 4715 2f3e
00000200: b9e3 2cbf 59b3 cebe c62f 5abf f9c3 d9be
00000210: ea64 b3be 2b06 fabe e3d6 bb3b e9c1 b33e
00000220: 15de a7be b401 4cbe a175 00bf 2fb2 c1bd
00000230: b51f 74be 491f 81be 8d14 84be 6508 8dbe
00000240: 23b4 00be 5ad0 453c 5fcd 44bf ebcf 8cbe
00000250: 9d08 39bf b60f b6be da93 b9bd c3d1 f3be
00000260: c84b abbd b9eb f23e f418 f9be 4fa8 413e
00000270: 567c f2bd b514 543d 7683 97be 77b7 98bf
00000280: d635 443c c85b e1be b474 e33d 1a94 f43e
00000290: a5d5 53be d626 57bd 969d 5dbf 99db d4be
000002a0: eeec 49be e4f8 12be a93e eb3d 193a 72bf
000002b0: 591d 64be 32c0 0bbf 7fcd 35be 9e63 febe
000002c0: bd1d 8fbe b935 b4be 5f91 8abe 9b63 efbe
000002d0: 7dc7 b6ba 294b ddbe c549 2c3e 6e5c c63d
000002e0: 52b8 073e 9bbe cfbe f3fc 7fbe e5e1 72be
000002f0: 406e eabc aff1 b43d 4bf4 d9bc 9dac 9e3e
00000300: 970f d1bc 3ec9 e53d d4ca a53e b778 cfbd
00000310: f3f6 56be 774c a1be ed9c f63d 042c 10be
00000320: be25 2dbe 0926 243e 16bb 85be 3111 adbd
00000330: 1609 0ebf 3e3d 813e 0da7 9ebe 968b 80be
00000340: 5463 c5be de96 eabe 0720 08be 77a4 783c
00000350: 5fbf 46bf 0208 8e3e 7b16 e43e 5c78 2f3d
00000360: f7b1 d0be 8ec3 18be 2e34 9fbe 1648 27bd
00000370: 2aab f7bd 8d3f 8ebe a04f 813e 6231 04bf
00000380: c705 02be 7e84 09be 1f07 5f3c 99c1 93be
00000390: 0900 d1bd 8c59 28be 6e40 14bf 7900 2ebf
000003a0: 519a 673e 6bcb efbd 4c70 3fbf 43b2 babd
000003b0: 4145 d7be 8016 d5be 6734 c1bd b132 a93d
000003c0: f021 5fbe e699 1cbf 1851 08bf 123f d1be
000003d0: 1cc2 de3d 7d91 f8bc 32ca 32bd d899 aabd
000003e0: 555b 41bc 9358 533e f09b 04bf fc7a f0bd
000003f0: 669c 1fbe f275 6bbd 68c2 21bf 7fd5 60bd

lstm.weight_hh_l0 f4 [512, 128]
0.23203076 0.08827051 0.121107735 0.143424 -0.09639813 0.12639593 0.20457812 0.008369414
-0.08404215 0.06613323 0.004606527 0.13660674 -0.11067347 -0.08981775 -0.049878757 0.16156587
-0.042440496 -0.026239673 -0.058555182 -0.047067985 -0.04535477 -0.05876272 -0.06190598 0.09391151
-0.077775575 0.0043249694 0.1994802 -0.00957807 -0.25870904 -0.08919657 0.01002316 -0.11321913
-0.008496329 -0.0048803613 -0.029842375 0.2098323 0.018142397 -0.0075516985 -0.11162433 -0.21905538
-0.35189968 0.103213064 0.08283738 0.23498935 -0.086381584 0.11540107 0.048782736 0.05812925
0.1330207 -0.0106757125 -0.26710528 -0.09717712 0.20760532 -0.008492221 0.17759451 -0.22899054
0.24420866 -0.028153274 -0.18334462 0.13454679 0.09551846 0.2270099 0.20059359 -0.31988946
0.017056659 -0.093605116 0.14420357 0.13533159 -0.17937532 -0.0398213 -0.16173516 0.16333953
-0.08668411 0.014695455 0.016184479 0.0983812 0.06956 -0.050723534 -0.051701814 0.026601547
-0.016558666 -0.09863662 0.07083418 0.19081195 0.06754263 0.049866356 -0.1475473 0.04116694
-0.039974198 0.34994924 -0.013855377 0.16310613 0.0023994427 -0.06364471 0.009629755 -0.09285032
-0.012002096 -0.08947732 -0.12578115 -0.044518974 -0.22656453 0.19209826 0.07187439 0.09111699
-0.10568259 0.30881605 -0.17113873 -0.104258776 -0.2646053 0.009296663 -0.021593705 0.09904715
0.011452051 0.10077035 -0.08927128 0.0496484 -0.06313966 -0.26482287 0.1370542 -0.01397196
-0.0031139716 -0.0016245376 0.007892128 0.114843436 -0.1284605 -0.04667416 0.093958974 0.015566268
0.1502488 0.25809208 -0.13700075 -0.1355241 0.3224361 -0.16484004 -0.17020781 0.2087205
0.12953027 0.059278604 -0.0077321427 0.1225369 -0.0008232142 0.2503104 -0.19525038 0.011574324
0.22277369 0.09594312 0.030414486 0.07344822 0.14804225 -0.09085099 -0.05706147 -0.2698572
0.057313647 -0.16533935 -0.19266368 0.24598436 -0.3677742 0.040936522 0.110424824 0.27312848
0.36324716 0.2533732 -0.11221901 -0.22225246 -0.06297072 0.17493822 -0.06405021 0.3835151
0.06744303 0.29824975 0.06446332 0.11174783 -0.14309317 0.30055022 0.5170878 0.13330126
-0.0056245783 0.0022208719 0.34800184 -0.122413136 0.013965805 -0.14553212 0.13194604 -0.045740724
-0.14694485 0.0924682 -0.14412881 -0.013237914 0.024726067 -0.057307746 0.2268375 0.10384986
-0.14013784 0.0070245513 0.036494344 -0.086283006 -0.6752321 0.15202194 0.1036247 0.21869843
-0.08327878 -0.08720882 0.060682457 -0.018843843 -0.092186905 -0.31925714 -0.15386772 0.26487523
-0.012581354 0.1947299 0.03406574 0.36945057 0.08596831 -0.0069530183 -0.5280325 0.09610295
0.12869981 -0.18222007 0.24746849 0.13017584 0.44423714 -0.072972976 0.011283245 0.067972906
0.1764043 0.07545909 -0.20229875 0.20687632 0.1125943 -0.07291529 0.13577875 -0.5019649
-0.10717559 0.36218944 0.24233294 0.08542778 0.029101485 0.16156153 -0.0783058 0.14608288
0.16697685 -0.09598486 0.46955195 -0.24178365 -0.068661876 -0.008266326 0.04574877 -0.11364757
-0.025640339 -0.14750303 0.08692054 -0.4143338 0.08276299 0.03952512 0.32004192 0.16142307
00000000: 7999 6d3e 2bc7 b43d 5507 f83d bedd 123e
00000010: 626c c5bd ef6d 013e ed7c 513e de1f 093c
00000020: 4a1e acbd dc70 873d 59f2 963b a3e2 0b3e
00000030: c6a8 e2bd 5ef2 b7bd ab4d 4cbd 8671 253e
00000040: 16d6 2dbd 95f4 d6bc 8fd7 6fbd 5cca 40bd
00000050: ecc5 39bd 2eb1 70bd 2091 7dbd ae54 c03d
00000060: cd48 9fbd 79b8 8d3b 8a44 4c3e 56ed 1cbc
00000070: 8375 84be b1ac b6bd 2e38 243c 6edf e7bd
00000080: 3034 0bbc 70eb 9fbb ff77 f4bc 47de 563e
00000090: 5d9f 943c 3d74 f7bb 4c9b e4bd 0e50 60be
000000a0: 322c b4be 5f61 d33d a5a6 a93d 0ca1 703e
000000b0: d4e8 b0bd 6557 ec3d 68d0 473d f018 6e3d
000000c0: 9436 083e 2fe9 2ebc 06c2 88be cc04 c7bd
000000d0: 7d96 543e f522 0bbc 56db 353e 7f7c 6abe
000000e0: d611 7a3e b2a1 e6bc b1be 3bbe a2c6 093e
000000f0: 2f9f c33d 4975 683e 6868 4d3e 8dc8 a3be
00000100: 68ba 8b3c 0ab4 bfbd 1aaa 133e 5d94 0a3e
00000110: 2aae 37be a91b 23bd e79d 25be 7a42 273e
00000120: 7087 b1bd 35c5 703c 5095 843c 157c c93d
00000130: 7975 8e3d 7bc3 4fbd 48c5 53bd 7deb d93c
00000140: 0aa6 87bc ff01 cabd 8311 913d 3564 433e
00000150: ca53 8a3d aa40 4c3d a416 17be aa9e 283d
00000160: fcbb 23bd 8c2c b33e aa01 63bc 4b05 273e
00000170: f83f 1d3b 2858 82bd 1fc6 1d3c 4f28 bebd
00000180: 70a4 44bc e33f b7bd c6cc 00be 8759 36bd
00000190: 8800 68be 68b5 443e e132 933d 8b9b ba3d
000001a0: 1d70 d8bd 231d 9e3e fe3e 2fbe a085 d5bd
000001b0: 597a 87be 0851 183c 48e5 b0bc 3bd9 ca3d
000001c0: 62a1 3b3c af60 ce3d dcd3 b6bd 1f5c 4b3d
000001d0: 5e4f 81bd dd96 87be f057 0c3e a6ea 64bc
000001e0: c613 4cbb 70ee d4ba fc4d 013c 0933 eb3d
000001f0: 268b 03be 672d 3fbd 906d c03d a909 7f3c
00000200: d2da 193e a524 843e ed49 0cbe d4c6 0abe
00000210: 5816 a53e d4cb 28be f54a 2ebe d4ba 553e
00000220: 95a3 043e 1fce 723d ea5d fdbb a0f4 fa3d
00000230: f8cc 57ba af28 803e b7ef 47be 3ca2 3d3c
00000240: c91e 643e d47d c43d cd27 f93c 056c 963d
00000250: 6398 173e 1510 babd 4ab9 69bd b92a 8abe
00000260: b7c1 6a3d b84e 29be a149 45be 53e3 7b3e
00000270: e64c bcbe 0ead 273d 6926 e23d 7fd7 8b3e
00000280: 88fb b93e 22ba 813e 15d3 e5bd 2696 63be
00000290: cbf6 80bd 0123 333e c22c 83bd 175c c43e
000002a0: 921f 8a3d 31b4 983e 5805 843d 0cdc e43d
000002b0: 0487 12be b8e1 993e de5f 043f 2080 083e
000002c0: 624e b8bb 0c8c 113b 4c2d b23e bdb3 fabd
000002d0: d5d0 643c 5f06 15be dd1c 073e a05a 3bbd
000002e0: b678 16be f85f bd3d 8196 13be d6e3 58bc
000002f0: 528e ca3c 87bb 6abd 1748 683e 3caf d43d
00000300: 4b80 0fbe 352e e63b 187b 153d 25b5 b0bd
00000310: 03dc 2cbf a4ab 1b3e 3039 d43d 7bf2 5f3e
00000320: 118e aabd 8a9a b2bd 2b8e 783d 675e 9abc
00000330: 7dcc bcbd ac75 a3be 808f 1dbe ba9d 873e
00000340: 0622 4ebc 4667 473e 8488 0b3d a028 bd3e
00000350: 2710 b03d 25d6 e3bb 232d 07bf a0d1 c43d
00000360: e2c9 033e e697 3abe 6168 7d3e d14c 053e
00000370: 0d73 e33e db72 95bd 5cdd 383c 6135 8b3d
00000380: 54a3 343e 4c8a 9a3d 6727 4fbe 63d7 533e
00000390: d797 e63d 9d54 95bd 9609 0b3e c680 00bf
000003a0: e07e dbbd e570 b93e 2026 783e c3f4 ae3d
000003b0: 3d66 ee3c 6370 253e cb5e a0bd c096 153e
000003c0: fbfb 2a3e b693 c4bd 1d69 f03e 2296 77be
000003d0: 999e 8cbd 7c6f 07bc 1063 3b3d 0fc0 e8bd
000003e0: b00b d2bc 090b 17be 6503 b23d 8f23 d4be
000003f0: a47f a93d 18e5 213d 89dc a33e 174c 253e

lstm.bias_ih_l0 f4 [512]
0.12864468 0.095049605 -0.30746052 -0.05713626 -0.4513642 -0.54028827 -0.21718375 -0.41334304
-0.21968918 -0.33709404 -0.55248594 -0.14231083 -0.13376662 -0.29967386 -0.48900092 -0.08048404
-0.25083366 -0.48397255 -0.18203595 -0.2916997 -0.023779655 -0.37255377 -0.46629298 -0.32772052
-0.47499374 -0.15036924 -0.10300215 0.027652541 0.011053901 -0.046934616 0.05168535 -0.33922327
-0.618077 -0.19355798 -0.0021594288 -0.048086792 -0.010428139 -0.36327168 -0.061258737 0.06683362
-0.1981527 -0.010347197 -0.0005773023 -0.40793914 -0.36960566 -0.29658446 -0.29556587 -0.30480093
-0.023687836 -0.3107031 -0.16281241 -0.09557671 0.0010046394 -0.26514807 0.19079427 -0.36502638
-0.1446863 -0.44953018 -0.29493442 -0.23223136 -0.17987856 0.020794086 -0.29241347 -0.071870275
-0.18222311 -0.18259113 -0.09472289 0.078273416 0.009946754 -0.2590963 0.014294232 0.21164507
-0.36313823 -0.16254465 -0.04584837 -0.1804443 -0.13141112 -0.18446751 -0.28526178 -0.10064974
-0.35596904 -0.26979613 -0.15224655 -0.093002744 -0.15117526 -0.20135249 -0.24210711 -0.38598624
-0.5068936 0.00883628 -0.016135238 0.0056254696 -0.100733444 -0.26868492 -0.13989009 -0.0569306
-0.005030763 -0.6323769 0.022175802 -0.43319637 -0.0572894 -0.22374351 -0.5888016 -0.2118284
-0.1614839 -0.44203427 -0.22280112 -0.29073465 -0.21123096 0.022834452 -0.06008095 -0.07888982
-0.11354917 -0.08017204 -0.09064746 -0.34586087 -0.086471975 -0.02153928 0.0020623223 -0.26187563
-0.50123304 -0.23101255 -0.003891963 -0.100511536 0.021766396 -0.25877813 -0.17561327 -0.28294033
-0.06906632 -0.048314914 -0.2622903 -0.027241297 -0.3481372 -0.41842774 0.09391252 -0.19711193
-0.068658516 -0.07213164 -0.4784773 0.1214899 -0.24832366 0.07073301 -0.32528293 0.014491363
-0.2428024 -0.2978835 -0.34481585 0.026667088 -0.21263283 -0.2637443 -0.6861823 0.29702982
-0.45918393 -0.041332066 -0.11116538 0.1340019 0.08973592 0.11844058 -0.025756808 0.020981453
-0.50079435 -0.32263565 -0.09927929 -0.07262504 0.0070739714 0.12480004 0.20703225 -0.012348857
-0.029357959 -0.05929375 -0.008986961 -0.5805135 -0.25576705 -0.18394516 -0.38573757 -0.028649965
-0.091920644 -0.21482787 -0.03225312 -0.18741685 -0.121993 -0.1910195 -0.012284655 -0.3128485
-0.06649402 -0.34284624 -0.14782624 -0.27270377 -0.25380948 0.020154482 -0.23265837 -0.041856892
0.11752384 -0.3035764 -0.041401125 -0.14319754 0.04587518 -0.3512081 0.08621276 0.040778283
-0.39366284 -0.079258375 -0.11015649 -0.11169166 -0.052962568 0.06968106 -0.38524887 -0.11887133
-0.122040674 -0.07538582 0.04854824 -0.19156848 -0.04387237 0.19324899 0.025520215 -0.086709246
-0.36076468 0.2161053 -0.11494712 0.4058286 -0.1590178 -0.056321353 -0.14181806 -0.10416832
-0.0038030976 -0.3952817 0.14847416 -0.18798183 -0.065115884 0.056470964 -0.58913046 -0.18113884
-0.026882198 -0.39031693 -0.046531558 -0.15380827 0.08885096 -0.07423476 -0.11681143 0.010835818
-0.10038127 0.025160016 -0.32609746 -0.4023789 -0.09994649 0.04570582 -0.12831968 -0.21525384
-0.46849737 -0.19588111 -0.11737235 -0.09509319 0.07994885 -0.13255383 0.110582866 -0.23674753
00000000: 6ebb 033e 5ea9 c23d 776b 9dbe b607 6abd
00000010: 3519 e7be 5550 0abf 6b65 5ebe b3a1 d3be
00000020: 33f6 60be 9797 acbe b86f 0dbf eeb9 11be
00000030: 1efa 08be da6e 99be 545e fabe d1d4 a4bd
00000040: 456d 80be 40cb f7be a267 3abe aa59 95be
00000050: 8dcd c2bc 5ebf bebe f4bd eebe fcca a7be
00000060: 6132 f3be 65fa 19be cbf2 d2bd 9587 e23c
00000070: 6c1b 353c 833e 40bd 04b4 533d acae adbe
00000080: 4b3a 1ebf 1034 46be 3485 0dbb a8f6 44bd
00000090: c9da 2abc bffe b9be 71ea 7abd 11e0 883d
000000a0: 8be8 4abe 4a87 29bc 1a56 17ba 66dd d0be
000000b0: f43c bdbe ebd9 97be 6954 97be de0e 9cbe
000000c0: fe0c c2bc 7a14 9fbe 4cb8 26be b9bd c3bd
000000d0: 1bae 833a 7dc1 87be 935f 433e bde4 babe
000000e0: a528 14be d228 e6be a501 97be 0fce 6dbe
000000f0: 1632 38be 5c58 aa3c 38b7 95be b930 93bd
00000100: b298 3abe 2bf9 3abe 13fe c1bd d04d a03d
00000110: b6f7 223c 45a8 84be 5b32 6a3c 7cb9 583e
00000120: 41ed b9be 1b72 26be 80cb 3bbd 64c6 38be
00000130: a390 06be 0de5 3cbe d50d 92be 7321 cebd
00000140: 9341 b6be b822 8abe 85e6 1bbe 3978 bebd
00000150: b0cd 1abe 592f 4ebe edea 77be fd9f c5be
00000160: c7c3 01bf 0bc6 103c 0c2e 84bc dc55 b83b
00000170: 564d cebd 1291 89be 593f 0fbe 1030 69bd
00000180: 19d9 a4bb 74e3 21bf 07aa b53c eacb ddbe
00000190: 4aa8 6abd 051d 65be b4bb 16bf 8be9 58be
000001a0: 095c 25be 5152 e2be fa25 64be 2cdb 94be
000001b0: ee4c 58be 510f bb3c 7117 76bd fc90 a1bd
000001c0: 788c e8bd 3d31 a4bd 60a5 b9bd ad14 b1be
000001d0: 3818 b1bd 2573 b0bc 0728 073b 9014 86be
000001e0: cf50 00bf 8e8e 6cbe 4e10 7fbb fed8 cdbd
000001f0: 714f b23c 917e 84be f7d3 33be 8edd 90be
00000200: a572 8dbd dce5 45bd ea4a 86be 2429 dfbc
00000210: 0a3f b2be 293c d6be 3555 c03d b6d7 49be
00000220: d69c 8cbd c1b9 93bd fafa f4be b2cf f83d
00000230: 8f48 7ebe 78dc 903d 7c8b a6be 2f6d 6d3c
00000240: 31a1 78be 3084 98be b48b b0be f074 da3c
00000250: 6cbc 59be 7e09 87be a5a9 2fbf 4b14 983e
00000260: 281a ebbe d04b 29bd adaa e3bd cb37 093e
00000270: 77c7 b73d fa90 f23d f1ff d2bc 4ce1 ab3c
00000280: 0f34 00bf 8030 a5be f152 cbbd 70bc 94bd
00000290: c6cc e73b 2a97 ff3d 4300 543e dc52 4abc
000002a0: 1a80 f0bc 01de 72bd 0c3e 13bc 889c 14bf
000002b0: e6f3 82be 1f5c 3cbe 657f c5be 55b3 eabc
000002c0: e440 bcbd d6fb 5bbe d91b 04bd 34ea 3fbe
000002d0: 77d7 f9bd 9e9a 43be 9445 49bc ae2d a0be
000002e0: 042e 88bd 8b89 afbe c35f 17be d49f 8bbe
000002f0: 51f3 81be 031b a53c ff3d 6ebe 2272 2bbd
00000300: 57b0 f03d 5e6e 9bbe 3a94 29bd 60a2 12be
00000310: 9de7 3b3d 8cd1 b3be 5190 b03d 2107 273d
00000320: 2d8e c9be 3752 a2bd ba99 e1bd 99be e4bd
00000330: 47ef 58bd f2b4 8e3d 573f c5be d072 f3bd
00000340: 76f0 f9bd e163 9abd 85da 463d 872a 44be
00000350: 84b3 33bd 10e3 453e c50f d13c 9e94 b1bd
00000360: 26b6 b8be b54a 5d3e 6569 ebbd c4c8 cf3e
00000370: 90d5 22be 38b1 66bd c138 11be 3356 d5bd
00000380: 643d 79bb 5d62 cabe 9c09 183e 4f7e 40be
00000390: 7a5b 85bd 194e 673d 41d1 16bf 767c 39be
000003a0: 0e38 dcbc 9fd7 c7be e097 3ebd ea7f 1dbe
000003b0: 7ef7 b53d 6508 98bd d53a efbd b788 313c
000003c0: b294 cdbd 611c ce3c 3ff6 a6be 9b04 cebe
000003d0: bfb0 ccbd 0736 3b3d 3c66 03be 816b 5cbe
000003e0: e3de efbe 0f95 48be ea60 f0bd 38c0 c2bd
000003f0: 39bc a33d 31bc 07be 4579 e23d f26d 72be

lstm.bias_hh_l0 f4 [512]
0.09370818 0.016708996 -0.2922249 -0.051366903 -0.4529648 -0.44383115 -0.2362333 -0.32612908
-0.17133483 -0.27049938 -0.71635234 -0.02929502 -0.22241104 -0.1546746 -0.48385835 -0.051778417
-0.15427281 -0.38456595 -0.14642353 -0.3039409 -0.12222304 -0.25144085 -0.56925684 -0.24120237
-0.4723387 -0.26484925 -0.014134073 -0.014244837 -0.12215938 0.04391994 0.0019112282 -0.3730041
-0.49087515 -0.26424482 -0.012848411 -0.13787869 -0.051948536 -0.2668827 -0.13651104 -0.009028362
-0.33759457 0.08182886 0.061752286 -0.55657244 -0.33216336 -0.24160506 -0.36636326 -0.28502536
-0.14706255 -0.40100986 -0.02338751 -0.06349314 -0.13193554 -0.23077291 0.19885081 -0.4066568
-0.23612776 -0.523787 -0.21113554 -0.35000002 -0.31965506 0.05807761 -0.27848157 0.0155678885
-0.14268097 -0.14360666 -0.03463929 0.15001881 -0.05260077 -0.35300878 -0.12303666 0.30959105
-0.29426596 -0.015316519 -0.19067805 -0.21757361 -0.06874075 -0.17463568 -0.39150247 -0.21550687
-0.3416761 -0.19948603 -0.07485285 -0.19928022 -0.15765288 -0.11791767 -0.2971439 -0.2911315
-0.38642365 0.07445015 0.057474118 0.10267758 -0.10063966 -0.24341564 -0.23218042 -0.14490712
0.0938376 -0.49725246 0.033916038 -0.48959723 -0.014955628 -0.26777664 -0.58970034 -0.081489734
-0.30472463 -0.4536021 -0.31074208 -0.39225805 -0.14112426 0.038100056 -0.15826324 -0.24354236
-0.1248733 0.012217884 -0.14093839 -0.29255933 -0.10121953 -0.098867804 -0.07221057 -0.14314239
-0.55047655 -0.34710288 -0.041840993 -0.12426638 -0.06844161 -0.23123819 -0.20702367 -0.31512624
0.048932042 -0.05704693 -0.3300543 -0.012778978 -0.32132018 -0.41778654 0.07544684 -0.24430718
-0.035559546 -0.008080155 -0.5780105 0.07923372 -0.23985136 0.038718782 -0.20643154 0.0076614376
-0.11626954 -0.39271978 -0.3061994 0.06699188 -0.07972147 -0.23470148 -0.53155375 0.2200943
-0.32270133 -0.06095235 -0.06510412 0.2648039 -0.01503644 0.17832251 -0.076111816 -0.0475807
-0.4234994 -0.33276862 -0.14341116 -0.09527689 0.012178692 0.12237353 0.23390266 -0.10978758
0.022863753 -0.14222014 0.04842673 -0.4844332 -0.25512108 -0.22824389 -0.37523606 -0.025778826
0.05116032 -0.26656163 0.009021894 -0.037190963 -0.18602528 -0.19086707 -0.123678945 -0.22922298
-0.071745805 -0.28977183 -0.03194101 -0.24533746 -0.31887913 0.012924418 -0.13585952 0.08055453
-0.035185166 -0.37172624 -0.14656462 -0.15503992 0.16258724 -0.33613643 0.011534518 -0.010715991
-0.25670928 -0.12174647 -0.17105418 -0.100345664 -0.09156194 0.084869474 -0.39667788 -0.12952733
-0.13400114 -0.06329583 0.059625186 -0.114731446 -0.09674908 0.10155258 0.009621897 -0.055839635
-0.48412046 0.1513945 -0.07474986 0.47470817 -0.12544689 -0.032229666 -0.101989485 -0.082784116
-0.038029827 -0.41257408 0.14060514 -0.15443571 -0.008570111 0.13692017 -0.4782321 -0.23984821
-0.010811569 -0.32066414 -0.10825121 -0.24713287 0.21520166 0.03584869 -0.13042514 0.04595449
-0.24615271 0.041073047 -0.198178 -0.35595432 0.016062818 0.025791124 -0.16063042 -0.2612353
-0.3498866 -0.088683456 -0.19749546 -0.15612623 0.110214934 -0.19287965 0.15013358 -0.21139021
00000000: 13ea bf3d 4ee1 883c 819e 95be 1a66 52bd
00000010: 01eb e7be d63d e3be 24e7 71be 64fa a6be
00000020: 6672 2fbe e57e 8abe de62 37bf 1cfc efbc
00000030: b8bf 63be 0563 1ebe 48bc f7be 9b15 54bd
00000040: b1f9 1dbe d4e5 c4be 0df0 15be 249e 9bbe
00000050: 1350 fabd dbbc 80be d1ba 11bf c1fd 76be
00000060: 61d6 f1be 529a 87be 9992 67bc 2d63 69bc
00000070: b22e fabd 65e5 333d 2d82 fa3a 65fa bebe
00000080: fd53 fbbe 194b 87be 2482 52bc 1230 0dbe
00000090: fdc7 54bd d9a4 88be 8dc9 0bbe b2eb 13bc
000000a0: 32d9 acbe e495 a73d f7ef 7c3d 887b 0ebf
000000b0: 5111 aabe 5167 77be f793 bbbe d8ee 91be
000000c0: 9197 16be 2a51 cdbe 2a97 bfbc b108 82bd
000000d0: 1c1a 07be bc4f 6cbe 8c9f 4b3e 5235 d0be
000000e0: 7acb 71be e816 06bf ea33 58be 3433 b3be
000000f0: d4a9 a3be cae2 6d3d 2395 8ebe 7510 7f3c
00000100: f61a 12be a00d 13be eee1 0dbd 889e 193e
00000110: e873 57bd 91bd b4be a5fa fbbd b882 9e3e
00000120: 07aa 96be 23f2 7abc 1b41 43be 9ecb 5ebe
00000130: f3c7 8cbd b2d3 32be 0373 c8be d5ad 5cbe
00000140: 2bf0 aebe 1146 4cbe 734c 99bd 1d10 4cbe
00000150: c26f 21be d27e f1bd 3f23 98be 300f 95be
00000160: 52d9 c5be 5279 983d fb69 6b3d a048 d23d
00000170: 2b1c cebd f341 79be b4c0 6dbe 8862 14be
00000180: ed2d c03d e097 febe 8beb 0a3d 7dac fabe
00000190: 7308 75bc 051a 89be 9af6 16bf 17e4 a6bd
000001a0: de04 9cbe 893e e8be 9619 9fbe 0cd6 c8be
000001b0: e182 10be ce0e 1c3d c20f 22be 2b63 79be
000001c0: 93bd ffbd 852d 483c 2752 10be 56ca 95be
000001d0: 2f4c cfbd 347b cabd 23e3 93bd eb93 12be
000001e0: 08ec 0cbf 78b7 b1be 7661 2bbd 5f7f febd
000001f0: 1d2b 8cbd b4c9 6cbe 03fe 53be 3a58 a1be
00000200: f76c 483d 0baa 69bd e1fc a8be eb5e 51bc
00000210: 1484 a4be 1ee8 d5be df83 9a3d a92b 7abe
00000220: e3a6 11bd a062 04bc 7ff8 13bf 4a45 a23d
00000230: 989b 75be 9697 1e3d ca62 53be cc0c fb3b
00000240: b91e eebd 9112 c9be 2bc6 9cbe 0a33 893d
00000250: 0345 a3bd 9655 70be e813 08bf 6660 613e
00000260: 1c39 a5be 2ca9 79bd 4f55 85bd 6094 873e
00000270: 675b 76bc 2d9a 363e 83e0 9bbd fbe3 42bd
00000280: ead4 d8be a660 aabe 60da 12be 8820 c3bd
00000290: 2389 473c f99e fa3d 2e84 6f3e 50d8 e0bd
000002a0: c44c bb3c 28a2 11be 1b5b 463d a107 f8be
000002b0: 3b9f 82be c4b8 69be f11e c0be 1e2e d3bc
000002c0: 7c8d 513d c47a 88be 91d0 133c 8d55 18bd
000002d0: 697d 3ebe a872 43be 634b fdbd 6eb9 6abe
000002e0: 77ef 92bd f95c 94be 94d4 02bd be39 7bbe
000002f0: 2044 a3be f0c0 533c c21e 0bbe c6f9 a43d
00000300: 521e 10bd e752 bebe 0915 16be c9c2 1ebe
00000310: 457d 263e 131a acbe 46fb 3c3c 2092 2fbc
00000320: 666f 83be 3756 f9bd d428 2fbe 0782 cdbd
00000330: d484 bbbd 0cd0 ad3d 5d19 cbbe d0a2 04be
00000340: 9837 09be 3ea1 81bd 8a39 743d 52f8 eabd
00000350: 6224 c6bd cdfa cf3d 29a5 1d3c 1ab8 64bd
00000360: a3de f7be 2907 1b3e 7416 99bd f30c f33e
00000370: 2675 00be 4103 04bd dddf d0bd b88a a9bd
00000380: 2ac5 1bbd e93c d3be cbfa 0f3e 6524 1ebe
00000390: a769 0cbc cd34 0c3e d6da f4be c59a 75be
000003a0: 0223 31bc 172e a4be cfb2 ddbd 6610 7dbe
000003b0: d35d 5c3e 13d6 123d 2b8e 05be c63a 3c3d
000003c0: 750f 7cbe 363c 283d 2cef 4abe a53f b6be
000003d0: 2c96 833c e847 d33c 4d7c 24be a2c0 85be
000003e0: 5624 b3be ac9f b5bd 403c 4abe 8edf 1fbe
000003f0: 5eb8 e13d 3e82 45be 9ebc 193e ad76 58be

fc.weight f4 [4, 128]
-1.0471022 -0.36352107 0.37773737 -0.00810178 0.13009854 -0.62421924 -0.66174257 0.6812901
-0.52875024 1.0177703 -0.29147714 0.675399 -0.43977746 -0.8960072 0.33962482 0.04074178
0.6558731 0.25154477 0.38454837 0.900147 0.21037059 -0.30552608 -0.27800208 1.1356112
0.35442623 -0.5956839 -0.19107209 1.1150109 0.71603835 0.23783365 -0.34216833 -1.2253879
-0.2931909 -0.6782122 -0.7964899 0.44864407 0.29912478 -0.1898333 -0.5348647 0.15098572
-0.19708194 -0.37615803 -0.3251846 -0.50794894 0.7703702 0.08479663 -0.40731332 -1.4000384
-0.43241403 0.29788604 -0.38125497 -0.1971587 0.20709756 0.018719027 -0.46637902 -0.022794157
-0.35289213 -0.18553782 0.4782202 0.15341292 -0.8458613 -1.1756102 -0.83413255 -0.05303022
-0.6042445 -0.23961014 0.42510736 0.60162365 0.56840384 0.27110863 0.64371216 -0.30037957
-0.30957282 0.528614 0.13609305 0.92780745 -0.5027646 0.29363322 0.42120576 -1.0049514
-0.32262257 -0.5488373 -0.7564183 -0.09678215 0.25135657 0.4344646 3.2828517 -0.2888931
-0.16668789 -0.68282056 -1.7103918 0.21119125 -0.6861776 -0.26561448 0.52030414 -0.050959688
-0.29106644 -0.2297438 0.09649563 -0.36506477 -0.23578885 -0.5963357 0.34878427 1.3224432
-0.9073839 0.19014244 -0.11113343 -1.8704553 -0.7642859 -0.2556239 0.32546163 0.8693517
0.16209912 -0.2553401 -0.9932607 0.27090618 0.4514059 -0.08543471 -0.48384544 0.64293164
-0.5564282 0.8670954 -0.5216807 0.678375 0.3274944 -0.9287524 -0.06760893 0.37010863
-0.013722482 0.054513205 -0.26339605 0.09491978 0.0836094 -0.06490093 0.03999592 -0.16894291
-0.14520733 -0.15376616 -0.11883155 -0.2504975 0.18282136 0.18219654 0.30606574 -0.29642
0.10503785 -0.03948478 -0.37701434 -0.19519992 -0.0053918217 0.099098936 0.08232344 0.018792203
-0.14163303 0.028792137 -0.017799292 -0.26313365 -0.21602614 -0.18392158 -0.2267249 0.19165479
0.09977172 0.1121679 0.14573841 0.112107 -0.44448888 0.13618354 0.3553696 0.03698455
0.18832576 0.13409822 -0.4720543 0.14988166 0.036716364 0.39407614 0.34166816 0.11736834
0.17959236 -0.22946148 0.19848639 -0.52117443 -0.14461128 -0.43918192 0.16156773 -0.6512068
0.074809924 0.4024131 -0.7949508 -0.14878874 0.11610188 -0.16532719 0.11419627 0.11837168
0.18139704 -0.023936933 -0.18605477 -0.1231454 0.009684923 0.07483493 -0.10146267 0.08631525
-0.031033807 -0.308905 -0.40983677 -0.0660186 0.075023755 -0.2092364 0.058005366 0.1906632
0.20905271 0.31636867 0.12923893 0.2178226 -0.18459696 -0.05736845 -0.14393975 0.11286889
-0.19024451 0.23130216 0.12330994 -0.36713865 0.16599233 0.38583085 -0.16896407 0.10210218
0.6904451 -0.082143225 0.27609316 0.2108747 0.167799 -0.4240693 -0.05142346 -0.10415104
0.15646704 0.32752737 0.16308978 0.10612521 0.6363134 0.040815067 0.26970392 -0.19986352
-0.09733243 0.18418688 0.19600172 -0.14575134 0.18777202 -0.2422941 0.014096556 -0.07881161
0.06333525 0.04741892 0.16192192 -0.20124902 -0.19087888 0.072376624 0.29964334 0.16244024
00000000: 7207 86bf 6f1f babe cb66 c13e 54bd 04bc
00000010: 8d38 053e d5cc 1fbf f667 29bf 0769 2e3f
00000020: 2d5c 07bf 4c46 823f 7e3c 95be f3e6 2c3f
00000030: 832a e1be ba60 65bf 4ee3 ad3e dae0 263d
00000040: 4de7 273f 7aca 803e 86e3 c43e 0970 663f
00000050: 636b 573e ea6d 9cbe 4a56 8ebe b55b 913f
00000060: 5b77 b53e bd7e 18bf 67a8 43be adb8 8e3f
00000070: 4a4e 373f aa8a 733e b030 afbe 83d9 9cbf
00000080: 1e1d 96be 519f 2dbf c3e6 4bbf adb4 e53e
00000090: e226 993e a963 42be e5ec 08bf 009c 1a3e
000000a0: d9cf 49be c997 c0be 997e a6be f108 02bf
000000b0: fb36 453f dba9 ad3d 5f8b d0be 7534 b3bf
000000c0: 5f65 ddbe 8584 983e da33 c3be f8e3 49be
000000d0: 6211 543e a558 993c 3bc9 eebe d0ba babc
000000e0: 47ae b4be a0fd 3dbe 47d9 f43e 4718 1d3e
000000f0: 5e8a 58bf 657a 96bf b689 55bf 3736 59bd
00000100: c4af 1abf 5c5c 75be aca7 d93e 0204 1a3f
00000110: ea82 113f c0ce 8a3e 52ca 243f 5acb 99be
00000120: 5480 9ebe 3f53 073f fa5b 0b3e ca84 6d3f
00000130: 2eb5 00bf 1857 963e 48a8 d73e 3fa2 80bf
00000140: c92e a5be 9a80 0cbf a1a4 41bf b835 c6bd
00000150: cfb1 803e 2572 de3e 3e1a 5240 cce9 93be
00000160: 3bb0 2abe 54cd 2ebf 1eee dabf 8542 583e
00000170: 56a9 2fbf 9ffe 87be a732 053f 1bbb 50bd
00000180: a906 95be f541 6bbe 809f c53d c5e9 babe
00000190: a272 71be 75a9 18bf da93 b23e d245 a93f
000001a0: 504a 68bf b3b4 423e ec99 e3bd 146b efbf
000001b0: 3ea8 43bf 23e1 82be e8a2 a63e d58d 5e3f
000001c0: 50fd 253e f0bb 82be 5546 7ebf 37b4 8a3e
000001d0: ad1e e73e 65f8 aebd 97ba f7be 2b97 243f
000001e0: 1472 0ebf f7f9 5d3f de8c 05bf fca9 2d3f
000001f0: 59ad a73e b8c2 6dbf 8d76 8abd e17e bd3e
00000200: 43d4 60bc 3d49 5f3d d9db 86be 4d65 c23d
00000210: 683b ab3d c7ea 84bd c3d2 233d 5fff 2cbe
00000220: 3bb1 14be e074 1dbe f55d f3bd 3541 80be
00000230: 8635 3b3e bb91 3a3e a6b4 9c3e 5dc4 97be
00000240: 161e d73d cbba 21bd 0608 c1be 7de2 47be
00000250: e1ad b0bb 62f4 ca3d 3199 a83d 1bf2 993c
00000260: 4008 11be 7ddd eb3c d2cf 91bc 74b9 86be
00000270: f535 5dbe f055 3cbe 922a 68be 2741 443e
00000280: 1e55 cc3d 49b8 e53d 733c 153e 5b98 e53d
00000290: 0c94 e3be b373 0b3e 01f3 b53e 1d7d 173d
000002a0: 78d8 403e 0b51 093e 1ab1 f1be 947a 193e
000002b0: e663 163d 59c4 c93e 21ef ae3e d05e f03d
000002c0: 0fe7 373e f3f7 6abe 0440 4b3e b06b 05bf
000002d0: fb14 14be 74dc e0be 0372 253e 7db5 26bf
000002e0: f235 993d 1709 ce3e e581 4bbf 135c 18be
000002f0: d3c6 ed3d 884b 29be bcdf e93d da6c f23d
00000300: 25c0 393e 6317 c4bc 2485 3ebe a833 fcbd
00000310: 83ad 1e3c 0e43 993d a9cb cfbd 0dc6 b03d
00000320: 9c3a febc cc28 9ebe 20d6 d1be c234 87bd
00000330: 0ea6 993d 1142 56be 0997 6d3d 373d 433e
00000340: ea11 563e 13fb a13e 3657 043e e30c 5f3e
00000350: fc06 3dbe 2efb 6abd f164 13be ce27 e73d
00000360: 75cf 42be 79da 6c3e ec89 fc3d 99f9 bbbe
00000370: e5f9 293e 9f8b c53e eb04 2dbe f31a d13d
00000380: 03c1 303f b53a a8bd 155c 8d3e 8aef 573e
00000390: 80d3 2b3e 9c1f d9be 68a1 52bd 244d d5bd
000003a0: e538 203e abb1 a73e 0201 273e 2d58 d93d
000003b0: 6fe5 223f b32d 273d a216 8a3e 06a9 4cbe
000003c0: 3a56 c7bd 7c9b 3c3e adb4 483e d73f 15be
000003d0: 4f47 403e f21b 78be 3ef5 663c fb67 a1bd
000003e0: e9b5 813d 573a 423d dcce 253e 3914 4ebe
000003f0: c175 43be 323a 943d da6a 993e bc56 263e

fc.bias f4 [4]
0.0679336 -0.11659444 -0.20573999 0.6622516
00000000: c520 8b3d 11c9 eebd 81ad 52be 5289 293f
