CNN/CNN5/model.pth (torch, 108815 bytes, 8 tensors)

conv1.weight f4 [16, 3, 3]
0	0x3f1c28d2	0.60999787
1	0x3f2d5778	0.6771159
2	0x3e8eeb44	0.27913868
3	0xbfb7e489	-1.4366618
4	0xbf5da185	-0.86574584
5	0xbf8a09ec	-1.0784278
6	0x3badcaa3	0.005303697
7	0xbe1983af	-0.1499164
8	0x3da4a77e	0.08039759
9	0x3e4dfcb3	0.20115928
10	0x3ef1e3f0	0.47244215
11	0x3e3a72fe	0.18207929
12	0x3dbad375	0.091223635
13	0xbe1006fd	-0.14065166
14	0x3e54b1a0	0.20770884
15	0x3e16b6fb	0.14718239
16	0xbf5953c0	-0.8489342
17	0xbfdafe00	-1.7108765
18	0xbf4b9782	-0.7952806
19	0xbed1e0c2	-0.4099179
20	0xbf1626f9	-0.5865322
21	0x3f1e4fd9	0.6184059
22	0x3ef8c97a	0.48591214
23	0x3f4152f5	0.7551721
24	0xbec49e06	-0.38401812
25	0xbef67d51	-0.48142484
26	0xbf6d010c	-0.9257972
27	0xbe95a14c	-0.29224622
28	0xbe84e804	-0.25958264
29	0xbe361b27	-0.17783795
30	0x3e856f09	0.26061276
31	0xbd91d614	-0.0712091
32	0xbe9a1d33	-0.30100402
33	0xbde6f3a6	-0.11276941
34	0x3e557236	0.2084435
35	0x3e9d4418	0.30716014
36	0xbf094b92	-0.53630936
37	0xbdbbd80b	-0.09172066
38	0xbee5af04	-0.4486009
39	0xbed93a78	-0.4242742
40	0x3e9d235b	0.30691037
41	0x3ef9bfba	0.48779088
42	0xbfade3c2	-1.3585131
43	0xbf5ccb62	-0.8624784
44	0xbf825663	-1.0182613
45	0x3c48cc53	0.012255746
46	0xbcf42935	-0.029804805
47	0xbe43317c	-0.19061846
48	0xbe51503c	-0.20440763
49	0xbe82490d	-0.25446358
50	0xbd656d73	-0.056012582
51	0xbf1105ec	-0.5664966
52	0xbf152e21	-0.5827351
53	0xbea19281	-0.31557086
54	0xbf222a74	-0.6334603
55	0xbe92dea4	-0.28685486
56	0xbe9551d2	-0.29163986
57	0xbd924ddb	-0.07143756
58	0xbea344b1	-0.31888345
59	0xbdc47fcf	-0.0959469
60	0x3f2849ed	0.657378
61	0x3f1dc0d3	0.6162235
62	0x3ebbd3d2	0.36685044
63	0xbf937a12	-1.1521628
64	0xc003be48	-2.0584888
65	0xc0013cb2	-2.0193295
66	0x3e8ea238	0.27858138
67	0x3f0e557b	0.5559918
68	0x3ea0d966	0.31415862
69	0xbd0fe0fc	-0.03512667
70	0x3ec8ab6b	0.39193282
71	0x3e85dc6a	0.26144725
72	0x3ee40ad0	0.445395
73	0x3ee47aaa	0.44624835
74	0x3eef798d	0.46772423
75	0xbdddeb16	-0.10835855
76	0xbf11f7c0	-0.5701866
77	0xbda19dd9	-0.07891435
78	0xc0217c7c	-2.523223
79	0xc0034589	-2.051119
80	0xbf9581e0	-1.168026
81	0x3e10e40e	0.14149496
82	0x3cadc196	0.021210473
83	0x3f03af57	0.5143942
84	0xbe8a9025	-0.270631
85	0x3ea58d23	0.3233424
86	0xbdcf4cfd	-0.10122106
87	0xbf584d97	-0.8449339
88	0xbf89c9ab	-1.0764669
89	0xbf84d0f7	-1.0376271
90	0x3f361801	0.7113038
91	0x3f1fa81c	0.6236589
92	0x3eb86929	0.3601773
93	0xbf24bcc2	-0.6435052
94	0xbf14a102	-0.5805818
95	0xbe50cb08	-0.2038995
96	0xbde9f190	-0.114230275
97	0xbe43cf0f	-0.19121955
98	0xbf19d850	-0.6009569
99	0xbef16040	-0.47143745
100	0xbf57c0a2	-0.8427831
101	0xbec05490	-0.37564516
102	0x3e73726e	0.2377412
103	0x3f381362	0.71904576
104	0x3f43f3da	0.7654396
105	0xbf103ce6	-0.56342924
106	0xbf627f7d	-0.8847578
107	0xbf627ada	-0.88468707
108	0x3f3c50bf	0.7356071
109	0x3f28793c	0.6580999
110	0x3f1b9b2f	0.60783666
111	0xbfee2077	-1.8603657
112	0xbf919850	-1.1374607
113	0xbf1888bb	-0.59583634
114	0xbd989947	-0.0745111
115	0xbdf50996	-0.11964719
116	0xbe8c2df8	-0.2737882
117	0xbed50696	-0.41606587
118	0xbe7ebd65	-0.24876936
119	0xbe27c4d9	-0.16383685
120	0x3efef62b	0.49797186
121	0x3e9d94cb	0.30777583
122	0xbda2b4d3	-0.07944646
123	0x3ebef0da	0.3729313
124	0xbd31ea2b	-0.04343621
125	0x3e3036f4	0.17208463
126	0xbd99155c	-0.07474777
127	0x3d8abc6c	0.0677422
128	0xbdb43256	-0.08798663
129	0x3d202738	0.039099902
130	0xbea9f7e6	-0.33196944
131	0xbcab0940	-0.020878434
132	0xbe02407e	-0.12719914
133	0xbe70505b	-0.23468153
134	0x3e1ec3e8	0.1550442
135	0x3f066dbc	0.5251119
136	0x3f0c920e	0.5491036
137	0x3ef24339	0.47316912
138	0xbf12bf48	-0.5732312
139	0xbeda9006	-0.42688006
140	0xbe9e0885	-0.30865875
141	0xbe84e8cc	-0.2595886
142	0xbe19caee	-0.15018818
143	0xbdf10790	-0.117690206

conv1.bias f4 [16]
0	0x3df68856	0.12037723
1	0xbea311d2	-0.31849533
2	0xbd14568e	-0.036215357
3	0xbe959fff	-0.2922363
4	0x3d418e42	0.04725481
5	0x3de842e6	0.11340885
6	0xbea70a64	-0.32625115
7	0x3ed8af2b	0.42321143
8	0x3eb0d8cb	0.345404
9	0x3eb8078f	0.35943267
10	0xbe3cf6d4	-0.18453532
11	0xbeeaa144	-0.4582616
12	0x3e3a5ee5	0.18200262
13	0xbe0ae72d	-0.13564749
14	0xbdd0dbb6	-0.101981565
15	0x3e99d1ef	0.3004298

conv2.weight f4 [32, 16, 3]
0	0xc017f6ff	-2.3744504
1	0xc0001cbd	-2.001754
2	0xbfa1d1d0	-1.2642155
3	0x3ed0d135	0.40784612
4	0x3eb457a0	0.35223103
5	0x3f0671f9	0.5251766
6	0xbe6ba7a0	-0.23013163
7	0x3db178f2	0.086656466
8	0x3e287f48	0.16454804
9	0x3c6fa945	0.014627759
10	0xbd673678	-0.05644843
11	0xbda5a292	-0.080876485
12	0x3eb5fb2b	0.35543188
13	0xbe5640d8	-0.20923173
14	0x3da04684	0.0782595
15	0x3d3b6252	0.045748062
16	0x3e7d83b3	0.2475727
17	0xbc90ce5f	-0.01767653
18	0xbf614518	-0.87996054
19	0xbf8e78fe	-1.1130674
20	0xbf91341d	-1.1344029
21	0x403b2a75	2.9244664
22	0x404b099b	3.1724613
23	0x401d87d5	2.4614155
24	0xbe6bd607	-0.23030864
25	0xbead6d22	-0.33872324
26	0xbe990ebf	-0.29894063
27	0x3f479c7d	0.7797316
28	0x3f2f62ab	0.6850993
29	0x3f5acce4	0.8546889
30	0xbe676abf	-0.22599314
31	0x3db15746	0.08659224
32	0xbe0bf05d	-0.1366591
33	0x3e2c55a0	0.16829538
34	0x3dbb6511	0.09150136
35	0x3eeddaf9	0.46456125
36	0xbf7220e0	-0.94581413
37	0xbedb20f8	-0.4279859
38	0xbeca8359	-0.39553335
39	0x3ebe92cb	0.3722137
40	0x3e2eec6f	0.1708238
41	0xbcb62a72	-0.022237036
42	0x3d9ed370	0.07755172
43	0xbd2639a4	-0.040582314
44	0xbdb6d61a	-0.089275554
45	0xbc6c5211	-0.014423863
46	0xbc8cebb8	-0.017202243
47	0xbca6391a	-0.0202909
48	0xbdfe5cff	-0.12420081
49	0xbe00a959	-0.12564601
50	0xbd28399c	-0.041070566
51	0x3e662ad5	0.22477277
52	0x3e88df8d	0.26733056
53	0xbd1076ff	-0.035269734
54	0xbe2f2c1e	-0.17106673
55	0xbe3f096a	-0.18655935
56	0xbee9cd3c	-0.45664394
57	0xbc5b2b4c	-0.013377022
58	0x3dd50680	0.104016304
59	0x3c75e2d0	0.01500769
60	0xbd8b9aea	-0.06816657
61	0x3e4ba263	0.19886164
62	0xbd4dae8d	-0.050215293
63	0xbd8f0cc7	-0.06984859
64	0xbdd4c68b	-0.103894316
65	0xbbef56e8	-0.007304061
66	0x3ebf13c3	0.37319764
67	0x3b5f180c	0.0034041433
68	0x3e863071	0.26208833
69	0xbf1d6e82	-0.61496747
70	0x3f411ee6	0.7543777
71	0xbf235c16	-0.63812387
72	0xbee33b36	-0.44381112
73	0xbed92883	-0.4241372
74	0xbed7e7ed	-0.42169133
75	0x3e597124	0.21234566
76	0x3f0df441	0.55450827
77	0x3ebec9aa	0.37263232
78	0xbf8360d3	-1.0263923
79	0xbe9cf2af	-0.30653903
80	0x3d2227e0	0.03958881
81	0xbd5a2123	-0.053254258
82	0x3d82188f	0.063523404
83	0xbe8f66b5	-0.28008047
84	0xbe468713	-0.19387464
85	0xbd78d8b5	-0.060753543
86	0x3ddf6b88	0.10909182
87	0xbd008232	-0.031374164
88	0xbe470bfb	-0.19438164
89	0xbe104c60	-0.14091635
90	0x3c3e8570	0.011628494
91	0xbd2001d8	-0.03906426
92	0x3b5e3240	0.0033904463
93	0xbecf9d8c	-0.40549886
94	0xbe90be84	-0.28270352
95	0xbe04dd99	-0.12975158
96	0xbfc8e7e4	-1.5695767
97	0x3f058586	0.52156866
98	0x3fa84260	1.3145256
99	0xbd8c49de	-0.068500265
100	0xbe82b6b0	-0.25530005
101	0xbdc08b83	-0.0940161
102	0xbfa4de7c	-1.2880397
103	0xbeeb3af9	-0.4594343
104	0xbe772bac	-0.24137753
105	0x3e031f3f	0.12804888
106	0x3cf186f0	0.029483289
107	0xbaa7da00	-0.0012806058
108	0x3f060efc	0.52366614
109	0xbc93c99b	-0.018040469
110	0x3dbf314a	0.09335573
111	0xbe0c44c0	-0.13698101
112	0x3d9022da	0.070378974
113	0x3de12f49	0.10995347
114	0xbe3f811b	-0.18701594
115	0xbf6fa157	-0.9360556
116	0xbf8119bd	-1.008598
117	0x3ee3546c	0.44400346
118	0xbdf18d48	-0.117945254
119	0xbeb880a6	-0.3603565
120	0xbf1fca02	-0.62417614
121	0xbf4625f7	-0.7740168
122	0xbeed99ec	-0.46406496
123	0x3f716ca6	0.9430641
124	0x3f24fe82	0.6445085
125	0x3eee5919	0.4655235
126	0x3f491f21	0.78563124
127	0x3dacc005	0.08435062
128	0x3e9ecd16	0.31015843
129	0x3ee39e0d	0.4445652
130	0x3f13025f	0.57425493
131	0x3cf02766	0.029315662
132	0xc0143f4e	-2.3163638
133	0xbf925883	-1.1433262
134	0x3ed7733d	0.42080107
135	0xbd225b25	-0.039637703
136	0x3daf6cef	0.08565699
137	0x3d4a7e9d	0.049437154
138	0xbc983c90	-0.018583566
139	0xbe10e64a	-0.14150348
140	0x3badd620	0.0053050667
141	0x3dae2c38	0.08504528
142	0x3df737fb	0.12071224
143	0x3e0180a9	0.12646736
144	0x3da461f6	0.08026497
145	0xbde8f46e	-0.11374746
146	0x3cb7dba8	0.022443607
147	0x3dead748	0.11466843
148	0xbddff0a3	-0.1093457
149	0x3da9858d	0.08277426
150	0x3d7a34c5	0.06108548
151	0xbd1534eb	-0.03642742
152	0x3d8e7573	0.069559954
153	0xbdf53423	-0.11972835
154	0xbdb5a128	-0.08868629
155	0xbe07161e	-0.13192031
156	0xbe007857	-0.12545906
157	0x3c6a4340	0.01429826
158	0xbe0cced0	-0.13750768
159	0x3d896cec	0.06710228
160	0x3dde74ac	0.10862097
161	0xbd549896	-0.05190333
162	0x3d64b97c	0.055840954
163	0xbdb2ee80	-0.087368965
164	0x3dd7e08e	0.10540877
165	0x3dd0cb35	0.10195009
166	0xbcd97d88	-0.026549116
167	0xbdc02743	-0.093824886
168	0xbdea676a	-0.11445506
169	0xbdc12c0d	-0.0943223
170	0x3d0377d9	0.032096718
171	0xbd706dfd	-0.058698643
172	0x3da54bad	0.08071075
173	0x3d2c2ac9	0.04203299
174	0x3c3586e0	0.01107952
175	0x3d3686b4	0.044562057
176	0xbe0f428c	-0.1399023
177	0xbd941fed	-0.07232652
178	0xbd683cb4	-0.056698516
179	0xbd8135cb	-0.06309088
180	0xbdeadbc7	-0.114677005
181	0x3d105d94	0.035245493
182	0xbd4321ae	-0.04763954
183	0x3d48da85	0.04903652
184	0x3d8c15f1	0.068401225
185	0xbe0a47c0	-0.13503933
186	0x3dba0bde	0.09084295
187	0x3d7525dc	0.05985056
188	0x3cf44108	0.029816166
189	0xbe0cee03	-0.1376267
190	0xbd94adfd	-0.07259748
191	0x3c4594c7	0.012059397
192	0xbee186e9	-0.4404824
193	0xbed46664	-0.41484368
194	0xbf3a2ee6	-0.7272781
195	0xbeb334e3	-0.35001287
196	0x3e8d4b56	0.2759654
197	0x3ee8ade3	0.45445165
198	0x3f6ab76c	0.9168613
199	0x3f902f9d	1.126453
200	0x3f85d69a	1.0456116
201	0xbd83c600	-0.0643425
202	0xbe0aa3c2	-0.13539031
203	0x3b586700	0.0033020377
204	0x3dc7079d	0.09718249
205	0x3ec528fc	0.3850783
206	0xbebaceb3	-0.36485824
207	0xbdb5dde1	-0.08880211
208	0xbe2c078c	-0.16799754
209	0xbcd7360b	-0.026270887
210	0x3ebf4491	0.37357
211	0x3ebdaa1d	0.3704385
212	0x3f34ae57	0.7057852
213	0x3f2dab29	0.67839295
214	0x3e0112e9	0.1260487
215	0xba7b3ee7	-0.00095842633
216	0xbfa2322c	-1.2671561
217	0xbf0e9a93	-0.5570461
218	0xbf113233	-0.5671722
219	0xbf2381ad	-0.63869745
220	0xbf23ca96	-0.63980997
221	0xbed9b827	-0.4252331
222	0xbe3ebaaf	-0.18625902
223	0xbf0e8b30	-0.55681133
224	0xbf3d8fa9	-0.74047333
225	0x3e705f30	0.23473811
226	0x3e940464	0.289096
227	0x3e85c442	0.26126295
228	0xbe8a67df	-0.27032372
229	0xbf3c6997	-0.7359862
230	0xbff294e5	-1.8951689
231	0x3e74febc	0.23925298
232	0x3de3059d	0.11085055
233	0x3eba090d	0.3633503
234	0xbd791ec2	-0.06082035
235	0xbdf16a7c	-0.117878884
236	0x3d4014f4	0.046894982
237	0xc003c43b	-2.058852
238	0xc00e4fcf	-2.2236211
239	0xc0159de7	-2.3377626
240	0x3ecbe2b9	0.39821413
241	0x3efb5081	0.49084857
242	0xbf21c152	-0.6318561
243	0x3e265eab	0.1624705
244	0x3ec32784	0.38116086
245	0x3f0e7181	0.55641943
246	0xbfe7ec1c	-1.811893
247	0xbfa5f291	-1.296465
248	0xbf93aebe	-1.1537702
249	0xbcd6d4d5	-0.026224533
250	0xbd85a889	-0.06526286
251	0x3d128d3c	0.035779223
252	0xbef46cc1	-0.47739223
253	0x3e9afffa	0.3027342
254	0x3e7f2127	0.2491499
255	0xbd3f2249	-0.046663556

conv2.bias f4 [32]
0	0xbe09244a	-0.1339275
1	0xbe8f83c4	-0.28030217
2	0xbe2dea7f	-0.16983984
3	0xbe07e34d	-0.13270302
4	0x3bb52c51	0.0055289646
5	0xbe61e827	-0.22061215
6	0xbe79dbde	-0.24400279
7	0x3e404108	0.18774807
8	0xbee4a0d5	-0.44653955
9	0xbd75283b	-0.05985282
10	0xbe660086	-0.22461137
11	0xbe0a4c96	-0.13505778
12	0xbe341762	-0.17587045
13	0xbe3d7c47	-0.1850444
14	0xbe60e593	-0.21962576
15	0xbf27947c	-0.65460944
16	0xbdb64d9f	-0.08901524
17	0xbe218347	-0.15772735
18	0xbe3b9da0	-0.18321848
19	0xbeadc284	-0.33937466
20	0xbdea5596	-0.114421055
21	0xbe78c57e	-0.24294087
22	0x3e192dc6	0.14958867
23	0xbe4c06f0	-0.19924521
24	0xbea30a5e	-0.31843847
25	0xbf880713	-1.0627159
26	0xbe930168	-0.2871201
27	0xbe5efb7b	-0.2177562
28	0xbe648337	-0.2231568
29	0xbf023a72	-0.5087043
30	0xbbd86693	-0.0066040247
31	0xbe834b3b	-0.25643334

fc1.weight f4 [64, 384]
0	0x3b93769b	0.004500223
1	0xbcad7233	-0.021172618
2	0xbd1c267d	-0.038122643
3	0x3d1d05ea	0.03833572
4	0xbc84a59f	-0.016192256
5	0x3cc3d00d	0.023902917
6	0xbcb424d0	-0.02199021
7	0xbd43e9c0	-0.047830343
8	0xbd366398	-0.044528574
9	0x3c25f6fa	0.010129685
10	0xbd052f8e	-0.032516055
11	0xbd51feef	-0.051268514
12	0x3bcbc4de	0.0062185368
13	0xbb840ac3	-0.004029603
14	0x3a87bb1d	0.0010355447
15	0xbd744a38	-0.059641093
16	0xbd676928	-0.05649677
17	0xbba69a70	-0.0050843284
18	0xbd30a0f4	-0.043122247
19	0xbd875d6a	-0.06609614
20	0x3c2d8f62	0.010593267
21	0xbc2a7138	-0.01040297
22	0x3b832830	0.0040025935
23	0xbda7d0f5	-0.08194152
24	0xbc9c3e54	-0.01907269
25	0x3b9e2311	0.0048259576
26	0xbd4aa723	-0.0494758
27	0xbd835318	-0.06412333
28	0xbd73a0b1	-0.05947942
29	0xbc66aba7	-0.014079011
30	0xbcae0ece	-0.021247294
31	0xbd3b59bf	-0.045739885
32	0xbd9dabd4	-0.07698789
33	0xbd01774a	-0.031607904
34	0xbd3e140c	-0.046405837
35	0xbd7e6eee	-0.06211751
36	0x3d33bc16	0.043880545
37	0xbc866500	-0.016405582
38	0x3c861150	0.016365677
39	0xbd142096	-0.03616389
40	0x3d414f04	0.047194496
41	0x3c4795d0	0.012181714
42	0xbd1d47ca	-0.03839854
43	0xbc4cf348	-0.012509175
44	0x3d21c28a	0.039492168
45	0x3ab790a0	0.0014004894
46	0x3d14ec76	0.03635832
47	0xbd0ae987	-0.033914115
48	0x3d22d5ed	0.039754797
49	0x3c1386ea	0.009004334
50	0x3b8d7914	0.004317412
51	0xbc804378	-0.015657172
52	0xbd5dcd1f	-0.054150697
53	0xbd5f3277	-0.054491486
54	0x3c199180	0.009373069
55	0xbd8aafe7	-0.06771832
56	0xba85fcb9	-0.0010222412
57	0xbd86f639	-0.06589932
58	0xbd5b06e4	-0.05347337
59	0xbb6aa48c	-0.0035803644
60	0xbc976264	-0.018479533
61	0x3c1a19cf	0.009405567
62	0xbd99d177	-0.075106554
63	0xbad293f8	-0.0016065827
64	0x3c932d6b	0.017965993
65	0x3d135494	0.03596933
66	0x3b0de603	0.002165199
67	0xbc54bdba	-0.012984687
68	0xbc1f109a	-0.009708548
69	0x3c4792c2	0.012180986
70	0xbc1be309	-0.009514579
71	0xbca9e6d8	-0.020739958
72	0x3d155f63	0.03646792
73	0xbc966ae9	-0.018361526
74	0x3c057c97	0.00814738
75	0xbd242e42	-0.040083177
76	0xbcbada78	-0.022809252
77	0xbd38a85b	-0.04508243
78	0xbd4e62c6	-0.050387166
79	0xbcc5313e	-0.024071332
80	0x3cfc3f53	0.030791914
81	0xbce0f0d9	-0.027458595
82	0xbd3b75cc	-0.045766637
83	0xbc194e1d	-0.009357003
84	0xbd81267d	-0.06306169
85	0x3c8c1cf8	0.017103657
86	0xbd1c6c5a	-0.03818927
87	0xbba886a4	-0.0051430035
88	0x3a835b0b	0.001002164
89	0x3c4f4273	0.01265012
90	0xbd8dc588	-0.06922442
91	0x3b97ac7c	0.004628716
92	0xbcd3329d	-0.02578097
93	0xbafd2220	-0.0019312538
94	0xbd60c3f9	-0.054874394
95	0xbcec026d	-0.02880975
96	0xbd1e33a7	-0.03862348
97	0xbc1ce740	-0.009576619
98	0xbd13e90b	-0.03611092
99	0x3c22eea0	0.009944588
100	0x3a845fe0	0.0010099374
101	0xbd185948	-0.03719452
102	0xbaeda3c0	-0.0018130466
103	0xbc9f624a	-0.019456048
104	0xbabb99de	-0.0014312824
105	0x3c39c08f	0.011337413
106	0x3c961cfa	0.018324364
107	0xbd4dc371	-0.050235216
108	0x3b848c58	0.0040450506
109	0x3b939e98	0.00450499
110	0xbd267da7	-0.040647175
111	0x3b680bcd	0.0035407424
112	0x3c767905	0.015043502
113	0xbd30e072	-0.043182798
114	0xbd78d17b	-0.06074665
115	0xbd19e105	-0.03756811
116	0xbcc73225	-0.024315903
117	0x3c253108	0.010082491
118	0xbd03adbc	-0.032148108
119	0xbdadcb70	-0.08486068
120	0x3b07b703	0.0020708449
121	0xbd479124	-0.0487224
122	0xbd4b935c	-0.04970108
123	0xbc7eff00	-0.015563726
124	0x3c5bb5c0	0.013410032
125	0xbbcd0f92	-0.0062579596
126	0xbced3a74	-0.028958537
127	0xbd2a059b	-0.041509252
128	0xbd430588	-0.047612697
129	0x3ca2fba9	0.019895392
130	0x3d2cc255	0.042177517
131	0xbd1267b7	-0.03574344
132	0x3c4ec880	0.012621045
133	0x3cce0ee8	0.025153592
134	0x3d209aba	0.03921006
135	0xbd3788c1	-0.044808153
136	0x3cd520c4	0.0260166
137	0x3ca1e2a0	0.019761384
138	0x3d08243c	0.03323768
139	0xbd0f76a4	-0.035025254
140	0x3d3d8a1e	0.046274297
141	0x3d4f56b8	0.05061981
142	0x3d20ea22	0.039285786
143	0xbcea55d1	-0.028605374
144	0xbc8c2c22	-0.017110888
145	0x3bf0deb0	0.007350765
146	0x3bd5f938	0.0065299533
147	0x3b909c20	0.004413143
148	0xbd431e3d	-0.04763626
149	0x3c1dc364	0.009629104
150	0x3cf1419c	0.02945023
151	0x3d039742	0.032126673
152	0x3b99f7c0	0.0046987236
153	0xbd2ddcc4	-0.042446867
154	0xbacdec40	-0.0015710667
155	0xbd06a786	-0.032874607
156	0xbcfae343	-0.030625945
157	0xbcc5bb22	-0.024137083
158	0xbd2e60ed	-0.042572904
159	0xbcf879bb	-0.030331483
160	0xbda15d65	-0.07879142
161	0xbd9d5ccc	-0.07683715
162	0xbc2e66ce	-0.010644628
163	0xbda21135	-0.07913438
164	0xbc810e7b	-0.015753975
165	0xbd106d80	-0.035260677
166	0xbd836649	-0.06415994
167	0xbd41953c	-0.04726146
168	0xbc03f7c7	-0.00805468
169	0xbd71d473	-0.059040498
170	0xbd7462de	-0.0596646
171	0xbd215189	-0.0393844
172	0xbda21986	-0.079150245
173	0xbcf26844	-0.029590733
174	0xbd1555a0	-0.03645861
175	0xbc5c2bc0	-0.013438165
176	0xbd280d1f	-0.04102814
177	0xbd76c9f5	-0.060251195
178	0xbd749933	-0.059716415
179	0xbd79ddee	-0.061002664
180	0xbd4f6baf	-0.050639804
181	0xbcba28b3	-0.022724485
182	0x3c8aa256	0.016923111
183	0x3d145cbe	0.03622126
184	0x3cf2a5e6	0.029620122
185	0xba0128a4	-0.00049270154
186	0xbd2a4897	-0.041573133
187	0xbcc4d207	-0.02402593
188	0xbcc4618f	-0.0239723
189	0xbc8a6aa4	-0.016896553
190	0xbd37e4f1	-0.04489607
191	0x3c7732f6	0.015087834
192	0x3c4f75f0	0.012662396
193	0x3c9976ac	0.018733345
194	0x3b674600	0.0035289526
195	0x3cb3937c	0.021920912
196	0xbd069fe0	-0.032867312
197	0xbd4232f4	-0.047411874
198	0x3adde0a0	0.0016927905
199	0x3d2fc32a	0.042910732
200	0xbccb71c8	-0.024834529
201	0x3cd74120	0.026276171
202	0x3c057c80	0.008147359
203	0xbcaf64df	-0.021410404
204	0x3c3e2356	0.011605104
205	0xbd979965	-0.074023046
206	0xbd40cda2	-0.047071107
207	0xbdbf0c80	-0.09328556
208	0xbbca7a08	-0.006179098
209	0xbc40d5f1	-0.011769758
210	0xbd32ded6	-0.043669544
211	0x3c1e138e	0.009648217
212	0xbd14487e	-0.036201946
213	0xbc21ca45	-0.009874885
214	0x3ca81755	0.020518938
215	0x3cfb0d12	0.03064588
216	0xbbf11558	-0.0073572807
217	0xbd3c8ae9	-0.046030913
218	0xbd18b242	-0.037279375
219	0xbcb1c036	-0.021698099
220	0xbcf873ab	-0.030328592
221	0xbd14749b	-0.036244016
222	0xbc6bc79c	-0.014390852
223	0x3cbffb78	0.02343534
224	0x3cf52da0	0.029928982
225	0xbd2ba5b9	-0.041906092
226	0xbc9d2d38	-0.019186601
227	0x3d1c124a	0.03810338
228	0x3d128fe6	0.035781763
229	0x3c84341c	0.016138129
230	0xbcd54d7b	-0.026037922
231	0x3c631c48	0.013861723
232	0xbd19dc7e	-0.037563793
233	0x3d044796	0.032294832
234	0x3d03e03a	0.03219626
235	0xbc90fba4	-0.017698117
236	0x3c514670	0.012773141
237	0xbd472d7b	-0.048627358
238	0x3bac5288	0.005258862
239	0x3d271ef8	0.04080102
240	0xbd2b3164	-0.04179515
241	0xbce44c9a	-0.027868558
242	0x3c0707a1	0.008241565
243	0xbd8db154	-0.06918588
244	0xbd454516	-0.04816159
245	0xbcf127dd	-0.029437954
246	0xbd489e13	-0.048978876
247	0xbd1132b6	-0.035448752
248	0xbdb951c6	-0.090488
249	0xbd98e723	-0.07465961
250	0xbd7a2bcc	-0.061076924
251	0xbd42d96b	-0.047570627
252	0xbcb0746a	-0.021539886
253	0x3d274af4	0.040842965
254	0xbd0f094e	-0.034920983
255	0xbd4c9e81	-0.04995585

fc1.bias f4 [64]
0	0xbd86e0af	-0.06585824
1	0xbc9233c4	-0.01784695
2	0xbd5c5b44	-0.053797975
3	0x3eb1b16f	0.34705684
4	0xbbb8a7d6	-0.005635242
5	0xbdc2d8ab	-0.095139824
6	0xbd989fac	-0.0745233
7	0xbe1f9084	-0.15582472
8	0xbce00c58	-0.027349636
9	0xbb90661f	-0.004406705
10	0xbe434162	-0.1906791
11	0xbd14946a	-0.03627435
12	0xbf31781a	-0.69323885
13	0xbd12b76a	-0.03581945
14	0xbda06a51	-0.07832778
15	0xbd1465a0	-0.03622973
16	0xbf786b2a	-0.9703852
17	0xbd1f36a3	-0.038870465
18	0xbd0bef1d	-0.034163583
19	0xbd5ca74f	-0.053870495
20	0xbe97afc2	-0.2962628
21	0x3bf5815d	0.007492228
22	0xbd4dcea3	-0.050245892
23	0xbb7a5298	-0.0038196202
24	0xbd768fed	-0.060195852
25	0xbd6f0e45	-0.058363218
26	0xbd2163a5	-0.03940167
27	0x3e63a4ec	0.22230881
28	0xbc518f24	-0.012790475
29	0x3ef32623	0.47490034
30	0x3d312999	0.04325256
31	0xbf589e52	-0.8461658
32	0xbd1f3b05	-0.038874645
33	0x3d22d3bc	0.039752707
34	0xbe1f401d	-0.15551801
35	0x3e955d05	0.2917253
36	0xbb6ac996	-0.003582572
37	0xbd316c32	-0.043316074
38	0xbd492b79	-0.049113724
39	0xbe305819	-0.17221107
40	0xbca5679f	-0.020191012
41	0xbeb88f59	-0.36046866
42	0xbe562ec2	-0.20916274
43	0xbe21c7ba	-0.15798846
44	0xba4a6c8b	-0.00077218626
45	0xbbdc9796	-0.0067319376
46	0xbd113df8	-0.03545949
47	0xbce90710	-0.02844575
48	0xbe2686e3	-0.16262393
49	0xbd9a3589	-0.07529742
50	0xbae8ea52	-0.0017770028
51	0xbccd9f78	-0.025100455
52	0x3e0ede42	0.13951972
53	0xbd19285d	-0.03739201
54	0xbf393871	-0.7235175
55	0xbe90c055	-0.28271738
56	0x3c59b564	0.013287876
57	0xbd02a71a	-0.03189764
58	0x3dd09279	0.101841874
59	0xbd9c9aa0	-0.0764668
60	0xbc47b1a3	-0.012188348
61	0xbd3ffd8c	-0.04687266
62	0xbdab13b5	-0.08353368
63	0xbccc6cac	-0.024954163

fc.weight f4 [4, 64]
0	0xbce5060c	-0.027956985
1	0x3de85bfe	0.11345671
2	0xbd65a14a	-0.05606202
3	0x3f8e25ae	1.1105249
4	0x3dcaa002	0.098938
5	0xbc92c4e5	-0.017916152
6	0xbe26fd52	-0.16307572
7	0xbf825d9c	-1.0184817
8	0x3d85d744	0.06535199
9	0x3b9031d2	0.0044004703
10	0x3f80ce7d	1.0063015
11	0x3d916721	0.070997484
12	0xbfc24c81	-1.5179597
13	0xbdde9bf2	-0.10869588
14	0xbd55d142	-0.052201517
15	0x3c2f9266	0.010716056
16	0xc00184e6	-2.0237365
17	0x3fbbf817	1.4685086
18	0xbd8153ae	-0.06314789
19	0x3c422d6c	0.01185165
20	0xc0a50bf6	-5.15771
21	0xbdc862a4	-0.09784439
22	0x3db7df78	0.0897817
23	0x3db7dad4	0.08977285
24	0x3dc4e85f	0.09614634
25	0xbd0307c0	-0.031989813
26	0xbe070e51	-0.13189055
27	0xc0775ddf	-3.8651044
28	0x3d20a56f	0.03922027
29	0xc12380fd	-10.218991
30	0xbf0b3b22	-0.54387105
31	0xbf618eb1	-0.88108355
32	0xbca5d06b	-0.020240983
33	0xc06a6f76	-3.663053
34	0xbf634312	-0.88774216
35	0xc06f3a46	-3.7379317
36	0x3dea3f0b	0.11437806
37	0xbf0b06e6	-0.543074
38	0xc0119db1	-2.2752497
39	0x3f0591e2	0.52175725
40	0x3d8ad232	0.06778373
41	0xbffc736b	-1.9722723
42	0x3fca1180	1.578659
43	0xbc9ecd2c	-0.019384943
44	0x3d8ce0ea	0.068788365
45	0x3d794720	0.060858846
46	0xbbeb6708	-0.007183913
47	0x3dba2a20	0.09090066
48	0xbe26dd60	-0.16295385
49	0xbd2e0452	-0.04248459
50	0xbd895c16	-0.06707017
51	0x3f8475cc	1.0348449
52	0xc0b782da	-5.734723
53	0xbdfc6514	-0.123239666
54	0xbfe3a5d4	-1.7784982
55	0xc0ec3eaf	-7.382652
56	0x3cda96fd	0.026683325
57	0x3cd007b1	0.025394293
58	0x3fdb10a5	1.7114455
59	0x3db43afa	0.088003114
60	0xbc2008ce	-0.009767724
61	0xbd8f88ba	-0.070085004
62	0x3d3d77c7	0.046256807
63	0x3c0cb9af	0.008589192
64	0x3ce7feb7	0.0283197
65	0x3dd66352	0.104681626
66	0x3dc1b158	0.09457654
67	0x3e823cbd	0.25436965
68	0xbd290ff7	-0.04127499
69	0x3c0ca9a9	0.008585372
70	0xbcdf2034	-0.027237035
71	0x3d7af789	0.061271224
72	0x3ca088fb	0.019596567
73	0x3a129fc0	0.00055932626
74	0xbd0bb050	-0.03410369
75	0x3c65142f	0.013981863
76	0xbff6e27d	-1.9287869
77	0xbd68e3f6	-0.056858025
78	0x3ddf5593	0.10904994
79	0xbdb7a855	-0.08967654
80	0x3f6fd00d	0.93676835
81	0x3e3bec46	0.1835185
82	0x3f877b23	1.0584453
83	0xbd87b3a9	-0.06626064
84	0xbecb4cf9	-0.39707163
85	0x3d08d4eb	0.03340618
86	0xbd01254a	-0.031529702
87	0x3d8e0b33	0.0693573
88	0x3d5f04bb	0.05444787
89	0xbd899ee8	-0.06719762
90	0xbd56091c	-0.05225478
91	0x3edf7167	0.43641207
92	0x3da7cf21	0.081938036
93	0x3e2b9a07	0.16757976
94	0x3e944edc	0.28966415
95	0xc007da81	-2.1227114
96	0x3c85c979	0.016331421
97	0x3d9eb081	0.07748509
98	0x3d1ec470	0.038761556
99	0x3e0a3405	0.13496406
100	0xbda77622	-0.08176829
101	0x3ef43b53	0.4770151
102	0x3ebde7e5	0.37090984
103	0xbe7ce329	-0.2469603
104	0x3dd37d90	0.103266835
105	0xbd055b3b	-0.032557707
106	0x3f9ecb81	1.2405854
107	0xbe2d7f8a	-0.16943184
108	0xbd942f2a	-0.07235558
109	0xbdd2d523	-0.10294559
110	0x3d550ffd	0.0520172
111	0xbd9c2b06	-0.076253936
112	0x391920e7	0.00014603474
113	0x3cf9eab4	0.030507423
114	0x3cbc6c62	0.0230009
115	0xbe74639f	-0.23866127
116	0x3d18574a	0.03719262
117	0xbdc359f7	-0.09538644
118	0x3f14382c	0.5789821
119	0x3e11d173	0.14240055
120	0x3d0caa1b	0.034341913
121	0xbd64c47d	-0.05585145
122	0x3e822905	0.2542192
123	0xbd6cce89	-0.057814155
124	0xbd869fa2	-0.06573416
125	0x3cb94e22	0.022620264
126	0xbf0775e5	-0.5291427
127	0xbddb5e7a	-0.10711379
128	0xbdae7e4f	-0.08520185
129	0x3d901a83	0.07036307
130	0xbccb3b13	-0.024808442
131	0xbeec9653	-0.46208438
132	0x3da7b17b	0.081881486
133	0xbc4061ac	-0.011742037
134	0xbd17b3b9	-0.03703663
135	0x3da6c9ee	0.08143984
136	0x3b310a14	0.0027014064
137	0xbdbb9ff9	-0.09161372
138	0xbf8fa8b2	-1.1223357
139	0x3af82d50	0.0018934403
140	0x400401d8	2.0626125
141	0x3da7f869	0.08201677
142	0x3db7fc73	0.08983698
143	0xbc4ef842	-0.012632431
144	0xbee823f0	-0.45339918
145	0xbef7855a	-0.48343927
146	0xbf659fdc	-0.8969705
147	0xbcf5178b	-0.029918453
148	0x3f19784a	0.5994917
149	0x3d06aa38	0.032877177
150	0xbda6a660	-0.08137202
151	0xbd111f94	-0.035430506
152	0xbda25fef	-0.07928454
153	0x3dab5632	0.0836605
154	0x3da9f85a	0.082993224
155	0xbe8e3028	-0.27771115
156	0x3d8d3133	0.0689415
157	0x3e05f8eb	0.13083236
158	0xbe7846f1	-0.24245812
159	0x40100238	2.2501354
160	0x3d61fe36	0.055174075
161	0x3e6c793c	0.23093122
162	0x3d4277ff	0.04747772
163	0x3ecf76af	0.40520236
164	0xbdba85a3	-0.091075204
165	0xbe9c732d	-0.30556622
166	0xbee13708	-0.43987298
167	0x3c7785aa	0.015107552
168	0xbd102354	-0.03518994
169	0x3eb1649e	0.34647077
170	0xbfb50e12	-1.4144919
171	0x3e2520ce	0.16125795
172	0x3da6f47e	0.08152102
173	0xbd9efcf5	-0.077630915
174	0xbde55ba9	-0.111991234
175	0xbdc3ecdd	-0.095666625
176	0x3c9cb122	0.019127432
177	0xbd51cc20	-0.05122006
178	0xbbaee734	-0.00533762
179	0xbce79744	-0.028270371
180	0x3d57b8b8	0.052666396
181	0x3cd7d195	0.026345054
182	0xbe84be9e	-0.2592668
183	0x3dc26278	0.09491438
184	0x3cf626e1	0.030047836
185	0xbd735122	-0.059403546
186	0xbeb73f51	-0.35790494
187	0x3abcd8ba	0.0014407851
188	0x3d7adb6c	0.061244413
189	0xbcf32b0a	-0.029683609
190	0x3e189bf4	0.14903241
191	0xbdf3ed14	-0.119104534
192	0xbd6ab1ce	-0.057298474
193	0xbd9591d6	-0.073032066
194	0x3d79713e	0.06089901
195	0x3e570663	0.2099853
196	0x3d6a64fa	0.057225205
197	0xbea6c038	-0.32568526
198	0xbdba8a8c	-0.09108457
199	0xbf581796	-0.8441099
200	0xbc60b080	-0.013713956
201	0x3d1ef0a7	0.038803723
202	0x3f07150a	0.5276648
203	0x3d2500b3	0.04028387
204	0xbf56e5f5	-0.83944637
205	0x3db66651	0.08906234
206	0x3dc6b600	0.097026825
207	0xbe0ee857	-0.13955818
208	0x3d48407c	0.048889622
209	0x3e55d59e	0.2088227
210	0xbfaa11b3	-1.3286651
211	0xbd4ced5f	-0.050031062
212	0x3fb68198	1.4258299
213	0x3d6b4b14	0.057444647
214	0xbd0390a5	-0.032120366
215	0x3d30cf48	0.04316643
216	0x3db4295a	0.0879695
217	0x3d3f44cf	0.04669648
218	0xbd8157ec	-0.06315598
219	0xc0c41e2e	-6.128684
220	0x3d5b1cce	0.053494267
221	0xc14f2cad	-12.948407
222	0xc08c8bbc	-4.3920574
223	0xbe4bbb48	-0.19895661
224	0x3c7cbc69	0.01542578
225	0x4081776b	4.0458274
226	0xbec7090d	-0.38874093
227	0x40503203	3.2530525
228	0xbdf4a05f	-0.11944651
229	0xbf95537b	-1.1666101
230	0xbf7ba108	-0.9829259
231	0x3e54914a	0.20758548
232	0xbb82b0ae	-0.003988347
233	0xbfbebc8f	-1.4901294
234	0xbe8919f2	-0.26777607
235	0x3c4b53a2	0.012410076
236	0xbd11c45b	-0.03558765
237	0xbd8fa6b7	-0.0701422
238	0xbd93899d	-0.07203982
239	0x3daf0017	0.08544939
240	0xbdc7f80b	-0.09764107
241	0x3c087144	0.008327786
242	0xbdf2cd6e	-0.11855589
243	0x3ea55596	0.3229186
244	0xc10286be	-8.157896
245	0x3dddbd3a	0.10827108
246	0xbf7d2e64	-0.9889891
247	0x400d7b0d	2.2106354
248	0x3c8da615	0.017291108
249	0xbd1b505d	-0.037918437
250	0xbfba3751	-1.4548131
251	0xbc00b4c7	-0.007855601
252	0xbd71faa8	-0.059076935
253	0x3d92d13a	0.07168813
254	0x3fc96ec9	1.5736934
255	0x3d8feea2	0.070279375

fc.bias f4 [4]
0	0x3f97135f	1.1802787
1	0xbd7c17b6	-0.06154605
2	0xbd93c703	-0.07215693
3	0xbeb76828	-0.35821652
