LSTM/Data_3/LSTM3/model.pth (torch, 275939 bytes, 6 tensors)

lstm.weight_ih_l0 f4 [512, 3]
00000000: 2936 20bf 33bf ec3e f1ce a6bf 37aa e2be
00000010: 2d95 cc3d dd64 44bf 256d 88be 0dde 043f
00000020: dddf 6dbf 7abc 25bf 61eb 6cbf e107 05bf
00000030: a8cf a7be b783 c2bf 32fe 53bf 19fb 403d
00000040: ca7f 7bbe f20d f33e bb3b b2be abe6 87be
00000050: 2a9f 9dbd 5efb 8e3d 03d3 34bf 7546 173d
00000060: 07e6 c7be 29b4 37bf 09ab 46bf da26 8dbd
00000070: 381c 0d3e 29ba 99bf ecd5 2bbf f677 ba3e
00000080: ae7e 58bf e901 e4bd ec76 5cbf 7f6e 9bbe
00000090: 1737 c83e d255 9bbd 35f9 513e b062 6abe
000000a0: 2495 7dbf 0e1f e3be 04d1 bdbe d888 d0bf
000000b0: 2a28 84be 1b72 d0be 9b01 7e3d 2054 da3d
000000c0: 704e 14bf 9f20 6abf 766a efbd 4004 9cbf
000000d0: 4fe2 a8bf 8809 9abf eae8 2dbe 2e9d 45bf
000000e0: a550 46be fbc2 b2be d2d4 7fbf 43ec 5ebf
000000f0: 9e26 9dbe bf26 8dbf 5125 dcbc e776 9abe
00000100: 8fb6 a7be 9070 70bf 08a4 27bf 606f 64bf
00000110: 813f 7dbf 8f45 cdbe 3ae3 6dbf 684a 51be
00000120: 3069 46be baca a2bf e086 44bf 4f76 c5be
00000130: 53df 97be 2e88 adbf 8b52 2cbe e348 a3be
00000140: b287 473e fccb a2be fb3d abbe 0875 cabe
00000150: 8e7e 5abe bd78 75bf 85b2 833e 9613 c6be
00000160: 73e3 7e3f 1a9a 46bf 839f 62bf c57b a6be
00000170: 1d73 e9bd 0a86 debe 2667 513f bd3a 81bf
00000180: 9996 1abf 03d7 333f 4807 2cbf 78f5 143d
00000190: f662 e63e 41e5 a03e 4c13 a8be a297 46bf
000001a0: 9461 75bf 5bd9 d7be f70d 52bf 1409 65bf
000001b0: 3dc6 2c3e 39a7 5ebf 6b76 133f 5802 ecbe
000001c0: cc01 b2bf 7a6a 5dbf 3993 0fbf a649 35bf
000001d0: fa20 053e 6c57 20bd 7bd1 60bf 9d8d d73d
000001e0: 06dd 9fbd 5e6f 76bf 041c 93be 15c5 99be
000001f0: 1314 bcbf 757f b4be 6285 32be 1867 273f
00000200: 2d4a 00bf d177 c0be ffd3 83bf c410 29bf
00000210: 46c1 f5bd 6b5a 2dbe 6476 62bf 42ce b13e
00000220: 305b 7d3f 97eb cdbd 799c 31bd 2640 3dbf
00000230: 5f62 323e 9459 f4be 629b c73e 67d6 27be
00000240: aa91 c9be 88f3 5ebf 549c efbe 9a9c 5ebe
00000250: ba7e 64be fd07 03be 9b11 6fbe f777 73bd
00000260: 7486 77bf f5d8 67be 32a8 e7bf 0299 bbbe
00000270: 57d3 933e 000b 11bf ef4d 493e 4c05 0dbf
00000280: 1e42 f13e 23f6 80be 67d4 b6be 5aab 64bf
00000290: 4b23 02bf 1f36 aabe 64de cb3d 17b4 7dbe
000002a0: b2d0 84be d3aa eebe c1f1 f1be 2eca 82bf
000002b0: 9cb2 50bf bd04 0fbf 1eda c5be cf19 05c0
000002c0: b71c bdbe 3502 acbe de0b 843e 6102 873e
000002d0: 3d98 04bf 80ea 48be b062 f33d 90ad 28bf
000002e0: 1a8f 193f dc67 8cbf 2ed3 c1be 0ed1 74bf
000002f0: 5337 883c 3a9f b6be d003 983d 6fa4 4c3f
00000300: 4ebd 20bf 9712 9b3e edeb 04bf 9fe0 c23d
00000310: b79a 8e3f ee3d f53e 45b4 c6be 17ad 3fbf
00000320: a73e 95bf b4c1 2e3e ad3e 1abf 6fad e83d
00000330: 804d 28bf d2d0 1abf a661 69bf 77e3 29bf
00000340: 3257 f2be a40a 35bf cb5f 1bbf 16dc 17bf
00000350: b8ea 9dbe 4b3a bcbe ed6b d8bf e447 43bf
00000360: 73a5 033d 405f 8abf e062 933e d287 ea3d
00000370: 7fee 673e cdab ecbd 37af a0be 03e1 9f3f
00000380: b3a4 2dbd ea0b 5bbe 2fdb 883e 9803 45be
00000390: dd79 adbe fa1a 01c0 0d1e bdbe 9473 5dbe
000003a0: 5464 bbbf 0da9 443e 0db1 15bd 25a5 2dbf
000003b0: b216 6c3b f437 c6be 9f77 28bf 9d9b c5be
000003c0: 94bb b1be cb3d 1dbf c7ed bdbf ec0e 39be
000003d0: baf7 62bf 1490 80bf e010 32be f4df 56be
000003e0: a2d1 0c3e 6cbe 15bf 0e34 f8bf 2abe fcbe
000003f0: 7462 5ebf c99d efbe 2993 10bf 16ec 86be
-0.6258264 0.46239623 -1.3031904 -0.4427049 0.099893905 -0.76716405 -0.2664577 0.5190132
-0.92919713 -0.6474072 -0.9254666 -0.5196515 -0.32775617 -1.5196446 -0.82809746 0.047114465
-0.24560466 0.47471577 -0.34811196 -0.26543173 -0.07696374 0.06981538 -0.7063448 0.036932427
-0.39042684 -0.7175928 -0.7760473 -0.06892176 0.13780296 -1.2009937 -0.67123294 0.36419648
-0.845683 -0.11133177 -0.8611896 -0.3035774 0.3910453 -0.07584728 0.20505221 -0.22889209
-0.99055696 -0.4435963 -0.3707353 -1.6291761 -0.25811893 -0.40712056 0.06201325 0.10660577
-0.57932186 -0.91456026 -0.11690228 -1.2188797 -1.3194064 -1.2034159 -0.16983381 -0.7719296
-0.19366701 -0.34914383 -0.99934113 -0.87079257 -0.30693525 -1.1027449 -0.026873263 -0.3016884
-0.3275647 -0.93921757 -0.65484667 -0.89232445 -0.98925024 -0.40092131 -0.92924845 -0.2043854
-0.19376063 -1.2718117 -0.767683 -0.38566825 -0.2966257 -1.3557184 -0.16828363 -0.31891546
0.19485357 -0.31796253 -0.33445725 -0.39542413 -0.2133734 -0.95887357 0.25722137 -0.38686818
0.9956581 -0.7757889 -0.88524646 -0.32516304 -0.11398909 -0.4346164 0.8179802 -1.009605
-0.60386044 0.70249957 -0.6719861 0.03636691 0.44997376 0.31424907 -0.32827222 -0.77575123
-0.9585202 -0.42158017 -0.8205256 -0.8946698 0.16872497 -0.8697391 0.57602566 -0.46095538
-1.3906798 -0.86490595 -0.5608402 -0.70815504 0.13000861 -0.039145872 -0.8781964 0.105250575
-0.07805829 -0.9626368 -0.28732312 -0.30033174 -1.4693626 -0.35253492 -0.17433694 0.65391684
-0.50113183 -0.37591413 -1.0299071 -0.6604121 -0.119997546 -0.16929023 -0.884619 0.34727675
0.98967266 -0.10054701 -0.043362115 -0.7392601 0.17420338 -0.47724593 0.38985735 -0.16390382
-0.39368945 -0.8709035 -0.46798956 -0.21739426 -0.22313967 -0.12796016 -0.2334656 -0.05944058
-0.96689534 -0.22641356 -1.8098204 -0.36640173 0.28872177 -0.5665741 0.19658636 -0.5508621
0.47120756 -0.25187787 -0.35708925 -0.8932396 -0.508351 -0.33244416 0.09954527 -0.2477573
-0.25940472 -0.46614704 -0.47254756 -1.021795 -0.81522536 -0.55866605 -0.38642973 -2.0797002
-0.3693597 -0.33595434 0.25790304 0.26369002 -0.517948 -0.19620705 0.118840575 -0.65889835
0.5998398 -1.0969195 -0.3785643 -0.9563149 0.016627943 -0.35668355 0.07422602 0.79938406
-0.62788856 0.3028762 -0.51922494 0.09515499 1.1140965 0.4789881 -0.3880941 -0.7487349
-1.1659745 0.1706608 -0.60251886 0.11361205 -0.65743256 -0.60474885 -0.91164625 -0.6636271
-0.4733215 -0.7071936 -0.60693043 -0.593202 -0.3084314 -0.36763224 -1.6907936 -0.7628157
0.032140207 -1.0810318 0.28786373 0.11451687 0.22649573 -0.11556206 -0.31383678 1.2490543
-0.042393398 -0.21391264 0.26729724 -0.19239652 -0.33882037 -2.0172715 -0.3693699 -0.21626121
-1.4639993 0.19205113 -0.036545802 -0.67830116 0.003602427 -0.38714564 -0.6580753 -0.38595286
-0.34713423 -0.61422414 -1.4838189 -0.18072098 -0.8865925 -1.0043969 -0.1738925 -0.20983869
0.13751844 -0.58493686 -1.9390886 -0.49363834 -0.8686898 -0.46800068 -0.5647455 -0.26351994

lstm.weight_hh_l0 f4 [512, 128]
00000000: 715c 98bd 1272 8abe 21bc 0e3e 104e 32bf
00000010: dad4 09bf 65f2 50be 6c01 22bf ae87 c5be
00000020: f0cf 00bf 4b6d b3be 886c f2bc e222 483f
00000030: 351c 0ebf c624 63bf defc b8bc 573d 643e
00000040: 0e3a 9f3e 2f5c b4be 7b3d 2f3f 2a0b 5b3f
00000050: d48e 273e 9bb7 dabd 896f dabe de12 883e
00000060: 48ce e1be e656 12be 2a2a dcbe 6e5f b8bc
00000070: 8952 493e 39bd 993e ea91 d63d b81c 053f
00000080: f0ff 9abd e21e 0b3c b2b1 07bf e599 ccbd
00000090: 8d59 56bf d624 eb3e 8e79 c43e 2b7c c63d
000000a0: 3805 3f3f 2c1f 503e f8c7 08be 723e b73d
000000b0: 9ec7 f23d c801 2dbe 00ef 9c3e 576d 38be
000000c0: b71b 61bf 58a4 eebd d81d 683d a8ed 303f
000000d0: ca01 cdbd 62c9 37be 441e f83d 9fe8 f03e
000000e0: f408 7a3e 3c3f ffbd 8c0a 1f3f 00d7 fa3d
000000f0: f1b9 403e 57fc 8fbd 6f4c 8d3e ca73 b23e
00000100: 47a0 15be cada 543d 6010 273f c5e7 2c3d
00000110: bcb4 143f 1da9 b53e c1b1 a1be 1925 313f
00000120: f045 20be a00b e33c cc95 943d 64a1 b2bd
00000130: f6be 03bf 106f 5abf ed46 b4bd fed0 fc3e
00000140: 06fb 5e3f bb7a b3be b6c5 343e fce0 3cbf
00000150: 03e7 27bf f08e 163f b0ea 51be 61b0 f13e
00000160: 48f8 873e 816a 463c 7534 b63e 6fdd 5a3f
00000170: 7112 273d b17f 763e e7ce 733f aaf8 733e
00000180: 13fb fe3e d403 20bf 3ca6 47be 2265 163a
00000190: 236f a2be 9309 21bf 3e9e a1bd a427 30bf
000001a0: 9c17 87bb 9384 14bf 9f14 fe3e 533b 42bf
000001b0: 5c17 20bf 9dcd 7c3e 55a5 fa3e 4e4a 473f
000001c0: d0d7 fb3d b6a8 013e 4dba 293f b3e1 d7be
000001d0: 15ee 1a3f 7478 4fbe 7432 0b3e 0be4 0b3f
000001e0: 3aae d3bd dfcf 74bd 0188 bdbe 9ce0 f7bd
000001f0: 0dba 313e 5ac2 b3be 5506 cabe 1efc a43e
00000200: 2ce2 37be fa16 a83e 856f af3d f709 5e3e
00000210: e12d 77bf 613e 25bd b262 983d 5400 753e
00000220: b141 81bd 5e05 1cbe b40f a9be 65c6 6e3e
00000230: 08f2 82be 959f 8bbe 7225 c53e 5d61 14bc
00000240: c388 7f3e eedf d4be 91cd 8c39 5301 973e
00000250: 9954 60bc bc43 34bd 844f 833d 17e2 3ebf
00000260: f13b 4a3c de34 5bbe e3ef 28bf 7b7c a73e
00000270: 04e4 97be c9ce e8ba 39c6 bdbe be51 583f
00000280: 2554 02bf ed17 1e3f adf7 0dbe e112 e43e
00000290: 4813 c5be 6cf5 963e 206e c8be 7ecb 9b3c
000002a0: 95a9 883d 24af 183f 9bc7 86be b3ca 1d3f
000002b0: 36d5 16be 6651 70bf 2686 06be 7ee6 85be
000002c0: d7e7 9ebd 241e bcbe 05a6 0cbe 8259 003f
000002d0: 24ef a63e e4c6 acbe dea7 7d3e be7d aa3e
000002e0: 3733 d63e 0474 95be 4d2b fb3e ab27 cbbd
000002f0: 5596 c6bc 468f 9ebd f4c6 3c3e 2f7b d53e
00000300: d6d6 efbe 65d4 3a3e 0b15 d83e e2a1 b3be
00000310: f1a7 543e 8fc1 bb3d c3e4 1e3f 3667 3c3e
00000320: 9978 76bf 0052 2f3e 54d1 04bf 65b7 c3be
00000330: 5239 5abe 68a0 31bf 2c50 dc3d 601c 5e3e
00000340: c137 5b3e 728d febe 79c0 7d3e fe14 19bf
00000350: ed52 02bf 6a6c 16bd 6f02 973e 22e8 173f
00000360: 49f2 17be a07f d23d 2dfd 8b3e a120 34bf
00000370: bb02 75be 1fd3 84bc 02c6 d13e b661 75bf
00000380: 8426 c3be 0530 503e 444e 15bf 1a2e 65be
00000390: d98b 45bd b760 dbbe 636b febe 0578 8abf
000003a0: 2706 b93e c089 8dbe c030 113f a048 c93b
000003b0: 265c 61bf 300b 503e 4639 a03d 84e4 493f
000003c0: cdaf 22bf 6101 e63d 369c ab3d ee5c 453f
000003d0: 2070 293e 6bbb 88be 9d51 efbd f516 5d3e
000003e0: eda7 99be d50b 83bd 90d6 b5be 1ecf 8a3e
000003f0: d28e 5fbf 202b 493d edeb 10bf a481 a43e
-0.07439507 -0.27040154 0.13938953 -0.69650364 -0.5384041 -0.20404966 -0.6328342 -0.38580078
-0.5031729 -0.3504432 -0.029592767 0.78178227 -0.5551179 -0.88727987 -0.022581514 0.22289024
0.3109898 -0.3522658 0.68453187 0.8556391 0.16363078 -0.10679551 -0.4266322 0.26576895
-0.44102693 -0.14290962 -0.4300092 -0.022506442 0.19660391 0.30027178 0.1047705 0.51996946
-0.075683475 0.00849125 -0.53005517 -0.099902906 -0.83730394 0.4592654 0.3837399 0.09691652
0.7461734 0.20324391 -0.13357532 0.089474574 0.1185448 -0.1689521 0.30651093 -0.1801046
-0.87932914 -0.1165244 0.056669086 0.69112635 -0.10010107 -0.17947915 0.12115148 0.47052476
0.24417478 -0.12463233 0.6212547 0.12248039 0.18820931 -0.07030552 0.27597377 0.34853965
-0.14611922 0.051966466 0.6525936 0.04221322 0.5808828 0.35480586 -0.31580928 0.6919723
-0.15651679 0.027715504 0.07255134 -0.08722189 -0.5146326 -0.8532572 -0.088025905 0.49378198
0.8710178 -0.35054573 0.17653546 -0.737808 -0.6558687 0.58811855 -0.20499682 0.4720488
0.2655661 0.012110353 0.35586897 0.8549413 0.04078907 0.24072148 0.9523758 0.23825327
0.4980093 -0.6250584 -0.19497007 0.0005737116 -0.31725416 -0.62905234 -0.078915104 -0.68810487
-0.0041226875 -0.5801479 0.49625108 -0.7587177 -0.62535644 0.2468781 0.48954263 0.77847755
0.12297022 0.12662014 0.662999 -0.42164382 0.60519534 -0.20260793 0.13593465 0.5464484
-0.103359655 -0.059768554 -0.37017825 -0.12103388 0.17356129 -0.35109216 -0.39457956 0.322236
-0.17957371 0.3283003 0.085661925 0.21683489 -0.9655438 -0.040342692 0.074407 0.23925906
-0.06311358 -0.15236422 -0.33019793 0.23317869 -0.2557528 -0.2727019 0.3850513 -0.009056416
0.24954514 -0.41577095 0.0002685604 0.29493198 -0.013692045 -0.04400991 0.06411651 -0.74563736
0.012343393 -0.21406886 -0.6599104 0.3271216 -0.2966615 -0.0017761822 -0.37065294 0.8449973
-0.50909644 0.6175526 -0.13864012 0.44545653 -0.38491273 0.29484117 -0.3914652 0.019017931
0.0667297 0.59642243 -0.26324162 0.6163742 -0.14729771 -0.93874204 -0.13137111 -0.26152414
-0.07759064 -0.36741745 -0.13735206 0.5013658 0.32604325 -0.33745492 0.24771068 0.3329906
0.4183595 -0.29190075 0.49056473 -0.099196754 -0.024241606 -0.07742171 0.1843527 0.41695544
-0.46843594 0.18245085 0.42203555 -0.35084444 0.2076719 0.09167778 0.6206781 0.18398747
-0.9627777 0.17121124 -0.5188191 -0.38225856 -0.21310928 -0.69385386 0.10757479 0.21690512
0.21407987 -0.4971729 0.24780454 -0.59797657 -0.50907785 -0.036724485 0.29494044 0.5933858
-0.14838518 0.10278249 0.27341595 -0.7036229 -0.23926823 -0.016213952 0.4097138 -0.9585222
-0.38115323 0.20330818 -0.5832255 -0.22380868 -0.048229072 -0.42847225 -0.49691305 -1.0817877
0.36137506 -0.27644157 0.5671501 0.006142691 -0.8803123 0.20316768 0.07823424 0.7886431
-0.635495 0.11230732 0.08379404 0.77094924 0.16546679 -0.2670549 -0.116854884 0.21590789
-0.3001093 -0.06398741 -0.3551526 0.27111143 -0.873273 0.049113393 -0.56609994 0.32130158

lstm.bias_ih_l0 f4 [512]
00000000: 60f7 2fbf 9655 f2be 7f42 67be a756 12bf
00000010: 58b7 c1be 2445 e93d f326 cdbe b4b5 913d
00000020: 5347 eabe 652c 29be 473b 18bf fded f6bd
00000030: bde8 ae3e 8447 69be 929f 96be 674c cdbe
00000040: 7282 01bf 3425 98bf 8495 64be dd39 9dbe
00000050: c4cc bbbe 609e 56be 4796 10bf 05e6 c8be
00000060: cac0 90be 0933 f4be 7c1b 70be 7e37 90be
00000070: ced2 f4bd ed58 9abe 0a34 4ebf 5862 b5be
00000080: ce8b 1abf 75c3 7ebb c7ad a9be d0c7 bfbe
00000090: 87a5 803e 5bc8 ebbe 88ab 0fbf 418c d1bd
000000a0: 5bde 3abe bb49 a9be 5843 6bbe 8017 86be
000000b0: af0f a6bd 15fc a73e 13c6 29bb b44b f8be
000000c0: 7a97 96be 5f8e 32be 9899 a9be 87fd 8bbe
000000d0: f282 703e e820 04bf 6fa3 92be 1d9c ccbe
000000e0: dd2e a9be 87c5 75bf bf3d 9fbe 1741 cabe
000000f0: e4ac 07bf bf11 48bf ef63 04bf 5178 8bbe
00000100: 5d15 1fbf efb8 2f3e f236 eebe 6920 183d
00000110: 4eb1 20bf fc91 28bf 9252 02bf f8f8 03bf
00000120: 33db 91bd d350 783d 6cca 25be 63aa 67be
00000130: fe59 a2be ea6f 82be 212e 12be e844 c1be
00000140: 5212 99be ebaf 55be 37dd 17be dfc3 3ebf
00000150: ca30 56bf d579 93be cede ed3d ea0f 19bf
00000160: 3a3c d9bd 08aa 3f3d aea7 43bf 5891 d7be
00000170: 705d 04bf 333e d7be 3bb3 f7be 4071 44be
00000180: 285d f8be ee1d cebe 300c dfbe a288 95be
00000190: 9109 1d3d 0ea8 54bf 4b1a 7cbe 727e 213f
000001a0: 5b25 0fbf a99d 6abe cf87 a3be 9eda 9cbe
000001b0: 148e f4bd ef96 acbe d244 b8be f6ef 44be
000001c0: 9d0e aebe 1250 ebbe 43af 13be 701b 4fbf
000001d0: df9c f4be 5805 2d3d 0923 c4be a45c b4be
000001e0: e595 b4be 15cb 8fbe 2dc3 d7be b72b 1cbf
000001f0: 7483 5bbe 0754 033e 3618 d4bd 7bdc b8be
00000200: 9fb0 0cbf 1861 1a3e 5b32 c1be a8e5 71bf
00000210: b96a 9bbe cb02 f3bd 3763 3d3d a3d1 29bf
00000220: 388d 343e d7ba 563e fb91 dbbe 348d a5be
00000230: b578 b0be 85f8 07bf a57e 22be ac49 d53d
00000240: 10f9 343e 2439 85bf e8f8 cabe 474c 06bf
00000250: c69d 993d d05e 8f3d f737 9abe 0ce0 3dbf
00000260: 8ac8 54be 7495 43be b87a 963d 93a4 e83e
00000270: 76cf 633d ba4b f4be d87d dbbe 5935 f2be
00000280: 36d4 c6be dd61 09bf db40 29bf 8694 b7be
00000290: efb3 fdbd 2bde c5be 0b5d a03e e6de 5a3e
000002a0: 8734 b7be 092b a1be c045 9abe 9b4c 62be
000002b0: 372c 8ebe 955b a9be 1d85 05bf f618 483e
000002c0: ce16 0ebf 1599 083f 6bec c0be a02d 4dbc
000002d0: e8f6 50bf 6e68 5d3d 1cbd 13bf bf5f 303f
000002e0: 55f5 353e c4ff 15bf 0b26 d9bd 8bc7 263d
000002f0: dc89 2f3f c324 05bf 65f2 b5be 80b9 033e
00000300: 5a53 d5be bf89 e9be 309c 1abf 7c7e 8fbe
00000310: 463d 30bf 80d0 10bf 389e 60be 790f 9bbe
00000320: 62b6 13bf 5bd1 ab3d 34b9 c6be def3 4e3e
00000330: adb7 10be 6f8b 3dbe 389d 103e 50ea adbf
00000340: e8bb 14bf 7349 a6bd 2793 093e 7c7f c0be
00000350: 0580 09bf 26a7 db3e f825 8a3e 2b72 46bf
00000360: 6d7b 4fbf e331 d7bd 0498 7cbe a49d aabd
00000370: 8e5e 3d3e 2510 df3d 4a76 dabe 2d8d 68be
00000380: 9e8e bebe 6627 48bf 5e14 26bf 977d 33be
00000390: bf23 033f 5c52 c4be ffd5 e13e 7cfb 59be
000003a0: b5ff 1dbe c873 6e3e 6702 b7bd cdc4 c3be
000003b0: be72 f0be 9d59 31be 7edb 153e f220 353e
000003c0: fe1a f5be 39f5 dd3e 52db f8be 4ea3 bcbe
000003d0: 7dff b2be 323c 2b3d 198d a03e cfc3 eb3d
000003e0: af3c c7be 1bda a83e 4c6a 25bf 70c1 8fbf
000003f0: cad9 2b3e 1010 c43d 3bfd b73e 4626 39bf
-0.6873684 -0.47330922 -0.2258396 -0.5716347 -0.37835193 0.11390141 -0.40068778 0.07114735
-0.4575754 -0.16520841 -0.5946545 -0.120571114 0.3416194 -0.22781187 -0.29418617 -0.40097353
-0.5058967 -1.1886353 -0.2232266 -0.3070821 -0.3667966 -0.20958853 -0.56479305 -0.3923799
-0.28272086 -0.47695187 -0.23447984 -0.28167337 -0.1195427 -0.3014597 -0.80548155 -0.35426593
-0.60369575 -0.0038873826 -0.33140394 -0.37457132 0.25126287 -0.46051297 -0.5612111 -0.102318294
-0.18248884 -0.33064064 -0.22974908 -0.26189804 -0.0810846 0.3280951 -0.0025905415 -0.48495257
-0.29412442 -0.17437123 -0.33124995 -0.27341864 0.23487452 -0.5161271 -0.28640315 -0.39962855
-0.33043566 -0.9600453 -0.31101796 -0.39502785 -0.52998185 -0.7815208 -0.51714987 -0.27240232
-0.6214197 0.1716039 -0.46526295 0.037140284 -0.62770545 -0.65847754 -0.5090724 -0.5155177
-0.07121887 0.060623955 -0.16190499 -0.22623591 -0.31709284 -0.2547601 -0.1427541 -0.37747884
-0.2989679 -0.20867889 -0.1483048 -0.74517626 -0.83668196 -0.28803888 0.11614762 -0.5978991
-0.106071904 0.046793014 -0.76427734 -0.42103076 -0.51705074 -0.42039642 -0.4837893 -0.19183826
-0.48508573 -0.4025721 -0.43563986 -0.29205805 0.0383392 -0.8306893 -0.24619405 0.63083565
-0.55916375 -0.22911705 -0.3193955 -0.30635542 -0.11941162 -0.33708903 -0.35990006 -0.19232163
-0.33995524 -0.45959526 -0.14422326 -0.8090124 -0.47775933 0.042241424 -0.3830798 -0.3522693
-0.3527061 -0.28084627 -0.42141095 -0.61004204 -0.21436864 0.12825023 -0.1035618 -0.36105713
-0.54957 0.15076101 -0.3773373 -0.9449105 -0.3035486 -0.11865767 0.046237197 -0.66335505
0.17631996 0.20969711 -0.42884812 -0.32334292 -0.34467092 -0.53113586 -0.15868624 0.104144424
0.17673135 -1.0408063 -0.39643025 -0.5246014 0.07500796 0.07000506 -0.30120823 -0.74169993
-0.20779625 -0.1909998 0.073476255 0.4543806 0.055617772 -0.47714025 -0.4286945 -0.47306326
-0.3883378 -0.5366495 -0.66114587 -0.35855502 -0.12387835 -0.38646063 0.31320986 0.21374092
-0.35782263 -0.31478146 -0.3013134 -0.22099535 -0.27768108 -0.33077684 -0.5215624 0.19540772
-0.5550355 0.53358585 -0.37680373 -0.012523085 -0.8162675 0.05405467 -0.57710433 0.68896097
0.17769368 -0.5859339 -0.10602959 0.040717643 0.6856973 -0.5200922 -0.35536495 0.12863731
-0.41665155 -0.45612904 -0.60394573 -0.28026187 -0.68843496 -0.56568146 -0.21935356 -0.30285242
-0.5770017 0.08389541 -0.38813174 0.20210215 -0.14132567 -0.18510221 0.14122474 -1.3587132
-0.5809922 -0.08119478 0.1343504 -0.37597263 -0.5371097 0.42900962 0.26982093 -0.77517956
-0.8104771 -0.10507562 -0.24667364 -0.08330849 0.18493101 0.10891751 -0.42668372 -0.22710104
-0.37218183 -0.7818512 -0.6487483 -0.17528377 0.5122642 -0.38344085 0.4410858 -0.2128734
-0.15429576 0.23286355 -0.08936005 -0.38236085 -0.4696254 -0.17319341 0.14634511 0.17688349
-0.47872156 0.43351153 -0.48604828 -0.36843342 -0.34960547 0.041805454 0.3135765 0.11511957
-0.38913485 0.329789 -0.6461532 -1.1230907 0.16782299 0.09573376 0.35935387 -0.72324026

lstm.bias_hh_l0 f4 [512]
00000000: f5e6 1cbf 546a f3be 2b50 66be 5d93 25bf
00000010: 571f a8be 544a 243e bde4 b1be 4852 c43c
00000020: a3db d7be 7b28 a2bc fa63 08bf 8fe9 8abd
00000030: bacf b93e b633 68be 3944 a8be 3a7e b3be
00000040: 6d53 eebe 4aea 9abf 2d1c 0ebe 8f06 8dbe
00000050: 78e3 c3be e1d8 2ebe 513f 34bf 5cff fbbe
00000060: af64 9fbe cddb 03bf e94d f0bd ada5 7ebe
00000070: f9a7 62be 2e04 96be 6cf5 42bf d751 95be
00000080: 2713 1cbf a640 2abc 520a 70be 5877 babe
00000090: a6ce 5e3e 5052 eebe 01a3 0abf a8ed 07be
000000a0: 85a1 bdbd 6669 b3be fe36 1fbe 0954 7abe
000000b0: 60e9 66bd c792 cd3e 40cc 0dbe 5677 dabe
000000c0: 4775 a3be 52dc 3bbe f2df 96be c252 9abe
000000d0: abe1 843e 690e 1dbf 872c a3be 3c72 a2be
000000e0: 6855 87be be87 7ebf 1da2 7bbe 93e2 c3be
000000f0: 82e6 05bf f108 24bf df27 b8be 31ae 7ebe
00000100: ae11 04bf c5a4 3f3e ba25 bdbe 45ec 0f3d
00000110: 42fd 1bbf 5358 1abf 931c 09bf 05d8 05bf
00000120: e39a 87bd f572 b23d 1b87 5dbe 6356 9fbe
00000130: bb80 88be 0fce c3be 1a3c 13be 9d55 8abe
00000140: abb8 64be 2184 b4bd 5252 2ebe 2818 3ebf
00000150: 9a63 52bf 41b3 94be da80 da3c 6c86 14bf
00000160: 35f0 4dbd 548d 163d db9a 26bf 2f87 90be
00000170: 5388 00bf e18f f5be 1020 d2be c3d7 8bbe
00000180: 94de 19bf 35b3 abbe fc4d cdbe 0e46 aabe
00000190: eaa6 cfbd 07cb 47bf f334 81be a192 213f
000001a0: 56ff e0be dea4 84be e43b d1be b5d3 a8be
000001b0: 39bb febd d63e d2be ef3d aebe b278 47be
000001c0: f59c 8bbe 3601 f8be e231 39be abef 36bf
000001d0: df3e e4be a1c4 77bd b52f c2be cfee 67be
000001e0: 9e9b a4be eef2 8abe a5fc 0cbf df0f 12bf
000001f0: 7cb6 68be 8951 eb3d 474f 0dbe 1291 f0be
00000200: 0d91 1abf 312f 403d a4a4 d3be d673 4fbf
00000210: 5b99 60be 2baa 7cbb dbdb 9abb 9657 0bbf
00000220: 7dc9 143e 6ee6 443e ee67 05bf 8ce3 8abe
00000230: 8de8 b4be e91f 19bf f4f7 76be 85d3 3e3e
00000240: 4816 6b3e b852 83bf cd02 b4be 9336 debe
00000250: 0442 3b3e 6902 8f3d 616b c2be df57 27bf
00000260: c3d5 20be ff45 19be c4ff 023e 09e7 c53e
00000270: 9b4b 4c3e 16e7 08bf 6c32 edbe 3d97 23bf
00000280: 1608 bdbe 6c8a 0dbf 6884 1abf 9de1 a1be
00000290: f88e 59be 6b69 96be 0edb b93e 4329 0f3e
000002a0: e291 b4be 55c0 a5be e32f 84be d60a 5ebe
000002b0: efa2 25be 6e08 f9be 4f72 0bbf e66d 533e
000002c0: 8879 23bf 8c76 d23e 959b e5be 9926 c9bc
000002d0: 9a94 4abf 75a6 1f3c 00ea 14bf 4582 3e3f
000002e0: 89b5 183d d813 17bf c017 fcbd 781f 533d
000002f0: f938 313f e7e9 2bbf 1fe0 84be 3d9e 893e
00000300: d9d2 d5be 73b8 ecbe 59bc 1ebf 0b97 85be
00000310: ca51 38bf 8487 21bf d8cb dabd 89e1 d8be
00000320: f953 0ebf 53e4 4ebd b676 9ebe b932 9e3e
00000330: 7209 e9bd d996 89be e0a1 c23c 37f8 a8bf
00000340: 5375 e8be 7e20 44be f224 573e b998 dcbe
00000350: 8e7f c4be 1aa4 d23e be90 583e 7784 44bf
00000360: 37bd 41bf c764 913b ac96 7cbe 27a2 05be
00000370: b8b4 3b3e d7b2 4c3d bb85 c5be f5ab 83be
00000380: dda9 c1be 5271 4dbf df87 13bf ff85 9dbe
00000390: 8b8c 113f fd69 bbbe 975c e13e 197a b2be
000003a0: 914b 27be bdaf 1d3e b1ae 50be 3913 babe
000003b0: a9f0 b8be fad7 23be bc34 553d 8daa dc3d
000003c0: 78f7 bdbe db4c e13e 2475 06bf c9a1 f1be
000003d0: b4bf ddbe dec0 143d 0403 9a3e 637e 593e
000003e0: e7ac 83be 81b2 893e 11fb 28bf 5cef 8fbf
000003f0: e0a5 d03d c550 7e3e 7ff0 c43e 5f5d 59bf
-0.6128991 -0.4754206 -0.22491519 -0.64677984 -0.3283641 0.16043979 -0.34744826 0.023965016
-0.42159757 -0.019794693 -0.5327755 -0.06782829 0.36291295 -0.22675976 -0.3286455 -0.3505724
-0.46548024 -1.2102749 -0.13877936 -0.27544066 -0.38259482 -0.1707492 -0.70409113 -0.4921826
-0.31131503 -0.51507264 -0.1173361 -0.24867888 -0.22134389 -0.29300064 -0.76155734 -0.29164
-0.60966724 -0.01039139 -0.23441437 -0.36419177 0.21758518 -0.46547174 -0.54154974 -0.13274252
-0.09259323 -0.3504135 -0.15548322 -0.2444612 -0.056374907 0.40151045 -0.13847446 -0.4266917
-0.31925413 -0.18345764 -0.29467732 -0.30141264 0.2595342 -0.61350113 -0.3186991 -0.3172778
-0.26432347 -0.99425876 -0.2457356 -0.382588 -0.5230485 -0.64076144 -0.3596792 -0.24871136
-0.5158948 0.18715198 -0.36942846 0.035137434 -0.60933316 -0.6029102 -0.53559226 -0.52282745
-0.06621339 0.087133326 -0.2163357 -0.31120595 -0.26660714 -0.38243148 -0.14378396 -0.27018443
-0.2233607 -0.08814264 -0.1702359 -0.7425561 -0.8218323 -0.2904301 0.02667277 -0.5801761
-0.050277907 0.036755875 -0.6508004 -0.28228137 -0.50208014 -0.47961333 -0.41040087 -0.2731305
-0.6010525 -0.33535162 -0.4009856 -0.33256572 -0.10139258 -0.7804417 -0.2523571 0.6311436
-0.43944806 -0.25907034 -0.40866005 -0.3297402 -0.12438054 -0.41063565 -0.34031627 -0.19479635
-0.27268186 -0.48438424 -0.18085435 -0.71459454 -0.44579217 -0.060490254 -0.37927023 -0.22649692
-0.32149976 -0.27138466 -0.55073005 -0.5705547 -0.22725862 0.11490161 -0.13799773 -0.4698568
-0.6037758 0.046920005 -0.41336548 -0.81036127 -0.219335 -0.0038553576 -0.004725916 -0.5443052
0.14529987 0.19228527 -0.5211171 -0.2712673 -0.35333672 -0.59814316 -0.24118024 0.18635376
0.22957718 -1.0259619 -0.35158387 -0.43401012 0.18286902 0.069828816 -0.3797255 -0.65368456
-0.15706544 -0.14968108 0.1279288 0.38652828 0.19950716 -0.5347761 -0.4632753 -0.63902646
-0.36920232 -0.5528934 -0.60358286 -0.31617442 -0.21245944 -0.29377303 0.36299938 0.13980584
-0.3526755 -0.323733 -0.25817785 -0.21683821 -0.16175435 -0.48639244 -0.54471296 0.20647392
-0.63857317 0.4110607 -0.44845262 -0.024554538 -0.79133 0.009744276 -0.58169556 0.74417526
0.0372825 -0.59014654 -0.123092175 0.051543683 0.6922756 -0.6715378 -0.2595224 0.2687854
-0.41762426 -0.46234474 -0.62006146 -0.260918 -0.719998 -0.63097405 -0.10683411 -0.4235957
-0.5559688 -0.050510716 -0.30949944 0.30898073 -0.11378755 -0.268729 0.023758829 -1.3200749
-0.4540201 -0.1915302 0.21010187 -0.43085268 -0.38378567 0.41140825 0.21148965 -0.76764625
-0.75679344 0.0044370624 -0.24666852 -0.13050137 0.18330657 0.049975242 -0.3857859 -0.2571713
-0.37824908 -0.8025104 -0.576292 -0.30766293 0.56855077 -0.366043 0.44015953 -0.34858778
-0.1633742 0.1539907 -0.2037914 -0.3634279 -0.3612111 -0.16000357 0.052052245 0.107747175
-0.37102866 0.4400395 -0.5252249 -0.47193745 -0.4331032 0.036316745 0.30080426 0.21239619
-0.25717852 0.26894 -0.66008097 -1.1244922 0.10187888 0.24835499 0.38464734 -0.849081

fc.weight f4 [4, 128]
00000000: b15b b3bf c858 9a3f d18b 47bf 3e3c ca3d
00000010: 1d62 c6be 2c9a 95be 0c8d 22bf a6ad a6bf
00000020: 942e 7ebf 2fdf 4ebf 4fe1 8f3f e2be 3e3d
00000030: 857c 0cbe 89ce 69be a6b2 7140 5b87 eabf
00000040: 7bf3 d63e 6780 c9be 1e75 bb3e 2fe7 683e
00000050: 243c 9c3d 18be 32bf 120f 20bf 9509 7d3e
00000060: 8a30 4a3e 9775 61be 1d42 6ebf 8fff c8be
00000070: 183a 633e 1ee8 cfbf 2d44 ebbf 46c3 3ebf
00000080: adc1 7a3f a101 8f3f 186d 3bbf 5258 523d
00000090: 0fbc 8cbf 8d93 8e3f c3ee 7e3f 93aa 8040
000000a0: a81e 413f 9c50 513f f45d a43f b7ba 8c3e
000000b0: 4ed2 423f 9967 34bd 99f7 293e 76ee ef3f
000000c0: 66d6 e5be c98c 37be 2c3a 1cbe 4201 9b40
000000d0: 7dec fe3e 372f 953f 2a09 2d3d 1efb ac3f
000000e0: 1047 8d40 f739 433f cce1 f03f 40b2 0dc0
000000f0: 339d d6bf 029f 13bf 4ceb 1b3f 81f7 7fbf
00000100: 3d01 c6bf c129 50bf b6cf 043d 3988 1a3f
00000110: f76f 9d3f f48f 36be 6e24 083c 0560 f03e
00000120: ac98 203e bf3d 75be 87a9 0140 c23e 013f
00000130: e263 8ebf c9d0 e7bf f723 1a3e 857f d7be
00000140: c154 ebbb 2cb0 f6bf 4bdf fdbf 5b27 ccbe
00000150: 3bf3 57bf 61dd cebf 35d1 7bbf 4124 983f
00000160: 1b83 273f 0017 093f c972 f33e 6edf 3f3f
00000170: a093 0c3e 50b8 26be bb0d 1b3f fa65 eebe
00000180: 207a 3a40 cbc3 c2be 344a bf3e 7c37 91bc
00000190: 83a5 8ebf 3d16 0ac0 e944 55bf 349e 32be
000001a0: 040e 1940 e1d4 523f 6e72 8340 1d69 c4be
000001b0: 3271 14bf 51c0 373f bf97 203f dfbd 223f
000001c0: c04d 8fbe cdda d33f 9b54 d53e 4b47 503f
000001d0: c46d fabd 6107 773d 4b95 a1be 875f 80bf
000001e0: a4c6 0e3f 0f34 033f 086b 5bbe a4d1 b43e
000001f0: d249 453f 524f d4bf 93b4 05c1 efea 35bd
00000200: fafc 7fbe 59aa a4be 6208 523f 1511 a3be
00000210: 569f dd3e 3c73 0f3b b378 e4bf e25d 9e3e
00000220: b795 1ac0 cbdf 333e c854 ee3e d5c7 22bd
00000230: ad71 993e bc79 0a3e 8f21 00bf 06b5 e83e
00000240: e531 1c40 3715 86be 51b9 253f 0e4e 29bd
00000250: 1b55 07bf 514a 4ebe 900a 07bf 7ded 82be
00000260: b90d a03f dd75 7fbf a7ef 213f 1977 cbbe
00000270: 3c1f 77be bc82 9bbe 9eb8 443f 2fc6 26bf
00000280: 8c96 c63f dbc2 72bf 0d40 8fbe 2d5e 763f
00000290: 06a7 a53e 0aa8 29bf abfa c93e 36c2 cebe
000002a0: 8569 8fbf 571c f9be c47a 623e 1ba9 ac3f
000002b0: 71cb e1bf f2bc a83e 7368 efbf 0a25 c1bd
000002c0: 3451 a23e 0a65 ecbe 0ebc 0b3f 4133 19bf
000002d0: 34f1 cebc 1646 e0bd 330d b93f 899e 13bf
000002e0: 1b0e 633d 37a5 c0be 2d7b 57bf 4c59 e33e
000002f0: 56b1 ae3e e207 0b3e 1ffa 1c40 43ff 813e
00000300: 9b5e 2f3e 3140 263d 8947 253c 762f 823f
00000310: a766 a6bd 02b4 473f d574 aabf 9ad3 8a3f
00000320: b924 88bb 23d0 76be aba4 af3e 6d51 e13d
00000330: 756e fcbe 190a 86be d208 6f3e 9bc1 6a3e
00000340: 20ca 1e3e 1052 003f dec1 fa3d e1a4 c1bf
00000350: ee99 55bf 8be1 5a3e 93e6 ba3e 5ccf 293d
00000360: 7894 bc3f 4756 abbf 080d 353f 5b28 043d
00000370: 0066 9dbc 35b3 1c3f b788 c6be 9ad9 553f
00000380: d076 3f3f a051 3c3a 41b0 d3bf 5691 b63f
00000390: 2bfb fc3e 4b26 393f b9ef 153d 9146 ab3d
000003a0: 39f2 a7be 736d 103f d673 67bf ec21 d9bf
000003b0: 2137 4bbf a238 23c0 7aeb c9be 0d3b 5d3f
000003c0: c615 e4bd 2c80 7cbd a4e8 e9bc d057 01bf
000003d0: a62a bb3e 1489 393e 79cc 823f 5a56 763e
000003e0: 1e26 5c3e 98b9 86be 7303 f2bc 149f 00bc
000003f0: c3b2 063f 9e92 5a3b 3cc3 7e3e b17f 503f
-1.4012357 1.2058344 -0.7794772 0.098747715 -0.3874673 -0.29219186 -0.6349647 -1.3021743
-0.9928982 -0.808093 1.1240634 0.04656876 -0.13719375 -0.22832693 3.7765288 -1.8322557
0.41982636 -0.39355776 0.3661279 0.2274444 0.076286584 -0.6982131 -0.62522995 0.24710687
0.19745079 -0.22017513 -0.9306963 -0.39257476 0.2219013 -1.6242712 -1.8380181 -0.74516714
0.97951776 1.1172372 -0.7321334 0.05135376 -1.0994891 1.1138779 0.9958307 4.020822
0.754374 0.81763625 1.2841172 0.27486202 0.7610215 -0.04404411 0.16598357 1.8744648
-0.44890136 -0.17924799 -0.15256566 4.8439035 0.497898 1.1655034 0.042245068 1.3514135
4.4149246 0.7626032 1.8818908 -2.2140045 -1.6766723 -0.576645 0.6090591 -0.99987036
-1.5469128 -0.8131371 0.03242465 0.6036411 1.2299794 -0.17828351 0.008309467 0.46948257
0.1568324 -0.23949336 2.0259721 0.50486386 -1.1124232 -1.8110591 0.15052782 -0.42089477
-0.0071817343 -1.9272513 -1.9833769 -0.39873776 -0.84355515 -1.616131 -0.983661 1.1886064
0.65434426 0.5355072 0.47548512 0.749503 0.1372819 -0.16281247 0.60567826 -0.46562177
2.913704 -0.38040003 0.373613 -0.017726652 -1.114426 -2.1576073 -0.83308274 -0.17443162
2.3914804 0.8235608 4.1077185 -0.38361445 -0.5798522 0.71777827 0.62731546 0.6357097
-0.27989006 1.6551148 0.4166611 0.81358784 -0.122279674 0.06030977 -0.31559214 -1.0029153
0.5577185 0.5125131 -0.21427548 0.35316193 0.77065766 -1.6586707 -8.3565855 -0.044413503
-0.24998847 -0.32161215 0.8204404 -0.3184897 0.43285626 0.0021888753 -1.7849334 0.30931002
-2.4153879 0.17565839 0.46549058 -0.039741356 0.2996954 0.13523 -0.50051206 0.4545061
2.4405453 -0.2618806 0.64735895 -0.041334204 -0.52864236 -0.20145537 -0.5275049 -0.25571814
1.2504188 -0.9978922 0.63256305 -0.39739302 -0.24133009 -0.3037318 0.76844203 -0.65146154
1.5514693 -0.94828576 -0.27978554 0.9623745 0.3235399 -0.6627203 0.39449057 -0.40382546
-1.1204077 -0.48654434 0.22117144 1.3489107 -1.764021 0.32956654 -1.870375 -0.09430893
0.31702578 -0.46170837 0.54583824 -0.5984383 -0.025261499 -0.10950868 1.4457153 -0.5766378
0.055433374 -0.3762605 -0.84172326 0.44404066 0.34119672 0.13577226 2.4527662 0.25390062
0.17125933 0.04058856 0.010087856 1.0170734 -0.08125048 0.78009045 -1.3316904 1.0845826
-0.0041547683 -0.24102835 0.3430532 0.11001859 -0.49303022 -0.2617958 0.23343208 0.22925417
0.15506792 0.5012522 0.122440085 -1.5128442 -0.83438003 0.213751 0.3650404 0.04145752
1.4732809 -1.3385705 0.7072301 0.03226505 -0.019213676 0.6121095 -0.3877618 0.8353516
0.7479067 0.0007183794 -1.6538163 1.4263103 0.49410376 0.72324055 0.03660557 0.08363069
-0.3280199 0.56417006 -0.90411127 -1.6963477 -0.79380995 -2.5503316 -0.39437467 0.8641823
-0.111369655 -0.06164567 -0.028553315 -0.50524616 0.36555976 0.18118697 1.021865 0.24056378
0.21498916 -0.26313472 -0.02954266 -0.007850427 0.5261652 0.003335155 0.24879164 0.8144484

fc.bias f4 [4]
00000000: aa0f 8ebf 2101 c33d 2348 983c 21ab 92be
-1.109853 0.095217 0.018589085 -0.28646186
