CNNV2/CNNV25/model.pth (torch, 108879 bytes, 8 tensors)

conv1.weight f4 [16, 3, 3]
0	0x3f4c9b51	0.79924494
1	0x3dc31498	0.09525412
2	0x3f381b4c	0.7191665
3	0xbfb01f77	-1.3759602
4	0xbfacc012	-1.3496115
5	0xbf7290df	-0.94752306
6	0xbe0955f1	-0.1341169
7	0x3e334646	0.17507276
8	0x3e1e92ab	0.15485637
9	0x3dd0632e	0.10175167
10	0x3e82db46	0.25557917
11	0x3ed76414	0.4206854
12	0xbfbc9401	-1.4732667
13	0xbfc52319	-1.5401336
14	0xbfab6557	-1.3390301
15	0xbe4be52e	-0.19911644
16	0x3f0aba93	0.5419094
17	0x3e309414	0.17243987
18	0xbe47abe7	-0.1949917
19	0xbe2a7a0b	-0.16648118
20	0xbdcc7c1c	-0.099846095
21	0xbe1e9269	-0.15485539
22	0x3e99d7f7	0.3004758
23	0x3e3c452d	0.18385763
24	0xbeb28740	-0.34868813
25	0xbe0ab132	-0.13544157
26	0x3dde3ae0	0.10851073
27	0x3f37ee89	0.7184835
28	0x3ee03d23	0.43796644
29	0x3e9bb760	0.30413342
30	0xbfc7999d	-1.5593754
31	0xbf8b470e	-1.0881059
32	0xbf8d36f2	-1.1032393
33	0xbd0d5596	-0.03450545
34	0xbe984801	-0.29742435
35	0x3e94a82e	0.2903456
36	0xbdc62c6b	-0.09676441
37	0x3de12aed	0.109945156
38	0x3f29835d	0.6621607
39	0xbf0ab527	-0.54182667
40	0xbf05a30a	-0.522019
41	0xbe859baa	-0.26095325
42	0xbfe2065b	-1.765819
43	0xbf95502a	-1.1665089
44	0xbf35af6b	-0.7097079
45	0xbf2f5a4e	-0.6849717
46	0xbe591b83	-0.21201901
47	0xbefc3996	-0.49262685
48	0xbcd2ea4e	-0.02574649
49	0x3f13eba4	0.57781434
50	0x3ee44d51	0.44590238
51	0xbdb10bf0	-0.08644855
52	0xbe6e8ead	-0.23296614
53	0x3e6e3866	0.23263702
54	0x3da0a351	0.0784365
55	0x3e830a7f	0.25593945
56	0x3f50a7c2	0.8150598
57	0xbef20aec	-0.47273958
58	0xbdce823d	-0.10083435
59	0xbe53c5a8	-0.20680869
60	0x3e910132	0.28321224
61	0xbfb94b75	-1.4476153
62	0xbfc9c1bd	-1.5762249
63	0xbf40ca6c	-0.7530887
64	0xbe19c581	-0.15016748
65	0xbed021a8	-0.40650678
66	0x3f2cbf9d	0.6747988
67	0x3f2ef7d3	0.683469
68	0x3f10846f	0.5645208
69	0x3d50e44d	0.050998975
70	0x3dde26f3	0.10847273
71	0x3ed95dc3	0.42454347
72	0xbdba2e63	-0.09090879
73	0xbe12569c	-0.14290851
74	0xbecd3c4f	-0.40085074
75	0xbefbd965	-0.49189296
76	0xbe95e6c3	-0.2927762
77	0xbf190652	-0.5977527
78	0x3f0a3062	0.53980076
79	0x3e11b52a	0.14229265
80	0x3e88ab5b	0.26693234
81	0x3e75405d	0.23950334
82	0xbe1e9a39	-0.15488519
83	0xbe1d7c73	-0.15379505
84	0xbedb6ebd	-0.42857924
85	0xbe76e234	-0.24109727
86	0xbf29494d	-0.66127473
87	0xbe97e578	-0.29667258
88	0xbea41cfa	-0.32053357
89	0xbf0d5330	-0.5520506
90	0x3dba8d09	0.091089316
91	0x3d87aa4f	0.06624281
92	0xbe6a1136	-0.22858128
93	0x3f0a281e	0.53967464
94	0x3f4ff08e	0.8122643
95	0x3f3d95d9	0.74056774
96	0xbe0a2cd9	-0.1349367
97	0xbeced1f4	-0.40394557
98	0xbef4c0e6	-0.4780342
99	0x3d16d01c	0.036819562
100	0xbe943631	-0.28947595
101	0xbec2725f	-0.37977883
102	0x3eb5e7dc	0.35528457
103	0x3f45569b	0.77085274
104	0x3f55951c	0.8343065
105	0xbe70f347	-0.23530303
106	0xbee71d36	-0.45139474
107	0xbe52350c	-0.20528048
108	0x3eb631e1	0.3558493
109	0x3e4e5fc1	0.20153715
110	0xbe26c9c0	-0.16287899
111	0xbf1ad33b	-0.6047856
112	0xbdd2e405	-0.102973975
113	0xbec2c13b	-0.38038048
114	0xbe6873c5	-0.22700413
115	0xbe962725	-0.2932674
116	0xbf2aa428	-0.6665673
117	0x3dd2a1df	0.10284781
118	0x3d8ce945	0.0688043
119	0x3e78c710	0.24294686
120	0xbeb6fea5	-0.35741153
121	0xbe9554ef	-0.29166362
122	0xbdf12820	-0.11775231
123	0x3ea99b5e	0.33126348
124	0x3f0cb108	0.5495763
125	0x3f08e7c6	0.5347866
126	0xbeb94d19	-0.36191633
127	0xbd398e29	-0.04530159
128	0x3e4d2c62	0.20036462
129	0x3ec91ddf	0.39280602
130	0x3da1cb86	0.07900147
131	0x3ed95209	0.424454
132	0xbebb3c98	-0.36569667
133	0xbdb3631d	-0.08759139
134	0x3e971162	0.2950545
135	0x3f20f9ab	0.62880963
136	0x3f3a962b	0.7288539
137	0x3f4525f4	0.77011037
138	0xbe4fb185	-0.20282562
139	0xbe9f94e0	-0.3116827
140	0xbed05a97	-0.40694115
141	0xbe82b13b	-0.2552584
142	0xbe48f92c	-0.19626302
143	0x3d87a5dc	0.06623432

conv1.bias f4 [16]
0	0x3ded0daa	0.11574872
1	0x3eb2e817	0.34942695
2	0xbec7e93f	-0.3904514
3	0x3e54347b	0.20723145
4	0x3eef031a	0.46682054
5	0xbc8e9b32	-0.017407987
6	0x3ee80c57	0.45321915
7	0xbf37d214	-0.7180493
8	0xbc019cec	-0.007910948
9	0x3ee04142	0.43799788
10	0xbebcf097	-0.36902305
11	0xbd9a3622	-0.07529856
12	0xbcae40a7	-0.021271063
13	0xbe2e9717	-0.17049824
14	0xbdfd47c4	-0.12367204
15	0x3e41ebfc	0.18937677

conv2.weight f4 [32, 16, 3]
0	0x398c4325	0.00026752907
1	0x3e1556c8	0.14583886
2	0x3d989de3	0.074519895
3	0xbe542ed3	-0.20720987
4	0xbd6422b1	-0.055697147
5	0xbd2941b4	-0.041322425
6	0xbdc61303	-0.09671595
7	0x3e0bc2fb	0.13648598
8	0x3eacc9d2	0.33747727
9	0x3df51af9	0.11968035
10	0xbd6a41e6	-0.057191752
11	0xbd952910	-0.07283223
12	0x3efc8d41	0.49326518
13	0x3e0fe602	0.14052585
14	0xbe31ce68	-0.17363894
15	0xbe88709d	-0.26648417
16	0x3e279ab9	0.16367616
17	0x3ef8283d	0.484682
18	0xbf14f242	-0.58182156
19	0xbf59e8f8	-0.8512111
20	0xbf1f1da7	-0.6215462
21	0x3f214e9b	0.6301057
22	0x3f74b607	0.9559025
23	0x3fc6840e	1.550905
24	0xbe9d1627	-0.30680963
25	0xbde3d982	-0.11125471
26	0x3dea1b75	0.11431018
27	0xbf4b6ea4	-0.794657
28	0xbf59e00c	-0.85107493
29	0xbced8fd0	-0.02899924
30	0x3e7a119c	0.2442078
31	0x3e8d4352	0.27590424
32	0x3e9364ed	0.28787938
33	0x3ed628bd	0.41827956
34	0x3f15c5f4	0.5850518
35	0x3eccf15f	0.40027902
36	0xbef9a091	-0.48755315
37	0xbd931471	-0.07181633
38	0x3cb2ba37	0.02181731
39	0xbf8be891	-1.0930349
40	0xbeed3804	-0.463318
41	0xbe5ef339	-0.2177247
42	0xbe1db3ba	-0.15400591
43	0x3dd6870c	0.10474977
44	0x3e056968	0.1302849
45	0xbfd86a6e	-1.690748
46	0xbfd1741c	-1.6363559
47	0xc00d4369	-2.2072394
48	0xbbfc93cd	-0.007708049
49	0xbd8c079e	-0.0683739
50	0x3e06a1f5	0.13147719
51	0xbc66d974	-0.014089931
52	0xbe106253	-0.14100008
53	0x3c2c3699	0.010511064
54	0xbe478f2c	-0.1948821
55	0x3dd576c0	0.104230404
56	0xbc5a2bd3	-0.013316113
57	0xbe9e6dba	-0.3094309
58	0xbda6791c	-0.081285685
59	0xbd2daeee	-0.042403154
60	0xbf06cd39	-0.52656895
61	0xbcf629ec	-0.030049287
62	0xbf1c3813	-0.6102306
63	0xbf1477ca	-0.57995284
64	0xbe4d7347	-0.20063506
65	0xbeeb41c2	-0.45948607
66	0xbf4663a1	-0.7749577
67	0xbf5f079f	-0.87121004
68	0xbf48036e	-0.78130233
69	0xbe467552	-0.19380692
70	0x3d83d820	0.06437707
71	0x3d0d20f2	0.034455247
72	0x3e3bce8a	0.18340507
73	0xbf2cfa82	-0.67569745
74	0xbecbaced	-0.3978037
75	0x3c78232b	0.015145103
76	0x3b3d2717	0.002886241
77	0xbe6a1a9f	-0.22861718
78	0xbd7c2574	-0.061559156
79	0x3e53f931	0.20700528
80	0x3e7522a4	0.23938996
81	0x3d2843c2	0.041080244
82	0x3f0ed10d	0.55787736
83	0x3ed1b7bb	0.40960488
84	0xbef74de6	-0.4830162
85	0xbf0246cc	-0.5088928
86	0xbecaa9eb	-0.39582762
87	0x3d91f785	0.07127289
88	0xbe2b57b3	-0.16732673
89	0xbdfef17c	-0.12448403
90	0xbda1d4a5	-0.07901887
91	0x3cef49b0	0.029209942
92	0x3da9be4f	0.082882516
93	0xbafa6983	-0.0019104931
94	0xbe490fe0	-0.19634962
95	0xbd88ea36	-0.06685297
96	0x3f0b39ef	0.54385275
97	0x3f48b532	0.7840148
98	0x3f218927	0.630999
99	0x3ee19792	0.4406095
100	0x3f5b9a3a	0.85782206
101	0x3f1ca565	0.6118987
102	0xbee0a87f	-0.43878552
103	0xbf295463	-0.6614439
104	0xbee4aff7	-0.446655
105	0x3f4f7b78	0.81047773
106	0x3f9a5e17	1.2059964
107	0x3f91d331	1.1392576
108	0x3dde039f	0.108405344
109	0x3dbce091	0.0922252
110	0x3ec2d5ab	0.3805364
111	0xbf30b0c0	-0.690197
112	0xbf1eaaf1	-0.61979586
113	0xbeac9b99	-0.33712462
114	0x3e39f35d	0.18159242
115	0x3e650241	0.22364141
116	0x3f2baec0	0.6706352
117	0xbf106dc2	-0.5641748
118	0xbf1cf0e3	-0.61305064
119	0xbef26e41	-0.47349742
120	0xbc7ea5b9	-0.015542441
121	0xbc947938	-0.018124208
122	0x3e3b59ce	0.18295977
123	0x3f4ef7ee	0.8084706
124	0x3f52949a	0.82258
125	0x3efef80e	0.49798626
126	0xc01950bf	-2.3955534
127	0xc080642e	-4.012229
128	0xc06cb75c	-3.6986914
129	0xc01b51f7	-2.4268777
130	0xc080db7a	-4.0267916
131	0xc05083ae	-3.258037
132	0xbd61d490	-0.055134356
133	0x3e390387	0.18067752
134	0x3f087f84	0.53319573
135	0xbe825f1e	-0.25463194
136	0xbea601a5	-0.3242313
137	0xbed77435	-0.42080846
138	0xbf89cc3e	-1.0765455
139	0xbfd758c3	-1.6823963
140	0xbfd0430c	-1.6270461
141	0x3db49e3c	0.08819243
142	0xbb3bdd35	-0.0028665785
143	0x3e0fcbf3	0.14042644
144	0xbf097bd7	-0.5370459
145	0x3f00f147	0.5036816
146	0xbfb6c43d	-1.4278637
147	0xbf3f1df5	-0.74655086
148	0xbd5796d5	-0.05263408
149	0xbfe9c46c	-1.8263068
150	0xbd356fa6	-0.04429593
151	0x3dd0cfb6	0.10195868
152	0x3dab0941	0.083513744
153	0xbfc98ae1	-1.5745507
154	0xbf7900e0	-0.9726696
155	0xbfd920c6	-1.6963127
156	0x3e64301b	0.22283976
157	0x3e84e37a	0.259548
158	0x3dbdf59d	0.09275363
159	0x3e9aef0a	0.30260497
160	0x3eca1ab6	0.39473504
161	0x3e6664ab	0.2249934
162	0xbeb9d142	-0.36292464
163	0xbe8d3ff4	-0.27587855
164	0xbf9bc117	-1.2168301
165	0xbf45577a	-0.77086604
166	0xbee196b4	-0.4406029
167	0xbfd1fb7e	-1.6404874
168	0xbde54e19	-0.111965366
169	0x3dac418c	0.084109396
170	0x3f0a2454	0.5396168
171	0xbe45fc68	-0.19334567
172	0xbe2ede58	-0.17077005
173	0x3eee599e	0.46552747
174	0x3e0d9df3	0.13829784
175	0xbd3dda47	-0.046350744
176	0xbeae8d0a	-0.3409198
177	0x3efcc222	0.49366862
178	0x3e3e4538	0.18581092
179	0xbe5514ca	-0.20808712
180	0xbed0b41a	-0.40762407
181	0xbe0c8150	-0.13721204
182	0x3d32bdfb	0.04363821
183	0xbc766918	-0.015039705
184	0x3e36fdcd	0.17870255
185	0x3e02e54e	0.12782785
186	0x3e58811d	0.21143003
187	0x3ca46301	0.02006674
188	0xbea7ab27	-0.32747766
189	0xbdc7a5f7	-0.09748452
190	0xbc527bdc	-0.012846913
191	0xbb39cda1	-0.0028351324
192	0xbec8bfcd	-0.39208832
193	0x3d851b65	0.06499366
194	0xbe8f5773	-0.27996406
195	0x3e554b54	0.20829517
196	0xbecfb1c0	-0.405653
197	0x3d889c30	0.066704154
198	0x3e619863	0.22030787
199	0x3d2b8072	0.041870542
200	0x3de5c5d4	0.11219373
201	0xbed0664c	-0.40703046
202	0xbdd70a4b	-0.1050001
203	0xbde63c42	-0.11241962
204	0x3f2365aa	0.63827
205	0x3e34220a	0.1759111
206	0xbdddd297	-0.108311825
207	0x3e97e7ff	0.29669186
208	0x3e8ab686	0.2709238
209	0x3e1fc13b	0.15601055
210	0xbfc22d35	-1.5170046
211	0xbf890a5d	-1.0706288
212	0xbfcd5fc9	-1.6044856
213	0x3e30cf2a	0.17266527
214	0x3f20a3a3	0.6274969
215	0x3f438d5a	0.7638756
216	0xbf0dadab	-0.5534312
217	0x3f0a5d32	0.54048455
218	0x3d60ec89	0.054913078
219	0xbe891352	-0.26772553
220	0xbe83ba63	-0.2572814
221	0xbe58c0b9	-0.21167268
222	0x3ecb6590	0.39725924
223	0x3f01a0c2	0.5063592
224	0xbd236c94	-0.03989847
225	0x3f0825d7	0.5318274
226	0x3ef7ab5d	0.48372927
227	0xbdbc02fc	-0.09180257
228	0xbe9283aa	-0.28616077
229	0xbe562af6	-0.20914826
230	0xbf406787	-0.7515797
231	0xbf0b7584	-0.5447619
232	0xbd34b7fd	-0.044120777
233	0x3eb0a8d9	0.3450382
234	0xbe1db53d	-0.15401168
235	0x3e9852a1	0.2975054
236	0x3dd52a9d	0.104085185
237	0xbf449f4b	-0.7680556
238	0xbf1db7ba	-0.6160847
239	0xbf8229a5	-1.0168959
240	0x3f479f81	0.7797776
241	0x3f12fa2d	0.5741299
242	0x3f18a09a	0.5962006
243	0x3eb5b988	0.35493112
244	0x3ec5aeb3	0.38609847
245	0x3e9906b7	0.29887936
246	0xbdbcbe28	-0.09215957
247	0xbea6e6f2	-0.32598072
248	0x3c1bf141	0.009517969
249	0x3f66a47b	0.9009473
250	0x3f388567	0.72078556
251	0x3f2a33d2	0.6648532
252	0xbf2c069f	-0.67197603
253	0xbe1130de	-0.14178798
254	0xbf5ef535	-0.87092906
255	0xbe14525e	-0.14484546

conv2.bias f4 [32]
0	0xbf1154ac	-0.56769824
1	0xbdc97096	-0.09835927
2	0xbe8ba02c	-0.2727064
3	0x3e726246	0.23670301
4	0xbefc6933	-0.4929901
5	0xbe22180c	-0.15829486
6	0xbf285d8c	-0.6576774
7	0xbe1b2d16	-0.15153918
8	0xbf67ce37	-0.90549034
9	0xbf7fa687	-0.99863476
10	0xbd3ee2cf	-0.04660302
11	0xbf52bfbf	-0.8232383
12	0x3e8dd75b	0.27703366
13	0x3e856f01	0.26061252
14	0xbe31723c	-0.17328733
15	0xbd9db53c	-0.07700583
16	0xbe2c317e	-0.16815755
17	0x3c2ad24e	0.010426117
18	0xbdcba2b5	-0.09943143
19	0xbe4eb022	-0.20184377
20	0x3ebfa9fa	0.3743437
21	0x3de9a257	0.11407917
22	0xbdb719b4	-0.08940449
23	0xbe102b2e	-0.14078972
24	0xbd215876	-0.039391004
25	0x3ea2c4b8	0.3179071
26	0x3deb12f0	0.114782214
27	0xbeb3e513	-0.35135707
28	0xbeee4d38	-0.46543288
29	0xbf40d1d5	-0.7532018
30	0xbe295064	-0.16534573
31	0x3e1b2f4a	0.15154758

fc1.weight f4 [64, 384]
0	0x3ebf247c	0.37332523
1	0x3f31f823	0.6951925
2	0x3f45239b	0.77007455
3	0x3f8a494a	1.0803616
4	0x3f8ae287	1.0850381
5	0x3f89f5f8	1.0778189
6	0x3f6b6c7e	0.9196242
7	0x3f95d0d6	1.1704357
8	0x3f97a34a	1.1846707
9	0x3f6e61a1	0.9311772
10	0x3f7d5f1b	0.98973244
11	0x3f8dd392	1.1080191
12	0xbeeac557	-0.45853683
13	0xbf0a7fca	-0.5410124
14	0xbed3bef3	-0.4135662
15	0xbee6900d	-0.45031777
16	0xbf3fbd27	-0.74898
17	0xbe8b06cd	-0.27153626
18	0xbe6e2ba4	-0.23258835
19	0xbec6b280	-0.3880806
20	0xbe8cc1b8	-0.27491546
21	0xbea53bc2	-0.32272154
22	0xbe24d4a5	-0.16096742
23	0xbd2bc337	-0.04193422
24	0x3e139c06	0.14414987
25	0xbc79df2d	-0.015250963
26	0x3e07f2a5	0.13276155
27	0x3e034680	0.12819862
28	0x3e5a85c0	0.21340084
29	0x3e79b191	0.24384142
30	0x3e270183	0.1630917
31	0x3e299fd9	0.16564883
32	0x3d8676cd	0.06565628
33	0x3dd3dd11	0.103448994
34	0x3e54d35b	0.2078375
35	0x3d2735fb	0.040822964
36	0xbf6c86a5	-0.9239295
37	0xbef94f98	-0.48693538
38	0xbee5528b	-0.44789538
39	0xbf3de3b3	-0.74175566
40	0xbf06ddc6	-0.5268215
41	0xbf009d24	-0.5023978
42	0xbf4aa6bc	-0.79160666
43	0xbf552c55	-0.8327077
44	0xbf4b5bf6	-0.79437196
45	0xbee7fd38	-0.45310378
46	0xbf15189d	-0.5824068
47	0xbfa3eb02	-1.2806094
48	0xbe941127	-0.28919336
49	0x3d9ea074	0.07745448
50	0x3e4cbe89	0.19994558
51	0x3edfc24f	0.43702933
52	0x3e8b0401	0.27151492
53	0x3ee1cdd3	0.44102344
54	0x3e8bb334	0.2728516
55	0x3f140115	0.5781415
56	0x3ea0d858	0.31415057
57	0x3e3ed393	0.18635397
58	0x3e55e112	0.20886639
59	0x3ee4899b	0.44636235
60	0xbf0a87b6	-0.5411333
61	0xbe7f2129	-0.24914993
62	0xbdfc0ff0	-0.12307727
63	0x3d09410f	0.03350931
64	0xbe55a71c	-0.20864528
65	0xbdb78cdb	-0.08962413
66	0xbe9fb111	-0.31189778
67	0xbde20a07	-0.11037069
68	0xbea1f211	-0.31629995
69	0xbee76212	-0.4519201
70	0xbde2b395	-0.11069409
71	0xbd2c0f17	-0.04200658
72	0xbaa3d079	-0.0012498043
73	0x3eaf8de9	0.34287956
74	0x3e83c8f3	0.2573925
75	0x3eb553fb	0.35415635
76	0x3ef6490f	0.48102614
77	0x3e9ac97c	0.30231845
78	0x3e4a1a30	0.19736552
79	0x3e159e60	0.14611197
80	0x3eeff5c7	0.468672
81	0x3f08f786	0.5350269
82	0x3e99f3eb	0.30068907
83	0x3ee8d643	0.4547597
84	0x3d3a5d4a	0.045499124
85	0x3d388dfc	0.04505728
86	0xbc71f144	-0.014766995
87	0xbc1c7ec4	-0.009551708
88	0x3d3e5fb0	0.046477973
89	0xbd0b21b5	-0.033967692
90	0xbad72123	-0.0016413074
91	0x3d4e022d	0.050295044
92	0x3d50dd72	0.050992437
93	0xbb2d5247	-0.0026446746
94	0xbca771ad	-0.020439947
95	0x3cb7c461	0.022432508
96	0x3dba2e93	0.090909146
97	0x3dcf8803	0.10133364
98	0x3e709c56	0.23497137
99	0x3dfee737	0.124464445
100	0x3e29c546	0.1657916
101	0xbd168a6c	-0.036753103
102	0x3dbf7dbb	0.09350153
103	0x3e032bc0	0.12809658
104	0x3e8d3609	0.27580288
105	0x3e10811e	0.14111754
106	0x3dd3e2e6	0.10346012
107	0x3d399462	0.045307525
108	0x3f2c20e5	0.67237693
109	0x3ef1bcb9	0.47214296
110	0x3ef20673	0.47270545
111	0x3f517ed8	0.81834173
112	0x3f185243	0.5950052
113	0x3f326a76	0.69693696
114	0x3efae234	0.49000704
115	0x3f198937	0.59975
116	0x3f01338f	0.504693
117	0x3f07cd25	0.530474
118	0x3f1c8a5c	0.6114862
119	0x3f27aa52	0.65494263
120	0xbf0c7b9f	-0.5487613
121	0xbf09f136	-0.53883684
122	0xbee7d05a	-0.45276147
123	0xbf46eaba	-0.77701914
124	0xbef68aaa	-0.48152667
125	0xbdefd5a2	-0.11710669
126	0xbd4de62a	-0.05026833
127	0xbec3eaa3	-0.3826495
128	0xbe9dab5d	-0.30794802
129	0xbd87f91e	-0.06639312
130	0xbf210a52	-0.6290637
131	0xbe8195ae	-0.2530951
132	0x3eaf1805	0.34198013
133	0x3dc7bbd2	0.09752621
134	0x3e2a0d2f	0.16606592
135	0x3dfe3b72	0.12413682
136	0x3eb8ff39	0.3613222
137	0x3d916a74	0.071003824
138	0x3e12acce	0.14323732
139	0x3ebb01a6	0.36524695
140	0x3e94d431	0.2906814
141	0x3e82b7e2	0.25530916
142	0x3e83ebff	0.25765988
143	0x3ec50390	0.3847928
144	0xbf9f19a7	-1.2429703
145	0xbfb1753b	-1.3863901
146	0xbfcb6fc6	-1.5893486
147	0xbf9e166b	-1.2350591
148	0xbfb84a33	-1.4397644
149	0xbfa5b9a1	-1.2947274
150	0xbfcd7bdc	-1.6053424
151	0xbfe4af5d	-1.7866017
152	0xbff9befe	-1.9511411
153	0xc00fe090	-2.2480812
154	0xc01abcd4	-2.4177752
155	0xbfca6b3e	-1.5813978
156	0xbf127be6	-0.57220304
157	0xbec9ebed	-0.3943781
158	0xbea36db9	-0.3191965
159	0xbf0311f2	-0.5119926
160	0xbf3653d1	-0.71221644
161	0xbf205465	-0.62628776
162	0xbf042cbe	-0.5163077
163	0xbf48bd2a	-0.7841364
164	0xbf2b7b4b	-0.66985005
165	0xbf793505	-0.97346526
166	0xbf7df70e	-0.992051
167	0xbf371a55	-0.71524554
168	0x3e2952c2	0.16535476
169	0x3fb08e73	1.3793472
170	0x3f9f8029	1.2460986
171	0x3fb4b425	1.4117476
172	0x3fc03964	1.5017514
173	0x3fafdeab	1.3739828
174	0x3fb34ed1	1.4008428
175	0x3fb29893	1.3952812
176	0x3fb782b9	1.4336768
177	0x3fb5004d	1.4140717
178	0x3fc3596f	1.5261668
179	0x3fc61042	1.5473711
180	0xbdebb2e1	-0.11508728
181	0x3ca16d27	0.019705368
182	0x3ee2aabe	0.4427089
183	0x3cf43c79	0.029813992
184	0x3df207a6	0.11817865
185	0xbe285e79	-0.16442288
186	0x3e57e047	0.21081649
187	0x3eb31451	0.34976438
188	0x3db4ab00	0.08821678
189	0xbc1d7a94	-0.009611744
190	0xbd366373	-0.044528436
191	0x3e0fbe91	0.14037539
192	0x3c392464	0.01130018
193	0xbca206ae	-0.019778576
194	0x3ce8196c	0.028332435
195	0xbcaddd15	-0.021223584
196	0x3d27ad0e	0.040936522
197	0xbd05b7d2	-0.032646008
198	0xbbabbee8	-0.0052412637
199	0xbd047966	-0.032342337
200	0xbd2d844b	-0.042362493
201	0x3d430ad4	0.04761775
202	0xbc8ae002	-0.016952518
203	0xbd30aa80	-0.04313135
204	0xbefb621d	-0.49098292
205	0xbf251d1b	-0.64497536
206	0xbf6a849e	-0.9160861
207	0xbf59f392	-0.85137284
208	0xbf29f399	-0.66387326
209	0xbf25547b	-0.6458203
210	0xbe3e9c77	-0.18614374
211	0xbe9c9ed6	-0.30589932
212	0xbf346c29	-0.7047754
213	0xbf1a63ed	-0.60308725
214	0xbf3945f8	-0.7237239
215	0xbf80721a	-1.0034821
216	0xbf92014c	-1.1406646
217	0xbf28f43a	-0.6599766
218	0xbf44111e	-0.7658862
219	0xbf028707	-0.50987285
220	0xbee131fe	-0.43983454
221	0xbf0de0d4	-0.55421185
222	0xbeaea2ad	-0.34108487
223	0xbf073d3b	-0.52827805
224	0xbf0a4657	-0.5401358
225	0xbeef10f3	-0.4669262
226	0xbe74f9dd	-0.2392344
227	0xbeeda99f	-0.46418473
228	0x3ec82014	0.39086974
229	0x3ecbc485	0.3979837
230	0xbdd15aa5	-0.10222367
231	0xbe8fa685	-0.28056732
232	0x3e6eea31	0.23331524
233	0xbcd614d0	-0.026132971
234	0xbe8ee8d8	-0.2791202
235	0xbe307db7	-0.17235456
236	0x3d46e0d5	0.04855426
237	0xbd68a017	-0.0567933
238	0x3e01657e	0.12636372
239	0x3de3bc36	0.11119883
240	0xbf7dd0cd	-0.9914673
241	0xbf4aeb7d	-0.79265577
242	0xbf4a68d2	-0.79066193
243	0xbf0e6e2f	-0.55636877
244	0xbee1e00c	-0.44116247
245	0xbf1261c2	-0.57180417
246	0xbf2c22f3	-0.6724083
247	0xbf2c9bd8	-0.674253
248	0xbf651109	-0.8947912
249	0xbf6c0b71	-0.9220496
250	0xbf4efeac	-0.8085735
251	0xbf7ec3ae	-0.99517334
252	0xbf6c65be	-0.92342746
253	0xbec6f7e6	-0.38861006
254	0xbecb6c62	-0.39731127
255	0xbdb1d082	-0.08682348

fc1.bias f4 [64]
0	0xc006bac5	-2.1051495
1	0xbe573651	-0.21016814
2	0x3ea337f0	0.31878614
3	0x3e43bf76	0.19116005
4	0xbe49e9d4	-0.19718105
5	0x3e94538a	0.28969985
6	0xbd994eb6	-0.07485716
7	0xbf1279a7	-0.57216877
8	0xbdc7276d	-0.09724317
9	0x3f559257	0.8342642
10	0x3dd790ef	0.10525691
11	0x3df58fec	0.119903415
12	0xbdc2f09c	-0.09518549
13	0xbf89fceb	-1.078031
14	0xbe15ee71	-0.1464174
15	0xbf7e1445	-0.9924968
16	0xbf03c09d	-0.5146578
17	0xbe9865d2	-0.29765183
18	0xbf2c1bdf	-0.6723003
19	0xbec06811	-0.37579396
20	0xbf1df8bf	-0.6170768
21	0xbe2b6702	-0.16738513
22	0x3c1c763a	0.009549672
23	0xbf1d72db	-0.6150338
24	0x3e26cff9	0.16290273
25	0xbf58ec5d	-0.8473566
26	0x3e9ed77e	0.31023782
27	0xbe9b81ec	-0.3037256
28	0xbf6b0512	-0.9180461
29	0xbefd8dfa	-0.49522382
30	0x3d8269de	0.06367849
31	0x3e906658	0.28203082
32	0xbec95aa8	-0.39326978
33	0xbe95072c	-0.29107034
34	0xbf6d58b6	-0.9271349
35	0xbeacf19a	-0.33778077
36	0xbf1bccf4	-0.6085961
37	0xbf8be6dc	-1.0929828
38	0xbfaa9e8d	-1.3329636
39	0xbf5d7161	-0.8650113
40	0xbeaa3e31	-0.33250573
41	0xbe080a33	-0.1328514
42	0xbf1c5bc4	-0.61077523
43	0xbe74c0af	-0.23901628
44	0xbdf2555c	-0.11832687
45	0xbf1c3ed9	-0.610334
46	0xbe8abac1	-0.27095607
47	0x3dc29d9b	0.09502717
48	0x3d2fd1ec	0.042924806
49	0xbeb5c6dd	-0.35503283
50	0xbf6d2498	-0.9263396
51	0xbf7d9a9f	-0.9906406
52	0xbf0b9969	-0.5453096
53	0xbf1b912d	-0.60768396
54	0xbe170f9e	-0.14752051
55	0xbe124613	-0.14284544
56	0xbe2258db	-0.15854208
57	0xbe3cf595	-0.18453057
58	0xbefcea6f	-0.4939761
59	0xbebfb1a9	-0.3744023
60	0x3ec0e5c1	0.37675288
61	0xbdb207ff	-0.086929314
62	0x3f15a73a	0.5845829
63	0xbd9fdf1a	-0.07806225

fc.weight f4 [4, 64]
0	0xbfc74e1c	-1.5570712
1	0x3f7ab2f1	0.9792929
2	0x3efaaefa	0.48961622
3	0x3debefad	0.11520324
4	0xbb3afdc1	-0.0028532597
5	0xbf9adfea	-1.2099583
6	0x3d3f763f	0.046743628
7	0xbf27a8b4	-0.65491796
8	0x3d4f5d09	0.050625835
9	0x3fc35d81	1.526291
10	0x3f43d6b1	0.7649947
11	0xc0b45bfd	-5.636229
12	0x3bca2538	0.0061689876
13	0xbf02a965	-0.51039726
14	0xbf9e7c90	-1.2381763
15	0xbf15c6bc	-0.5850637
16	0xbe11dd20	-0.14244509
17	0xbeff82a0	-0.49904346
18	0xbf49c6e0	-0.78819084
19	0xc02e198a	-2.7203088
20	0xbfac8d1a	-1.3480561
21	0xbdc70058	-0.097168624
22	0xc024e796	-2.576635
23	0xbf4a9f7f	-0.7914962
24	0xc0acb442	-5.397004
25	0xbf8b72a7	-1.0894364
26	0x3e101ba1	0.1407304
27	0xbf878538	-1.058753
28	0xbf3c1e35	-0.7348359
29	0xc012b4ac	-2.2922773
30	0xc09dbdbe	-4.929412
31	0x3d9a2f5b	0.075285636
32	0xbffb6f9b	-1.9643434
33	0xbd139303	-0.036028873
34	0xbf69fc86	-0.91400945
35	0xbe25c499	-0.16188277
36	0xbfeba47e	-1.8409574
37	0xbe5ebefb	-0.21752541
38	0xbf66ad78	-0.9010844
39	0xbd86c7ab	-0.065810524
40	0xbcb4045a	-0.021974731
41	0x3df9c6e9	0.12196142
42	0xbdd7f0b8	-0.1054396
43	0xc0534e7a	-3.3016648
44	0xbfd95592	-1.6979239
45	0xbe2ec9d1	-0.17069174
46	0xbf6af1f1	-0.91775423
47	0xbff03487	-1.876603
48	0xbfc9abad	-1.5755516
49	0xc0614873	-3.520047
50	0xbf4ad9a6	-0.79238355
51	0xbf4c4f40	-0.79808426
52	0xbef667fa	-0.48126203
53	0xbf87a168	-1.0596132
54	0xbfc5a8cb	-1.5442137
55	0xbf0f7f02	-0.56053174
56	0xbf6653e5	-0.8997176
57	0x3cbd33f7	0.023096068
58	0xc033288d	-2.79935
59	0xbf4ae26c	-0.7925174
60	0x3e07c5ee	0.13259098
61	0x3da1a1d5	0.07892195
62	0xbf8b1016	-1.0864284
63	0xbfc3e331	-1.5303708
64	0x3f2a9570	0.66634274
65	0xbbf467c0	-0.007458657
66	0xbecd0957	-0.40046188
67	0xc0026e72	-2.037991
68	0xbe059fc1	-0.13049223
69	0xbd440f4c	-0.04786615
70	0x3e640408	0.22267163
71	0x3ea25190	0.31702852
72	0xbc88f5cb	-0.016718766
73	0xc0fff3e0	-7.99852
74	0x3e2038e3	0.156467
75	0x3d8e73ce	0.06955682
76	0xbd90badc	-0.070668906
77	0xbfb1af17	-1.3881558
78	0xbdbbe69b	-0.09174844
79	0xbfbdaa0c	-1.4817519
80	0xbf772d3f	-0.96553415
81	0xbe7e3f1e	-0.24828765
82	0x3dfaf40a	0.12253578
83	0x3e3295f9	0.17440023
84	0x3e9ab5cf	0.30216834
85	0x3cefd0d6	0.029274385
86	0xbd516ee1	-0.051131133
87	0xbf8c444f	-1.0958346
88	0x3e495191	0.19660021
89	0xbf205d48	-0.62642336
90	0x3e534184	0.20630461
91	0xbdb9d45e	-0.09073709
92	0xbf824f6c	-1.0180488
93	0x3e611049	0.21978869
94	0x3e557209	0.20844282
95	0xbd0104de	-0.031498782
96	0xbe922e7a	-0.28551084
97	0x3e850af9	0.25984934
98	0xbf58c903	-0.8468172
99	0x3ecd8958	0.40143847
100	0x3e2673c7	0.16255103
101	0xbf45f319	-0.7732406
102	0x3e84ba96	0.25923604
103	0xbf8e7b17	-1.1131314
104	0xbf6e331c	-0.93046737
105	0xbd75257f	-0.059850212
106	0xbea5c549	-0.3237708
107	0x3dbe541f	0.092933886
108	0xc09c7a77	-4.8899493
109	0x3e45e290	0.19324708
110	0xbf43f038	-0.7653842
111	0x3eb54b7c	0.35409153
112	0xbe8b3bd8	-0.27194095
113	0xbe39cb7b	-0.18144028
114	0xbf6fc68e	-0.93662345
115	0xbf8cd05b	-1.1001085
116	0xbf89e797	-1.0773801
117	0xbeca445b	-0.39505276
118	0x3e241a69	0.160257
119	0x3e24b339	0.16083993
120	0xc08b60b5	-4.355555
121	0xbebceac6	-0.36897868
122	0xbc4a24a6	-0.012337839
123	0xc018f9fa	-2.3902574
124	0xba9af470	-0.0011822116
125	0x3ce12555	0.027483622
126	0x3cf31d9e	0.029677209
127	0xbf118c7f	-0.56855005
128	0xbeee39e8	-0.46528554
129	0xbe0a8b9a	-0.13529816
130	0x3cf60c20	0.030035079
131	0xbee08fb3	-0.43859634
132	0xbe951897	-0.29120323
133	0x3e56b21c	0.20966381
134	0xbef78331	-0.4834228
135	0xbe51e053	-0.20495729
136	0xbcdb3444	-0.02675832
137	0x3f6d5ae1	0.92716795
138	0xbe61bb12	-0.22044018
139	0x3eb771f1	0.35829118
140	0xbd49408b	-0.04913382
141	0x3fa17af6	1.261565
142	0xbc564a7b	-0.013079281
143	0x3fb10402	1.3829348
144	0x3e3e5982	0.18588832
145	0xbddf646d	-0.109078266
146	0x3ba09c1c	0.004901422
147	0x3be08bb9	0.0068525937
148	0xbeb05475	-0.34439436
149	0x3d1f5c4c	0.03890638
150	0x3bc844e4	0.006111728
151	0x3f51c016	0.81933725
152	0x3e211e59	0.15734233
153	0x3f40bb14	0.7528546
154	0xbf99a6e2	-1.2004054
155	0x3db2a9ef	0.087238185
156	0x3f3be439	0.73395115
157	0x3d784787	0.06061509
158	0xbe00dd76	-0.1258448
159	0xbec3d77d	-0.38250342
160	0x3e9d64cf	0.30740973
161	0xbeeae8b5	-0.45880666
162	0x3f807621	1.003605
163	0xbefed140	-0.4976902
164	0xbe12fe39	-0.14354791
165	0x3f22420a	0.6338202
166	0xbbab54dc	-0.005228622
167	0x3f8f1728	1.1178942
168	0xbf0ea8af	-0.5572614
169	0xbdbb0a4f	-0.091328256
170	0x3ea507dc	0.3223256
171	0x3db801a3	0.08984687
172	0x4007fade	2.1246867
173	0xbe7d31b2	-0.24725989
174	0x3c71a015	0.014747639
175	0x3e9052dc	0.28188217
176	0x3ec4b28c	0.3841747
177	0x3e96e9f1	0.29475358
178	0x3f53434f	0.8252458
179	0x3f93a3c2	1.153435
180	0x3f66727d	0.90018445
181	0x3db38707	0.08765989
182	0xbc4c9479	-0.0124865705
183	0x3be7313b	0.0070554293
184	0x3fbf7748	1.4958277
185	0x3e80fa43	0.25190935
186	0xbc87e6fc	-0.016589634
187	0x3ed9b935	0.42524114
188	0xbf261f18	-0.64891195
189	0xbbe49c88	-0.006976668
190	0x3e965f3b	0.2936953
191	0xbdf75d44	-0.12078336
192	0xbe740189	-0.2382871
193	0xbeff3735	-0.49846807
194	0x3eaac13a	0.33350545
195	0x3eb7b167	0.35877535
196	0x3e2ef7b2	0.17086676
197	0xbfaf5525	-1.3697859
198	0x3e88a597	0.26688835
199	0x3e294ff4	0.16534406
200	0xbc7860c9	-0.015159794
201	0xc00b4f61	-2.17672
202	0xbf6f7468	-0.93536997
203	0xbff413af	-1.9068507
204	0xbe0d7872	-0.13815477
205	0xbe8cb719	-0.27483442
206	0x3ea3109e	0.31848615
207	0x3f0c710a	0.54859984
208	0xbcebbeb9	-0.028777467
209	0x3e836d6f	0.2566943
210	0xbf879912	-1.0593588
211	0xbf827f9a	-1.0195191
212	0x3f5cb1d9	0.86208874
213	0xbe114ab1	-0.14188649
214	0x3fb494b5	1.4107882
215	0x3f5cba26	0.8622154
216	0xc08bd5dc	-4.369856
217	0xbe1e1164	-0.15436321
218	0x3f1c5f5a	0.61082995
219	0x3dd89570	0.10575378
220	0xbe19004a	-0.14941517
221	0x3f078b71	0.52947146
222	0x3f3a3d96	0.7275022
223	0x3ed5f84c	0.41790998
224	0xbed782e4	-0.4209205
225	0x3eae2da8	0.34019208
226	0xbf62bc15	-0.8856824
227	0x3f1c4965	0.6104949
228	0x3e93c40b	0.28860506
229	0x3ea526c4	0.32256138
230	0xbfc4b1cf	-1.5366763
231	0x3d83a6cf	0.064283006
232	0x3eeee5af	0.4665961
233	0x3df66b19	0.12032146
234	0xbe5fbd48	-0.21849549
235	0x3e4f69dd	0.20255227
236	0xbfcb6de7	-1.5892915
237	0x3f0c63a8	0.54839563
238	0x3f860c1e	1.0472448
239	0xbffd12e1	-1.9771386
240	0xbf879fdb	-1.0595659
241	0xbf8bc79f	-1.0920295
242	0xbe05d8f2	-0.1307104
243	0xbdef1b94	-0.11675182
244	0x3ed21b60	0.4103651
245	0xbedfe7d0	-0.43731546
246	0xbf56d4cc	-0.8391845
247	0xbf9e3ddf	-1.2362632
248	0xbf847821	-1.034916
249	0xbf10a523	-0.5650198
250	0x3ecd602d	0.4011244
251	0xbe556e33	-0.20842819
252	0x3f2f5983	0.6849596
253	0x3c757c40	0.014983237
254	0xbfe2a03d	-1.7705151
255	0x4008be85	2.1366284

fc.bias f4 [4]
0	0x3f6d9c60	0.92816734
1	0xbd914a55	-0.07094256
2	0xbeb1636c	-0.34646165
3	0xbe718ebf	-0.2358961
