LSTM/Data_3/LSTM1/model.pth (torch, 275939 bytes, 6 tensors)

lstm.weight_ih_l0 f4 [512, 3]
0	0xbf06468a	-0.52451384
1	0x3cb29770	0.021800727
2	0xbe15f6cf	-0.14644931
3	0xbe079d8b	-0.13243692
4	0x3f25672f	0.6461057
5	0x3dbc4cdc	0.09194347
6	0xbf3df7fc	-0.7420652
7	0xbdd6ce2c	-0.10488543
8	0x3ce709ef	0.028202979
9	0xbd2103c5	-0.039310236
10	0x3f09f810	0.5389414
11	0xbea27a24	-0.3173381
12	0xbdd6d240	-0.10489321
13	0x3e872172	0.26392704
14	0xbeb913fc	-0.3614806
15	0xbeb38f0e	-0.3507008
16	0x3e8c5c2b	0.2741407
17	0xbde884eb	-0.11353477
18	0xbe5afbbb	-0.2138509
19	0xbf859640	-1.0436478
20	0xbea1f54d	-0.31632462
21	0xbf2f33f8	-0.68438673
22	0xbec7d72c	-0.3903135
23	0x3e9f6767	0.31133577
24	0xbe67bfbd	-0.22631736
25	0xbfda6f85	-1.7065283
26	0xbe9eb17b	-0.30994782
27	0xbec66fd3	-0.3875719
28	0x3f6259a2	0.8841802
29	0x3e1df8b3	0.15426902
30	0xbe9635a0	-0.29337788
31	0xbe8ae928	-0.2713101
32	0xbed26344	-0.4109136
33	0xbf144d37	-0.5793032
34	0xbf4711ea	-0.7776171
35	0xbec5f868	-0.3866608
36	0xbf96b6ba	-1.1774514
37	0x3cc27ada	0.02374022
38	0xbf0bda61	-0.54630095
39	0xbea97974	-0.33100474
40	0xbe1936e9	-0.14962353
41	0xbd8e2b99	-0.06941909
42	0xbe8edb0c	-0.27901495
43	0x3e92ab93	0.28646526
44	0xbf7d5f9b	-0.9897401
45	0xbf09dcbb	-0.5385243
46	0xbfbdb58a	-1.4821026
47	0xbe54da89	-0.2078649
48	0xbe80ad5a	-0.25132257
49	0x3d9b2d96	0.07577054
50	0xbd90592d	-0.07048259
51	0xbe26b7ee	-0.16281101
52	0x3d7ab26d	0.061205316
53	0xbf6b837e	-0.91997516
54	0xbc5addd4	-0.013358552
55	0xbf8a4682	-1.0802767
56	0xbe87934a	-0.2647956
57	0xbf16fd72	-0.58980477
58	0xbf38dc02	-0.72210705
59	0xbd604d3c	-0.054761156
60	0xbefc3766	-0.49261016
61	0xbf39a910	-0.72523594
62	0xbed86486	-0.42264193
63	0xbede2ba7	-0.4339268
64	0x3de72877	0.11287015
65	0xbcaa53fe	-0.020792004
66	0xbee11c36	-0.43966836
67	0xbf123e4b	-0.571263
68	0xbfacad93	-1.3490471
69	0xbe70ab75	-0.23502906
70	0x3db273b9	0.087134786
71	0x3e4ad16c	0.1980645
72	0xbf29e7a4	-0.6636908
73	0xbf0708c5	-0.52747756
74	0xbea4170d	-0.32048836
75	0x3edab2a7	0.42714426
76	0x3e0e913a	0.13922587
77	0x3ecfac1e	0.40561002
78	0xbe66e981	-0.22550012
79	0xbfd63fb3	-1.673819
80	0xbe901855	-0.28143564
81	0x3e358900	0.17728043
82	0x3f03cf7c	0.5148847
83	0x3e312065	0.17297514
84	0xbf2694ed	-0.6507099
85	0xbdfa7198	-0.122286975
86	0x3d2a612f	0.041596588
87	0xbf40eea1	-0.7536412
88	0xbf549eeb	-0.8305499
89	0xbe80f334	-0.2518555
90	0x3b34a862	0.0027566184
91	0xbf9968a1	-1.1985055
92	0xbe94160d	-0.28923073
93	0xbe9853a1	-0.29751304
94	0xbeb7ac43	-0.35873613
95	0xbd3b929b	-0.04579411
96	0xbd77329e	-0.060351007
97	0xbf0ae61f	-0.54257387
98	0xbedc988b	-0.4308513
99	0x3c880d1f	0.01660782
100	0xbf0ef86e	-0.55847824
101	0xbf3afd65	-0.730429
102	0xbe8f166f	-0.27946803
103	0xbf5489cc	-0.8302276
104	0xbf059843	-0.5218546
105	0xbf7531c5	-0.9577907
106	0xbf6bfc1e	-0.92181575
107	0xbf1c1fb5	-0.6098588
108	0x3dc22f52	0.09481682
109	0x3e0941c5	0.13403995
110	0xbe3fae06	-0.18718728
111	0x3e19155c	0.14949554
112	0xbe88a473	-0.26687965
113	0x3d11e53a	0.035618998
114	0xbea1bf7e	-0.3159141
115	0xbf2e730a	-0.68144286
116	0xbe87e15a	-0.26539117
117	0xbf36040a	-0.71099913
118	0xbfaef678	-1.3668966
119	0xbf72b01b	-0.94799966
120	0xbf2173ea	-0.63067496
121	0xbf44d75b	-0.76891106
122	0xbf37c83c	-0.7178991
123	0xbf765caa	-0.96235144
124	0xbfb95018	-1.4477568
125	0xbf3b5578	-0.7317729
126	0xbc08379d	-0.0083140405
127	0xbf29b8dc	-0.662977
128	0xbfa32f41	-1.2748796
129	0xbda61d77	-0.08111089
130	0xbfb4310c	-1.4077468
131	0xbee798b5	-0.45233694
132	0xbeebcc41	-0.4605427
133	0xbec13ae7	-0.3774025
134	0xbe3c4d8f	-0.18388961
135	0xbf304c3f	-0.6886634
136	0xbf30e739	-0.6910282
137	0xbfb854ac	-1.440084
138	0xbe9df861	-0.3085356
139	0xbf28f5bf	-0.6599998
140	0xbf7191a3	-0.9436285
141	0xbf09f7f1	-0.53893954
142	0xbf20ccfd	-0.6281279
143	0xbe6b97e0	-0.23007154
144	0xbe119231	-0.14215924
145	0xbf409e2e	-0.75241363
146	0xbe036b83	-0.12833981
147	0xbecb3b21	-0.3969355
148	0xbf5b85b0	-0.85750866
149	0xbf625641	-0.88412863
150	0xbc663051	-0.0140496055
151	0xbd93b523	-0.072122835
152	0xbf065372	-0.5247108
153	0xbe8cadc5	-0.27476326
154	0xbf66c3c4	-0.90142465
155	0xbec6612c	-0.3874601
156	0xbec3f682	-0.38274008
157	0xbe2356bf	-0.1595106
158	0xbdedb52b	-0.11606821
159	0xbf4afef0	-0.79295254
160	0xbfb81a44	-1.4383016
161	0xbefd4995	-0.494702
162	0xbeaf61d5	-0.34254327
163	0xbf0902f8	-0.53520155
164	0xbebca9c0	-0.3684826
165	0xbe9c9656	-0.30583447
166	0xbf800249	-1.0000697
167	0xbe2d4c31	-0.16923596
168	0xbf237261	-0.63846403
169	0xbf93be35	-1.1542422
170	0xbef6b700	-0.48186493
171	0xbc4f7012	-0.012660997
172	0xbf2eef64	-0.6833403
173	0xbe93d43d	-0.28872862
174	0x3e20c44a	0.15699878
175	0xbdde10a9	-0.108430214
176	0x3ee1c544	0.44095814
177	0xbd5cee37	-0.053938117
178	0xbf913763	-1.1345028
179	0xbe74f9d5	-0.23923428
180	0xbec6036a	-0.3867448
181	0xbf9a82c0	-1.2071152
182	0xbf03842e	-0.51373565
183	0x3d994134	0.0748314
184	0xbe51cd8c	-0.20488566
185	0x3db78bb1	0.08962191
186	0x3d0ddec4	0.034636274
187	0xbf466773	-0.775016
188	0x3e51962b	0.20467441
189	0xbf0fe433	-0.5620758
190	0x3f33247d	0.6997755
191	0xbebd6c1f	-0.36996552
192	0xbf1020a3	-0.562998
193	0xbd345ffb	-0.044036847
194	0xbe1c4e4e	-0.15264246
195	0xbe563d7f	-0.20921896
196	0x3db1146e	0.08646475
197	0xb982812d	-0.00024891776
198	0xbf53739c	-0.8259828
199	0x3e20621d	0.15662427
200	0xbe6fb728	-0.23409712
201	0xbec1e239	-0.37867907
202	0xbee7a8a6	-0.45245856
203	0xbed31739	-0.41228655
204	0xbebe80fc	-0.37207782
205	0x3f07c2ca	0.530316
206	0xbf5f4bc6	-0.87224996
207	0x3c15f562	0.009152742
208	0xbf1e79aa	-0.61904395
209	0xbcbe7a33	-0.023251629
210	0xbe8568ed	-0.26056615
211	0xbe679166	-0.22614059
212	0xbed5f2d9	-0.4178684
213	0xbea469b3	-0.32111892
214	0xbf11fe44	-0.57028604
215	0xbe9c6365	-0.30544582
216	0xbed7e4f3	-0.42166862
217	0x3e868536	0.26273507
218	0xbecd477c	-0.400936
219	0x3e053db9	0.13011827
220	0x3f39282c	0.7232692
221	0x3dc2e6ad	0.09516654
222	0xbea221f2	-0.31666523
223	0xbf01f85f	-0.5076961
224	0xbfb70c81	-1.4300691
225	0xbe5af1c7	-0.21381293
226	0xbebe4b35	-0.37166753
227	0xbf1df206	-0.61697423
228	0xbe508bce	-0.20365831
229	0x3e08b69b	0.13350908
230	0xbe1d392b	-0.15353839
231	0xbe237f1f	-0.15966462
232	0xbeb184ae	-0.3467154
233	0xbe8dcdb6	-0.27696007
234	0xbf47ed00	-0.7809601
235	0xbf907ae9	-1.1287509
236	0xbfb01db6	-1.3759067
237	0xbee7821f	-0.45216462
238	0xbf05258a	-0.52010405
239	0xbf4c3e74	-0.79782796
240	0xbee7d7b0	-0.45281744
241	0x3e097f07	0.13427363
242	0xbf823fcb	-1.0175718
243	0xbe79e4eb	-0.24403732
244	0x3eba27f3	0.36358604
245	0x3d44e091	0.048065726
246	0xbe8b8bf0	-0.272552
247	0xbe3fe467	-0.18739472
248	0x3e9be98a	0.30451614
249	0xbe2b046a	-0.16700903
250	0xbee1c92a	-0.44098788
251	0xbe0c96f5	-0.1372946
252	0x3d9df6f9	0.07713122
253	0xbe9794be	-0.2960567
254	0xbe4678a1	-0.19381954
255	0xbecafd8d	-0.3964657

lstm.weight_hh_l0 f4 [512, 128]
0	0xbe2d66ac	-0.16933697
1	0x3f527479	0.82208973
2	0x3da1de57	0.07903736
3	0x3e951414	0.2911688
4	0xbefee285	-0.49782196
5	0xbe2268ad	-0.15860243
6	0x3f532200	0.82473755
7	0x3e3596f8	0.17733371
8	0xbf0dd0ca	-0.5539671
9	0xbedc37a4	-0.430112
10	0xbe6eb1a5	-0.23309954
11	0x3df66120	0.12030244
12	0x3ec57411	0.38565114
13	0xbe93be23	-0.28856
14	0xbe9e826c	-0.3095888
15	0xbebb63f3	-0.36599693
16	0xbe6e2c47	-0.23259078
17	0xbeff8dca	-0.49912864
18	0x3ec2e5e8	0.3806603
19	0x3da53e2f	0.08068501
20	0xbbe972fb	-0.0071243024
21	0xbe856447	-0.26053068
22	0x3eacc9bc	0.3374766
23	0xbb0fe88b	-0.0021958675
24	0x3e822f13	0.2542654
25	0xbf1be941	-0.6090279
26	0xbb753202	-0.003741384
27	0x3f05988e	0.52185905
28	0x3ea12363	0.3147231
29	0xbe5c8912	-0.21536663
30	0x3e953e7c	0.29149234
31	0xbe7da555	-0.247701
32	0x3f9e790b	1.2380689
33	0x3dc99125	0.09842137
34	0x3f2bf3cf	0.671689
35	0xbe6a433e	-0.22877213
36	0x3def61b4	0.11688557
37	0x3f476905	0.7789462
38	0xbdd7ce25	-0.10537366
39	0xbe63d2f9	-0.22248448
40	0xbda205f8	-0.07911295
41	0x3ee683a0	0.45022297
42	0x3ea77529	0.32706574
43	0x3e1dc759	0.15408076
44	0x3c1b7db0	0.009490415
45	0x3f6f7431	0.9353667
46	0x3f278cd2	0.6544925
47	0x3e0825ea	0.13295713
48	0x3cf472a2	0.029839817
49	0x3d2ef6a5	0.042715687
50	0x3fb0cdf8	1.3812857
51	0xbf06de65	-0.526831
52	0xbef8d705	-0.48601547
53	0xbe67836a	-0.22608724
54	0x3edfbb74	0.43697703
55	0x3dcf0285	0.101079024
56	0xbeec8b29	-0.4619992
57	0x3e005260	0.12531424
58	0xbc0e4f44	-0.008685891
59	0x3f5e4dc5	0.86837417
60	0x3ee1f1cf	0.44129798
61	0x3f78198f	0.96914
62	0x3f2608f0	0.6485739
63	0xbf01fe73	-0.50778884
64	0xbf546a3b	-0.82974595
65	0x3d453ea4	0.048155442
66	0xbf04fa2d	-0.5194424
67	0x3ca7a110	0.020462543
68	0x3f949aee	1.1609781
69	0x3e3fd1b6	0.18732342
70	0x3dce35c0	0.10068846
71	0x3e5660c8	0.20935357
72	0xbf095bc0	-0.53655624
73	0xbf4fb318	-0.8113265
74	0x3f36a9b5	0.713527
75	0xbdfa982f	-0.12236058
76	0xbe9253a8	-0.2857945
77	0xbd23abbd	-0.039958704
78	0xbc7c8d17	-0.015414498
79	0x3d5d6c1b	0.054058176
80	0x3f99d401	1.2017823
81	0x3dc14579	0.09437079
82	0xbe0baa93	-0.13639288
83	0x3e62b797	0.22140346
84	0x3f13e941	0.5777779
85	0x3e10aa5a	0.14127484
86	0xbe9e048f	-0.30862853
87	0x3e05bef8	0.1306113
88	0x3e6cedd4	0.23137599
89	0xbf660d56	-0.898641
90	0x3e8bc706	0.2730028
91	0xbe557f3e	-0.2084932
92	0xbf8954fd	-1.0729061
93	0xbde5ff7d	-0.11230371
94	0x3ec0c8dd	0.37653247
95	0x3e2270be	0.1586332
96	0xbd0aba55	-0.033869106
97	0x3eaec99f	0.341382
98	0x3e17183c	0.14755338
99	0x3ef4a375	0.47780958
100	0xbf4dedd8	-0.80441046
101	0xbfb9aba8	-1.450551
102	0x3e5cf513	0.21577863
103	0x3d034835	0.032051284
104	0x3f1377a3	0.57604426
105	0x3e9ee403	0.31033334
106	0xbf8248f7	-1.0178517
107	0x3ec6538d	0.3873562
108	0x3ea1ddaf	0.31614444
109	0xbe9b2765	-0.30303493
110	0xbe862b79	-0.26205042
111	0xbda3abd8	-0.07991761
112	0xbe8b4ea0	-0.27208424
113	0xbf3cdcb4	-0.73774266
114	0xbed39f4f	-0.4133248
115	0xbdf767e4	-0.120803624
116	0xbdb03766	-0.086043164
117	0xbe0f965a	-0.14022198
118	0xbdd1f007	-0.1025086
119	0xbe9e877a	-0.30962735
120	0xbe5897cb	-0.21151654
121	0x3e958cf1	0.29209092
122	0x3e1bf503	0.15230183
123	0x3e769d32	0.24083403
124	0xbfb12c42	-1.3841631
125	0xbcf11166	-0.029427242
126	0x3ee5de1f	0.44896027
127	0xbd865d2b	-0.06560739
128	0xbe8ce234	-0.2751633
129	0x3e6d498b	0.23172586
130	0xbd46d047	-0.048538473
131	0xbd9172ab	-0.07101949
132	0x3dc2e501	0.09516335
133	0xbee46c73	-0.4461399
134	0x3efdcecd	0.4957184
135	0x3eb9ce3c	0.36290157
136	0x3f1975e9	0.5994554
137	0xbf20e16b	-0.6284396
138	0xbf21cfee	-0.632079
139	0x3e4d1600	0.20027924
140	0x3f043eee	0.51658523
141	0xbed7cb2a	-0.4214719
142	0x3d72fd3a	0.059323527
143	0x3e4c73ee	0.19966099
144	0x3ee70441	0.45120433
145	0x3eee70c4	0.46570408
146	0xbf494e15	-0.7863477
147	0xbe7431d9	-0.2384714
148	0xbf38bfd3	-0.721677
149	0xbed857c1	-0.4225445
150	0xbe5b1376	-0.21394143
151	0xbde41174	-0.111361414
152	0x3e020ef8	0.12701023
153	0x3e8ca825	0.27472034
154	0x3e38aa00	0.180336
155	0x3ec98c35	0.39364782
156	0xbf37e3eb	-0.7183215
157	0x3e8f4092	0.2797895
158	0xbedb94ac	-0.42886865
159	0x3f9bbc0b	1.2166761
160	0x3f2a456a	0.6651217
161	0xbe6d6572	-0.2318323
162	0x3f78976d	0.9710606
163	0xbe338c8d	-0.17534085
164	0xbcd8d89d	-0.026470477
165	0xbd84e99e	-0.064898714
166	0xbe7e0c57	-0.24809395
167	0xbead62b0	-0.33864355
168	0xbe20a7e9	-0.15689053
169	0xbf03c42b	-0.51471204
170	0x3d7651e3	0.060136687
171	0xbc227a18	-0.009916805
172	0x3eec9005	0.46203628
173	0x3f387fb0	0.72069836
174	0xbf1260af	-0.5717878
175	0xbe94d76a	-0.29070598
176	0x3e8ff900	0.2811966
177	0x3f2f1f8e	0.68407524
178	0x3ef05414	0.46939147
179	0xbf24bd78	-0.64351606
180	0xbe6701c2	-0.22559264
181	0xbe3a2f18	-0.18182027
182	0xbcdb0580	-0.026736021
183	0xbf22a9ca	-0.6354033
184	0xbcaa5acc	-0.020795248
185	0xbdf7cc3b	-0.12099501
186	0x3ee7c7fd	0.45269766
187	0xbc57392c	-0.013136189
188	0x3f2a658c	0.665612
189	0xbdfc99df	-0.12334036
190	0xbe7069db	-0.2347788
191	0xbee5f523	-0.44913587
192	0xbc931deb	-0.017958602
193	0xbe9e1105	-0.3087236
194	0xbdfc6945	-0.12324766
195	0x3f071856	0.5277151
196	0x3f1b122b	0.605746
197	0x3f168039	0.587894
198	0x3ea7f198	0.3280151
199	0x3f69a443	0.9126627
200	0x3f66beba	0.90134776
201	0xbdee299a	-0.116290286
202	0x3f354747	0.70811886
203	0x3e72b920	0.23703432
204	0xbf7c7965	-0.98622733
205	0xbe74a28b	-0.2389013
206	0x3e58d78f	0.21175979
207	0x3e8bba3a	0.27290517
208	0x3f09e5a3	0.5386602
209	0x3e9e624f	0.30934379
210	0xbe281a13	-0.16416197
211	0x3eaa38d3	0.33246478
212	0xbe0aa247	-0.13538466
213	0xbedb2604	-0.4280244
214	0xbd0d6bc8	-0.034526616
215	0xbe3aaa5b	-0.18229048
216	0xbe447645	-0.19185741
217	0xbd4b2708	-0.04959777
218	0xbc151952	-0.009100275
219	0xbf00ca02	-0.5030824
220	0x3e86e4e3	0.26346502
221	0x3d990ce1	0.074731596
222	0xbf528a32	-0.8224212
223	0xbf1785ce	-0.59188545
224	0xbe99d31e	-0.30043882
225	0x3ec05cdc	0.37570846
226	0xbec3d948	-0.3825171
227	0x3ef61f14	0.48070586
228	0xbe852de6	-0.2601158
229	0x3f8f906a	1.1215947
230	0x3ea2a5bf	0.3176708
231	0xbdb678a8	-0.08909732
232	0x3eaab509	0.33341244
233	0xbf3e1ebd	-0.7426565
234	0xbe9b517b	-0.30335602
235	0x3f346e64	0.7048094
236	0xbe81e975	-0.25373426
237	0x3eca1e8d	0.39476433
238	0x3dcf9c98	0.1013729
239	0xbe44f59c	-0.19234318
240	0xbe13e5e0	-0.14443159
241	0xbd0344d1	-0.03204805
242	0xbeefbd83	-0.46824273
243	0x3d15400c	0.036438033
244	0xbd678158	-0.056519836
245	0x3e967428	0.29385495
246	0xbd93706a	-0.07199176
247	0xbd721161	-0.059098605
248	0x3e17ac8e	0.14811918
249	0x3d0c2020	0.034210324
250	0x3e822860	0.2542143
251	0x3f104d5f	0.5636806
252	0xbf2efc42	-0.68353665
253	0x3ed03700	0.40666962
254	0x3ed7daf9	0.4215925
255	0x3ef2ebe2	0.4744559

lstm.bias_ih_l0 f4 [512]
0	0xbf2c0cf9	-0.67207295
1	0xbe6349e8	-0.22196162
2	0xbf066e95	-0.52512485
3	0x3d7df7dd	0.06200396
4	0xbe0d4014	-0.13793975
5	0xbe9fb751	-0.31194547
6	0xbe52797a	-0.20554152
7	0xbf26e651	-0.65195185
8	0xbeb94a47	-0.36189482
9	0xbe9921a5	-0.2990848
10	0xbeadf884	-0.33978665
11	0xbed3de32	-0.4138046
12	0xbf8365f0	-1.0265484
13	0xbee219c2	-0.44160277
14	0xbea6895e	-0.32526678
15	0xbedd00e2	-0.43164736
16	0xbe95d4eb	-0.29264006
17	0xbe0b8795	-0.13625939
18	0xbe46f67a	-0.19429961
19	0xbf027cc1	-0.5097161
20	0xbee0bf7a	-0.43896085
21	0xbf030f73	-0.5119545
22	0xbeb82419	-0.3596504
23	0xbe7bbdaf	-0.24584077
24	0xbef17097	-0.47156212
25	0x3e1a86f3	0.15090542
26	0xbea100f2	-0.31446034
27	0x3d6950c5	0.056961793
28	0xbf11fe66	-0.57028806
29	0xbf40c31e	-0.75297725
30	0xbdc619ec	-0.09672913
31	0xbeb873bd	-0.360258
32	0x3b0614e6	0.0020459234
33	0xbd66382b	-0.05620591
34	0xbe8c574f	-0.2741036
35	0xbf4658e1	-0.7747937
36	0x3b90e8c2	0.004422278
37	0x3e209711	0.15682627
38	0xbeaa185e	-0.33221716
39	0xbf0fa003	-0.56103534
40	0xbf30c996	-0.69057596
41	0xbf7b9634	-0.98276067
42	0xbb3586c5	-0.0027698737
43	0xbe3f97c7	-0.18710242
44	0xbf00c276	-0.50296724
45	0xbefc51e3	-0.49281225
46	0xbec25193	-0.3795286
47	0xbf19bd7e	-0.6005477
48	0xbda2b76b	-0.079451405
49	0xbeec8d81	-0.4620171
50	0xbd43b1b0	-0.047776878
51	0xbe354c05	-0.1770478
52	0xbf05b655	-0.5223134
53	0xbf438958	-0.76381445
54	0xbeba7c3c	-0.36422908
55	0xbe883038	-0.26599288
56	0xbf139f83	-0.5766527
57	0xbe6b343f	-0.22969149
58	0x3c09d041	0.008411468
59	0xbe26e3a9	-0.16297783
60	0xbe9b2d3a	-0.30307943
61	0x3d374032	0.044738956
62	0xbe0cf618	-0.13765752
63	0xbf012cea	-0.5045916
64	0xbe908f65	-0.282344
65	0xbe26e07c	-0.16296571
66	0xbeea23cd	-0.4573044
67	0xbee0c1d1	-0.4389787
68	0xbe9b432c	-0.30324686
69	0xbddf89cc	-0.109149545
70	0xbe512d52	-0.20427445
71	0xbeb088dc	-0.34479415
72	0xbed0ad7b	-0.40757355
73	0x3e1f6206	0.15564737
74	0xbea55b44	-0.32296193
75	0xbe26e46e	-0.16298077
76	0xbd79fb78	-0.061030835
77	0xbe936e37	-0.28795025
78	0xbf313fda	-0.69238055
79	0xbec6e764	-0.38848412
80	0xbeef852e	-0.46781296
81	0xbeb9f9c3	-0.36323366
82	0xbe96884e	-0.29400867
83	0xbe720ef6	-0.2363852
84	0x3e797547	0.24361144
85	0xbea975c4	-0.3309766
86	0xbedc275f	-0.42998788
87	0xbefb96f3	-0.49138603
88	0x3dda04ae	0.10645424
89	0x3e33e650	0.17568326
90	0xbec5b264	-0.38612664
91	0xbeedeb27	-0.4646847
92	0xbd3695f5	-0.044576604
93	0xbec4d368	-0.3844254
94	0xbf03f69f	-0.5154819
95	0xbee6172a	-0.44939548
96	0xbf58cbfe	-0.8468627
97	0xbf0a99e0	-0.54141045
98	0xbdaa3242	-0.08310367
99	0xbe161e98	-0.14660108
100	0xbe4ae22c	-0.1981284
101	0x3e5dac1f	0.2164769
102	0xbebf00e9	-0.37305382
103	0xbe8a323b	-0.26991448
104	0xbed5e998	-0.4177978
105	0xbe433c87	-0.19066058
106	0xbc03abee	-0.008036597
107	0xbf21d2a6	-0.6321205
108	0xbf272abd	-0.6529959
109	0xbee689af	-0.4502692
110	0xbe4901f7	-0.19629656
111	0xbeed46f7	-0.46343204
112	0xbf14d765	-0.58141166
113	0xbdb42dbc	-0.08797786
114	0xbf428d88	-0.7599721
115	0xbea71a39	-0.32637194
116	0xbf0b07bd	-0.5430868
117	0xbf39afdc	-0.72533965
118	0xbe87b1a2	-0.2650271
119	0x3dd99cf5	0.1062564
120	0xbe7615b0	-0.2403171
121	0xbea66d37	-0.325052
122	0xbe1f5466	-0.15559539
123	0xbe95905c	-0.292117
124	0xbd1e5508	-0.03865531
125	0xbea6038e	-0.32424587
126	0xbe298043	-0.16552834
127	0xbda0e31f	-0.0785582
128	0xbe93268d	-0.2874035
129	0xbef36792	-0.47539955
130	0xbee936ec	-0.45549715
131	0xbecd3294	-0.4007765
132	0xbeeaabed	-0.45834294
133	0xbc74511d	-0.014911917
134	0xbe0c66e7	-0.13711129
135	0xbef3c7e7	-0.4761345
136	0xbf0dd064	-0.55396104
137	0xbeab72b0	-0.33485937
138	0xbe357712	-0.17721203
139	0xbdfe0e2d	-0.124050476
140	0xbf33f17a	-0.7029034
141	0xbe4f210c	-0.2022745
142	0xbe1c859b	-0.15285341
143	0xbe726f28	-0.23675215
144	0xbf0603cb	-0.5234954
145	0xbd06be61	-0.032896403
146	0xbe3fb571	-0.18721558
147	0xbeba0c9f	-0.36337754
148	0xbe85d3b3	-0.26138076
149	0x3d8c96cd	0.068647005
150	0xbcf5c23b	-0.029999843
151	0xbe40fb94	-0.1884597
152	0xbea36719	-0.31914595
153	0xbec17fa9	-0.3779271
154	0xbdcc083d	-0.09962509
155	0xbeaa50b3	-0.33264694
156	0xbea5e973	-0.3240467
157	0xbe8a9fe3	-0.2707511
158	0xbebdf377	-0.3709981
159	0xbe031cc8	-0.12803948
160	0xbf476017	-0.77880996
161	0xbbfe9eb0	-0.007770382
162	0xbe642d2b	-0.22282855
163	0xbf5a9b3a	-0.85393107
164	0x3eefb39b	0.46816716
165	0xbe9e1d44	-0.30881703
166	0x3ec83d91	0.3910947
167	0xbf147ca4	-0.58002687
168	0xbe45907b	-0.19293396
169	0xbf056a1d	-0.5211504
170	0xbe46ddf1	-0.19420601
171	0xbe0dbfae	-0.13842651
172	0xbdff91ed	-0.12479005
173	0xbed840fa	-0.42237073
174	0x3e859ed1	0.2609773
175	0xbece6f49	-0.4031928
176	0x3e59a110	0.21252847
177	0xbd4f7439	-0.050647948
178	0xbef7739b	-0.48330387
179	0xbf3278ed	-0.6971577
180	0xbe2472ee	-0.16059467
181	0xbf1efe04	-0.6210635
182	0xbe967577	-0.29386494
183	0xbedf89dc	-0.43659866
184	0xbf35f845	-0.71081954
185	0xbe5fd995	-0.21860345
186	0x3e44b439	0.19209374
187	0xbebf7b22	-0.3739863
188	0xbf36c5bd	-0.71395475
189	0xbf132628	-0.57480097
190	0xbec31a6b	-0.38106093
191	0xbf14eff7	-0.5817866
192	0xbebd0313	-0.36916408
193	0x3dcdd2a7	0.10049944
194	0xbf01fe07	-0.5077824
195	0xbdd2ab48	-0.102865756
196	0xbf73f981	-0.9530259
197	0xbeae4321	-0.3403559
198	0xbe6d74f5	-0.23189147
199	0x3f49d8cc	0.7884643
200	0xbf2d4ef8	-0.6769862
201	0xbe894a44	-0.26814473
202	0xbed53081	-0.41638568
203	0xbe4452c7	-0.19172202
204	0xbdc974b2	-0.09836711
205	0xbe943e18	-0.28953624
206	0xbe609c35	-0.21934588
207	0x3d382730	0.044959247
208	0xbf3c0047	-0.73437923
209	0xbe29fc44	-0.16600138
210	0xbe0ba731	-0.13637997
211	0xbe218b1e	-0.15775725
212	0x3e8dd0cd	0.27698365
213	0xbe1f3d3a	-0.155507
214	0xbf1bf6df	-0.6092357
215	0xbcabf568	-0.020991042
216	0xbe5242a7	-0.20533238
217	0xbec32060	-0.38110638
218	0xbedd1127	-0.4317715
219	0xbb30e6e5	-0.0026993093
220	0xbddadaaf	-0.10686242
221	0xbd870afa	-0.065938905
222	0xbe4e5d76	-0.2015284
223	0xbe50589a	-0.20346299
224	0xbec2c656	-0.38041943
225	0xbebf6abf	-0.37386128
226	0xbe377590	-0.1791594
227	0xbe802e97	-0.25035545
228	0xbf20bf2e	-0.6279172
229	0xbea5334c	-0.322657
230	0xbe9528e1	-0.2913275
231	0xbefbfd63	-0.49216756
232	0xbec6273f	-0.38701817
233	0xbe858e18	-0.2608497
234	0xbe619f7c	-0.22033495
235	0xbe1bba4a	-0.15207782
236	0x3cf1905e	0.029487785
237	0xbf51b1aa	-0.8191172
238	0xbe50a472	-0.20375231
239	0xbe5fabfe	-0.21842954
240	0xbf232a4d	-0.6373642
241	0xbe381217	-0.1797565
242	0xbeca5bfb	-0.395233
243	0xbe8be53b	-0.27323326
244	0xbd847750	-0.064680696
245	0xbe0756cb	-0.13216703
246	0xbebc9802	-0.36834723
247	0x3f05e2e2	0.5229932
248	0x3e83a6cd	0.25713196
249	0xbdf43a4f	-0.11925184
250	0xbe5e4ca6	-0.21708927
251	0xbe6eb98b	-0.23312967
252	0xbf5251b8	-0.8215594
253	0xbe44fb76	-0.1923655
254	0xbec29482	-0.38003927
255	0xbe1de95d	-0.15421052

lstm.bias_hh_l0 f4 [512]
0	0xbf201d4a	-0.6254469
1	0xbe35e984	-0.1776486
2	0xbf084d91	-0.53243357
3	0x3d3cddef	0.04611009
4	0xbe8a7a1e	-0.27046293
5	0xbec35dc9	-0.3815749
6	0xbe412ecc	-0.18865508
7	0xbf0c1676	-0.5472177
8	0xbecb1c88	-0.39670205
9	0xbe7725b7	-0.24135481
10	0xbeafaf85	-0.34313598
11	0xbed52692	-0.4163099
12	0xbf8d0013	-1.1015648
13	0xbea63719	-0.3246391
14	0xbed95164	-0.4244491
15	0xbf09e419	-0.53863674
16	0xbe84bd0f	-0.2592549
17	0xbdba64f8	-0.091012895
18	0xbd39ae59	-0.045332287
19	0xbf08e9e3	-0.5348188
20	0xbedc2584	-0.42997372
21	0xbefea84d	-0.49737778
22	0xbeda8289	-0.42677715
23	0xbe1f798d	-0.15573712
24	0xbf00e9fb	-0.50357026
25	0x3e893067	0.2679474
26	0xbe2f3461	-0.17109825
27	0x3d9d689f	0.076859705
28	0xbf06fd08	-0.52729845
29	0xbf4ba944	-0.79555154
30	0xbdde3ee2	-0.10851838
31	0xbe8bc088	-0.27295327
32	0xbe0158cd	-0.12631531
33	0xbdd399d5	-0.103320755
34	0xbe50e589	-0.2040006
35	0xbf43903e	-0.7639197
36	0x3ce9081a	0.028446246
37	0x3c3031ca	0.010754058
38	0xbea62c48	-0.3245566
39	0xbf082104	-0.5317538
40	0xbf289bac	-0.65862536
41	0xbf77d717	-0.96812576
42	0xbe221438	-0.15828025
43	0xbe2fd6e6	-0.17171821
44	0xbefc56ac	-0.49284875
45	0xbef9ed6f	-0.4881396
46	0xbed88017	-0.42285225
47	0xbf2f164d	-0.68393403
48	0xbe13bcaf	-0.14427446
49	0xbea571ef	-0.32313487
50	0xbdca15f1	-0.09867466
51	0xbe4b32d9	-0.19843616
52	0xbeebdc28	-0.46066403
53	0xbf3dd86e	-0.7415837
54	0xbee88c8a	-0.45419723
55	0xbe39e72f	-0.18154596
56	0xbf09231b	-0.5356919
57	0xbda406fe	-0.08009146
58	0x3d719224	0.05897726
59	0xbe2c5a3e	-0.168313
60	0xbe5643f4	-0.2092436
61	0x3d3b34c1	0.045704607
62	0xbe0601c4	-0.13086611
63	0xbee366de	-0.4441442
64	0xbebf34db	-0.37345013
65	0xbde17789	-0.11009128
66	0xbeee31a2	-0.46522242
67	0xbef6b52c	-0.48185098
68	0xbecb9edc	-0.39769638
69	0xbde6d345	-0.11270765
70	0xbe65184d	-0.22372551
71	0xbeba4bfd	-0.363861
72	0xbeaf45ab	-0.3423284
73	0x3dc8a893	0.09797778
74	0xbe71fde6	-0.23632011
75	0xbe60f406	-0.21968088
76	0xbe26a387	-0.16273318
77	0xbe94b0c7	-0.2904112
78	0xbf10717d	-0.5642317
79	0xbeb1be1a	-0.34715348
80	0xbf08f707	-0.53501934
81	0xbea2ab57	-0.31771347
82	0xbe959b10	-0.29219866
83	0xbe16770e	-0.14693853
84	0x3e28da4f	0.16489528
85	0xbe9cbfc7	-0.30615065
86	0xbee3ee8b	-0.4451793
87	0xbec254f5	-0.37955442
88	0xbc89b81f	-0.016811429
89	0x3e911aaf	0.2834067
90	0xbeb91d8b	-0.36155352
91	0xbeefeaa8	-0.46858716
92	0xbcde67e4	-0.027149148
93	0xbeea290a	-0.45734435
94	0xbedab361	-0.4271498
95	0xbeeb9c4e	-0.4601769
96	0xbf3a58a9	-0.72791535
97	0xbed8e735	-0.42363897
98	0xbd4087ba	-0.04700444
99	0xbe1e59ed	-0.15463991
100	0xbe9153be	-0.28384203
101	0x3e774b1c	0.24149746
102	0xbec7b937	-0.39008495
103	0xbe0bf8d1	-0.13669135
104	0xbed401e0	-0.4140768
105	0xbe971b29	-0.2951291
106	0xbc1cabf7	-0.009562484
107	0xbf3cdaf9	-0.73771626
108	0xbf36870b	-0.7129981
109	0xbed29b70	-0.41134214
110	0xbe7c46c2	-0.24636367
111	0xbee7fba4	-0.45309174
112	0xbf176bf1	-0.5914908
113	0xbce90431	-0.028444381
114	0xbf34f364	-0.70683885
115	0xbeb8c388	-0.36086679
116	0xbf175b60	-0.591238
117	0xbf40c201	-0.75296026
118	0xbe79a667	-0.24379884
119	0x3e1c2c93	0.15251379
120	0xbe9ef10c	-0.3104328
121	0xbeecce71	-0.46251252
122	0xbe5559d5	-0.2083505
123	0xbe5edf1a	-0.21764794
124	0xbddb92bc	-0.10721347
125	0xbee9fbe4	-0.4569999
126	0xbe524d09	-0.20537199
127	0xbe1ed085	-0.15509231
128	0xbe926fa6	-0.28600806
129	0xbf18759f	-0.59554476
130	0xbec1c31d	-0.37844172
131	0xbed96a42	-0.4246388
132	0xbef5e003	-0.4802247
133	0xbd994c0b	-0.07485207
134	0xbdb8f2a0	-0.09030652
135	0xbeb71ed3	-0.35765705
136	0xbf0806b8	-0.5313525
137	0xbe6c92fb	-0.23102944
138	0xbe73b46a	-0.23799291
139	0xbdf95a2c	-0.12175402
140	0xbf31d958	-0.69472265
141	0xbe2f432d	-0.1711547
142	0xbe12c070	-0.14331222
143	0xbe2f3b1e	-0.17112395
144	0xbf1a1cbb	-0.6020009
145	0xbc13cc1a	-0.00902083
146	0xbd7a0197	-0.061036672
147	0xbeb2cf65	-0.34923854
148	0xbe802479	-0.25027826
149	0xbd7003d4	-0.0585974
150	0xbe017b22	-0.12644628
151	0xbe5565e9	-0.20839657
152	0xbedcf3f3	-0.43154868
153	0xbea6d8fe	-0.32587427
154	0xbda27570	-0.07932556
155	0xbeb23e15	-0.3481299
156	0xbe881504	-0.26578534
157	0xbeca5816	-0.3952033
158	0xbea7bdd8	-0.32762027
159	0xbd3aed74	-0.04563661
160	0xbf250138	-0.64454985
161	0xbd892d1b	-0.06698056
162	0xbe3e3e20	-0.18578386
163	0xbf5471ff	-0.82986444
164	0x3f011ab1	0.5043135
165	0xbe9f73d1	-0.31143048
166	0x3ebdd402	0.37075812
167	0xbef4a6e0	-0.47783566
168	0xbdabcac5	-0.083882846
169	0xbeecb613	-0.46232662
170	0xbe4bc477	-0.19899164
171	0xbe1056b2	-0.14095572
172	0xbdb69fa4	-0.08917168
173	0xbe979450	-0.2960534
174	0x3db8503c	0.089996785
175	0xbea1ac04	-0.3157655
176	0x3e38e38d	0.18055554
177	0x3d21f1e7	0.039537337
178	0xbf1ab4a0	-0.6043186
179	0xbf1b4177	-0.60646766
180	0xbddce9bc	-0.10786769
181	0xbf24e075	-0.64404994
182	0xbebf4594	-0.3735777
183	0xbed28f84	-0.4112512
184	0xbf19c4d8	-0.60065985
185	0xbe423542	-0.18965629
186	0x3e5dd829	0.2166449
187	0xbef072b9	-0.46962526
188	0xbf47d84d	-0.78064424
189	0xbf26aa81	-0.6510392
190	0xbe933047	-0.2874777
191	0xbf071fac	-0.527827
192	0xbeb80482	-0.3594094
193	0x3df9a48c	0.12189588
194	0xbed50630	-0.41606283
195	0xbd0d187e	-0.034447186
196	0xbf86608a	-1.0498211
197	0xbe87aab2	-0.26497418
198	0xbe8c21bb	-0.27369484
199	0x3f7227e5	0.94592124
200	0xbf2848d4	-0.65736127
201	0xbec60888	-0.38678384
202	0xbe911867	-0.2833893
203	0xbe825207	-0.25453207
204	0x3ce7bb5c	0.028287582
205	0xbe737c33	-0.23777847
206	0xbea1846c	-0.31546342
207	0x3dfb5526	0.122721
208	0xbf428bab	-0.75994366
209	0xbe5d5cea	-0.21617475
210	0xbe6d6b49	-0.23185457
211	0xbe481fe5	-0.19543417
212	0x3e8ae831	0.27130273
213	0xbe11cc24	-0.1423803
214	0xbf2a374a	-0.66490614
215	0xbcd89d69	-0.026442247
216	0xbea213ac	-0.31655633
217	0xbecea146	-0.40357417
218	0xbec88d99	-0.3917053
219	0x3e08cfca	0.13360515
220	0x3cba617a	0.022751559
221	0xbd9a0b3a	-0.075216725
222	0xbe638b45	-0.22221096
223	0xbe50dc0b	-0.2039644
224	0xbede7b3e	-0.434534
225	0xbee23006	-0.44177264
226	0xbe96df4f	-0.29467246
227	0xbea5f373	-0.324123
228	0xbf2c8ece	-0.674054
229	0xbe97556d	-0.29557362
230	0xbe3b09bb	-0.1826543
231	0xbf10f901	-0.5662995
232	0xbec62d8e	-0.3870663
233	0xbe92b069	-0.28650215
234	0xbd830986	-0.06398301
235	0xbc6e228b	-0.014534603
236	0xbde24a98	-0.11049384
237	0xbf2ba184	-0.6704333
238	0xbe95c27c	-0.29249942
239	0xbd7cf5f9	-0.061758015
240	0xbf147629	-0.579928
241	0xbd8e2385	-0.069403686
242	0xbea890bc	-0.32922924
243	0xbe6cd15c	-0.2312674
244	0xbcbda42f	-0.023149578
245	0xbe116db8	-0.1420201
246	0xbe85c0fa	-0.26123792
247	0x3ee98c60	0.4561491
248	0x3e90fafe	0.28316492
249	0xbdc86fe7	-0.09786969
250	0xbe91f584	-0.28507626
251	0xbe361ffa	-0.17785636
252	0xbf6a890c	-0.91615367
253	0xbeacda65	-0.33760372
254	0xbee78e6b	-0.45225844
255	0xbe38a065	-0.18029936

fc.weight f4 [4, 128]
0	0xbf62b8cf	-0.88563246
1	0xbfbeb4cd	-1.4898926
2	0x3d987651	0.07444442
3	0x3db39a39	0.0876965
4	0x3e820695	0.25395647
5	0x3d856dbf	0.06515073
6	0xbe8eda35	-0.27900854
7	0xbf109766	-0.56481016
8	0xbec15c81	-0.37765887
9	0x3ed01e67	0.40648195
10	0x3fb88401	1.4415284
11	0xbf325ddb	-0.6967446
12	0xbef8ba2c	-0.48579538
13	0xbeabe49d	-0.33572856
14	0xbf571987	-0.84023327
15	0xbf5ffaff	-0.87492365
16	0x3f198ef0	0.5998373
17	0xbf428c41	-0.7599526
18	0x4013f959	2.312094
19	0x3f956d5f	1.1674002
20	0x3f003417	0.5007948
21	0x3fcc5e89	1.596635
22	0x3fc569d4	1.5422921
23	0x3e9f1846	0.31073207
24	0x3e344bdf	0.17607068
25	0xbe9dc8cd	-0.3081726
26	0xbf810d2b	-1.0082144
27	0x3c6b6d5e	0.014369337
28	0x3e9365db	0.28788647
29	0xbf9ad589	-1.2096416
30	0x3e7726b4	0.24135858
31	0xbe8ad606	-0.27116412
32	0x3dd83519	0.105570026
33	0xbf80116f	-1.000532
34	0xbf396c66	-0.7243103
35	0xbf284efc	-0.6574552
36	0xbd9d9422	-0.0769427
37	0x3f1c6063	0.61084574
38	0xbed509c4	-0.41609013
39	0x3e28ae7a	0.16472808
40	0x3fe1b986	1.7634742
41	0x3da75dbe	0.08172177
42	0x3f2a49e8	0.6651902
43	0x3f026256	0.509313
44	0xc0afa9b1	-5.4894643
45	0x3c5d6b01	0.013514281
46	0x3f099983	0.53749865
47	0xbf00f664	-0.5037596
48	0xbe866c00	-0.26254272
49	0xbff0f0ae	-1.882345
50	0x3efe0172	0.49610478
51	0x3f548165	0.8300994
52	0xbee27c46	-0.44235438
53	0x3f1a8371	0.60356814
54	0x3f01f2c6	0.5076107
55	0x3fb0854c	1.3790679
56	0xbece90db	-0.4034489
57	0x3eaddf05	0.33959213
58	0xc002f05e	-2.0459208
59	0x3e8e31ef	0.2777247
60	0x3e0c43e0	0.13697767
61	0x3dfc7c8f	0.12328445
62	0x3f0c49a2	0.54799855
63	0x3f439e89	0.7641378
64	0xbe2f25ff	-0.17104338
65	0x3ebaac4f	0.36459586
66	0xbeb4f219	-0.35340956
67	0xbfbbf223	-1.4683269
68	0xbede8c27	-0.43466303
69	0x3e2bfaf0	0.16794944
70	0x3ea7f1cc	0.32801664
71	0xbf126946	-0.57191885
72	0x3f25f1fe	0.64822376
73	0x3f057e93	0.5214626
74	0x3e3b913f	0.18317126
75	0x3d1d86ab	0.038458508
76	0x3f3fd937	0.7494082
77	0x3e98323e	0.29725832
78	0x3c8904c5	0.016725907
79	0x3d1cd718	0.038291067
80	0xbd80e977	-0.0629453
81	0xbf3b2420	-0.73102
82	0xbf9ab42c	-1.2086234
83	0xc02c984c	-2.6967955
84	0x3f1e772f	0.6190061
85	0x3d83525d	0.06412194
86	0x3e67b929	0.22629227
87	0x4000eda8	2.0145054
88	0xbe9ad098	-0.3023727
89	0x3f012743	0.50450534
90	0x3e350e01	0.17681123
91	0x3feb7f10	1.8398151
92	0xbf3e40fc	-0.7431791
93	0x3e5b7db4	0.2143467
94	0x3ebfcbbe	0.3746013
95	0x3f230989	0.63686424
96	0xbe67aed1	-0.22625281
97	0xbdb8ce14	-0.09023681
98	0x3ef8c32f	0.48586413
99	0x3d3aafae	0.045577697
100	0x3be7cd15	0.007074008
101	0xbfa0b84f	-1.2556247
102	0xbf831dcc	-1.0243468
103	0x3e8f05bc	0.27934062
104	0x3e68d8ff	0.22739027
105	0x3e6cd00f	0.23126243
106	0xbe8686fd	-0.26274863
107	0xbf19eb7a	-0.60124934
108	0x3f566561	0.8374844
109	0xbee00e5c	-0.43760955
110	0xbe6e42ce	-0.23267671
111	0xbecc8c33	-0.39950714
112	0x3f091183	0.53542346
113	0x3f696b78	0.9117961
114	0x3f8aafb6	1.0834873
115	0x3e5ece48	0.21758378
116	0xbe25bce8	-0.16185343
117	0xbe6edaec	-0.233257
118	0x3e7a1bc3	0.24424653
119	0xbfbbbff4	-1.4667954
120	0xbf254ea7	-0.6457314
121	0xbdd2e532	-0.10297622
122	0xbe56514f	-0.20929454
123	0xbf29bb0a	-0.66301024
124	0x3e0a8e2d	0.13530798
125	0xbf001f7f	-0.5004806
126	0x3e086e36	0.13323292
127	0xbecb7588	-0.39738107
128	0x3e53a2df	0.20667599
129	0x3e723349	0.23652376
130	0xbf70d474	-0.9407418
131	0xbd3bf28f	-0.04588562
132	0xbee34416	-0.44387883
133	0xbdcf3a09	-0.10118491
134	0xbef07cfb	-0.46970353
135	0xbe9f332d	-0.31093732
136	0xbf0200cb	-0.5078246
137	0x3d5b959c	0.053609475
138	0xbf2c6ad3	-0.673505
139	0x3ea859b1	0.3288093
140	0x3e6432f9	0.2228507
141	0x3e6dda4e	0.23227808
142	0x3f14c2ff	0.5811004
143	0xbe96e0a2	-0.29468256
144	0xbd7fd50a	-0.06245903
145	0xbded36ef	-0.115827434
146	0xbdf6aa10	-0.120441556
147	0x3ed5cf39	0.4175966
148	0x3f13f444	0.57794595
149	0xbe562957	-0.20914207
150	0xbe0495df	-0.12947796
151	0xbed04718	-0.4067924
152	0x3e20fb2e	0.15720817
153	0x3da7cc8c	0.08193311
154	0x3f0942a1	0.5361729
155	0xbe07fbb8	-0.13279617
156	0x3f186caa	0.5954081
157	0x3ea42fa6	0.32067603
158	0x40007da6	2.007669
159	0xbf1fb8c5	-0.6239131
160	0x3b315e6e	0.002706434
161	0x3f03904b	0.5139205
162	0x3f0d3077	0.55152076
163	0x3df37755	0.11887995
164	0xbdabcba3	-0.0838845
165	0xbe27038d	-0.16309948
166	0x3e70c123	0.23511176
167	0x3f8e9bcd	1.1141297
168	0xbe87b4f8	-0.26505256
169	0xbcc9cbef	-0.024633376
170	0x3fe1c6c6	1.7638786
171	0xbd80a113	-0.062807225
172	0x3e67aafe	0.22623822
173	0xbf2e55ce	-0.6809968
174	0xbd600815	-0.054695208
175	0x3e7c7e41	0.24657537
176	0xbe10458d	-0.14089032
177	0x3e0b9604	0.13631445
178	0xbeaee9a1	-0.3416262
179	0x3ec3a5b0	0.38212347
180	0x3e7ca063	0.24670558
181	0x3c5abaa7	0.013350165
182	0x3ebe5e8e	0.37181515
183	0x3d223436	0.039600573
184	0x3f0a94c3	0.5413324
185	0xbe1fc293	-0.15601568
186	0x3f297f08	0.6620946
187	0x3dc4d3e2	0.09610726
188	0xbf95a709	-1.16916
189	0x3ea0e9a3	0.3142825
190	0x3fd87629	1.691106
191	0xbdffc89d	-0.12489436
192	0xbf47dd06	-0.7807163
193	0x3cb605e6	0.02221961
194	0xbe6496e4	-0.22323185
195	0x3f1e647b	0.6187207
196	0x3e5dc9ad	0.21658964
197	0xbe450dd6	-0.19243559
198	0xbf8620d1	-1.0478765
199	0x3e343f98	0.17602384
200	0x3d14b2ba	0.03630326
201	0xbe6c4ded	-0.23076601
202	0xbf374e03	-0.7160341
203	0x3f891678	1.0709982
204	0x3f095e81	0.53659827
205	0x3f74eced	0.9567402
206	0xbf065c74	-0.5248482
207	0xbf5ff6c8	-0.87485933
208	0xbde46e0b	-0.111538015
209	0xbd6eb1ec	-0.05827515
210	0xbda81906	-0.08207898
211	0xbe023d8a	-0.12718788
212	0x3e03d430	0.12873912
213	0x3fa04b5a	1.2522995
214	0xbeb7959d	-0.35856333
215	0xbe8eadda	-0.27867013
216	0xbd55bf09	-0.05218414
217	0xbbf1a292	-0.007374116
218	0xbe807d09	-0.25095394
219	0xbe42ff62	-0.19042733
220	0xbf64a47e	-0.89313495
221	0x3ed746ec	0.42046297
222	0x3f5bcfa1	0.8586369
223	0xbdf49afd	-0.11943624
224	0x3d5dfa8a	0.05419401
225	0xbf8d7389	-1.1050884
226	0x3d9a5170	0.07535064
227	0xbef4a180	-0.47779465
228	0xbf2f42a3	-0.68461055
229	0xbebde4d3	-0.37088642
230	0xbd7fd988	-0.062463313
231	0xbfc131d7	-1.5093335
232	0x3e3ef1a7	0.1864687
233	0x3db9e7c3	0.09077408
234	0xbeaea35c	-0.34109008
235	0xbe68c4b9	-0.22731294
236	0xbe6cc484	-0.2312184
237	0xbea03492	-0.31290108
238	0xbfe2d0fc	-1.7720027
239	0x3e4185cb	0.18898694
240	0xbe13b547	-0.1442462
241	0x3f056f55	0.52123004
242	0xbea449c3	-0.32087526
243	0xbef1db75	-0.47237745
244	0xbe6b3f5f	-0.22973393
245	0xbd064d8d	-0.032788802
246	0x3f5bf7ad	0.859248
247	0xbe8e1997	-0.27753899
248	0x3e8ae46a	0.2712739
249	0xbf4ea503	-0.8072054
250	0xbf3391b5	-0.70144206
251	0x3e7facc8	0.24968255
252	0x3eb53430	0.35391378
253	0xbde9461a	-0.11390324
254	0xbd0bdc23	-0.034145486
255	0xbeae9bc6	-0.3410322

fc.bias f4 [4]
0	0xbf182cd6	-0.59443414
1	0xbdd67fe4	-0.10473612
2	0x3e504479	0.2033862
3	0xbe037d46	-0.12840757
