LSTM/Data_3/LSTM1/model.pth (torch, 275939 bytes, 6 tensors)

lstm.weight_ih_l0 f4 [512, 3]
0	0x3e912308	0.2834704
1	0x3eda9b63	0.42696676
2	0x3eae60cb	0.34058222
3	0xbede2a54	-0.4339167
4	0xbf191c47	-0.5980877
5	0xbe508ece	-0.20366976
6	0x3d605964	0.05477275
7	0xbe3cade7	-0.18425713
8	0xbe9b1404	-0.30288708
9	0xbe7ecaae	-0.24882004
10	0xbf17a6e9	-0.5923906
11	0xbe1c5270	-0.15265822
12	0xbdbece97	-0.09316748
13	0xbf5b0d9c	-0.8556764
14	0xbf62f3c2	-0.88653195
15	0x3ea35d79	0.3190725
16	0xbe139447	-0.14412032
17	0x3ec14d0c	0.37754095
18	0x3a4972cf	0.00076846493
19	0xbf89ede3	-1.0775722
20	0x3aef6861	0.001826536
21	0xbe451781	-0.19247247
22	0x3f1ce2be	0.6128348
23	0x3e2c4463	0.16822962
24	0xbea7689b	-0.32696995
25	0xbe2e51c6	-0.17023382
26	0xbeb46537	-0.3523347
27	0x3b8ddbd5	0.0043291845
28	0xbf0952c4	-0.53641915
29	0xbe4be6c7	-0.19912253
30	0xbeacc06c	-0.33740556
31	0xbe63c6f3	-0.22243862
32	0xbe439c6a	-0.19102636
33	0xbec7a88a	-0.38995773
34	0x3d6fd07e	0.058548443
35	0xbde43e37	-0.11144679
36	0x3e2fe943	0.17178826
37	0x3f1c9a32	0.61172783
38	0x3de0b11a	0.109712794
39	0x3d33e93f	0.043923613
40	0xbe890e8e	-0.26768917
41	0x3e10750d	0.14107151
42	0xbecec6c6	-0.40386027
43	0xbf9557c6	-1.1667411
44	0xbf1cb9c6	-0.6122097
45	0xbe0f52cf	-0.13996433
46	0xc0079ade	-2.1188273
47	0xbe70aa8c	-0.23502558
48	0x3d175dbb	0.036954623
49	0xbeb714b3	-0.3575798
50	0xbe68840f	-0.22706626
51	0xbe65b2f1	-0.22431542
52	0xbe458b99	-0.19291534
53	0xbd7b6b5d	-0.061381686
54	0x3d407cc0	0.04699397
55	0xbec870eb	-0.3914865
56	0x3ea86727	0.328912
57	0xbeea8d6c	-0.4581102
58	0xbf15b044	-0.58472085
59	0xbe9771d8	-0.29579043
60	0xbf0d716d	-0.552512
61	0xbef19993	-0.4718748
62	0xbebaf187	-0.36512396
63	0xbf1584ac	-0.58405566
64	0xbf6a072e	-0.91417205
65	0xbea852c6	-0.3287565
66	0xbebd553f	-0.369791
67	0xbf12b138	-0.57301664
68	0xbe875bb6	-0.26437157
69	0xbe0cb842	-0.13742164
70	0x3e96af7a	0.29430753
71	0x3da5bac9	0.08092267
72	0xbcb615c1	-0.02222717
73	0x3df41344	0.11917737
74	0xbec40e10	-0.3829198
75	0x3da1eb01	0.079061516
76	0x3ecb0587	0.39652655
77	0xbdfc1ec1	-0.12310553
78	0xbdd031ef	-0.10165774
79	0xbf289526	-0.6585258
80	0xbe7ecba7	-0.24882375
81	0xbdb11490	-0.086465
82	0x3d34b3c2	0.044116743
83	0x3dc010d2	0.09378208
84	0xbe9b3813	-0.3031622
85	0xbe6a284c	-0.22866935
86	0xbe6aa8b1	-0.22915913
87	0xbf2e6c59	-0.68134075
88	0xbf6d0dbd	-0.9259909
89	0xbedb04a7	-0.42776987
90	0x3d92b1b4	0.071628004
91	0xbf9a06b8	-1.20333
92	0xbe860c41	-0.26181224
93	0x3ec2e5b4	0.38065875
94	0xbdcf696b	-0.10127529
95	0x3e64021b	0.22266428
96	0xbea61818	-0.32440257
97	0xbeea60b4	-0.45776904
98	0xbde53e00	-0.11193466
99	0xbf5ac848	-0.85461855
100	0xbd48c7b7	-0.049018588
101	0xbe00ffb3	-0.12597542
102	0xbc92526e	-0.017861571
103	0xbfc2f776	-1.5231769
104	0xbe051cf3	-0.12999325
105	0xbc97c40f	-0.018526105
106	0xbd41711d	-0.047227014
107	0xbe4d84f4	-0.20070249
108	0xbf1b96bc	-0.6077688
109	0xbf256d34	-0.64619756
110	0xbefb0777	-0.49029133
111	0xbcf43482	-0.029810194
112	0x3d5cc490	0.053898394
113	0xbeb6225c	-0.3557309
114	0xbdf3010b	-0.11865433
115	0xbe88b8e4	-0.2670356
116	0xbe527a74	-0.20554525
117	0xbdf44761	-0.11927677
118	0x3edbf1fb	0.42958054
119	0xbc2d47a3	-0.010576162
120	0xbf4ed26a	-0.80789816
121	0xbf6e1040	-0.92993546
122	0xbef4911a	-0.47766954
123	0xbed3ed0e	-0.41391796
124	0xbe6c594d	-0.2308094
125	0xbd86baf9	-0.06578631
126	0xbf028ffc	-0.5100095
127	0xbf428476	-0.7598337
128	0xbf25e01b	-0.6479508
129	0xbea5b288	-0.3236277
130	0x3eff9cfa	0.4992445
131	0xbd9910c0	-0.07473898
132	0xbe85078d	-0.25982323
133	0x3eaf25f7	0.34208652
134	0xbd4df3db	-0.050281387
135	0xbe2f156b	-0.17098014
136	0x3db8a4b0	0.09015787
137	0xbec7a110	-0.38990068
138	0xbd392052	-0.04519684
139	0xbdebfaa0	-0.11522412
140	0xbe8b8028	-0.27246213
141	0xbe6b1415	-0.2295688
142	0xbf8ea508	-1.1144114
143	0xbea56080	-0.32300186
144	0xbc07122d	-0.00824408
145	0xbf6663df	-0.8999614
146	0xbefdaba5	-0.49545017
147	0xbea0af9f	-0.31383988
148	0xbe9370d1	-0.2879701
149	0xbeeb7484	-0.45987332
150	0xbf06bd20	-0.5263233
151	0xbe34f33d	-0.17670913
152	0xbe9781d1	-0.2959123
153	0xbe868935	-0.26276556
154	0x3ed5da71	0.4176822
155	0xbf022010	-0.50830173
156	0xbe784e07	-0.24248515
157	0xbe23d131	-0.15997769
158	0xbdf6a3f1	-0.12042988
159	0xbe50a73f	-0.203763
160	0x3f3d74c4	0.74006295
161	0x3ddbc488	0.10730845
162	0xbed8a172	-0.42310673
163	0x3eb24dcb	0.34824976
164	0x3da77218	0.081760585
165	0xbe400965	-0.18753584
166	0xbf64be60	-0.8935299
167	0xbee89d38	-0.45432448
168	0xbea0f21b	-0.31434712
169	0xbeed3741	-0.46331218
170	0xbe577619	-0.21041144
171	0xbe842eee	-0.25817055
172	0xbe3d95b9	-0.18514146
173	0xbe6ea6ad	-0.2330577
174	0xbe27ff0c	-0.16405886
175	0x3ef732b4	0.4828087
176	0x3d1a3d7a	0.037656285
177	0xbd0f938d	-0.035052825
178	0xbcdf24fd	-0.027239317
179	0x3e7e28b0	0.24820209
180	0xbdaa5ff4	-0.08319083
181	0xbf1bdeda	-0.6088692
182	0xbd82af96	-0.063811466
183	0xbe1adb49	-0.15122713
184	0xbeb8821d	-0.3603677
185	0xbe4a4f5d	-0.19756837
186	0xbe9b7892	-0.30365425
187	0xbf20a789	-0.6275564
188	0xbe9ab840	-0.30218697
189	0xbeab1c14	-0.3341986
190	0xbee95870	-0.45575285
191	0xbf006773	-0.5015785
192	0xbdf3a8b0	-0.11897409
193	0xbe25ceae	-0.16192123
194	0xbe8f19ec	-0.27949464
195	0x3e98b744	0.2982732
196	0x3f4d0bc6	0.8009609
197	0x3e8eee9e	0.27916425
198	0xbf0f726f	-0.56033987
199	0xbf1c6df7	-0.61105293
200	0xbebac2a8	-0.36476636
201	0xbde9adb4	-0.11410084
202	0x3ec7a85f	0.38995644
203	0x3d550630	0.052007854
204	0x3e05e1f5	0.13074477
205	0x3d0a9862	0.03383673
206	0x3e3e7a4e	0.18601343
207	0xbf2442e2	-0.64164555
208	0x3e96496a	0.29352885
209	0xbe4156ac	-0.18880719
210	0xbf2297c6	-0.6351284
211	0xbf95b07c	-1.1694484
212	0xbed39181	-0.41321948
213	0xbe0f0f6b	-0.13970725
214	0xbe6d538e	-0.23176405
215	0x3d8762ce	0.066106424
216	0xbe167e15	-0.14696534
217	0xbe760850	-0.24026608
218	0xbeea03b7	-0.4570596
219	0x3e808ed8	0.2510898
220	0x3e7e71da	0.24848118
221	0xbf348584	-0.7051623
222	0xbe6e4b51	-0.23270918
223	0xbde5ca6a	-0.11220248
224	0xbe1348cf	-0.14383243
225	0xbef0c721	-0.47026923
226	0xbf279058	-0.65454626
227	0xbf6f5190	-0.9348383
228	0xbe98170f	-0.29705092
229	0xbd27ad84	-0.04093696
230	0xbf94b809	-1.1618663
231	0xbec016e1	-0.37517455
232	0x3e1b9b40	0.15195942
233	0x3e27e41d	0.16395612
234	0xbe46243c	-0.1934976
235	0xbf84d956	-1.0378826
236	0xbfca3b93	-1.5799431
237	0xbd571555	-0.05251058
238	0xbeed5a0d	-0.46357766
239	0x3e4db665	0.20089109
240	0xbf073034	-0.5280793
241	0xbfaf542f	-1.3697566
242	0xbf400924	-0.7501395
243	0xbecf07ef	-0.4043574
244	0xbf7a75c7	-0.97835964
245	0xbe36bd1a	-0.17845574
246	0x3ddc9c2c	0.10771975
247	0xbd9e7d69	-0.07738764
248	0xbe099275	-0.13434775
249	0x3dedd9f1	0.11613835
250	0x3f0a725b	0.5408074
251	0x3df7ddec	0.12102875
252	0xbe7453dc	-0.23860115
253	0xbf2ccb48	-0.6749768
254	0xbe5364eb	-0.20643966
255	0xbdfe1bda	-0.12407656

lstm.weight_hh_l0 f4 [512, 128]
0	0xbd13fd16	-0.036130033
1	0xbed0dd41	-0.40793803
2	0x3edcd903	0.43134317
3	0xbe4744cb	-0.19459836
4	0x3e7f57bb	0.2493581
5	0xbe2525d4	-0.16127712
6	0xbf5b427e	-0.85648334
7	0x3f0b40a6	0.5439552
8	0x3e9d04bb	0.30667672
9	0xbf12c0cd	-0.5732544
10	0xbe58d81e	-0.21176192
11	0xbd5b1488	-0.053486377
12	0x3d93e3cd	0.07221184
13	0x3e83a5b9	0.25712374
14	0xbe5eee99	-0.21770705
15	0xbe7dea29	-0.24796356
16	0xbedb7538	-0.42862868
17	0x3f34cbdf	0.7062358
18	0x3ec8b209	0.3919833
19	0x3ec0da3b	0.37666497
20	0x3f0411aa	0.51589453
21	0xbea0eadb	-0.3142918
22	0xbe51ee82	-0.2050114
23	0xbebdb1fa	-0.37049848
24	0x3e8701f8	0.2636869
25	0xbe345fe9	-0.17614712
26	0x3ef52166	0.47877043
27	0x3d63d717	0.055625048
28	0x3c4f82d5	0.01266547
29	0xbe25926c	-0.16169137
30	0xbf0216b1	-0.50815874
31	0xbeffdc67	-0.4997284
32	0x3e8e700d	0.27819863
33	0xbe712609	-0.23549666
34	0xbe0d50a6	-0.13800296
35	0x3ea50783	0.32232293
36	0xbc864f91	-0.016395362
37	0x3e5ff050	0.21869016
38	0xbe8746e5	-0.26421276
39	0xbed6fe4d	-0.4199089
40	0xbe38f9b2	-0.18064001
41	0x3e7c1649	0.24617876
42	0xbe1c87c7	-0.1528617
43	0x3efbebf7	0.49203464
44	0x3d4365be	0.04770445
45	0x3e3009df	0.17191266
46	0x3c077273	0.008267033
47	0x3e888b0f	0.26668593
48	0x3dbd2626	0.09235792
49	0xbda5e723	-0.081007265
50	0xbe08e320	-0.13367891
51	0xbed16da7	-0.4090397
52	0x3d4843b3	0.048892688
53	0xbeca049e	-0.39456648
54	0x3ed6187a	0.4181555
55	0xbd750989	-0.059823547
56	0x3da447a4	0.08021477
57	0xbf26c461	-0.651434
58	0x3f0e54f0	0.55598354
59	0x3e416e7a	0.188898
60	0x3edbaec0	0.4290676
61	0x3edcdf1a	0.43138963
62	0x3f1f6e6e	0.6227788
63	0x3e5b2b4d	0.21403237
64	0xbf1c5ed8	-0.6108222
65	0x3e336282	0.17518046
66	0xbe805fe2	-0.25073153
67	0xbd9dd4bb	-0.07706591
68	0x3ee7d5e1	0.45280364
69	0x3f0d63c3	0.5523035
70	0xbeea63a3	-0.45779142
71	0xbc320ae4	-0.010866854
72	0x3e3c545d	0.18391557
73	0xbea194a7	-0.31558725
74	0xbe2a6218	-0.16638982
75	0x3da64cfe	0.08120154
76	0xbdf94a30	-0.12172353
77	0x3e4be8b9	0.19912995
78	0xbd881756	-0.06645076
79	0xbceaa5cc	-0.028643511
80	0xbc7d752d	-0.015469831
81	0xbef202ad	-0.47267666
82	0xbdf4e2ae	-0.11957298
83	0x3db1718d	0.08664236
84	0xbead38c9	-0.33832386
85	0xbe468bbf	-0.19389246
86	0x3f0a747a	0.5408398
87	0xbec84b40	-0.3911991
88	0xbea15a0d	-0.31514016
89	0xbe882ccb	-0.26596674
90	0x3d91edc3	0.071254276
91	0xbe2455db	-0.16048376
92	0x3d301606	0.042989753
93	0x3de953b1	0.11392916
94	0xbe7c0acc	-0.24613494
95	0x3e89ed82	0.26939017
96	0xbee0793c	-0.43842494
97	0xbc3df0a7	-0.0115930205
98	0x3d3f55c0	0.046712637
99	0x3eac7bb7	0.33688137
100	0x3f0d5ff5	0.55224544
101	0x3eb398fe	0.3507766
102	0xbe68826d	-0.22706003
103	0x3ead4ca3	0.33847532
104	0x3d06bc0f	0.03289419
105	0x3e203583	0.15645413
106	0xbe3a021d	-0.18164869
107	0xbe168511	-0.14699198
108	0x3e8adba4	0.27120697
109	0x3d338ff3	0.043838453
110	0xbdf91c38	-0.121635854
111	0xbe249378	-0.1607188
112	0xbd4ba33e	-0.049716227
113	0xbebcc85e	-0.36871618
114	0x3d656dff	0.056013104
115	0xbe099744	-0.1343661
116	0x3e778426	0.24171504
117	0x3ea0fb24	0.31441605
118	0xbe093c28	-0.13401854
119	0xbd8f3711	-0.06992925
120	0xbee68907	-0.4502642
121	0xbdb8a7d7	-0.09016388
122	0x3d00ea98	0.031473726
123	0xbdaecd5f	-0.08535265
124	0xbd9166e8	-0.07099706
125	0xbf0dee28	-0.5544152
126	0x3e84fdc5	0.2597486
127	0x3e10d753	0.1414464
128	0x3d9d6855	0.076859154
129	0xbf4696e6	-0.77574
130	0x3e63655a	0.22206631
131	0xbf94bac3	-1.1619495
132	0xbdc7da03	-0.09758379
133	0x3da852e9	0.08218939
134	0xbe7fe19e	-0.2498841
135	0x3e4b4141	0.19849111
136	0x3f283d9c	0.6571901
137	0xbef624af	-0.48074862
138	0xbec6e3b2	-0.38845593
139	0xbe5b8146	-0.21436033
140	0xbf50ca15	-0.8155835
141	0x3e557e2d	0.20848913
142	0x3dd39b85	0.10332397
143	0xbe15049e	-0.14552543
144	0xbe0beee1	-0.13665344
145	0x3d7d3e9b	0.061827283
146	0x3e7b4249	0.24537005
147	0x3ef617a5	0.48064914
148	0x3d5518e7	0.0520257
149	0xbe17ed97	-0.14836727
150	0x3cffa92a	0.031208593
151	0xbf6930f0	-0.910903
152	0x3df7e7af	0.12104737
153	0xbe1c09ad	-0.15238066
154	0x3e06d6fa	0.13167945
155	0x3e982601	0.29716495
156	0xbee0a936	-0.43879098
157	0xbe5895eb	-0.21150939
158	0xbf261032	-0.6486846
159	0xbde71220	-0.11282754
160	0x3ebbb0bb	0.36658272
161	0xbe770eff	-0.24126814
162	0xbe2072b1	-0.15668751
163	0x3e661bd9	0.2247156
164	0x3e564451	0.20924498
165	0x3dc4b84e	0.09605466
166	0xbe0718a3	-0.13192992
167	0xbe77213d	-0.24133773
168	0x3e625a4c	0.22104758
169	0x3f568531	0.83796984
170	0x3d83d211	0.06436551
171	0xbc95c239	-0.01828109
172	0xbe92f647	-0.2870352
173	0xbf097ee7	-0.5370926
174	0xbf04c38a	-0.5186087
175	0x3f1b2730	0.6060667
176	0xbe2d6961	-0.1693473
177	0xbf074dd8	-0.52853155
178	0x3ea551e0	0.32289028
179	0xbe99743c	-0.29971492
180	0x3ea31668	0.31853032
181	0x3db6d7f5	0.08927909
182	0x3e5d1b3d	0.21592422
183	0xbdb8343a	-0.089943364
184	0xbf06593e	-0.5247992
185	0x3d4d751e	0.05016052
186	0x3ea57972	0.32319218
187	0xbede3177	-0.43397114
188	0x3e276aff	0.1634941
189	0x3dd3267b	0.10310074
190	0xbd882ce6	-0.06649189
191	0xbe503f41	-0.2033663
192	0xbe0b11df	-0.13581036
193	0xbef515d1	-0.47868207
194	0x3d667c82	0.056271084
195	0xbef7872d	-0.48345318
196	0x3dcd50a8	0.100251496
197	0x3c038e70	0.008029565
198	0x3f1675dc	0.5877359
199	0x3f3f051e	0.74617183
200	0x3e532d66	0.20622787
201	0x3d0e8037	0.034790244
202	0x3f33fd0c	0.70307994
203	0x3e90ec5f	0.28305337
204	0x3f2501d0	0.6445589
205	0x3ebff2a6	0.37489814
206	0x3ed29127	0.41126367
207	0x3e47732b	0.19477527
208	0x3db57ea5	0.08862046
209	0x3e03cd23	0.12871222
210	0x3c4c0db9	0.012454444
211	0x3d9e3635	0.07725183
212	0xbd8a1c1b	-0.06743642
213	0x3ea7a8b7	0.32745907
214	0x3f139d4d	0.57661897
215	0xbf5e90ac	-0.869395
216	0x3d47c7d6	0.048774563
217	0xbed80b33	-0.42196044
218	0x3e6a9228	0.22907317
219	0x3d5103b3	0.05102892
220	0xbe6788f4	-0.22610837
221	0x3eba53f6	0.36392182
222	0x3dbe8470	0.09302604
223	0x3e969761	0.29412368
224	0x3e82af23	0.25524244
225	0x3e08839c	0.13331455
226	0xbd861da1	-0.0654862
227	0xbcbd2fdf	-0.023094116
228	0x3e850c60	0.25986004
229	0x3d82f506	0.06394391
230	0xbc9b1e04	-0.018935211
231	0x3d3b8955	0.045785267
232	0x3dee7f8a	0.1164542
233	0x3e818f29	0.25304535
234	0xbe1c9d95	-0.15294488
235	0xbf87ce9b	-1.0609926
236	0xbe90974e	-0.28240436
237	0x3f83be50	1.0292454
238	0x3e65d5b2	0.224448
239	0x3dddbc62	0.10826947
240	0x3d066faa	0.032821335
241	0xbee5bdd5	-0.44871393
242	0x3e10da52	0.14145783
243	0x3f1ee945	0.6207469
244	0x3ddbd32b	0.107336365
245	0x3dee126d	0.11624608
246	0xbee88601	-0.45414737
247	0xbdb4dfc4	-0.088317424
248	0xbd819986	-0.063281104
249	0x3e4682d8	0.1938585
250	0xbe927b45	-0.28609672
251	0xbe0b73e5	-0.13618429
252	0x3d19a84a	0.03751401
253	0x3e353b1e	0.17698333
254	0x3e2ed247	0.17072402
255	0xbec63dec	-0.38719118

lstm.bias_ih_l0 f4 [512]
0	0x3e9a6c52	0.30160767
1	0xbedfa858	-0.43683124
2	0x3c0b916d	0.008518559
3	0xbed4ed84	-0.4158746
4	0xbe185c81	-0.14879037
5	0x3eb3d42e	0.35122818
6	0xbe5453a0	-0.20735025
7	0xbe1bbd6b	-0.15208976
8	0xbeb9cc3a	-0.36288625
9	0xbdf5e367	-0.12006264
10	0xbeda26fa	-0.42607862
11	0xbea929d2	-0.3303972
12	0x3e43f3b4	0.19135934
13	0xbc91e9ad	-0.01781162
14	0xbf0badf9	-0.54562336
15	0xbe9a57af	-0.30145022
16	0xbd8aea97	-0.06783026
17	0xbe458122	-0.19287542
18	0xbd1b3677	-0.03789374
19	0xbebe4054	-0.37158453
20	0xbef6cdda	-0.48203927
21	0xbf1e57ed	-0.61852914
22	0xbed7ee72	-0.42174107
23	0xbd87b9a7	-0.06627207
24	0x3b521017	0.0032053047
25	0x3dc0649c	0.0939419
26	0xbe4e4b64	-0.20145947
27	0xbe6bb742	-0.23019126
28	0xbe98023c	-0.29689205
29	0xbf0e3ecb	-0.55564564
30	0xbe106533	-0.14101104
31	0x3e543ca3	0.20726256
32	0xbeaf0507	-0.34183523
33	0xbf3edee7	-0.7455887
34	0xbe069b6d	-0.13145228
35	0x3c3d0e4a	0.011539051
36	0xbed917c3	-0.4240094
37	0x3dea6834	0.114456564
38	0xbdb4bfca	-0.08825643
39	0xbe179a3e	-0.14804932
40	0xbf3dbd23	-0.74116725
41	0xbe84429d	-0.25832072
42	0xbef803ad	-0.48440304
43	0xbe8d5db4	-0.27610552
44	0xbe70f1c4	-0.23529726
45	0xbe3739db	-0.17893164
46	0xbdccf125	-0.10006932
47	0xbed534d7	-0.41641876
48	0xbdfeb9e6	-0.12437801
49	0xbea76532	-0.32694393
50	0xbedabfae	-0.42724365
51	0xbe9ceb1e	-0.3064813
52	0xbe693080	-0.22772408
53	0xbc5c1d85	-0.013434772
54	0xbe5a7e25	-0.21337183
55	0xbe8a34e4	-0.26993477
56	0xbdee1ca6	-0.11626558
57	0xbeb17404	-0.34658825
58	0xbe440668	-0.19143069
59	0xbe075854	-0.13217288
60	0xbd8267d9	-0.063674636
61	0xbe2a351b	-0.1662182
62	0xbe476d0c	-0.19475192
63	0xbeaa182a	-0.3322156
64	0xbe5592a1	-0.20856716
65	0x3e9c3151	0.30506375
66	0xbf02bb5b	-0.5106713
67	0xbdb12a90	-0.08650696
68	0x3e3b3fe8	0.18286097
69	0xbef8b822	-0.48577982
70	0xbf1c431e	-0.6103991
71	0xbe44e5de	-0.19228312
72	0xbdc526de	-0.09626554
73	0x3ecb5b7b	0.39718232
74	0xbe872db3	-0.26402053
75	0xbef86bab	-0.48519644
76	0xbe2988cd	-0.16556092
77	0xbecbb4d1	-0.3978639
78	0xbd945524	-0.07242802
79	0xbd8820cb	-0.0664688
80	0xbf008f16	-0.5021833
81	0xbea8394e	-0.3285622
82	0xbd32c166	-0.04364147
83	0x3b20d9c7	0.0024543868
84	0xbeabb685	-0.3353769
85	0xbde18637	-0.110119276
86	0xbdd5ea59	-0.10445089
87	0xbe8e954d	-0.27848282
88	0xbdb9233f	-0.09039926
89	0xbf1a1abe	-0.60197055
90	0xbe881962	-0.26581866
91	0xbf006af6	-0.5016321
92	0xbea189eb	-0.31550536
93	0xbe78ecfe	-0.24309155
94	0x3eae8db3	0.34092483
95	0xbd835a06	-0.06413655
96	0xbcf78ac8	-0.030217543
97	0x3ecb98a5	0.39764896
98	0xbec8a6fc	-0.391899
99	0xbeaac86c	-0.33356035
100	0xbe9894af	-0.29800937
101	0xbe5791a2	-0.21051648
102	0xbec72438	-0.3889482
103	0xbe3c05d5	-0.183616
104	0xbed991e9	-0.42494133
105	0xbe699ea5	-0.22814424
106	0xbe90faf4	-0.28316462
107	0xbe580feb	-0.21099822
108	0xbe32a763	-0.17446665
109	0xbc6c84cd	-0.014435959
110	0xbef63fff	-0.480957
111	0xbeade888	-0.3396647
112	0xbd4b0bb8	-0.049571723
113	0xbdd2785d	-0.10276864
114	0xbe8ef940	-0.27924538
115	0xbea6e780	-0.32598495
116	0xbf1a349d	-0.6023653
117	0x3d1c0ad2	0.038096257
118	0xbe8ae33a	-0.27126485
119	0xbe5bfedd	-0.21483941
120	0xbed38484	-0.4131204
121	0x3c6bfafe	0.014403103
122	0xbc626a4e	-0.01381929
123	0xbe53b609	-0.2067491
124	0xbec300f5	-0.38086668
125	0x3d10c4a5	0.035343785
126	0xbe508480	-0.20363045
127	0xbe7c2992	-0.24625233
128	0xbe4a46dd	-0.19753595
129	0xbe966528	-0.2937405
130	0x3dc7b93b	0.09752127
131	0xbeae7062	-0.34070116
132	0xbd852d6f	-0.065028064
133	0xbe175792	-0.14779499
134	0xbe2307c1	-0.15920927
135	0xbe998062	-0.2998076
136	0xbeee4c77	-0.46542713
137	0xbea72e8f	-0.3265271
138	0xbe160f8f	-0.14654373
139	0xbe7805a2	-0.24220899
140	0xbe3f2c20	-0.18669176
141	0xbed19c69	-0.40939644
142	0xbe28f5f7	-0.16500078
143	0xbe8cc6ef	-0.27495524
144	0xbe770978	-0.24124706
145	0xbc5ac0be	-0.013351617
146	0xbe31cc9a	-0.17363206
147	0xbce33b2d	-0.027738178
148	0x3e035ba3	0.12827925
149	0xbedbbfa7	-0.42919657
150	0x3d891e3e	0.06695221
151	0xbec11fe5	-0.37719646
152	0xbe03fe87	-0.12890063
153	0x3e392ca7	0.1808344
154	0xbe0d84e9	-0.13820232
155	0xbde44fee	-0.11148058
156	0xbe8f0494	-0.2793318
157	0xbee186b8	-0.44048095
158	0xbe830fb6	-0.25597924
159	0xbdc0c825	-0.094131745
160	0xbe8bcfbe	-0.27306932
161	0xbf079efd	-0.5297697
162	0xbe4c7e6f	-0.19970106
163	0x3d8677ef	0.06565844
164	0xbebfd6d2	-0.37468582
165	0xbd3ad78a	-0.04561571
166	0xbcf505f6	-0.029910069
167	0xbe27b6fc	-0.16378397
168	0xbe95de1e	-0.29271024
169	0xbea7f109	-0.32801083
170	0xbe936444	-0.28787434
171	0xbe81404e	-0.25244373
172	0xbd259242	-0.040422685
173	0xbe54bd47	-0.20775329
174	0xbebbd18f	-0.36683318
175	0xbdb56e52	-0.088589326
176	0xbe02201b	-0.1270756
177	0xbec9c898	-0.39410853
178	0xbedb1318	-0.42788005
179	0xbe47a500	-0.19496536
180	0xbd06b1be	-0.032884352
181	0xbe23f3e4	-0.16011006
182	0xbe3cbbe7	-0.18431054
183	0xbe90312d	-0.28162518
184	0xbdd3e837	-0.10347026
185	0xbe6a98ec	-0.22909898
186	0x3d2d1a29	0.042261276
187	0xbd428b24	-0.047495976
188	0xbcb50dd4	-0.02210132
189	0x3ec1f0c8	0.37879014
190	0xbe00cf00	-0.12578964
191	0xbe98f694	-0.29875624
192	0xbddac8be	-0.1068282
193	0xbe36c712	-0.17849377
194	0xbe96ffed	-0.2949213
195	0xbe80d328	-0.251611
196	0x3e5a2a0d	0.21305104
197	0xbe8fa651	-0.28056577
198	0xbebe4984	-0.37165463
199	0xbe71a032	-0.23596266
200	0xbd45fc19	-0.048336122
201	0x3f02fff6	0.51171815
202	0xbc40668f	-0.011743202
203	0xbe946871	-0.28985932
204	0xbd792df7	-0.06083485
205	0xbde4cb64	-0.11171606
206	0x3c24b190	0.0100521
207	0xbe6e625b	-0.23279707
208	0xbe89c1b1	-0.26905587
209	0xbccc1be1	-0.024915637
210	0xbde46b11	-0.11153234
211	0x3c690c32	0.014224099
212	0xbe24fbb6	-0.16111645
213	0x3eb24834	0.34820712
214	0xbe261f75	-0.16222937
215	0xbe9593cc	-0.29214323
216	0xbe90afeb	-0.28259215
217	0xbf276995	-0.6539548
218	0x3d4f8621	0.050665025
219	0x3d208f53	0.039199185
220	0xbf008cc9	-0.5021482
221	0xbdd8c73e	-0.105848774
222	0x3e2ead52	0.17058304
223	0xbe737093	-0.23773412
224	0x3c435820	0.011922866
225	0xbe123c8e	-0.14280912
226	0xbd72a791	-0.059241835
227	0xbeba1fa5	-0.36352268
228	0xbcbb7304	-0.022881992
229	0xbe3da73b	-0.18520825
230	0xbe35008f	-0.17675994
231	0x3e864e9f	0.26231858
232	0xbebacce5	-0.36484447
233	0xbeb9386b	-0.36175856
234	0xbe1ecc97	-0.15507732
235	0xbe8b03d7	-0.27151367
236	0xbeda700b	-0.42663607
237	0xbe049070	-0.12945724
238	0xbe8300c7	-0.2558653
239	0xbef573d2	-0.47939926
240	0xbe42ea8a	-0.19034782
241	0xbed4ad65	-0.4153854
242	0xbea01ced	-0.3127207
243	0xbd38dd0c	-0.04513268
244	0xbe47eec0	-0.1952467
245	0xbdc9b844	-0.09849599
246	0x3c46dc57	0.012137494
247	0xbe2d1b0f	-0.16904853
248	0xbd20f250	-0.039293587
249	0xbea90ecb	-0.330191
250	0xbe495c06	-0.1966401
251	0xbec835f1	-0.39103654
252	0xbe8f45b5	-0.2798287
253	0xbd89e0c1	-0.067323215
254	0xbebb0c8f	-0.3653302
255	0xbdf469d4	-0.119342476

lstm.bias_hh_l0 f4 [512]
0	0x3e707356	0.23481497
1	0xbf06b5bb	-0.5262105
2	0x3d8ecd6e	0.06972776
3	0xbeaf0337	-0.3418214
4	0xbe53ec16	-0.20695528
5	0x3ec150e3	0.37757024
6	0xbdeb1ae1	-0.11479736
7	0xbe04af92	-0.129576
8	0xbeab09ac	-0.33405817
9	0xbd938181	-0.07202435
10	0xbf01afa6	-0.50658643
11	0xbe9cd087	-0.30627844
12	0x3de077aa	0.10960324
13	0xbd11e072	-0.03561444
14	0xbef1a5b4	-0.47196734
15	0xbe2609bc	-0.16214651
16	0xbdd4c9b3	-0.103900336
17	0xbda0eca2	-0.07857634
18	0xbd8580d3	-0.06518712
19	0xbec63cf1	-0.3871837
20	0xbf07f84d	-0.5311325
21	0xbef69d2b	-0.48166785
22	0xbedfcd2b	-0.43711218
23	0xbd01604b	-0.031585973
24	0xbd994622	-0.0748408
25	0x3e2c8aaf	0.16849779
26	0xbe4f0f83	-0.20220761
27	0xbe566eaa	-0.20940652
28	0xbea2ea76	-0.31819504
29	0xbf1adfcd	-0.6049774
30	0xbdb094e2	-0.08622147
31	0x3e84e27a	0.25954038
32	0xbe867483	-0.26260766
33	0xbf263d5d	-0.6493738
34	0xbdeb4b72	-0.114889994
35	0x3d2eb7ae	0.04265564
36	0xbee51c53	-0.44748172
37	0x3d7fe62d	0.062475372
38	0xbdbc8163	-0.09204366
39	0xbe071a10	-0.13193536
40	0xbf5bd798	-0.85875845
41	0xbeb068bc	-0.34454906
42	0xbece90da	-0.40344888
43	0xbe9f3ba3	-0.31100187
44	0xbe85d04b	-0.26135477
45	0xbe830d73	-0.25596198
46	0xbe359dbb	-0.1773595
47	0xbe9ccf3f	-0.30626866
48	0xbcfa1d38	-0.03053151
49	0xbea95dc2	-0.33079344
50	0xbebfa00c	-0.37426794
51	0xbe86ac2d	-0.26303235
52	0xbe899303	-0.26869974
53	0xbcf143ab	-0.029451212
54	0xbeb7dc93	-0.35910472
55	0xbe86eb96	-0.26351613
56	0xbe5264fc	-0.20546335
57	0xbeacdd57	-0.3376262
58	0xbe747167	-0.23871385
59	0xbe23ae86	-0.15984544
60	0xbe57e11c	-0.21081966
61	0xbe82f537	-0.2557771
62	0xbe807551	-0.25089505
63	0xbeb5e27c	-0.35524356
64	0xbd94a652	-0.072582856
65	0x3eb1465a	0.34623986
66	0xbef72900	-0.48273468
67	0xbd32ffc6	-0.043700956
68	0x3d92b891	0.071641095
69	0xbf0c0312	-0.54692185
70	0xbf3666cc	-0.71250606
71	0xbe3fe46b	-0.18739478
72	0xbe0d0dd6	-0.13774809
73	0x3ea01292	0.31264168
74	0xbea6b39d	-0.3255891
75	0xbee80826	-0.45318717
76	0xbe53f3fd	-0.20698543
77	0xbee2b643	-0.4427968
78	0xbdddc63e	-0.10828827
79	0x3cccdf5c	0.02500885
80	0xbf09ffc9	-0.5390592
81	0xbec4dfe5	-0.38452068
82	0xbd651fa0	-0.055938363
83	0xbce661b6	-0.028122764
84	0xbe9f80e7	-0.31153032
85	0xbda3ffbc	-0.08007762
86	0xbe722273	-0.23645954
87	0xbe269740	-0.16268635
88	0xbd23287c	-0.03983353
89	0xbf34df62	-0.70653355
90	0xbe3ca14e	-0.18420908
91	0xbec80582	-0.39066702
92	0xbeac68de	-0.33673757
93	0xbe68e830	-0.22744823
94	0x3e6a566c	0.2288453
95	0xbd92b91d	-0.07164214
96	0xbdca3d8b	-0.0987502
97	0x3eb55baf	0.35421512
98	0xbe82f19e	-0.25574964
99	0xbebb30d0	-0.36560678
100	0xbec070ce	-0.37586063
101	0xbe7872d4	-0.24262553
102	0xbedf2604	-0.4358369
103	0xbc6ef574	-0.014584888
104	0xbe98055b	-0.29691586
105	0xbe301b99	-0.17198028
106	0xbe5646fc	-0.20925516
107	0xbe3c1043	-0.18365578
108	0xbdb4af38	-0.08822483
109	0x3c1f03c8	0.009705491
110	0xbf0d2852	-0.5513965
111	0xbeb3b2b1	-0.35097268
112	0xbd30ea1b	-0.04319201
113	0xbe46f052	-0.19427612
114	0xbeb783f8	-0.35842872
115	0xbe2717ef	-0.16317724
116	0xbf2b2a1f	-0.66861147
117	0xbcff028e	-0.031129148
118	0xbe78f82a	-0.24313417
119	0xbe9e873f	-0.3096256
120	0xbea18c99	-0.3155258
121	0x3daf609e	0.0856335
122	0x3de17ab3	0.11009731
123	0xbea9b73d	-0.33147612
124	0xbeaba9a0	-0.3352785
125	0xbdb22a3c	-0.08699462
126	0xbe634da5	-0.22197588
127	0xbde30e2d	-0.11086688
128	0xbe098181	-0.13428308
129	0xbeb850ee	-0.35999244
130	0x3db2878f	0.08717262
131	0xbecc1afa	-0.3986433
132	0xbd387d22	-0.04504121
133	0xbdd5d9e4	-0.1044195
134	0xbe3f0093	-0.18652563
135	0xbeb4dec2	-0.353262
136	0xbeff74ae	-0.49893707
137	0xbe51c5ae	-0.20485565
138	0xbe79344e	-0.24336359
139	0xbe155bd7	-0.14585815
140	0xbde8b325	-0.11362294
141	0xbed20508	-0.41019464
142	0xbd98c550	-0.074595094
143	0xbe7e5978	-0.24838817
144	0xbe88ea2c	-0.2674116
145	0xbe1d05eb	-0.15334289
146	0xbe390902	-0.18069842
147	0xbdd6e081	-0.104920395
148	0x3dfccbb6	0.12343542
149	0xbed815b3	-0.42204055
150	0x3d60de55	0.054899532
151	0xbea6c0f1	-0.32569078
152	0xbe62db7f	-0.22154044
153	0x3d92ec00	0.0717392
154	0xbe66e833	-0.22549514
155	0xbd2604ce	-0.040531926
156	0xbe18a4c4	-0.14906603
157	0xbed2d650	-0.41179132
158	0xbe8d1bec	-0.27560365
159	0xbe09c35d	-0.13453431
160	0xbebd8606	-0.37016314
161	0xbf1bcdd3	-0.6086094
162	0xbdbb29ea	-0.09138854
163	0xbd7cf1a3	-0.06175388
164	0xbea55fc3	-0.32299623
165	0xbde56210	-0.112003446
166	0xbded1bc3	-0.11577561
167	0xbe6dcca9	-0.23222603
168	0xbed603b0	-0.41799688
169	0xbec01fd2	-0.37524277
170	0xbebf6959	-0.3738506
171	0xbe17aff3	-0.14813213
172	0xbcabd3e8	-0.020975068
173	0xbe897044	-0.26843464
174	0xbeafc1f8	-0.34327674
175	0xbcc7ba63	-0.024380868
176	0xbcf1f75c	-0.029536895
177	0xbecf721f	-0.40516755
178	0xbec53b9f	-0.3852205
179	0xbe5c4523	-0.21510749
180	0xbda21de6	-0.07915859
181	0xbe733a7b	-0.23752777
182	0xbe831bb8	-0.25607085
183	0xbe1eb384	-0.15498167
184	0xbdbd5722	-0.09245135
185	0xbe8fdc5c	-0.28097808
186	0x3de1187e	0.10991
187	0xbd9d2b43	-0.07674267
188	0x3b8a397d	0.004218279
189	0x3ebc566b	0.36784682
190	0xbe50e1a8	-0.20398581
191	0xbed26616	-0.4109351
192	0xbdc73561	-0.09726978
193	0xbe5f57dd	-0.21810861
194	0xbe6afc73	-0.22947864
195	0xbea3ef28	-0.320184
196	0x3e942e66	0.2894165
197	0xbed37e72	-0.41307408
198	0xbed19622	-0.40934855
199	0xbeb620ed	-0.35571995
200	0xbd8d8c0b	-0.06911477
201	0x3f00a635	0.5025361
202	0x3d31c077	0.04339644
203	0xbe94a0fe	-0.29029077
204	0xbc22374d	-0.00990088
205	0xbe5b4631	-0.21413495
206	0xbd3ab399	-0.045581434
207	0xbe6e7e4f	-0.2329037
208	0xbea840ec	-0.3286203
209	0xbe05ddb4	-0.13072854
210	0xbdac4bed	-0.08412919
211	0xbd52a88c	-0.05143027
212	0xbdeba1ca	-0.11505468
213	0x3e79b31d	0.24384733
214	0xbe3e7ed1	-0.18603064
215	0xbecb9acb	-0.39766535
216	0xbe732851	-0.23745848
217	0xbf22c7d3	-0.6358616
218	0xbd22bd16	-0.039731108
219	0x3c93276a	0.01796313
220	0xbf0455ac	-0.51693225
221	0x3d48aac5	0.048990984
222	0x3eadf945	0.3397924
223	0xbe0bfbd7	-0.13670288
224	0x3e214f1a	0.15752831
225	0xbe40774e	-0.18795511
226	0x3d0a4cf5	0.0337648
227	0xbe97549e	-0.29556745
228	0xbd12cc36	-0.035839282
229	0xbd87ff0b	-0.066404425
230	0xbe455684	-0.19271284
231	0x3e9704ea	0.29495937
232	0xbe6d9a36	-0.23203358
233	0xbe9c1fd7	-0.30493042
234	0xbe9e4e3a	-0.30919057
235	0xbe0a3db6	-0.13500103
236	0xbef1ec2e	-0.47250503
237	0xbd707918	-0.058709234
238	0xbe2d8b4d	-0.1694767
239	0xbeeb0a78	-0.45906425
240	0xbe48c076	-0.19604668
241	0xbebb7d6b	-0.36619124
242	0xbe443fef	-0.19165014
243	0xbd82dc90	-0.06389725
244	0xbe676256	-0.22596106
245	0xbe19fa0a	-0.15036789
246	0xbddfc0e0	-0.1092546
247	0xbe723fcf	-0.23657154
248	0xbdd1b63a	-0.10239835
249	0xbe638550	-0.22218823
250	0xbe82017e	-0.25391763
251	0xbebd12c9	-0.36928394
252	0xbe80dc3d	-0.25168028
253	0xbe42e482	-0.19032481
254	0xbeeb0602	-0.4590302
255	0xbe0a3325	-0.13496073

fc.weight f4 [4, 128]
0	0x3e04e491	0.12977816
1	0xbe88235d	-0.2658948
2	0x3ee98c6f	0.45614955
3	0xbe209488	-0.1568166
4	0xbffec6d2	-1.9904425
5	0x3d9b5cd2	0.075860634
6	0x3ee6c986	0.45075625
7	0xbe86a5a0	-0.26298237
8	0x3e72865c	0.23684067
9	0x3ca4a61b	0.020098737
10	0x3f5b2ccf	0.8561525
11	0x3d199bef	0.037502225
12	0x3e028637	0.12746511
13	0xbe427688	-0.18990529
14	0x3e762330	0.2403686
15	0x3d36ec84	0.044659153
16	0x3f0cbe36	0.5497774
17	0xbea53147	-0.32264158
18	0xbdd64361	-0.1046207
19	0xbfa20925	-1.2659041
20	0xbe9b0924	-0.3028041
21	0x3ed8ec00	0.42367554
22	0x3c62e539	0.013848596
23	0x3e1624ae	0.1466243
24	0x3d20fbc3	0.0393026
25	0x3e750677	0.23928247
26	0xbdc4f3ec	-0.09616837
27	0x3e102bda	0.14079228
28	0x3e1b841f	0.15187119
29	0x3d77322e	0.06035059
30	0x4045e67f	3.0921934
31	0xbc6de3cb	-0.014519642
32	0x3e19d818	0.1502384
33	0x3ce85a2b	0.028363308
34	0x3f8a1bfb	1.0789789
35	0xbf2ad6e8	-0.6673417
36	0x3d6c0c78	0.05762908
37	0x3ea037fb	0.3129271
38	0xbe1fa1be	-0.15589043
39	0xbe114cc4	-0.1418944
40	0x3f946db0	1.1595974
41	0xbdfcd74d	-0.12345753
42	0x3e95d31f	0.29262635
43	0xbfd6b730	-1.6774654
44	0xbf052c8a	-0.52021086
45	0x3d255752	0.04036648
46	0xbe7dd569	-0.24788441
47	0xc06a45da	-3.6605134
48	0xbdc0bd2a	-0.0941108
49	0x3eb2a7f6	0.3489377
50	0xbeabeb66	-0.33578032
51	0x3d3667fd	0.044532765
52	0x3b3dd5cd	0.0028966547
53	0x3ee135ad	0.43986264
54	0xbf7a9c27	-0.9789452
55	0x3e2b4bec	0.1672818
56	0xbe731baa	-0.23741022
57	0x3e70a7dd	0.23501535
58	0xbeb5f733	-0.3554016
59	0xbed1492b	-0.40876135
60	0xbe285019	-0.16436805
61	0xbdab7173	-0.08371248
62	0x3dd32ca0	0.10311246
63	0xbe9d12f2	-0.30678517
64	0xbda63874	-0.08116236
65	0xbe9a18f0	-0.3009715
66	0x3db34f1d	0.08755324
67	0xbf331c87	-0.69965404
68	0xbed114d1	-0.40836194
69	0xbf4ee2a5	-0.8081458
70	0x3ea5443a	0.32278615
71	0x3e8aaf45	0.27086845
72	0xbe6a7fbe	-0.22900292
73	0x3ee55368	0.44790196
74	0x3d57d067	0.052688982
75	0x3e369d29	0.1783339
76	0x3d4fbf3c	0.050719485
77	0xbe278c4e	-0.16362116
78	0x3ea7a740	0.3274479
79	0xbd3c880b	-0.04602818
80	0xbd2a9f42	-0.041655786
81	0x3f5f0f11	0.87132365
82	0xbd938013	-0.072021626
83	0xbe8e6823	-0.27813825
84	0xbdf9550d	-0.12174425
85	0x3e90420c	0.2817539
86	0xbde35c9c	-0.11101648
87	0xbdc4dc66	-0.0961235
88	0x3e902fc8	0.28161454
89	0x3e846852	0.2586084
90	0xbf152f20	-0.5827503
91	0x3e493bf6	0.1965178
92	0x3d1c817d	0.038209427
93	0x3dc426cc	0.095777124
94	0x3d95e94a	0.07319887
95	0xbd0620bb	-0.032746058
96	0x3ea0166c	0.31267107
97	0xbdac2771	-0.0840596
98	0x3d323d8d	0.04351573
99	0xbeaa642a	-0.33279544
100	0xbebb0ac5	-0.36531654
101	0xbecb672e	-0.39727157
102	0xbd31d1a4	-0.04341282
103	0xbeacdde6	-0.33763045
104	0xbc56f575	-0.013120045
105	0xbdfd44af	-0.12366616
106	0xbdbfe911	-0.09370626
107	0xbe3060f8	-0.1722449
108	0xbe30fb37	-0.17283331
109	0xbe4a55aa	-0.19759241
110	0xbc695288	-0.014240868
111	0xbe5421e0	-0.20716047
112	0xbe53c062	-0.20678857
113	0x3ecbf020	0.39831638
114	0x3e8c6d13	0.27426967
115	0x3e3430a1	0.17596675
116	0x3d8dd020	0.06924462
117	0xbefe0ca1	-0.4961901
118	0xbd326ead	-0.04356258
119	0xbe58e7da	-0.21182194
120	0x3ea90daa	0.33018237
121	0x3db94c9f	0.090478174
122	0xbd850e64	-0.064968854
123	0xbe0dd5d6	-0.13851103
124	0xbe8e9e2e	-0.27855057
125	0x3f0b3002	0.5437013
126	0x3d4e89d2	0.050424404
127	0x3dc089fc	0.094013184
128	0xbe983a35	-0.29731908
129	0x3d65fd42	0.05614973
130	0xbed86f64	-0.42272484
131	0xbcd8bd91	-0.02645758
132	0x3dbb68ed	0.091508724
133	0xbf15bc87	-0.58490795
134	0x3eb01fd3	0.3439928
135	0x3eaa5cfc	0.33274066
136	0x3ca33b76	0.019925814
137	0x3f056057	0.5210013
138	0xbe21d08c	-0.1580221
139	0xbe69c574	-0.22829229
140	0xbe9a149f	-0.30093858
141	0xbda67c22	-0.08129145
142	0x3eb5b990	0.35493135
143	0x3fa32035	1.2744204
144	0xbe318f4a	-0.17339817
145	0x3e297822	0.16549733
146	0x3e5184a3	0.20460753
147	0x3dc1b801	0.09458924
148	0xbd52c3ae	-0.051456146
149	0x3e991f01	0.29906467
150	0x3f0333c9	0.5125089
151	0xbe2004b3	-0.15626793
152	0xbf3ce67a	-0.7378918
153	0xbe3a218d	-0.18176861
154	0xbf698596	-0.9121946
155	0xbf783b8c	-0.9696586
156	0x3e0312c8	0.12800133
157	0xbeae9362	-0.3409682
158	0xbde81659	-0.113323875
159	0xbc8ad389	-0.016946571
160	0xbf9470ca	-1.159692
161	0x3ea69ad4	0.3254
162	0x3cecbf3d	0.028899783
163	0x3f01d5e5	0.50717
164	0x3e7485eb	0.2387921
165	0xbee9b4a5	-0.45645633
166	0x3f84f521	1.0387307
167	0x3e88994c	0.26679456
168	0x3da16d15	0.07882134
169	0xbf0a086b	-0.53919095
170	0x3d8e58aa	0.06950505
171	0x3d6105d2	0.05493719
172	0x3e4be583	0.1991177
173	0x3eb5b94b	0.3549293
174	0xbef01fa4	-0.4689914
175	0x3d788afb	0.060679417
176	0x3ddc1b84	0.10747436
177	0xbd77fe8a	-0.06054548
178	0x3ecd1a47	0.4005911
179	0xbd0e16f1	-0.034689847
180	0xbefe79b4	-0.49702227
181	0xbd66d823	-0.056358468
182	0x3de79095	0.11306874
183	0xbf55c561	-0.835043
184	0x3ed517d1	0.41619733
185	0xbe8a70ec	-0.27039278
186	0x3f231edd	0.6371897
187	0xbe03dc67	-0.12877046
188	0x3e7f9a18	0.24961126
189	0xbea896a6	-0.32927436
190	0xbf931f76	-1.1493976
191	0xbe80c151	-0.2514749
192	0x3fc8e465	1.56947
193	0x3e451070	0.19244552
194	0x3fa2200a	1.2666028
195	0x3d965ca6	0.0734189
196	0x3e622c35	0.22087176
197	0x3d996313	0.074896
198	0x3e0d2f0b	0.13787477
199	0xbdffea1d	-0.124958254
200	0x3dc00f7a	0.09377952
201	0xbda20377	-0.07910817
202	0x3bcdb487	0.006277624
203	0x3dde7ff1	0.10864247
204	0x3cd55166	0.02603979
205	0x3d9cb5cb	0.07651862
206	0xbeea5827	-0.4577038
207	0x3f584483	0.8447954
208	0x3ee842d3	0.45363483
209	0x3c0ad193	0.008472818
210	0x3ed7250e	0.42020458
211	0x3d8e483a	0.0694737
212	0x3eab7939	0.33490923
213	0x3eaba84e	0.33526844
214	0xbf5b9a91	-0.85782725
215	0x3f5fa76c	0.8736484
216	0xbe53bb38	-0.20676887
217	0x3e8de466	0.27713317
218	0x3e96a709	0.29424313
219	0x3ef16e76	0.47154588
220	0xbf6b9c97	-0.9203581
221	0xbecf2587	-0.4045832
222	0x3e878f76	0.2647664
223	0x3db8bde3	0.09020593
224	0xbf7056d0	-0.93882465
225	0xbe10b3f0	-0.1413114
226	0xbe059d55	-0.13048299
227	0x3ec0595e	0.37568182
228	0xbe562884	-0.20913893
229	0xbd498dea	-0.049207605
230	0x3ec8285c	0.39093292
231	0xbed58704	-0.4170457
232	0x3e29a570	0.16567016
233	0x3e84d049	0.2594016
234	0x3f52f8f4	0.8241112
235	0x3f33bfbd	0.70214444
236	0xbf31dd7b	-0.6947858
237	0x3f3aa985	0.72914916
238	0xbe64252f	-0.2227981
239	0xbf8f001b	-1.1171907
240	0x3f4285e9	0.7598558
241	0xbf13f8e4	-0.5780165
242	0x3ed4da0b	0.41572604
243	0xbea27b18	-0.31734538
244	0xbecfd4de	-0.40592092
245	0x3edd6da9	0.43247727
246	0x3c2eaa3b	0.010660703
247	0xbe71e355	-0.23621877
248	0x3dd50edc	0.10403225
249	0xbf3408a7	-0.703257
250	0x3f3d7f10	0.74022007
251	0x3eb279a7	0.34858438
252	0x3ea1bf76	0.31591386
253	0xbecfce78	-0.4058721
254	0xbf6a8acc	-0.9161804
255	0xbea29595	-0.31754747

fc.bias f4 [4]
0	0xbed3e651	-0.41386655
1	0xbe42aae5	-0.19010504
2	0x3e9fe1af	0.3122687
3	0x3e65f4eb	0.2245671
