LSTM/LSTM3/model.pth (torch, 275929 bytes, 6 tensors)

lstm.weight_ih_l0 f4 [512, 3]
-0.35199755 -0.5805124 -1.0910431 -0.691488 -0.39143682 -0.2075878 -0.34871626 -0.1855557
0.10290808 0.0014784375 -0.09587804 0.34240684 -0.25166863 0.07477754 0.06849484 -0.40338048
-0.12837242 -0.8700849 -0.41646358 -0.015066513 0.12509432 -0.3956251 0.21755803 -0.40988392
-0.24423172 -0.22508334 0.41875458 -0.7186765 -0.65367615 -0.89538866 -0.04811754 0.15467137
0.45208284 0.4049951 -0.75723696 0.052881848 -0.18072598 0.015728557 -0.7925482 -0.36013064
-0.34399158 -0.35861102 -0.13244458 0.27707464 -0.024380436 -0.6901157 -0.5198975 -0.36209333
0.08190746 0.15827195 -1.0597432 -0.29147202 -0.47617996 -0.3723501 -0.45040143 -0.5641847
-0.63521487 -0.480887 -0.10703653 -0.051400974 -0.23893031 -0.7220026 -0.20336738 -0.26363984
-0.21221596 -0.013365951 -0.6530626 -0.5205582 -0.32094005 -0.048199948 -0.30445635 0.24671634
0.0481825 0.15117085 -0.7321855 -0.022968339 0.058350507 -0.037797038 -0.48063132 -0.62939525
-0.44825616 0.23912267 -0.21036273 -1.006284 -0.46031776 -0.17340235 -0.8623739 -0.02663196
-1.1612538 -0.46097282 -0.45503357 -0.07329898 -1.0465711 -0.82489717 -0.27071574 -0.27549985
-0.21123998 -0.09758677 0.13380879 -0.2052441 0.093322776 -0.27857724 -0.028835904 -0.10363422
-0.057646383 -0.066524245 0.032584276 0.14865524 -0.88347965 0.1440923 -0.29377213 0.23376271
0.21491197 -1.2274839 -0.6363519 -0.7048806 -0.7287288 -0.5178255 -0.20502475 -0.13544036
-0.17270961 -0.015456316 0.07670376 -0.20814373 -0.025279364 0.26138052 -0.24560222 0.0030485624
0.23485172 -0.076506555 -0.96435094 -0.3923643 -0.5074631 0.10424798 0.20142284 -0.0490935
-0.17491496 0.0075365407 -0.02717905 -0.6842482 -0.6040133 -0.010653315 -0.32533786 -0.42393115
-0.21274386 0.09654171 -0.41532657 -0.25914508 -0.28863233 -0.5364005 -0.4087621 -0.2721509
-0.93978703 -0.017039882 -0.39163497 -0.42437458 0.0022855883 0.12593634 -0.30699623 -0.528252
0.33213398 -0.54450446 -0.05443913 0.13081063 0.27223969 -0.19225912 -0.19136594 -0.93074775
-0.25382832 -0.0561681 0.2412299 -0.42140058 -0.3058072 -0.21970718 0.17763989 0.070837334
-0.26747468 -0.20859568 -0.114955336 -0.07061639 -0.8641136 -0.6808027 -0.6657365 0.08999843
-0.7184771 -0.9274225 -0.73433185 -0.8418433 -0.51912546 0.009291764 0.0045737196 -0.3498488
-0.32346532 -0.078778274 -0.27109432 -0.10659686 -0.22566965 -0.5674289 -0.05283242 0.011139766
-0.21073921 -0.24799038 0.007230562 0.21330059 -0.26516598 -0.44126925 -0.9889564 -0.30146468
-0.07022735 0.072785966 -0.73170686 -0.049481325 -0.5345369 -0.2990829 -0.37741372 -0.1920277
-0.18987158 0.115063824 0.0919009 -0.24032496 -0.103792876 -0.06345327 0.10261321 0.22166732
-1.2846198 0.1280833 -0.07717518 0.06705207 -0.2975646 0.30376437 0.28236225 -0.22936723
-0.7714784 -0.08778548 -0.013609767 0.10177486 0.07403406 0.009659294 0.255627 -0.11346781
-0.28816265 0.01055805 -0.5553057 -0.31979436 -0.13837527 -0.43344504 -0.11220945 0.024619697
0.13808303 -0.30052635 -0.40443835 -0.35323408 -0.08942399 0.018535681 -1.0971807 -0.20311132
00000000: 0639 b4be 769c 14bf 4da7 8bbf 5c05 31bf
00000010: 686a c8be e591 54be f08a b2be 5002 3ebe
00000020: 79c1 d23d 21c8 c13a b55b c4bd f34f af3e
00000030: b6da 80be f824 993d 0647 8c3d e387 cebe
00000040: 0f74 03be e2bd 5ebf b73a d5be 89d9 76bc
00000050: ba18 003e 608f cabe 88c7 5e3e 4edc d1be
00000060: e117 7abe 3f7c 66be 0067 d63e 2ffb 37bf
00000070: 5257 27bf 3138 65bf e616 45bd 2c62 1e3e
00000080: 6777 e73e 855b cf3e 48da 41bf a39a 583d
00000090: 3b10 39be 2dd9 803c 70e4 4abf 0b63 b8be
000000a0: aa1f b0be dd9b b7be 8d9f 07be badc 8d3e
000000b0: 7bb9 c7bc 6cab 30bf 0118 05bf 4c64 b9be
000000c0: 19bf a73d 0b12 223e aaa5 87bf d23b 95be
000000d0: dccd f3be aca4 bebe 049b e6be 696e 10bf
000000e0: 719d 22bf d236 f6be f835 dbbd d489 52bd
000000f0: 26aa 74be 2ad5 38bf 8a3f 50be cdfb 86be
00000100: 244f 59be ddfc 5abc 1c2f 27bf 4d43 05bf
00000110: 4152 a4be 4f6d 45bd b4e1 9bbe 35a3 7c3e
00000120: 035b 453d 88cc 1a3e 8270 3bbf 1928 bcbc
00000130: f100 6f3d 11d1 1abd 4f15 f6be 0c20 21bf
00000140: d581 e5be 93dc 743e 5469 57be eacd 80bf
00000150: c5ae ebbe 6390 31be 89c4 5cbf 452b dabc
00000160: f7a3 94bf a104 ecbe 29fa e8be c71d 96bd
00000170: 0bf6 85bf 762c 53bf 419b 8abe 510e 8dbe
00000180: 4b4f 58be 93db c7bd 2c05 093e 822b 52be
00000190: 0320 bf3d ada1 8ebe 4639 ecbc 2e3e d4bd
000001a0: 9d1e 6cbd dd3d 88bd 1777 053d 1439 183e
000001b0: b92b 62bf ef8c 133e 4d69 96be 7e5f 6f3e
000001c0: e211 5c3e 311e 9dbf f5e7 22bf 0e73 34bf
000001d0: f88d 3abf 3690 04bf 02f2 51be e1b0 0abe
000001e0: cada 30be 7d3c 7dbc dc16 9d3d a123 55be
000001f0: ab16 cfbc abd3 853e 267f 7bbe 64ca 473b
00000200: f87c 703e 78af 9cbd b4df 76bf f9e3 c8be
00000210: 1ae9 01bf f77f d53d ca41 4e3e 4416 49bd
00000220: e81c 33be 16f5 f63b 99a6 debc e42a 2fbf
00000230: 9ea0 1abf 3e8b 2ebc af92 a6be 810d d9be
00000240: 87d9 59be a9b7 c53d afa5 d4be aaae 84be
00000250: 9ec7 93be 8b51 09bf 4449 d1be 5d57 8bbe
00000260: e295 70bf 3997 8bbc 6184 c8be a047 d9be
00000270: cfc9 153b 75f5 003e 9c2e 9dbe 863b 07bf
00000280: 770d aa3e a564 0bbf 91fb 5ebd 39f3 053e
00000290: 0063 8b3e 93df 44be 6ff5 43be 7c45 6ebf
000002a0: c9f5 81be 8610 66bd f904 773e d1c1 d7be
000002b0: c392 9cbe ebfa 60be 3be7 353e 2a13 913d
000002c0: 71f2 88be 1b9a 55be b46d ebbd 539f 90bd
000002d0: 8d36 5dbf 1649 2ebf b56d 2abf 1951 b83d
000002e0: 1dee 37bf 906b 6dbf 2cfd 3bbf 0b83 57bf
000002f0: 68e5 04bf 7c3c 183c 24df 953b 621f b3be
00000300: 3f9d a5be 8156 a1bd e0cc 8abe 744f dabd
00000310: f215 67be 0543 11bf cf66 58bd 9183 363c
00000320: 05cc 57be 31f1 7dbe 5aee ec3b 786b 5a3e
00000330: d6c3 87be 0bee e1be 3f2c 7dbf 9459 9abe
00000340: 5bd3 8fbd cf10 953d 2451 3bbf eeac 4abd
00000350: 69d7 08bf 6521 99be 5f3c c1be e9a2 44be
00000360: b26d 42be 95a6 eb3d 8a36 bc3d bf17 76be
00000370: 5c91 d4bd caf3 81bd e026 d23d c2fc 623e
00000380: 6c6e a4bf 4528 033e 050e 9ebd 9852 893d
00000390: 635a 98be 0187 9b3e c991 903e 3edf 6abe
000003a0: 9c7f 45bf e0c8 b3bd 80fb 5ebc 566f d03d
000003b0: 2b9f 973d 0442 1e3c 8be1 823e d061 e8bd
000003c0: 0e8a 93be acfb 2c3c 8428 0ebf 16bc a3be
000003d0: 3fb2 0dbe 82ec ddbe 11ce e5bd 3faf c93c
000003e0: a365 0d3e 97de 99be 8b12 cfbe 19db b4be
000003f0: ed23 b7bd 24d8 973c 6b70 8cbf 6afc 4fbe

lstm.weight_hh_l0 f4 [512, 128]
-0.17409632 -0.19084603 0.21206972 0.42569104 0.1634136 -0.39836678 -0.13490148 0.016399018
-0.3207345 0.047832135 0.28882855 -0.5588956 -0.19898628 -0.082351886 0.02066601 -0.020785104
-0.21871266 -0.097355306 -0.09805731 -0.20272568 -0.040553253 0.04698634 0.1405585 -0.2626054
0.05468554 0.1410959 -0.11402027 0.26166552 -0.052273255 -0.483185 -0.12936631 0.17910317
0.04855457 0.09420801 -0.14467344 -0.26591972 0.24168146 0.07637007 -0.07185183 0.16815913
0.31293952 0.12219058 0.23600204 0.17174673 0.13712212 -0.050906923 0.12488355 -0.019282248
-0.21628234 0.10225766 0.2576013 -0.05156923 -0.07972543 0.38752013 -0.14223251 -0.0029571
0.049907394 -0.09455128 0.15618572 0.1053218 0.13235384 0.1465963 0.17556398 0.05481014
0.5173241 -0.14570624 0.1641703 0.024531296 -0.020662898 -0.06813404 0.067473084 -0.04685258
0.13893324 0.2567925 -0.13594928 0.059364244 0.33929917 -0.1464055 -0.079193786 0.24064219
-0.0048680403 -0.23186728 0.036720693 0.14742751 0.18603908 -0.05019155 0.028177513 -0.03148631
0.35847527 -0.15996706 -0.14018095 0.21506985 0.15971582 -0.4701467 -0.24444301 0.2075915
-0.07463335 0.1531519 0.05423673 -0.05964318 0.2953524 -0.4540388 0.0108061945 0.083149545
-0.056275055 -0.087465726 -0.09224346 0.15789711 0.053584322 0.24097872 0.046629615 0.13424759
0.00084502343 -0.31948358 0.03825467 0.038385853 -0.009826725 -0.03801419 -0.29461926 0.075008936
0.02547392 -0.08185882 -0.050461464 -0.15764119 0.2669189 -0.24768119 -0.028230235 0.24603082
-0.38210213 0.16952105 0.3110064 0.25006503 0.062528536 -0.1318506 0.2854213 0.26244837
-0.53856224 0.080455765 0.3110826 -0.57320297 0.081378035 -0.13008738 -0.103210695 0.23307724
0.11344827 -0.21304683 0.002379282 -0.0058660097 0.18133684 0.16897072 -0.2426716 -0.661607
0.3364528 -0.017008921 -0.37783065 0.33635527 -0.3581747 -0.43963552 -0.33992434 0.27335182
0.06549217 0.17102781 -0.12984876 0.02159794 -0.20380555 0.3644389 0.081429355 -0.26549068
-0.10614711 0.15887928 -0.22145152 -0.086684495 0.076487884 0.03538678 0.42803943 0.82034206
-0.59249955 -0.096706636 0.45888415 0.4497527 -0.4855073 -0.08566936 -0.002305108 0.16095091
0.25282568 0.24050707 0.18325488 -0.12429999 -0.030688215 -0.01871784 0.31979322 -0.10405686
0.3575238 0.29106945 -0.04025629 0.2582337 -0.27371082 -0.15984394 0.15740767 -0.036540743
-0.057776 -0.24126004 -0.14391407 0.2875115 0.16681476 -0.66269827 -0.01257046 0.0029539
0.17800009 -0.39408365 -0.033274356 -0.12525064 0.06960193 0.47052735 -0.46936738 0.09288688
0.014910037 0.16391519 -0.0009787567 -0.05121923 0.06250717 0.050200325 -0.35347375 -0.040096432
0.48788142 -0.13612223 0.041193154 0.14867617 -0.011203924 -0.49195036 -0.07437898 -0.15843771
-0.069845304 -0.0012452173 -0.22017063 0.13670778 0.018602736 0.08169203 0.08541373 -0.116694845
0.08155912 -0.43424267 0.08351172 0.19834007 0.12086701 -0.03758532 -0.25041908 -0.083716765
0.11558884 -0.013187272 0.04186348 0.28729242 0.33093423 -0.09198053 0.064600386 0.23290232
00000000: 4e46 32be 246d 43be ce28 593e 2df4 d93e
00000010: e555 273e bbf6 cbbe 9d23 0abe 3c57 863c
00000020: 5037 a4be a1eb 433d 56e1 933e c813 0fbf
00000030: 0fc3 4bbe 1ba8 a8bd c44b a93c 8645 aabc
00000040: 36f6 5fbe 3862 c7bd 45d2 c8bd 5297 4fbe
00000050: 2b1b 26bd c074 403d 91ee 0f3e 3774 86be
00000060: f2fd 5f3d 727b 103e 7683 e9bd 06f9 853e
00000070: 7b1c 56bd 0664 f7be 9a78 04be d266 373e
00000080: 28e1 463d 21f0 c03d 4625 14be a126 88be
00000090: 587b 773e e967 9c3d 0d27 93bd e831 2c3e
000000a0: 9c39 a03e 0e3f fa3d 85aa 713e 60de 2f3e
000000b0: be69 0c3e c783 50bd f2c2 ff3d cef5 9dbc
000000c0: 1e79 5dbe 776c d13d 51e4 833e 423a 53bd
000000d0: 1647 a3bd 0a69 c63e 66a5 11be e8cb 41bb
000000e0: b26b 4c3d 1aa4 c1bd 26ef 1f3e f5b2 d73d
000000f0: c487 073e 571d 163e 0bc7 333e 9980 603d
00000100: 5a6f 043f 0434 15be 421c 283e dbf5 c83c
00000110: 3d45 a9bc dc89 8bbd 542f 8a3d 7ee8 3fbd
00000120: 8444 0e3e 4e7a 833e 4a36 0bbe ec27 733d
00000130: 9fb8 ad3e 53eb 15be 5a30 a2bd e86a 763e
00000140: 1584 9fbb 9e6e 6dbe 7068 163d 3df7 163e
00000150: 0781 3e3e a895 4dbd 87d4 e63c caf7 00bd
00000160: 128a b73e 68ce 23be 988b 0fbe 453b 5c3e
00000170: 8b8c 233e 11b7 f0be 454f 7abe de92 543e
00000180: 5fd9 98bd dad3 1c3e 5527 5e3d 684c 74bd
00000190: 6e38 973e c677 e8be 770c 313c 4f4a aa3d
000001a0: ac80 66bd 3b21 b3bd 24ea bcbd c8af 213e
000001b0: 3c7b 5b3d 20c3 763e b2fe 3e3d 3378 093e
000001c0: 9084 5d3a 5a93 a3be eeb0 1c3d 7c3a 1d3d
000001d0: 4600 21bc c4b4 1bbd 56d8 96be 499e 993d
000001e0: afae d03c 99a5 a7bd aeb0 4ebd b16c 21be
000001f0: 98a9 883e 23a0 7dbe 1843 e7bc 81ef 7b3e
00000200: e4a2 c3be ed96 2d3e 3b3c 9f3e 8608 803e
00000210: f60e 803d d803 07be be22 923e a25f 863e
00000220: 37df 09bf fec5 a43d 3846 9f3e 6ebd 12bf
00000230: 87a9 a63d a035 05be 2160 d3bd cdab 6e3e
00000240: 9157 e83d f328 5abe baed 1b3b a837 c0bb
00000250: 5db0 393e a906 2d3e e77e 78be 145f 29bf
00000260: 8b43 ac3e 4b56 8bbc 0573 c1be c236 ac3e
00000270: ad62 b7be e817 e1be 900a aebe c5f4 8b3e
00000280: c220 863d ea21 2f3e 13f7 04be 2aee b03c
00000290: 67b2 50be bc97 ba3e 6fc4 a63d 65ee 87be
000002a0: a863 d9bd 40b1 223e 30c4 62be a487 b1bd
000002b0: aea5 9c3d baf1 103d fc27 db3e f001 523f
000002c0: 0dae 17bf 210e c6bd ddf2 ea3e fc45 e63e
000002d0: 6a94 f8be 6b73 afbd 4b11 17bb 51d0 243e
000002e0: 5e72 813e 7c47 763e 2ba7 3b3e fe90 febd
000002f0: da65 fbbc 2856 99bc f0bb a33e c31b d5bd
00000300: 5c0d b73e 0e07 953e c8e3 24bd 3537 843e
00000310: d323 8cbe 21ae 23be 7a2f 213e bfab 15bd
00000320: 87a6 6cbd df0c 77be 365e 13be b534 933e
00000330: 7dd1 2a3e 98a6 29bf 55f4 4dbc 3896 413b
00000340: a845 363e 55c5 c9be b14a 08bd b441 00be
00000350: 758b 8e3d f6e8 f03e ec50 f0be 7a3b be3d
00000360: 3a49 743c 62d9 273e a049 80ba 41cb 51bd
00000370: c203 803d db9e 4d3d 83fa b4be 283c 24bd
00000380: 98cb f93e a063 0bbe 27ba 283d 913e 183e
00000390: aa90 37bc ebe0 fbbe 0254 98bd 7f3d 22be
000003a0: 0e0b 8fbd 8f36 a3ba 6974 61be 20fd 0b3e
000003b0: c464 983c 274e a73d 65ed ae3d b5fd eebd
000003c0: 7808 a73d 0e55 debe 3108 ab3d a919 4b3e
000003d0: 1f89 f73d 11f3 19bd ee36 80be b273 abbd
000003e0: d7b9 ec3d 6d0f 58bc 0a79 2b3d fe17 933e
000003f0: 3670 a93e 4a60 bcbd 354d 843d f27d 6e3e

lstm.bias_ih_l0 f4 [512]
-0.33709317 -0.43149433 -0.12113067 -0.14427994 -0.20881869 -0.3049484 -0.3625525 -0.15059301
-0.277421 -0.6317562 0.08927399 -0.1013877 -0.12825747 -0.2758801 -0.15507482 -0.34214634
0.07297881 -0.45349362 -0.597392 -0.19557585 -0.33528787 -0.2954352 -0.5937202 -0.14924024
0.12508109 -0.04412853 -0.4594347 0.13362037 -0.23659998 -0.41791528 -0.3382501 -0.47475636
-0.21878295 -0.09066593 -0.1470388 -0.0077205454 -0.32523465 0.2641381 -0.48020253 -0.40146878
-0.1005276 -0.05532509 -0.24965687 -0.24117313 -0.29654524 -0.10606008 -0.1783813 -0.12249274
-0.19297238 -0.107723504 -0.35985434 0.010450771 -0.09734098 -0.13159859 -0.053476244 -0.09726799
-0.11980425 -0.2431702 0.07367069 -0.21180798 -0.8973508 -0.45629245 -0.6357197 0.09159768
-0.2281944 -0.11986044 -0.15501505 -0.27308273 -0.47828817 -0.27110958 -0.26554117 -0.34926647
-0.22490808 -0.15546769 0.09053298 -0.017845074 -0.29853082 -0.4501517 -0.12885515 0.023295263
-0.27566618 -0.23420782 -0.12632705 -0.2831869 -0.00031674505 -0.39728072 -0.16129006 -0.10293858
0.20889345 -0.20197812 -0.09701747 -0.1133595 -0.15236567 -0.2856958 -0.13014886 -0.2595689
-0.35035715 -0.27079093 -0.14695863 -0.22628537 -0.24500006 -0.65115386 -0.55633795 -0.37303954
-0.2759671 -0.16188447 0.09552361 -0.11071341 0.21589313 -0.21680516 -0.21569078 -0.08837172
-0.27432898 -0.26915604 -0.007466662 -0.45043686 0.027349016 -0.27460948 -0.18300377 -0.09965909
-0.2975489 -0.31184188 -0.14509848 -0.36367044 -0.09323098 -0.36006415 -0.5223567 -0.091174394
-0.26094505 -0.23492713 -0.09065019 -0.16083466 -0.11353535 -0.056761704 -0.051396083 -0.09412429
0.063358635 -0.3908776 -0.09154909 -0.13754715 -0.17317112 -0.15959024 0.1385265 0.07877547
0.17360076 -0.33351314 -0.30112663 -0.11218707 -0.1470266 -0.054587577 -0.5163874 0.017139684
-0.022598328 -0.05721813 -0.38941318 0.04456497 -0.16641048 -0.1127366 -0.28622305 -0.31154826
-0.12617 -0.13101232 -0.115768135 0.061565235 -0.15702602 0.11816352 -0.46098217 -0.12656164
4.495414e-05 -0.07580082 0.037134703 -0.29265228 -0.03630384 -0.00840616 0.05882167 0.3316515
-0.18331894 -0.08984214 -0.2948357 -0.049291097 -0.043114364 -0.034504347 -0.04940841 -0.022893148
0.07279865 -0.17468399 -0.019036949 -0.15696888 -0.5399721 0.04195971 -0.28367487 -0.07897312
-0.06070324 0.2931486 -0.004745611 0.05664944 -0.16552512 -0.0655586 -0.33286998 -0.20687704
0.11646731 -0.16130053 0.11059317 -0.17320439 0.2594865 -0.12039281 0.026607629 -0.06960331
-0.16482891 0.0704275 -0.028351478 -0.17145519 -0.07214375 0.05509084 -0.02656984 0.08159529
0.27695167 -0.08964773 -0.17285547 0.020834053 -0.07863793 -0.12195154 0.011923577 0.0031358665
-0.14705235 -0.2724874 -0.1583908 -0.13992126 -0.17968677 -0.030382894 -0.3282879 -0.28016424
-0.19046263 -0.028356215 0.08738932 -0.14287986 0.13304682 0.03961387 -0.12838301 0.01241315
-0.14393897 0.16699466 0.08049584 -0.19517274 -0.12116965 -0.11263229 -0.07383673 -0.02808065
-0.23400648 0.28514814 0.08878799 -0.41729122 -0.22084916 -0.180781 -0.36585128 -0.20222858
00000000: 7a97 acbe d3ec dcbe 5b13 f8bd 1fbe 13be
00000010: 91d4 55be 3222 9cbe 7ba0 b9be 0e35 1abe
00000020: 200a 8ebe c6ba 21bf 48d5 b63d 5ba4 cfbd
00000030: ed55 03be 2840 8dbe efcb 1ebe ce2d afbe
00000040: ea75 953d 5130 e8be afee 18bf 0945 48be
00000050: daaa abbe 4843 97be 0cfe 17bf 6fd2 18be
00000060: 4215 003e 1ec0 34bd 063b ebbe c7d3 083e
00000070: 4447 72be fef8 d5be 1e2f adbe 4413 f3be
00000080: a308 60be 0faf b9bd 5791 16be a1fc fcbb
00000090: 2885 a6be 1c3d 873e 1bdd f5be 518d cdbe
000000a0: 6ae1 cdbd 909c 62bd 0da6 7fbe 17f6 76be
000000b0: c7d4 97be 0736 d9bd 96a9 36be 79dd fabd
000000c0: 8d9a 45be 249e dcbd d43e b8be b639 2b3c
000000d0: b55a c7bd c8c1 06be e809 5bbd 7134 c7bd
000000e0: ee5b f5bd 9c01 79be a9e0 963d 31e4 58be
000000f0: c8b8 65bf 2a9f e9be 87be 22bf 9097 bb3d
00000100: cbab 69be 6479 f5bd 44bc 1ebe 80d1 8bbe
00000110: 30e2 f4be e0ce 8abe 03f5 87be 0ed3 b2be
00000120: 4e4e 66be ec32 1fbe 5b69 b93d d52f 92bc
00000130: 08d9 98be 497a e6be 9bf2 03be b5d5 be3c
00000140: 1e24 8dbe 2dd4 6fbe e15b 01be e0fd 90be
00000150: cd10 a6b9 6168 cbbe 3929 25be 76d1 d2bd
00000160: 2ae8 553e 5ad3 4ebe 18b1 c6bd 0729 e8bd
00000170: bf05 1cbe b846 92be be45 05be 37e6 84be
00000180: 0362 b3be 1ca5 8abe 537c 16be 5ab7 67be
00000190: 4ce1 7abe 05b2 26bf 2a6c 0ebf 0aff bebe
000001a0: 8f4b 8dbe 0bc5 25be e2a1 c33d b6bd e2bd
000001b0: 1713 5d3e 2c02 5ebe 0bde 5cbe 3bfc b4bd
000001c0: d974 8cbe d2ce 89be e7aa f4bb a99f e6be
000001d0: 0b0b e03c 9d99 8cbe 5765 3bbe 111a ccbd
000001e0: 5458 98be bda9 9fbe b294 14be 0333 babe
000001f0: e2ef bebd 545a b8be 2bb9 05bf a4b9 babd
00000200: 979a 85be bd90 70be cfa6 b9bd d7b1 24be
00000210: 3985 e8bd f67e 68bd b384 52bd 3cc4 c0bd
00000220: 2cc2 813d 1c21 c8be 177e bbbd 29d9 0cbe
00000230: c553 31be a06b 23be e4d9 0d3e 0955 a13d
00000240: 66c4 313e 3cc2 aabe 452d 9abe 56c2 e5bd
00000250: 248e 16be 3997 5fbd f731 04bf 8668 8c3c
00000260: 2120 b9bc 8f5d 6abd 2a61 c7be c289 363d
00000270: 8267 2abe 72e2 e6bd d48b 92be 4183 9fbe
00000280: b532 01be 1828 06be d817 edbd d42b 7c3d
00000290: 6ecb 20be b7ff f13d db05 ecbe 6099 01be
000002a0: 248d 3c38 763d 9bbd 8f1a 183d 85d6 95be
000002b0: 56b3 14bd feb9 09bc feee 703d 3ace a93e
000002c0: f6b7 3bbe 28ff b7bd b4f4 96be 76e5 49bd
000002d0: b098 30bd 6e54 0dbd 7960 4abd 698a bbbc
000002e0: 7517 953d 5ce0 32be 60f3 9bbc 73bc 20be
000002f0: 9d3b 0abf f2dd 2b3d d53d 91be a9bc a1bd
00000300: f6a3 78bd 9317 963e 1281 9bbb 3e09 683d
00000310: 6b7f 29be 9643 86bd ef6d aabe 93d7 53be
00000320: 6a86 ee3d f72b 25be ac7e e23d 7e5c 31be
00000330: 6adb 843e 8190 f6bd 3ef8 d93c 2e8c 8ebd
00000340: e9c8 28be 4b3c 903d 5c41 e8bc f391 2fbe
00000350: 1ac0 93bd efa6 613d fea8 d9bc 6e1b a73d
00000360: 9ccc 8d3e 3b99 b7bd 0601 31be 2dac aa3c
00000370: ec0c a1bd bbc1 f9bd 1b5b 433c 1c83 4d3b
00000380: e494 16be 7883 8bbe 3331 22be 8547 0fbe
00000390: cfff 37be 8ce5 f8bc 5a15 a8be b071 8fbe
000003a0: a308 43be 4b4b e8bc 2cf9 b23d 194f 12be
000003b0: 6d3d 083e 2742 223d d676 03be 8660 4b3c
000003c0: bd64 13be a600 2b3e 01db a43d 5ddb 47be
000003d0: cb27 f8bd c2ab e6bd b637 97bd 6409 e6bc
000003e0: 659f 6fbe f0fe 913e 7ad6 b53d 32a7 d5be
000003f0: 4826 62be a81e 39be dc50 bbbe 0215 4fbe

lstm.bias_hh_l0 f4 [512]
-0.3614046 -0.452902 -0.17376448 -0.044064984 -0.22726864 -0.2884928 -0.29216126 -0.12995678
-0.30381694 -0.72921383 0.11505828 -0.15424709 -0.13311054 -0.3694417 -0.10857654 -0.4693404
0.048076052 -0.3912565 -0.6047479 -0.34614316 -0.28170466 -0.24734674 -0.6944681 -0.16289626
0.08771314 0.006324433 -0.46899033 0.0046883444 -0.3071964 -0.38894525 -0.3890571 -0.5889728
-0.18508162 -0.08060417 -0.15773925 -0.031837765 -0.42364264 0.30033195 -0.56894904 -0.5068052
-0.19438183 -0.09405628 -0.09764968 -0.36697355 -0.24850835 -0.18770374 -0.17275593 -0.15334497
-0.27400607 -0.15253267 -0.3291944 -0.034415565 0.045276746 -0.12121547 -0.09446417 -0.084422626
-0.11880213 -0.33274242 0.10420128 -0.12828703 -0.8093818 -0.3969993 -0.65660816 0.025987275
-0.25223437 -0.018980531 -0.06255982 -0.19841349 -0.44794136 -0.19061029 -0.30775723 -0.31515428
-0.07192726 -0.18199304 0.17691185 -0.11536691 -0.23585443 -0.4745879 -0.03549835 -0.07318404
-0.29406285 -0.2194949 -0.10979474 -0.31461185 -0.020332402 -0.45183358 -0.074323736 0.032730173
0.17447336 -0.1853312 -0.18683918 -0.08884711 -0.20261791 -0.18626566 -0.07458011 -0.27726185
-0.40888453 -0.4113568 -0.24173456 -0.22100674 -0.22464757 -0.6688592 -0.44305328 -0.3450501
-0.14706533 -0.2744394 0.0070602274 -0.20168759 0.22749221 -0.17283697 -0.24542315 -0.19997153
-0.3296522 -0.22739759 -0.007198098 -0.52587736 -0.07693755 -0.25219566 -0.19970371 -0.11193391
-0.2970153 -0.3464805 -0.104048006 -0.40324134 -0.1571048 -0.3086343 -0.51852965 -0.20266843
-0.3594496 -0.17659295 -0.02429571 -0.012092457 -0.13631488 -0.10953615 -0.046937503 -0.002494863
-0.037541423 -0.38996932 -0.066637926 -0.2054745 -0.17365965 -0.20048963 0.20869252 0.08174912
0.0941446 -0.37015358 -0.3954863 -0.06359753 -0.084737785 -0.18256016 -0.5156883 0.15856105
-0.027771764 -0.1102101 -0.37214497 0.052670337 -0.16424648 -0.21195163 -0.18932538 -0.25772673
-0.08418999 -0.108238705 -0.024390204 0.029772097 -0.20571984 0.04709362 -0.55797577 -0.072928205
-0.04040994 0.053554222 -0.079267964 -0.20433982 -0.01842839 0.018906046 0.025518602 0.33119816
-0.067514665 -0.20133352 -0.2463927 -0.10018888 0.04497908 -0.13654645 -0.07514521 -0.022483159
-0.027796283 -0.089174025 -0.14984646 -0.09521328 -0.65601826 -0.029782707 -0.39035645 -0.06872618
-0.03138039 0.30908397 -0.11844315 0.074818574 -0.2813453 -0.13135949 -0.2508562 -0.110189095
0.03545904 -0.31150293 0.07397412 -0.15689282 0.2959628 -0.10022971 -0.13975677 -0.12566923
-0.16251129 0.08097511 -0.033464845 -0.15534097 0.012233479 -0.06306974 0.087400325 0.094799146
0.22905959 0.012102977 -0.09880195 -0.030918075 -0.10254914 -0.1602571 0.13576692 0.01639396
-0.09863969 -0.19561438 -0.048756372 -0.122993745 -0.120636955 -0.14589024 -0.32716724 -0.14466943
-0.18178008 -0.025951665 0.083614595 -0.12288902 0.13769169 0.01067889 -0.06981288 0.0697889
-0.18850791 0.05906088 0.03448252 -0.27863362 0.03238713 -0.058594573 -0.018099714 -0.11791013
-0.15793115 0.32519615 0.033966266 -0.48103794 -0.25147057 -0.19017352 -0.25273085 -0.17838533
00000000: 060a b9be c5e2 e7be 51ef 31be 7c7d 34bd
00000010: 1cb9 68be 54b5 93be 2996 95be 6413 05be
00000020: e58d 9bbe c2ad 3abf ada3 eb3d f3f2 1dbe
00000030: 214e 08be 7627 bdbe 615d debd 634d f0be
00000040: 65eb 443d c652 c8be c2d0 1abf ad39 b1be
00000050: 983b 90be 7748 7dbe a9c8 31bf 47ce 26be
00000060: f2a2 b33d 303d cf3b 801f f0be afa0 993b
00000070: d948 9dbe d523 c7be 7e32 c7be ecc6 16bf
00000080: 0986 3dbe cd13 a5bd 6686 21be 5168 02bd
00000090: b0e7 d8be 1cc5 993e a5a6 11bf fcbd 01bf
000000a0: 080c 47be 94a0 c0bd 8efc c7bd f5e3 bbbe
000000b0: f978 7ebe 6935 40be eee6 30be 7706 1dbe
000000c0: 864a 8cbe 8631 1cbe 2b8c a8be 56f7 0cbd
000000d0: 1c74 393d d13f f8bd 6e76 c1bd c5e5 acbd
000000e0: 884e f3bd 375d aabe 7b67 d53d ad5d 03be
000000f0: a533 4fbf 7e43 cbbe 7917 28bf 44e3 d43c
00000100: dd24 81be 0f7d 9bbc 5d1f 80bd e82c 4bbe
00000110: 9258 e5be 582f 43be 5b92 9dbe e75b a1be
00000120: 994e 93bd 625c 3abe 6128 353e 7d45 ecbd
00000130: d383 71be 2ffd f2be b866 11bd 84e1 95bd
00000140: 688f 96be 45c3 60be 11dc e0bd ce14 a1be
00000150: 2390 a6bc bb56 e7be 0b37 98bd 1310 063d
00000160: 25a9 323e 76c7 3dbe c552 3fbe 79f5 b5bd
00000170: 127b 4fbe 6dbc 3ebe 75bd 98bd 44f5 8dbe
00000180: 5059 d1be 5c9d d2be 4489 77be 974f 62be
00000190: 030a 66be 5b3a 2bbf e1d7 e2be 68aa b0be
000001a0: 4b98 16be 5283 8cbe 7b59 e73b 3187 4ebe
000001b0: b8f3 683e 2dfc 30be 3550 7bbe 56c5 4cbe
000001c0: 2cc8 a8be eada 68be 06de ebbb e69f 06bf
000001d0: 6f91 9dbd ca1f 81be 217f 4cbe 9b3d e5bd
000001e0: 6412 98be e465 b1be 1f17 d5bd a675 cebe
000001f0: 15e0 20be 5105 9ebe 5cbe 04bf 5088 4fbe
00000200: c709 b8be c8d4 34be cc07 c7bc 711f 46bc
00000210: 2196 0bbe 7d54 e0bd 8a41 40bd db80 23bb
00000220: 09c5 19bd 0faa c7be 7779 88bd e867 52be
00000230: d6d3 31be 274d 4dbe 7eb3 553e 156c a73d
00000240: e2ce c03d c584 bdbe 2e7d cabe 6c3f 82bd
00000250: 018b adbd 0df1 3abe 2604 04bf d45d 223e
00000260: 9c81 e3bc d5b5 e1bd c989 bebe dabc 573d
00000270: 3b30 28be d909 59be 83de 41be c2f4 83be
00000280: cd6b acbd 41ac ddbd f7cd c7bc 9de4 f33c
00000290: 39a8 52be 3de5 403d 80d7 0ebf 625b 95bd
000002a0: e584 25bd ac5b 5b3d 3e57 a2bd 753e 51be
000002b0: 23f7 96bc dae0 9a3c 630c d13c ce92 a93e
000002c0: 2145 8abd 602a 4ebe 5e4e 7cbe d42f cdbd
000002d0: fc3b 383d d5d2 0bbe bbe5 99bd 9a2e b8bc
000002e0: 08b5 e3bc dfa0 b6bd 5a71 19be 2eff c2bd
000002f0: d0f0 27bf ddfa f3bc cddc c7be 50c0 8cbd
00000300: b988 00bd 4140 9e3e 5292 f2bd 7b3a 993d
00000310: 7e0c 90be 1a83 06be 3970 80be d2aa e1bd
00000320: 803d 113d 507d 9fbe be7f 973d 83a8 20be
00000330: 7088 973e 3c45 cdbd 661c 0fbe 6faf 00be
00000340: 5c69 26be 47d6 a53d 6f12 09bd b411 1fbe
00000350: ee6e 483c b52a 81bd f1fe b23d 0e26 c23d
00000360: 998e 6a3e 914b 463c ad58 cabd e747 fdbc
00000370: 4905 d2bd 701a 24be 7c06 0b3e a04c 863c
00000380: 9b03 cabd 234f 48be c3b4 47bd 25e4 fbbd
00000390: 8210 f7bd 4064 15be 7782 a7be 3924 14be
000003a0: 8f24 3abe 9698 d4bc 213e ab3d 3dad fbbd
000003b0: 0dff 0c3e 83f6 2e3c 0efa 8ebd 7ced 8e3d
000003c0: 3808 41be d2e9 713d 8b3d 0d3d 11a9 8ebe
000003d0: 5ea8 043d dd00 70bd da45 94bc de7a f1bd
000003e0: b4b8 21be 1c80 a63e 3620 0b3d 9b4a f6be
000003f0: c0c0 80be d9bc 42be f065 81be a5aa 36be

fc.weight f4 [4, 128]
0.41956666 -0.20989704 1.3176708 0.6782159 0.56841785 -1.735356 -0.233799 -0.6804417
-1.2652552 0.42745256 0.70949286 -0.5050382 -0.4242192 -1.0125257 0.04748485 0.6776769
-0.9179831 -0.6080659 -0.46773404 -0.35797325 -0.39899564 0.08918334 0.8812679 -1.023742
-0.5388855 -0.33622372 -0.0132329 -0.25102422 0.888717 -0.8840663 0.45880017 1.4710503
0.5015065 0.7411141 -0.46241578 0.1686684 0.2746109 -0.6015749 0.9289982 0.5966878
0.99539727 0.59678376 0.5696976 0.97974175 -0.46132576 0.39398593 1.8705806 2.489257
-0.7181955 -0.5323384 -0.13189 0.3634977 0.6465829 1.6267678 0.36016846 1.2172066
0.6603745 0.06120375 -0.53378147 -0.41124588 0.7726509 -0.39598426 -0.22698598 0.016441144
0.9990072 0.9056961 0.62204516 0.804605 0.077357695 -0.61277753 -1.0633901 0.11028624
-0.083507136 0.33313328 0.80786747 0.2106558 0.33514994 -0.34161833 0.6021826 -0.5059448
-0.21346761 -0.85917544 -0.5775939 0.18068579 -0.63009435 0.40405366 -1.5723069 -0.6361561
-0.66260284 2.5372298 -0.49813795 0.3448768 0.42300054 -0.1794553 -0.031692374 0.32125098
-0.39504826 -0.82844085 -0.11189337 0.8901921 -0.6008996 -0.2487292 -0.008387679 0.8605202
0.35900488 0.6483815 -0.94159764 0.6439704 -2.0556173 0.93977547 -0.34549823 0.38509825
1.1812149 -0.92631686 -0.5370883 -0.24378715 -0.461477 0.51839095 -0.05856435 -0.30379736
0.7320385 -0.8364073 -0.87686706 -1.0965575 0.6013353 0.11827771 0.4175307 1.5324762
-0.23257096 -0.20557174 -0.10512616 -0.12078134 -0.2971834 0.1290528 0.23068137 0.07470308
0.25988403 0.037620503 -0.26642847 -0.323227 0.16388632 0.44849113 -0.20668434 -0.26650867
0.10456528 -0.02238989 -0.06584207 0.33497518 -0.0005083625 -0.10274515 -0.58943737 0.10933782
0.2053492 0.24388371 -0.10982724 0.15701403 0.00023362975 0.1437878 -0.0530044 -0.17389195
-0.07364751 -0.08777835 0.40463254 -0.1395068 0.07557155 0.3232598 -0.42038167 -0.18796685
-0.12112698 -0.21885757 -0.24837716 -0.19088407 0.37550732 -0.33153105 -0.17446159 0.029997652
-0.03190118 0.2294743 0.103926145 -0.0215136 -0.31159306 0.20798643 -0.117094085 -0.08652132
-0.17276496 0.3196125 0.05619947 0.016125824 -0.19271274 -0.231585 0.108752586 0.17673714
-0.11422363 0.1439354 -0.15113395 0.14828907 -0.52417487 -0.082001224 0.15934615 -0.040006794
0.06673734 -0.018871022 -0.29407054 -0.092468664 -0.32519937 0.041885316 -0.033905428 0.0643703
0.15763415 0.060486414 0.17328459 -0.4692225 0.13368328 0.10112434 -0.13200282 -0.023103423
0.06392265 -0.13388565 -0.05868336 -0.02640356 -0.20413813 0.009735903 -0.07679624 0.07501631
0.2690434 0.09656307 -0.019728301 -0.17329305 0.29046595 0.006912607 0.034060355 -0.30444664
-0.16011722 -0.06319162 0.29468518 -0.27182618 0.18242802 0.16427714 0.28982744 -0.03635448
0.04200912 0.1064765 0.14628938 0.1624744 0.27819017 -0.11313594 -0.15797582 0.20872353
-0.8805243 0.25078532 0.10690239 0.63779783 -0.27441466 -0.1248371 -0.016252453 -0.15703352
00000000: 71d1 d63e 40ef 56be 70a9 a83f 8f9f 2d3f
00000010: d583 113f 2520 debf 0169 6fbe 6d31 2ebf
00000020: e2f3 a1bf 10db da3e 53a1 353f 2f4a 01bf
00000030: 4233 d9be 719a 81bf 797f 423d 3c7c 2d3f
00000040: f100 6bbf 35aa 1bbf d67a efbe 4548 b7be
00000050: 2849 ccbe c1a5 b63d c69a 613f fa09 83bf
00000060: 66f4 09bf 8425 acbe cece 58bc 3f86 80be
00000070: f582 633f 2b52 62bf dbe7 ea3e 604b bc3f
00000080: bb62 003f a7b9 3d3f c3c1 ecbe 69b7 2c3e
00000090: cd99 8c3e d000 1abf d3d2 6d3f 88c0 183f
000000a0: 5bd2 7e3f d2c6 183f b4d7 113f 5bd0 7a3f
000000b0: e432 ecbe 86b8 c93e 2f6f ef3f fd4f 1f40
000000c0: a9db 37bf 5447 08bf 2c0e 07be 5f1c ba3e
000000d0: 7586 253f ed39 d03f 0068 b83e 6dcd 9b3f
000000e0: 4e0e 293f c9b0 7a3d e7a5 08bf d28e d2be
000000f0: 73cc 453f 73be cabe 036f 68be 94af 863c
00000100: f0be 7f3f b3db 673f 5a3e 1f3f 98fa 4d3f
00000110: b66d 9e3d fdde 1cbf 2b1d 88bf c1dd e13d
00000120: ca05 abbd 7290 aa3e 67d0 4e3f 27b6 573e
00000130: c698 ab3e 99e8 aebe a428 1a3f 9985 01bf
00000140: 4197 5abe ecf2 5bbf 32dd 13bf b205 393e
00000150: dd4d 21bf 1fe0 ce3e 5a41 c9bf 20db 22bf
00000160: 57a0 29bf f961 2240 f00b ffbe b193 b03e
00000170: 8793 d83e 21c3 37be ddcf 01bd 027b a43e
00000180: c443 cabe b314 54bf 5a28 e5bd a1e3 633f
00000190: 8ed4 19bf deb2 7ebe 7a6c 09bc 0d4b 5c3f
000001a0: 7dcf b73e 54fc 253f 8b0c 71bf 3edb 243f
000001b0: 3c8f 03c0 2095 703f 25e5 b0be 992b c53e
000001c0: 0d32 973f 1a23 6dbf 9e7e 09bf 57a3 79be
000001d0: b746 ecbe 45b5 043f 2ce1 6fbd 548b 9bbe
000001e0: e066 3b3f ca1e 56bf 5c7a 60bf ff5b 8cbf
000001f0: 1cf1 193f 963b f23d 95c6 d53e 2e28 c43f
00000200: 1527 6ebe 6681 52be 624c d7bd 355c f7bd
00000210: 6c28 98be 6b26 043e bd37 6c3e eefd 983d
00000220: 850f 853e f517 1a3d 5069 88be 027e a5be
00000230: d1d1 273e a1a0 e53e 0fa5 53be d373 88be
00000240: 5226 d63d 016b b7bc 35d8 86bd de81 ab3e
00000250: a143 05ba 0d6c d2bd 5ee5 16bf 82ec df3d
00000260: 1047 523e a7bc 793e 1bed e0bd 49c8 203e
00000270: 82fa 7439 1c3d 133e 241b 59bd bb10 32be
00000280: 81d4 96bd 23c5 b3bd ff2b cf3e dfda 0ebe
00000290: 42c5 9a3d 4f82 a53e 443c d7be 627a 40be
000002a0: 6c11 f8bd 331c 60be 9556 7ebe 1d77 43be
000002b0: 7f42 c03e 70be a9be 0fa6 32be a3bd f53c
000002c0: d0aa 02bd 50fb 6a3e 3bd7 d43d 4a3d b0bc
000002d0: 2089 9fbe 65fa 543e 06cf efbd 1732 b1bd
000002e0: 4ce9 30be 40a4 a33e 6a31 663d 4e1a 843c
000002f0: 7d56 45be 9e24 6dbe adb9 de3d 95fa 343e
00000300: 14ee e9bd cd63 133e dcc2 1abe 17d9 173e
00000310: 5330 06bf 42f0 a7bd a32b 233e 2ade 23bd
00000320: 96ad 883d 6797 9abc 6a90 96be 3660 bdbd
00000330: 8880 a6be f08f 2b3d 6be0 0abd 93d4 833d
00000340: d96a 213e 9ac0 773d 8471 313e ee3d f0be
00000350: 45e4 083e 471a cf3d bf2b 07be 6443 bdbc
00000360: e1e9 823d 5219 09be f75d 70bd 474c d8bc
00000370: 9609 51be 5683 1f3c 5947 9dbd 27a2 993d
00000380: 0ec0 893e dcc2 c53d 3f9d a1bc bc73 31be
00000390: f4b7 943e 2683 e23b df82 0b3d 6ee0 9bbe
000003a0: c5f5 23be 9c6a 81bd fae0 963e cd2c 8bbe
000003b0: 69ce 3a3e 4438 283e 4364 943e 6fe8 14bd
000003c0: c111 2c3d 5a10 da3d e2cc 153e b05f 263e
000003d0: f16e 8e3e d1b3 e7bd 6ac4 21be 9fbb 553e
000003e0: 0a6a 61bf ef66 803e a4ef da3d b846 233f
000003f0: 1480 8cbe 98aa ffbd dd23 85bc 65cd 20be

fc.bias f4 [4]
-0.3180672 0.31242898 -0.05591229 0.12982498
00000000: b4d9 a2be b1f6 9f3e 4904 65bd d7f0 043e
