LSTM/Data_3/LSTM2/model.pth (torch, 275939 bytes, 6 tensors)

lstm.weight_ih_l0 f4 [512, 3]
0	0xbed54dcf	-0.41660926
1	0xbf42b97d	-0.7606428
2	0xbe83f11e	-0.25769895
3	0xbe6d0505	-0.23146446
4	0xbf49d10f	-0.78834623
5	0x3e3efc6c	0.18650979
6	0xbdffe147	-0.1249414
7	0xbdc5e193	-0.096621655
8	0x3e2c0b6d	0.16801234
9	0xbea1e9ac	-0.3162359
10	0x3edc9312	0.43080956
11	0xbcc356ff	-0.023845194
12	0xbf2009b6	-0.6251482
13	0x3dc11d88	0.09429461
14	0xbdc09ff2	-0.09405507
15	0xbd610c58	-0.054943413
16	0xbf4ddc97	-0.8041472
17	0xbdc0434e	-0.09387837
18	0xbe0545ea	-0.13014951
19	0xbf909483	-1.1295322
20	0xbe010fa5	-0.12603624
21	0xbf1d296f	-0.6139135
22	0xbf28b56c	-0.6590183
23	0xbee687be	-0.45025438
24	0xbe4f0e67	-0.20220338
25	0xbef30a76	-0.4746892
26	0xbef9f502	-0.4881974
27	0xbedcfb71	-0.43160585
28	0xbfba2b02	-1.4544375
29	0xbf445d9a	-0.76705325
30	0xbe7a72a9	-0.24457802
31	0xbf063bf6	-0.52435243
32	0x3e22eb4f	0.15910076
33	0xbeec853a	-0.46195394
34	0x3ee0690d	0.43830147
35	0xbe631f8b	-0.22180001
36	0x3e1d6d58	0.15373743
37	0xbe2a221e	-0.16614577
38	0x3ecea5b1	0.40360788
39	0xbee9b5ac	-0.45646417
40	0xbf0d488c	-0.5518882
41	0xbf3aadfd	-0.72921735
42	0x3db7eaa9	0.08980305
43	0xbf27fa21	-0.6561604
44	0xbf3f49f5	-0.74722224
45	0xbeae69ac	-0.34064996
46	0xbf288dce	-0.65841377
47	0xbee89631	-0.45427087
48	0xbe50af0b	-0.20379274
49	0xbfd96fbf	-1.6987227
50	0x3d5e2291	0.054232184
51	0xbf48d6d4	-0.784528
52	0xbf583ef3	-0.8447105
53	0xbf537204	-0.8259585
54	0xbed4ed9d	-0.41587535
55	0x3e9f851f	0.3115625
56	0xbe6c742b	-0.2309119
57	0xbe0a5e07	-0.13512431
58	0xbdd82dff	-0.10555648
59	0x3e42eee5	0.19036444
60	0xbed73d0f	-0.42038772
61	0xbf8aa0eb	-1.0830358
62	0xbe1eaa69	-0.15494694
63	0xbd906240	-0.0704999
64	0xbf7237fe	-0.9461669
65	0xbe5be85c	-0.21475357
66	0xbcef3791	-0.0292013
67	0x3f707f89	0.93944603
68	0x3e82e67c	0.2556647
69	0x3d393f18	0.045226187
70	0xbdec87c6	-0.11549334
71	0xbf4c6c19	-0.79852444
72	0xbb769c09	-0.0037629625
73	0x3dde8454	0.10865083
74	0xbf8d769b	-1.105182
75	0xbf19fb86	-0.6014942
76	0xbf514f7f	-0.81761926
77	0xbed4f8ff	-0.4159622
78	0xbed41c5d	-0.4142789
79	0x3efd0d2a	0.49424106
80	0xbee57ee1	-0.44823363
81	0xbe95a746	-0.29229182
82	0xbf735fd0	-0.95068073
83	0xbecde24f	-0.40211722
84	0xbe8b1412	-0.2716375
85	0xbf049e29	-0.51803833
86	0xbe9b37f0	-0.30316114
87	0xbe34ddf6	-0.17662796
88	0xbe1ba967	-0.1520134
89	0xbf5d4aa9	-0.8644205
90	0xbeb53ebd	-0.35399428
91	0xbe9ecf8a	-0.31017715
92	0xbdc5c762	-0.0965717
93	0xbf2a157a	-0.6643902
94	0x3d5419f5	0.051782567
95	0xbe8b7b8e	-0.27242702
96	0xbdc8c1bd	-0.09802578
97	0x3d8abbaf	0.06774079
98	0x3e3ee5b5	0.18642314
99	0xbebff84c	-0.37494123
100	0xbe3f7d97	-0.18700252
101	0xbe8a60d7	-0.27027008
102	0xbec5df23	-0.38646802
103	0x3e9272dc	0.28603256
104	0xbf0b8f78	-0.5451579
105	0xbe2b828d	-0.1674902
106	0xbe5bc3e7	-0.2146145
107	0xbea9c196	-0.33155507
108	0xbe1e7ae3	-0.15476565
109	0xbf824dd1	-1.0179998
110	0x3e83ebc3	0.2576581
111	0xbdbd24a3	-0.092355035
112	0x3f04483b	0.51672715
113	0x3d17fed9	0.037108276
114	0xbf1d79bf	-0.61513895
115	0xbf4fb5c7	-0.81136745
116	0xbfad4d6b	-1.3539251
117	0xbe488490	-0.19581819
118	0xbf5556c3	-0.8333551
119	0x3cca6e4e	0.0247108
120	0xbe256d2e	-0.1615493
121	0xbeeb6bdf	-0.45980737
122	0xbee760be	-0.45190996
123	0xbf1e03bf	-0.61724466
124	0xbf1cc2be	-0.61234653
125	0xbf18297e	-0.5943831
126	0xbeade3d3	-0.3396288
127	0xbf1228af	-0.5709333
128	0xbed4880d	-0.41510049
129	0xbf04c94b	-0.5186965
130	0xbedcbec4	-0.43114293
131	0xbf1a0ead	-0.60178643
132	0xbe9a9d5b	-0.30198178
133	0xbda16c04	-0.078819305
134	0xbc306d02	-0.010768177
135	0xbf1a6d62	-0.60323155
136	0xbf9fa191	-1.2471181
137	0xbe9af64d	-0.30266038
138	0xbecbdad8	-0.39815402
139	0xbf2392ff	-0.63896173
140	0xbeab1f89	-0.33422497
141	0xbe37985b	-0.17929213
142	0xbe8b4b9c	-0.27206123
143	0xbf08e201	-0.53469855
144	0xbe28000d	-0.1640627
145	0x3e443213	0.19159727
146	0x3eea1c61	0.45724776
147	0xbe85e40b	-0.26150545
148	0xbe8daf24	-0.27672684
149	0x3e6deae4	0.23234135
150	0xbe8ff56b	-0.28116927
151	0x3e8d6bc7	0.2762129
152	0x3e93b537	0.28849193
153	0xbf469b03	-0.7758028
154	0xbf2b3852	-0.6688281
155	0xbf368355	-0.71294147
156	0xbf6c08ef	-0.9220113
157	0xbf7a960d	-0.9788521
158	0xbf5cadfd	-0.86202985
159	0xbe55d682	-0.2088261
160	0xbe9624d9	-0.29324988
161	0x3ea47e6a	0.32127696
162	0xbc66ce6a	-0.014087299
163	0xbfa1ac83	-1.2630771
164	0xbe846ca0	-0.25864124
165	0xbea730b9	-0.3265436
166	0xbf856aa0	-1.0423164
167	0xbf1eb05e	-0.61987865
168	0xbed669a3	-0.4187747
169	0xbde2d6bc	-0.110761136
170	0xbe90ab32	-0.28255612
171	0xbedf1d43	-0.43577012
172	0xbf73a78d	-0.9517754
173	0xbf36284b	-0.7115523
174	0xbf35a638	-0.70956755
175	0xbf3ad76a	-0.72984946
176	0xbf5aa835	-0.85412914
177	0xbca8ce1a	-0.02060609
178	0xbf979572	-1.1842482
179	0x3e528dcf	0.20561908
180	0xbe075eec	-0.13219804
181	0x3da3f445	0.08005575
182	0x3ddf713f	0.10910272
183	0xbec42b93	-0.38314494
184	0xbf1b05e6	-0.60555875
185	0xbeebf966	-0.46088713
186	0xbef6a6e2	-0.48174196
187	0xbefad86e	-0.48993248
188	0xbf19020d	-0.59768754
189	0xbebafc54	-0.36520636
190	0x3ecf7243	0.40516862
191	0xbea842d9	-0.328635
192	0xbe671b9e	-0.22569129
193	0xbe11b0d5	-0.14227612
194	0xbec03764	-0.3754226
195	0x3f14b86a	0.58093894
196	0xbd2d6c8e	-0.042339854
197	0x3e6516f1	0.22372033
198	0xbf0930d2	-0.5359012
199	0xbf2a37bb	-0.6649129
200	0xbf2baa59	-0.67056805
201	0xbe194272	-0.14966753
202	0xbf608c7f	-0.8771438
203	0xbe3c709d	-0.18402334
204	0xbe9920e5	-0.2990791
205	0xbe938b81	-0.2881737
206	0x3d82a518	0.063791454
207	0xbf3c30e1	-0.73512083
208	0xbf4c797c	-0.7987287
209	0xbe26a8ae	-0.16275284
210	0xbeea9648	-0.4581778
211	0xbf95b2c2	-1.1695178
212	0xbed3540b	-0.41275057
213	0xbee88f6c	-0.45421922
214	0xbec2d78c	-0.38055074
215	0xbf6c34d2	-0.922681
216	0xbe419efa	-0.18908301
217	0x3ef9ecc1	0.4881344
218	0xbe015ec8	-0.12633812
219	0xbe0688aa	-0.1313807
220	0xbe5ed01e	-0.21759078
221	0xbef88564	-0.4853927
222	0xbec8f2af	-0.39247653
223	0xbf81571f	-1.0104712
224	0xbbb3cc3d	-0.0054869936
225	0x3d89f9ba	0.06737085
226	0xbe83019a	-0.2558716
227	0xbef0a5bb	-0.47001442
228	0xbdda6ddf	-0.106654875
229	0x3f6364c5	0.8882564
230	0xbe80be9c	-0.25145423
231	0xbecbd041	-0.39807323
232	0xbf9329e4	-1.1497159
233	0xbf1e43b4	-0.61822057
234	0xbf07a3d1	-0.5298434
235	0xbf6eaf8c	-0.93236613
236	0xbef0aad5	-0.47005334
237	0xbe988e8b	-0.29796252
238	0xbf27d262	-0.65555394
239	0xbf15acb3	-0.58466643
240	0x3ecf234d	0.4045662
241	0x3eb5ec6c	0.35531938
242	0xbd31eae6	-0.043436907
243	0x3e60b66e	0.21944591
244	0x3f276520	0.6538868
245	0xbdfdf0d2	-0.123994485
246	0xbd19aa73	-0.03751607
247	0xbe02d6c0	-0.12777233
248	0x3e9c05b4	0.304731
249	0xbe83d53e	-0.25748628
250	0xbf0e87d3	-0.55676
251	0xbf1b5c04	-0.6068728
252	0xbe45217e	-0.19251058
253	0xbfa6c4a5	-1.3028761
254	0xbef56986	-0.4793207
255	0xbda1e881	-0.07905675

lstm.weight_hh_l0 f4 [512, 128]
0	0x3ad33cbb	0.0016116122
1	0x3ddf39a7	0.10899668
2	0x3dd7a577	0.10529607
3	0x3d82c53b	0.06385275
4	0xbe74f5ce	-0.23921892
5	0x3d3648b2	0.04450292
6	0xbe69f3aa	-0.22846857
7	0x3e39841d	0.18116803
8	0x3eb73bea	0.35787898
9	0x3e9f157f	0.31071088
10	0x3d6dd3e1	0.05806339
11	0xbe1b69b0	-0.15177035
12	0xbe97d750	-0.29656458
13	0x3e90dc5e	0.28293127
14	0xbec1f56b	-0.37882552
15	0x3d3b040b	0.045658153
16	0xbe77d1fe	-0.242012
17	0xbedcfad2	-0.4316011
18	0x3dba71ce	0.09103738
19	0xbeb2535b	-0.3482922
20	0xbe8665ec	-0.26249635
21	0x3ec3aac5	0.38216224
22	0xbe5cc2d6	-0.21558699
23	0x3eba0063	0.3632842
24	0xbd0a24b0	-0.033726394
25	0x3def268d	0.11677275
26	0xbe5e7923	-0.21725897
27	0xbe884a2d	-0.26619092
28	0xbdedd945	-0.116137065
29	0xbe9504cb	-0.2910522
30	0x3e0c43e3	0.13697772
31	0xbe501463	-0.20320277
32	0xbe5e0ffb	-0.21685784
33	0x3d5c4304	0.05377485
34	0x3e99174f	0.29900596
35	0x3e71b0bd	0.23602577
36	0xbe5058b0	-0.20346332
37	0x3e4518c1	0.19247724
38	0xbea8bf01	-0.32958224
39	0x3d720147	0.05908325
40	0x3f004432	0.5010406
41	0xbdea6333	-0.11444702
42	0x3ea7146e	0.32632774
43	0xbd222041	-0.03958154
44	0x3da26df3	0.079311274
45	0x3da3c890	0.07997239
46	0xbcd91009	-0.026496904
47	0xbe8da840	-0.27667427
48	0x3ebb8530	0.36625051
49	0x3e4c2075	0.19934256
50	0x3e86bf70	0.2631793
51	0xbdfa8974	-0.12233248
52	0xbdde9ed9	-0.108701415
53	0x3dcee14b	0.10101565
54	0x3eac9102	0.33704382
55	0xbc324ce4	-0.01088259
56	0xbec8fdb5	-0.39256063
57	0xbea48ed0	-0.32140207
58	0xbef48e3d	-0.4776477
59	0x3e95d692	0.29265267
60	0xbeb42c35	-0.35189977
61	0x3ef09276	0.4698674
62	0x3cf7f993	0.030270373
63	0x3e62d23a	0.22150508
64	0x3ed0136a	0.40639812
65	0xbebdfe7e	-0.37108225
66	0x3e14d89b	0.14535753
67	0xbe9ddbcd	-0.30831757
68	0xbe758f66	-0.23980483
69	0x3e52b6fc	0.20577615
70	0x3e128219	0.14307441
71	0xbe2fb23e	-0.17157838
72	0x3f13b5fd	0.5769957
73	0x3e0d5b27	0.13804303
74	0xbd2ee5c9	-0.04269961
75	0xbeed64bf	-0.46365926
76	0xbe770c9e	-0.24125907
77	0x3ecf8166	0.4052841
78	0xbdb46a9b	-0.08809396
79	0x3e3e2e36	0.18572316
80	0x3e72686f	0.23672651
81	0xbe54e293	-0.20789556
82	0xbe89a25a	-0.26881677
83	0x3db8dd31	0.09026564
84	0xbea8a99c	-0.32941902
85	0xbe264a01	-0.16239168
86	0xbe5e28c9	-0.21695246
87	0x3e801e3e	0.25023073
88	0x3c9b5bbb	0.018964639
89	0xbb7e22c5	-0.0038778048
90	0xbc2b55cb	-0.010457466
91	0x3d854f97	0.06509321
92	0xbef2bbc0	-0.47408867
93	0x3ec3540b	0.38150057
94	0xbda580f8	-0.080812395
95	0xbe351ace	-0.17686006
96	0x3e8b1d59	0.27170828
97	0x3d4945f1	0.049138967
98	0x3e568467	0.20948945
99	0xbe4748fa	-0.19461432
100	0x3ecab4c2	0.39591032
101	0xbf0d8992	-0.5528804
102	0xbd5b0fc9	-0.05348185
103	0xbe82b6f5	-0.2553021
104	0x3e3b5c75	0.18296988
105	0x3e160f96	0.14654383
106	0xbea8d4f6	-0.32974976
107	0x3e63ba50	0.22239041
108	0xbe444be0	-0.19169569
109	0x3c89f5ea	0.016840894
110	0xbe3849d2	-0.1799691
111	0xbdb22684	-0.086987525
112	0xbdeead24	-0.11654118
113	0x3df41586	0.11918168
114	0xbe743e4d	-0.23851891
115	0xbcdc3e40	-0.026885152
116	0x3e9b02e5	0.30275646
117	0xbe2282f5	-0.15870269
118	0x3eb8826a	0.36036998
119	0x3da518a8	0.080613434
120	0x3effeafa	0.4998396
121	0xbe3ef7de	-0.18649241
122	0x3e3a6c86	0.18205461
123	0xbdb64d05	-0.08901409
124	0x3bc00828	0.0058603473
125	0xbeabbe63	-0.3354369
126	0xbd1a87dc	-0.03772722
127	0xbc198076	-0.009369006
128	0xbe765f96	-0.240599
129	0xbcf5b944	-0.029995568
130	0x3e162ca4	0.14665467
131	0x3e9f4b3f	0.31112096
132	0x3d9aedf4	0.07564917
133	0x3ddb70ab	0.10714849
134	0x3a873b1f	0.0010317302
135	0x3d5d1ea3	0.053984296
136	0xbc9aa098	-0.018875405
137	0xbdd6daca	-0.104909495
138	0xbf5ce710	-0.86290073
139	0x3c92446e	0.017854895
140	0x3f036698	0.5132842
141	0xbd93546d	-0.07193837
142	0xbe9a0473	-0.3008152
143	0xbeaf3b44	-0.34224904
144	0x3e98cb65	0.29842678
145	0xbddea4dc	-0.10871288
146	0x3e12ff93	0.14355306
147	0xbd3b5ab9	-0.045740817
148	0x3e4f2e3d	0.20232482
149	0x3e033cb9	0.12816133
150	0xbe75561e	-0.23958632
151	0x3e1950dc	0.14972252
152	0x3bdd8d01	0.0067611937
153	0x3f4db73e	0.8035773
154	0x3e1d6755	0.1537145
155	0xbf17323d	-0.5906103
156	0x3e644e27	0.22295438
157	0xbf1a149e	-0.6018771
158	0x3d508dec	0.050916597
159	0x3d288aa3	0.04114784
160	0x3ece668e	0.40312618
161	0xbee861c4	-0.4538709
162	0xbd4f7f4a	-0.0506585
163	0x3eda183a	0.42596608
164	0x3e5fee1f	0.2186818
165	0xbe842a6f	-0.25813624
166	0xbef0849e	-0.4697618
167	0x3e674d25	0.22588022
168	0x3f374200	0.71585083
169	0xbd9d6ada	-0.07686396
170	0x3e3cec8f	0.18449615
171	0x3e9a6c60	0.3016081
172	0xbce7cc6c	-0.028295718
173	0x3d4a9585	0.049459
174	0x3e96d6b8	0.29460692
175	0x3cf91f96	0.03041057
176	0x3da23ef0	0.079221606
177	0xbd7f057d	-0.062261093
178	0xbdd3ea90	-0.103474736
179	0xbdb88a1a	-0.09010716
180	0x3e167215	0.14691956
181	0x3d98e024	0.074646264
182	0xbe172869	-0.14761509
183	0x3d51d55d	0.05122887
184	0xbd359aee	-0.044337206
185	0xbd9813e6	-0.0742567
186	0xbd4afdc9	-0.049558435
187	0xbc954ae9	-0.018224197
188	0x3ee85a94	0.45381606
189	0x3e9b03db	0.3027638
190	0x3e613fe4	0.21997029
191	0xbde9ffb2	-0.11425723
192	0xbdc7005e	-0.09716867
193	0x3e052c1f	0.13005112
194	0xbcd4ec10	-0.02599147
195	0x3e1c2f25	0.15252359
196	0xbd08e6a8	-0.033423096
197	0x3e032456	0.1280683
198	0xbec1cd21	-0.37851813
199	0xbec95c74	-0.3932835
200	0x3ea6398d	0.32465783
201	0x3d9ea4b3	0.07746258
202	0x3e75dfba	0.24011126
203	0xbe7abbfd	-0.24485774
204	0xbd6b2cac	-0.05741565
205	0x3bbde6af	0.005795322
206	0xbeabdbf3	-0.33566245
207	0x3e26f7be	0.16305444
208	0xbf04b30d	-0.5183571
209	0xbe207d8b	-0.15672891
210	0x3f237cb8	0.6386218
211	0xbe692cf5	-0.22771056
212	0x3de89de5	0.11358241
213	0x3eabd93c	0.33564174
214	0x3e49564b	0.19661824
215	0x3e062db0	0.13103366
216	0xbdabd609	-0.08390433
217	0xbdd3496d	-0.10316739
218	0xbe88294a	-0.26594
219	0x3eef51bb	0.46742043
220	0x3dca962c	0.09891924
221	0xbd719fe8	-0.05899039
222	0xbd723f90	-0.05914265
223	0x3f0e471f	0.5557727
224	0x3e1757ab	0.14779536
225	0xbc261c05	-0.010138516
226	0xbd35cfc0	-0.04438758
227	0x3e71f302	0.23627856
228	0xbdfc3ca6	-0.12316255
229	0xbdfbd95d	-0.12297318
230	0x3ea15708	0.31511712
231	0xbf0321ca	-0.51223433
232	0x3e775b3c	0.24155897
233	0x3d2e7b21	0.042597894
234	0x3d485654	0.048910454
235	0xbd5697c0	-0.052390814
236	0xbe0b2c03	-0.13591008
237	0x3d4bb9ee	0.049737863
238	0x3f3ad17e	0.7297591
239	0x3e525852	0.20541504
240	0x3e31e5c4	0.17372805
241	0xbe9246d3	-0.2856966
242	0xbe6ba859	-0.23013438
243	0x3e1f8b6c	0.15580529
244	0x3eff312d	0.49842206
245	0xbe775270	-0.24152541
246	0x3f32867f	0.69736475
247	0xbe5d6cf0	-0.21623588
248	0x3effe918	0.49982524
249	0x3ea52b39	0.3225954
250	0x3ed8f783	0.42376336
251	0xbe5207d7	-0.20510803
252	0xbe804a4f	-0.25056693
253	0x3dec3c8e	0.115349874
254	0x3c914002	0.017730717
255	0x3ec6caad	0.38826504

lstm.bias_ih_l0 f4 [512]
0	0xbed930b3	-0.42419967
1	0xbe5457d3	-0.20736627
2	0xbe030769	-0.12795796
3	0xbe9977a2	-0.29974085
4	0xbf132c11	-0.57489115
5	0xbdfba473	-0.122872256
6	0xbe400581	-0.187521
7	0xbf094c7b	-0.53632325
8	0xbea3a24c	-0.3195976
9	0xbeb6ca37	-0.35701153
10	0xbe665281	-0.2249241
11	0xbe8123f5	-0.25222746
12	0x3d8e7fcf	0.06957971
13	0xbef0ba01	-0.4701691
14	0x3c377646	0.011197632
15	0xbe6a369a	-0.22872391
16	0xbe99a4de	-0.30008596
17	0xbf4ee4a8	-0.8081765
18	0xbe63ca5a	-0.2224516
19	0xbc6bf8f7	-0.01440262
20	0xbea7b09a	-0.32751924
21	0xbd875862	-0.066086546
22	0xbc8e9e78	-0.017409548
23	0x3d3786f8	0.04480645
24	0xbc65c079	-0.01402294
25	0xbf1d355e	-0.61409557
26	0xbeca1400	-0.39468384
27	0xbe8a4ab7	-0.27010128
28	0xbe4f000e	-0.20214865
29	0xbe46a52d	-0.19398947
30	0xbe7fb7c4	-0.24972445
31	0xbf17b35f	-0.59258074
32	0xbdd6a37c	-0.10480401
33	0xbe9682c3	-0.29396638
34	0xbeb1d884	-0.347355
35	0xbdb94e00	-0.090480804
36	0xbda21573	-0.07914247
37	0xbd571385	-0.05250885
38	0xbf0142d3	-0.5049259
39	0xbe968efe	-0.2940597
40	0xbddc4bc9	-0.10756642
41	0xbf3c2e1c	-0.7350786
42	0xbef0d208	-0.4703524
43	0xbebb7cb3	-0.36618575
44	0xbebada41	-0.3649464
45	0xbf05dbfb	-0.5228879
46	0xbe5d09b7	-0.21585737
47	0xbe530fd3	-0.20611505
48	0xbde9dfce	-0.114196405
49	0xbe240b54	-0.16019946
50	0xbe1cb30a	-0.15302673
51	0xbf1d0702	-0.6133882
52	0xbf5abd0b	-0.85444707
53	0xbe22b648	-0.15889847
54	0x3cad42ec	0.021150075
55	0xbe734c10	-0.23759484
56	0xbef9b72d	-0.48772565
57	0xbf06756b	-0.52522916
58	0xbf22e2d7	-0.6362738
59	0xbd36c10b	-0.044617694
60	0xbe6a0de8	-0.22856867
61	0xbed960bb	-0.42456612
62	0xbf0eb135	-0.55739146
63	0xbe9e17f4	-0.3087765
64	0xbe1d5a08	-0.15366375
65	0x3ee64ceb	0.4498056
66	0xbf31b836	-0.6942171
67	0xbe425451	-0.18977477
68	0xbe0240fe	-0.12720105
69	0xbf14f8b3	-0.58191985
70	0xbec125d3	-0.3772417
71	0xbeda939a	-0.42690736
72	0xbe85468e	-0.2603039
73	0xbe1ffa7c	-0.15622896
74	0xbee9084b	-0.4551414
75	0xbcdae7d1	-0.026721867
76	0xbe051d01	-0.12999345
77	0xbebb012c	-0.36524332
78	0xbee35a58	-0.44404864
79	0xbec63a51	-0.38716367
80	0x3ed7d118	0.42151713
81	0x3e8cbb56	0.27486676
82	0x3d5520c8	0.052033216
83	0xbe615c9a	-0.22007981
84	0xbe2b929b	-0.16755144
85	0xbd767ec5	-0.06017949
86	0xbe2cc2eb	-0.1687123
87	0xbe352275	-0.17688926
88	0xbf25b55a	-0.64729846
89	0xbe18476f	-0.14871
90	0xbf08b1a9	-0.5339609
91	0xbed166c8	-0.40898728
92	0xbd6fa0d0	-0.058502972
93	0xbf09416b	-0.53615445
94	0xbf175fe5	-0.591307
95	0xbcbb96a9	-0.022898989
96	0x3e0189a1	0.12650158
97	0xbef6118e	-0.48060268
98	0xbf2af3db	-0.66778344
99	0x3bc97df7	0.0061490494
100	0x3defeb96	0.11714856
101	0xbef600f9	-0.48047617
102	0xbdcd2907	-0.10017591
103	0xbf0d9028	-0.5529809
104	0xbf341f0b	-0.7035987
105	0xbda786da	-0.08180018
106	0xbdca954a	-0.09891756
107	0xbe36d37e	-0.17854115
108	0x3d95dac4	0.07317117
109	0xbd185e4d	-0.037199307
110	0xbe6571d1	-0.22406699
111	0xbd314318	-0.043276876
112	0xbed0d71b	-0.40789112
113	0xbea937f3	-0.33050498
114	0xbe0960eb	-0.13415878
115	0xbd932d49	-0.07186372
116	0xbeb760ba	-0.35815984
117	0xbee0bff0	-0.43896437
118	0xbe63930f	-0.22224067
119	0xbeaf339e	-0.34219068
120	0xbe4c1403	-0.19929509
121	0x3df66ca5	0.12032441
122	0xbf0d978f	-0.55309385
123	0xbe8623b9	-0.2619913
124	0x3b6b9123	0.0035944663
125	0x3dafdba9	0.08586819
126	0xbf2e7c03	-0.68157977
127	0xbf1576e8	-0.5838456
128	0xbe923d9e	-0.28562635
129	0xbe566646	-0.20937452
130	0xbea2dc78	-0.3180883
131	0xbe144b4e	-0.14481851
132	0xbe2bf1e3	-0.16791491
133	0x3bb83780	0.0056218505
134	0xbe3344bf	-0.17506693
135	0xbeb782c0	-0.35841942
136	0xbeabfe09	-0.3359225
137	0xbe6809e1	-0.22660019
138	0xbd8cf3ad	-0.06882415
139	0xbebafaba	-0.36519414
140	0xbf04d4b4	-0.5188706
141	0xbe8d1842	-0.2755757
142	0x3d97102c	0.073761314
143	0xbe041a0b	-0.1290056
144	0x3d90d1dc	0.070712775
145	0xbf3f833f	-0.7480964
146	0xbe043b77	-0.12913309
147	0xbdf52d2c	-0.119715065
148	0xbebec21f	-0.37257478
149	0xbe5d6510	-0.21620584
150	0xbdc2bf98	-0.095092
151	0x3df1fc82	0.1181574
152	0x3f262b3a	0.6490971
153	0xbf50d193	-0.81569785
154	0xbdd30f5f	-0.10305666
155	0xbe86d9d7	-0.26338074
156	0xbe6c705e	-0.2308974
157	0x3daf5d74	0.08562747
158	0x3e5798dd	0.21054406
159	0xbe78844d	-0.24269219
160	0xbb50eb5d	-0.0031878569
161	0xbd0f28d5	-0.03495105
162	0xbed921e7	-0.42408678
163	0xbcac05db	-0.020998886
164	0x3ee9ad49	0.4564002
165	0x3e007f7b	0.1254863
166	0xbeab8696	-0.33501118
167	0xbe18a859	-0.1490797
168	0x3d18ae6b	0.037275713
169	0xbe71e237	-0.2362145
170	0x3dccfb82	0.10008909
171	0xbebdee53	-0.3709589
172	0x3ea806df	0.32817742
173	0xbf06d03b	-0.52661484
174	0xbe2a9218	-0.16657293
175	0xbeb909fa	-0.36140424
176	0x3e8e41c0	0.27784538
177	0x3e33be62	0.17553094
178	0x3c6d76f0	0.014493689
179	0xbf0339c6	-0.5126003
180	0xbf70bd47	-0.94038814
181	0xbde88742	-0.113539234
182	0xbd1af8b6	-0.037834845
183	0xbcdb8091	-0.026794704
184	0xbdee935a	-0.11649199
185	0xbf0041e1	-0.50100523
186	0xbef70162	-0.48243243
187	0x3e438fff	0.19097899
188	0xbf1ea89c	-0.6197603
189	0xbeb6f7c9	-0.3573592
190	0xbe977862	-0.29584032
191	0xbdb370d1	-0.087617524
192	0xbe1f2af6	-0.15543732
193	0xbdaa7764	-0.08323553
194	0xbe9e2be6	-0.30892867
195	0x3e296135	0.16540988
196	0x3ea21eb8	0.31664062
197	0xbeb9223d	-0.36158934
198	0xbe6a5ab5	-0.22886164
199	0xbeab554b	-0.3346351
200	0xbe0f8069	-0.14013828
201	0xbe4a9fc1	-0.19787504
202	0xbe2ab60b	-0.16671006
203	0xbd84f671	-0.064923175
204	0x3e36a855	0.17837651
205	0xbeae9103	-0.3409501
206	0xbee4f816	-0.44720525
207	0xbd2836c2	-0.041067846
208	0xbe57ee22	-0.21086934
209	0xbd840d2a	-0.06447823
210	0xbebae74b	-0.36504588
211	0xbd23ada6	-0.039960526
212	0xbe5dd2d9	-0.21662463
213	0xbd9b3059	-0.07577581
214	0xbd8f7fc3	-0.070067905
215	0x3e5e0788	0.2168256
216	0xbeca30ab	-0.39490256
217	0x3e480934	0.1953476
218	0xbeeb5685	-0.45964447
219	0xbe18f746	-0.14938077
220	0x3a933e5a	0.0011233792
221	0xbf0cde82	-0.5502702
222	0xbea7c7da	-0.32769662
223	0xbc768fcd	-0.015048933
224	0xbddd68c1	-0.10810996
225	0xbec2e251	-0.3806329
226	0xbf41a4ba	-0.7564198
227	0x3e369977	0.1783198
228	0xb9f30d96	-0.00046358694
229	0xbec68a17	-0.3877723
230	0xbd275e41	-0.040861372
231	0xbeae04f0	-0.33988142
232	0xbeb3a8e7	-0.350898
233	0x3e330928	0.17483962
234	0x3ca1fbe0	0.019773424
235	0xbe56c210	-0.20972466
236	0x3ecb9719	0.39763716
237	0xbe7a07f8	-0.24417102
238	0x3e2a2dcd	0.16619034
239	0x3e6f3d9d	0.23363347
240	0xbeca7437	-0.3954179
241	0xbd97777e	-0.07395838
242	0xbe405a6b	-0.18784492
243	0xbe90bbd9	-0.28268316
244	0xbe0e145f	-0.13874958
245	0xbdaba407	-0.08380895
246	0xbdc53a9d	-0.0963032
247	0xbd2ea236	-0.042635165
248	0xbda719ca	-0.08159216
249	0xbe66c0a4	-0.22534424
250	0xbe8aa9ae	-0.2708258
251	0xbe95f71e	-0.29290098
252	0xbdab7d49	-0.083735056
253	0xbe80f910	-0.2519002
254	0xbf0c4a78	-0.5480113
255	0xbec65750	-0.3873849

lstm.bias_hh_l0 f4 [512]
0	0xbec73156	-0.38904828
1	0xbe98b847	-0.29828092
2	0xbdf0a3b5	-0.11749975
3	0xbe85716c	-0.26063097
4	0xbed8071f	-0.42192933
5	0xbb8b0c62	-0.0042434195
6	0xbe06c03c	-0.13159269
7	0xbf123297	-0.57108444
8	0xbe97bc65	-0.2963592
9	0xbefea39a	-0.49734193
10	0xbe71aa9d	-0.2360024
11	0xbe94468f	-0.28960082
12	0x3dfcb91d	0.12339995
13	0xbef6b799	-0.4818695
14	0x3b26aa9f	0.0025431288
15	0xbeafbfc0	-0.3432598
16	0xbe897581	-0.2684746
17	0xbf48be51	-0.784154
18	0xbe61f145	-0.22064693
19	0x3ce2743d	0.027643317
20	0xbea6e68e	-0.32597774
21	0xbd763b3c	-0.060115084
22	0x3df2333c	0.118261784
23	0x3dfb2787	0.122633986
24	0xbb80fb97	-0.003936242
25	0xbf10fd6f	-0.5663671
26	0xbec73640	-0.38908577
27	0xbe81f9c8	-0.2538588
28	0xbe9a5a90	-0.3014722
29	0xbe5741be	-0.21021172
30	0xbe718d30	-0.23589015
31	0xbeef66ea	-0.46758205
32	0x3bb3fbed	0.0054926784
33	0xbe968ce7	-0.29404375
34	0xbeb2f08e	-0.34949154
35	0xbe365a87	-0.17807971
36	0xbe36b2a2	-0.1784158
37	0xbdb483d4	-0.08814207
38	0xbefe28b7	-0.49640438
39	0xbea5e44a	-0.32400733
40	0xbdb11214	-0.08646026
41	0xbf225dcd	-0.6342438
42	0xbeb2aa56	-0.3489558
43	0xbed2a6c3	-0.41142854
44	0xbedb0c1e	-0.42782682
45	0xbf08f5fb	-0.53500336
46	0xbeb75db5	-0.3581368
47	0xbea3c37f	-0.3198509
48	0xbe6f1537	-0.23347937
49	0xbe1a678c	-0.15078562
50	0xbe63a1f1	-0.22229744
51	0xbf281e9e	-0.6567172
52	0xbf807079	-1.0034324
53	0xbdc612db	-0.09671565
54	0x3d0349cd	0.032052804
55	0xbe9a6606	-0.30155963
56	0xbeffb839	-0.49945238
57	0xbf03df8b	-0.51512975
58	0xbf1e9aec	-0.6195514
59	0xbe108d3c	-0.14116377
60	0xbe3d798e	-0.185034
61	0xbeb0b903	-0.34516153
62	0xbeee994c	-0.4660133
63	0xbe9b7db9	-0.30369356
64	0xbe417b2d	-0.18894644
65	0x3efa7e68	0.48924565
66	0xbf13d6bb	-0.5774953
67	0xbe755812	-0.23959377
68	0xbe7e39a5	-0.24826677
69	0xbf387bd5	-0.7206395
70	0xbeac544c	-0.33658063
71	0xbec56704	-0.38555157
72	0xbe260799	-0.16213836
73	0xbd6bc0c8	-0.057556897
74	0xbebd86d9	-0.37016943
75	0xbce764f0	-0.028246373
76	0xbd3a0ccb	-0.045422357
77	0xbedbd460	-0.42935467
78	0xbf12e958	-0.57387304
79	0xbeda040a	-0.42581207
80	0x3ec0ece2	0.37680727
81	0x3e5a20f4	0.21301633
82	0x3d4b7953	0.04967625
83	0xbe90099a	-0.28132325
84	0xbe74093e	-0.2383165
85	0xbda298dc	-0.07939312
86	0xbe14dcce	-0.14537355
87	0xbe7365d4	-0.23769313
88	0xbf1c18e5	-0.60975486
89	0xbe86840d	-0.26272622
90	0xbee6d596	-0.45084828
91	0xbebcc5cd	-0.3686966
92	0xbda5b987	-0.08092027
93	0xbf054e0f	-0.5207223
94	0xbf02531e	-0.50908077
95	0x3d218ae8	0.039439112
96	0x3d70d905	0.058800716
97	0xbf02fe21	-0.5116902
98	0xbf2642e7	-0.64945835
99	0x3d7ccdaf	0.061719593
100	0x3de679c6	0.11253695
101	0xbf0c85b0	-0.5489149
102	0xbdc89501	-0.09794045
103	0xbee0abea	-0.4388116
104	0xbf2c9856	-0.67419946
105	0xbdaf07f3	-0.08546438
106	0xbe036335	-0.12830813
107	0xbe494a80	-0.19657326
108	0xbd503641	-0.05083299
109	0x3cb9f476	0.022699576
110	0xbe8dee72	-0.27720982
111	0xbd1362b6	-0.03598281
112	0xbeccc39e	-0.39992994
113	0xbeb073a1	-0.34463218
114	0xbddf858a	-0.109141424
115	0xbd9764a5	-0.07392243
116	0xbec01a3f	-0.37520024
117	0xbea1c1d6	-0.31593198
118	0xbe209a2a	-0.15683809
119	0xbead7f3f	-0.33886144
120	0xbe86a7ad	-0.262998
121	0x3d999a98	0.075001895
122	0xbf13f039	-0.57788426
123	0xbeb63124	-0.35584366
124	0x3d99933a	0.07498784
125	0x3d726f8f	0.05918842
126	0xbf2a2a5a	-0.66470873
127	0xbf0b7130	-0.54469585
128	0xbeaff494	-0.34366286
129	0xbe3663aa	-0.17811456
130	0xbe9a1a3c	-0.3009814
131	0xbdb554a3	-0.08854034
132	0xbe4309ef	-0.19046758
133	0xbd47b1c5	-0.04875352
134	0xbe0bcf99	-0.13653411
135	0xbe7153f5	-0.23567183
136	0xbee4d21e	-0.44691557
137	0xbeb98798	-0.36236262
138	0x3ce29bfa	0.027662266
139	0xbea96282	-0.33082968
140	0xbef7a9a0	-0.483716
141	0xbe8c0a9a	-0.27351838
142	0x3db6c16d	0.08923612
143	0xbdfc7aa4	-0.12328079
144	0xbda16ff9	-0.07882685
145	0xbf46eb50	-0.7770281
146	0xbe165922	-0.14682439
147	0x3d00992c	0.031396076
148	0xbee376e6	-0.4442665
149	0xbe2232c4	-0.15839678
150	0xbd2e6b97	-0.042583074
151	0x3e716c77	0.23576532
152	0x3f17c819	0.592897
153	0xbf47a38d	-0.77983934
154	0xbdf2ccb4	-0.1185545
155	0xbe99fdd4	-0.30076468
156	0xbe3c93e5	-0.18415792
157	0x3d3f8891	0.0467611
158	0x3e2d0296	0.16895518
159	0xbe81b78e	-0.25335354
160	0xbd34cee9	-0.044142637
161	0x3bc5571e	0.006022348
162	0xbed0605f	-0.40698525
163	0xbd5809fd	-0.0527439
164	0x3ee4457d	0.44584265
165	0x3e67969f	0.22616051
166	0xbe961da4	-0.2931949
167	0xbe3b0dab	-0.18266933
168	0x3db18625	0.08668164
169	0xbe8ec23c	-0.27882564
170	0x3d8e54e0	0.06949782
171	0xbef2fa98	-0.47456813
172	0x3e38b770	0.18038726
173	0xbf19b3b9	-0.6003986
174	0xbdf19d02	-0.11797525
175	0xbecb2f03	-0.39684305
176	0x3e7e8d74	0.24858648
177	0x3e98df59	0.298579
178	0xbc8fe07a	-0.017563093
179	0xbf07c643	-0.530369
180	0xbf5e29c1	-0.8678246
181	0xbdf9f27d	-0.12204454
182	0xbdf7ffd2	-0.12109341
183	0x3ca93db2	0.020659301
184	0xbd2c877a	-0.042121388
185	0xbed822a1	-0.4221392
186	0xbf1c3e4d	-0.61032563
187	0x3dbb88c4	0.09156945
188	0xbf1f1196	-0.6213621
189	0xbeb25c20	-0.3483591
190	0xbeb36869	-0.35040596
191	0xbd8b64c8	-0.06806332
192	0xbe5f0e46	-0.21782789
193	0xbe06f17d	-0.13178058
194	0xbe9ca2fc	-0.30593097
195	0x3e08b113	0.13348798
196	0x3e920860	0.28522015
197	0xbed95f92	-0.42455727
198	0xbe71d51c	-0.23616451
199	0xbe7f9c93	-0.24962072
200	0xbd7ece88	-0.062208682
201	0xbe666a2a	-0.22501436
202	0xbe63e805	-0.22256477
203	0xbd9cc87d	-0.076554276
204	0x3db75ac8	0.08952862
205	0xbe796b7c	-0.24357408
206	0xbed297d3	-0.41131458
207	0xbde4416c	-0.11145291
208	0xbe2b164d	-0.16707726
209	0xbd3db09b	-0.046311002
210	0xbed0616c	-0.40699327
211	0xbdd38555	-0.103281654
212	0xbe146dcf	-0.14495014
213	0xbdc38f69	-0.09548838
214	0x3d49cfe3	0.04927052
215	0x3e0ecf8f	0.13946365
216	0xbee3fdd5	-0.44529596
217	0x3e95e3da	0.292754
218	0xbed3799e	-0.41303724
219	0xbe58252a	-0.21107927
220	0x3c8a48d4	0.01688043
221	0xbf09791e	-0.53700435
222	0xbe665ff8	-0.22497547
223	0xbd0d144f	-0.034443196
224	0xbd75fa6a	-0.060053267
225	0xbea910ae	-0.33020538
226	0xbf348362	-0.70512974
227	0x3e27eb8a	0.16398445
228	0xbcb9590c	-0.022625469
229	0xbebbe456	-0.36697644
230	0xbd8a0ba5	-0.06740502
231	0xbe82100f	-0.25402877
232	0xbed49d47	-0.41526243
233	0x3db2d24f	0.087315194
234	0xbdc97220	-0.09836221
235	0xbe5e242e	-0.21693489
236	0x3e7d9a06	0.24765787
237	0xbe3e60b8	-0.18591583
238	0x3dff733e	0.124731526
239	0x3eb596e0	0.3546667
240	0xbe902cdb	-0.28159222
241	0xbd1238b3	-0.035698604
242	0xbe0449cc	-0.12918776
243	0xbe9b027e	-0.3027534
244	0xbca8a521	-0.020586552
245	0xbd9f00d6	-0.07763831
246	0xbdb6b1f9	-0.08920664
247	0xbd0fa49c	-0.035069093
248	0xbdb53844	-0.088486224
249	0xbe5ba0ad	-0.21448012
250	0xbe94dc10	-0.29074144
251	0xbe978c7b	-0.29599366
252	0xbe4004d8	-0.18751848
253	0xbe93c42f	-0.28860614
254	0xbec5d93f	-0.38642308
255	0xbee31f87	-0.4435999

fc.weight f4 [4, 128]
0	0x3e846b4f	0.2586312
1	0x3ebb0454	0.3652674
2	0x3f19ff5c	0.6015527
3	0xbd937737	-0.07200473
4	0xbcfd2d06	-0.030905258
5	0xbc9a885e	-0.018863853
6	0xbf2f0234	-0.68362737
7	0xbd20b287	-0.039232757
8	0xbe2ee339	-0.17078866
9	0x3f0407bc	0.515743
10	0x3fc19805	1.5124518
11	0x3e5c71f3	0.21527843
12	0x3e59a5c1	0.21254636
13	0x3dfcaf4e	0.12338124
14	0xbe37fc03	-0.17967229
15	0xbd905ece	-0.070493326
16	0xbf729954	-0.9476521
17	0x3deaf8c1	0.11473227
18	0x3ee0a9b9	0.43879488
19	0x3e5d2758	0.2159704
20	0x3e2c2274	0.16810018
21	0x3f4265be	0.75936496
22	0xbe93e9ef	-0.28889415
23	0x3e42a6f2	0.19008997
24	0xbdc8a46a	-0.097969845
25	0xbd32fa9e	-0.04369604
26	0xbee272e1	-0.4422827
27	0xbe947002	-0.28991705
28	0x3e2c7793	0.16842489
29	0xbf879b4d	-1.0594269
30	0x3e407dc3	0.18797974
31	0xbe324252	-0.17408112
32	0x3e9ed669	0.31022957
33	0x3e2237e4	0.15841633
34	0xbe582f0a	-0.21111694
35	0x3e9b5e6a	0.3034547
36	0x3b89d217	0.004205953
37	0x3e2de64f	0.16982387
38	0x3d60998f	0.054833945
39	0x3db57fda	0.088622764
40	0x3e8c2280	0.2737007
41	0xbf0658da	-0.52479327
42	0x40c9a9f7	6.3019977
43	0x3e0f6612	0.1400378
44	0xbe049a44	-0.12949473
45	0xbeab893f	-0.33503148
46	0x3e4f243b	0.20228665
47	0xbe26aa38	-0.16275871
48	0x3e8ef9e9	0.2792504
49	0x3eb9dd74	0.36301768
50	0x3e194994	0.14969474
51	0xbe1e8d43	-0.15483575
52	0xbcfeca0e	-0.031102207
53	0x3e3d84e3	0.18507724
54	0x3f914d03	1.1351627
55	0xbca7c447	-0.020479335
56	0xc0581986	-3.3765578
57	0x3e1cc989	0.15311255
58	0xbdf4bacb	-0.119496904
59	0x3e1fda30	0.15610576
60	0x3e892933	0.26789245
61	0xbe0de5bd	-0.1385717
62	0x3dfaa873	0.122391604
63	0x3ec851a8	0.391248
64	0x3e47f410	0.19526696
65	0x3e8935a7	0.26798746
66	0x3c2faa94	0.010721821
67	0xc0c8b9e4	-6.2726917
68	0xbef01e4b	-0.46898112
69	0x3e334e12	0.1751025
70	0x3ecf8922	0.40534312
71	0xbce10774	-0.027469374
72	0x3f4eeb12	0.8082744
73	0xbd8579ac	-0.06517348
74	0xbf113f75	-0.5673745
75	0xbe9b9fe8	-0.30395436
76	0x3dd5545f	0.10416483
77	0x3f4f383c	0.8094518
78	0x3d1910c8	0.03736952
79	0xbf18c8e2	-0.5968152
80	0xbe97eaeb	-0.29671416
81	0xbee309ee	-0.44343513
82	0x3ecfb787	0.40569708
83	0xbeb4bcf6	-0.35300416
84	0xbe96b9f0	-0.29438734
85	0xbebc677c	-0.36797702
86	0xbfb622e5	-1.4229399
87	0x3f4d394d	0.8016556
88	0x3ddba5e4	0.107250005
89	0xbebab54b	-0.3646644
90	0xbe964046	-0.29345912
91	0xbe721492	-0.2364066
92	0x3cd02f77	0.025413258
93	0x3d84fbd3	0.06493344
94	0xbd6811e5	-0.05665769
95	0xbf16b6f9	-0.58872944
96	0x3ea79e08	0.32737756
97	0xbf0f3628	-0.5594201
98	0x3d82acf6	0.06380646
99	0xbde6f3ef	-0.112769954
100	0x3f8a3767	1.0798157
101	0x3e3534fd	0.17695995
102	0xbe632267	-0.22181092
103	0x3e83f042	0.2576924
104	0x3e2eb5ac	0.1706149
105	0x3f66ef68	0.90209055
106	0xbec44cd9	-0.3833988
107	0x3f19f136	0.60133684
108	0xbe2f2791	-0.17104937
109	0x3e6fc489	0.23414816
110	0x3e48c250	0.19605374
111	0x3e8f15c7	0.27946302
112	0xbe00ebb5	-0.12589915
113	0x3e5b25b0	0.21401095
114	0xbe690a1d	-0.22757764
115	0x3ecfc7c7	0.40582106
116	0xbd8ca6b0	-0.068677306
117	0x3e961d66	0.29319304
118	0x3e834b1e	0.25643247
119	0x3e6d4a02	0.23172763
120	0x3e25e823	0.16201834
121	0xbe53d48f	-0.20686553
122	0x3e7e0c43	0.24809365
123	0x3e8bea91	0.27327397
124	0xbf22ddfd	-0.6361998
125	0xbdfc8e2c	-0.12331805
126	0xbe22225c	-0.1583342
127	0xbeb40fed	-0.351684
128	0x3ed04fef	0.40685984
129	0xbf172f37	-0.5905642
130	0xbf554675	-0.83310634
131	0xbdd01909	-0.10161025
132	0x3fde729e	1.7378728
133	0x3d4080e9	0.04699794
134	0x3e1768d7	0.14786087
135	0x3e6907c9	0.22756876
136	0x3d9f9194	0.07791439
137	0xbec62cf5	-0.38706174
138	0xbde4e8d2	-0.111772195
139	0xbe845bcd	-0.25851288
140	0xbf193949	-0.59853035
141	0xbdf29634	-0.11845055
142	0x3ef2bf16	0.47411412
143	0xbf641f08	-0.8910985
144	0x3ead3d99	0.33836058
145	0xbeabead8	-0.3357761
146	0x3ee5089c	0.4473313
147	0xbfb27cd3	-1.3944343
148	0xbd844b64	-0.06459692
149	0xbe540b95	-0.20707543
150	0x3dca5566	0.0987957
151	0xbec5a8cb	-0.3860534
152	0x3de13d17	0.1099798
153	0xbd98702c	-0.0744327
154	0x3e627a7f	0.22117041
155	0x3ee4eb55	0.44710794
156	0x3f360336	0.7109865
157	0x3e868899	0.2627609
158	0x3f596de2	0.8493329
159	0x3ea4d956	0.32197064
160	0xbef722f4	-0.48268855
161	0xc031dced	-2.7791092
162	0x3f6782c7	0.90433925
163	0xbd967572	-0.0734662
164	0x3c64a969	0.013956406
165	0xbfc1f163	-1.515179
166	0x3c0f9377	0.008763186
167	0x3e2ad7d2	0.16683891
168	0xbebc1cb1	-0.3674064
169	0x3e525bd6	0.20542845
170	0xbe7ed879	-0.24887265
171	0x3f3daf7f	0.7409591
172	0x3ef4f5cb	0.47843775
173	0x3e1ea98e	0.15494367
174	0x3edca120	0.4309168
175	0xbe5d28b5	-0.2159756
176	0xbf3ef6a7	-0.7459511
177	0x3db2804d	0.08715878
178	0xbf79a90a	-0.9752356
179	0xbf4f2c27	-0.80926746
180	0xbc9bd875	-0.019024113
181	0x3efdd82b	0.49578986
182	0x3e1d772a	0.15377489
183	0xc0024f59	-2.036093
184	0x3df401c8	0.11914402
185	0xbf5be764	-0.8589995
186	0x3e1d7774	0.15377599
187	0xbf1414db	-0.5784432
188	0xbeebd9f3	-0.4606472
189	0x3ecc015a	0.3984478
190	0x3f873c47	1.056527
191	0xbea33aab	-0.31880698
192	0x3ed133d1	0.40859845
193	0x3dbecf54	0.093168885
194	0x3f5c5312	0.86064255
195	0x3dccd63e	0.10001801
196	0x3db5a1bf	0.08868741
197	0xbcc84c55	-0.02445046
198	0x3f311244	0.69168496
199	0x3f1a2204	0.60208154
200	0x3e132627	0.14370023
201	0xbf3bef94	-0.7341244
202	0xbfe50851	-1.7893163
203	0xbe9c4613	-0.30522212
204	0x3de548e3	0.11195543
205	0xbe5dd121	-0.21661808
206	0x3e31bc5b	0.17357008
207	0x3dd8640b	0.10565957
208	0x3eac1498	0.33609462
209	0x3c92bafb	0.017911425
210	0xbf5636aa	-0.8367716
211	0x3e3234dd	0.17402978
212	0x3c85ba04	0.01632405
213	0x3df8bfcc	0.12145957
214	0x3f315663	0.6927244
215	0xbd6c0fd0	-0.057632267
216	0x3f92e4cb	1.1476072
217	0x3f9cd410	1.2252216
218	0xbf7ba52d	-0.98298913
219	0xbeb06382	-0.34450918
220	0x3ec6e567	0.38846895
221	0x3d8fdebf	0.07024907
222	0xbf5b602b	-0.85693616
223	0xbe2c7655	-0.16842015
224	0x3de06daa	0.10958417
225	0xbf3292a8	-0.6975503
226	0x3db37a17	0.08763521
227	0xbf569c7e	-0.8383254
228	0x3c83d1fb	0.016091337
229	0xbeb1e04e	-0.34741443
230	0xbf09e559	-0.5386558
231	0xc0126dc4	-2.2879496
232	0xbe1c3ba3	-0.15257125
233	0x3f921fe1	1.1415979
234	0xbf068f81	-0.5256272
235	0xbf433a9c	-0.76261306
236	0x3ec87131	0.39148858
237	0x3d387a51	0.045038525
238	0x3ffb5985	1.9636694
239	0x3d976aee	0.07393442
240	0x3fb026b4	1.3761811
241	0xbf20ead6	-0.6285833
242	0x3ecb888d	0.39752617
243	0xbfe2378a	-1.7673199
244	0xbf844aca	-1.0335324
245	0x3e20df1a	0.15710106
246	0xbe91474e	-0.28374714
247	0xbf33fdef	-0.70309347
248	0xbef82c6a	-0.48471385
249	0xbf8f13ba	-1.1177895
250	0xbec70253	-0.3886896
251	0xbfd68c4e	-1.6761568
252	0xbecefe49	-0.4042838
253	0x3ebb8edb	0.36632428
254	0xbf06a59d	-0.52596456
255	0x3f618e1e	0.8810748

fc.bias f4 [4]
0	0xbeab3ef3	-0.33446464
1	0xbe452ad7	-0.19254623
2	0x3e9aabc9	0.30209187
3	0x3d2ba417	0.041904535
