LSTM/Data_3/LSTM2/model.pth (torch, 275939 bytes, 6 tensors)

lstm.weight_ih_l0 f4 [512, 3]
000000 20 e9 62 bf 0e 60 bc bf 85 16 fc be da e9 cd be
       -0.8863697 -1.4716814 -0.4923593 -0.40217477
000010 2e b4 2a bf 76 4b 4c 3d 19 32 cc be 93 82 ba 3e
       -0.6668118 0.049876653 -0.3988197 0.36427745
000020 62 6e 90 bf e9 80 be 3e ef a8 13 3f c2 9d b8 3e
       -1.1283686 0.37207726 0.5767965 0.3605786
000030 76 ac 9a be 18 bf d3 bf 64 98 c8 be 29 16 a4 be
       -0.30209702 -1.6542692 -0.39178765 -0.32048157
000040 4f e9 10 bf ee e0 23 bf 26 72 53 be 56 38 c0 3d
       -0.56606 -0.6401509 -0.20649013 0.09385745
000050 97 a5 e7 3d 8f d4 c9 be 34 cb 5c be 5b 6a f3 be
       0.11310881 -0.39419982 -0.21561891 -0.4754208
000060 33 43 6b bf 17 78 9a bf 87 e5 94 be f2 bb 90 bf
       -0.9189941 -1.2067899 -0.29081365 -1.1307356
000070 31 d4 ba bf 08 d2 7b bf cd d0 dc be a0 37 8d bf
       -1.4596006 -0.9836736 -0.43128052 -1.10326
000080 b8 b6 90 be 7d c7 8b be 07 40 a9 3d 63 ec 2e 3f
       -0.28264403 -0.27300635 0.08264165 0.6832945
000090 bb 43 02 bf 2c 4e b3 be 60 19 66 bf b3 3a 1c bd
       -0.508846 -0.35020578 -0.8988247 -0.038141917
0000a0 29 d6 37 bf 9c 1f 93 3e fe 1c 8a bf 16 7b ae bf
       -0.7181116 0.28735054 -1.0790098 -1.3631313
0000b0 d0 38 76 bf 9f 8b 02 bf cf 80 88 be ad 1f e6 be
       -0.9618044 -0.50994295 -0.26660773 -0.44946042
0000c0 0e 49 d2 be c4 c1 84 bf 4b e8 c2 bf d5 8e db be
       -0.4107136 -1.0371633 -1.522714 -0.4288241
0000d0 e5 c9 09 bf 5f a0 80 bf bc 3b b2 be a7 ac 0d 3f
       -0.5382369 -1.0048941 -0.348112 0.5534157
0000e0 04 bc df be 5d a9 da be 64 21 c6 be 67 d6 3b 3d
       -0.43698132 -0.4270734 -0.3869735 0.045858767
0000f0 f7 81 9a be 57 b4 6d be bb ab ae bd 05 a9 bd be
       -0.3017728 -0.23213325 -0.08528849 -0.37043014
000100 61 a9 02 bf b1 68 db bc 53 b9 08 bf b4 52 2c bf
       -0.510397 -0.02678332 -0.5340778 -0.67313695
000110 6f d1 32 bf d5 4f 59 be 6e cd bb bf 8b d7 24 be
       -0.6985082 -0.2122186 -1.4672067 -0.16097848
000120 e8 78 67 be 69 43 fc 3e 3d 9b df 3e bf 54 3f bf
       -0.22604716 0.4927018 0.43673125 -0.7473869
000130 3c ef db be d6 d2 7d bf 05 c0 9e be bc 71 c4 3d
       -0.4295596 -0.99149835 -0.31005874 0.095920056
000140 1a 11 89 bf 86 c4 1d bf b6 96 27 bf 90 5a ac bf
       -1.0708344 -0.61627996 -0.6546434 -1.3465137
000150 a2 d3 6e bf 1c fa af bf 12 da 3f bf d2 a4 98 be
       -0.93291676 -1.3748202 -0.74942124 -0.29813248
000160 95 20 cf bf 51 8e 6a bf bf d5 5b be 77 95 ba be
       -1.6181818 -0.9162341 -0.21468256 -0.36442158
000170 87 d2 11 bf b1 08 04 be f4 16 49 bf dd 0b 88 bd
       -0.56961864 -0.1289394 -0.7855065 -0.06642888
000180 48 9f d3 be 12 57 01 bf 94 1d 17 be 4d a2 82 be
       -0.4133246 -0.50523484 -0.14757377 -0.2551445
000190 e4 83 98 bf a6 da a7 be ab a5 2a bf ee 64 25 bf
       -1.191525 -0.32784003 -0.6665904 -0.6460713
0001a0 fa 2a 8a bf e7 69 7a 3d 46 57 ee 3c 9a da ab 3e
       -1.0794365 0.061136153 0.02909435 0.33565217
0001b0 ba 74 f5 be a8 51 b7 bf 82 71 3a be 3e d6 0f bf
       -0.47940618 -1.4321795 -0.18207362 -0.5618628
0001c0 f3 23 39 bf ba e9 e8 be d9 37 24 be df 02 89 bf
       -0.7232048 -0.4549082 -0.16036929 -1.0704001
0001d0 21 52 9f 3d 0c d1 ba 3c a7 34 95 3e 02 8d 06 3e
       0.07779337 0.02280476 0.29141733 0.13139728
0001e0 c9 a3 81 be b3 f7 58 bf a2 c5 9a be 3a 52 9f 3c
       -0.2532027 -0.8475296 -0.30228907 0.019448388
0001f0 9e 31 54 3f e4 bf 98 3d b3 5e 11 3e 48 e2 32 3e
       0.8288821 0.07458475 0.14196281 0.17469132
000200 34 2e 13 3f 9b 06 d6 be d1 99 fd be 75 ec 33 bd
       0.57492375 -0.41801915 -0.49531415 -0.043926675
000210 bc 19 e5 be 01 0b 7d bf 58 bb db be cc 4c 31 bf
       -0.44746196 -0.98844916 -0.4291637 -0.6925781
000220 08 2c 8e bf 7b eb d7 bf 9d 8a 19 be 06 83 09 be
       -1.1107187 -1.6868738 -0.14994283 -0.13428888
000230 1e 03 a4 bf 85 e1 66 be b8 29 37 bf 26 32 fb bd
       -1.2813451 -0.22546966 -0.7154803 -0.122654244
000240 e1 59 32 bf e7 a5 c2 bf 23 a7 f4 be 6e 6b fa be
       -0.69668394 -1.5206879 -0.47783765 -0.48910087
000250 ce eb db 3e c2 3c 46 bf c7 5a 26 bf b8 f7 1b bf
       0.42953342 -0.7743646 -0.64982265 -0.60924864
000260 0c 72 40 bf 77 50 92 3d a8 68 d1 bf cb 26 a3 3e
       -0.7517402 0.07144254 -1.6360064 0.31865534
000270 fd 30 98 3d 0d d9 63 3e ab b6 7f bf 53 49 0a bc
       0.07431219 0.22250767 -0.99888104 -0.008440333
000280 5f f4 07 3e 2f 32 91 bf f0 67 f8 be fc 00 3e bf
       0.13276814 -1.134344 -0.48516798 -0.7422025
000290 cd 66 38 bf 05 78 30 bf 96 e8 4c bf df c7 fa be
       -0.7203186 -0.68933135 -0.800424 -0.48980615
0002a0 cc 2f 40 bf 79 6e 37 bf fa 04 01 bf ec d8 5a be
       -0.7507293 -0.7165294 -0.5039822 -0.21371812
0002b0 d6 5f 09 3f e7 6b b1 be a9 d1 f6 be 5a ed 90 bf
       0.5366186 -0.34652635 -0.48206833 -1.1322434
0002c0 88 c9 9f 3d 5e 40 c3 be 6c f7 6c bf b6 dc 38 3b
       0.07802111 -0.38135046 -0.92565036 0.0028207726
0002d0 55 fd 43 bf ef 04 92 bf 18 c2 19 be 12 8b 18 bf
       -0.7655843 -1.1407756 -0.15015447 -0.59587204
0002e0 a1 df 8d 3e b7 96 13 be 08 88 23 be fe f0 bd bf
       0.27709678 -0.14412962 -0.1596986 -1.483917
0002f0 f2 91 11 bd 9f 8b 07 bf 11 9d 97 bf 7c cb 27 be
       -0.035539575 -0.5294742 -1.1844808 -0.16386217
000300 62 a5 21 bf e7 7f 5d bf 92 19 57 bf 93 f6 0f 3d
       -0.6314298 -0.8652329 -0.8402339 0.03514726
000310 97 9d 45 bf c1 0e 39 3d 63 5c 31 bd 5c bc 8b 3e
       -0.7719359 0.045180086 -0.043300997 0.27292144
000320 ab 7f 60 3d e4 2e 16 3f e5 5f 86 be 95 d7 0c 3f
       0.054809254 0.586653 -0.26245037 0.5501645
000330 c9 b5 e0 be ad f3 6f 3e 44 6c 1e bf d8 3d a4 be
       -0.4388869 0.23432799 -0.6188395 -0.32078433
000340 db 57 98 bf bc 7d ab be fa 24 14 bf 87 67 1a bf
       -1.1901811 -0.33494365 -0.5786892 -0.6031422
000350 94 46 d3 bf e3 a6 94 be 59 80 b7 be ec a9 2e bd
       -1.6505914 -0.29033574 -0.3584011 -0.04264252
000360 b0 5e 54 3b 03 1a 66 3d c7 cc ee 3e 09 1b cf be
       0.003240507 0.05617715 0.46640608 -0.40450314
000370 89 75 57 3f 0a c4 7a bf 4f 09 f2 be c6 ae a9 3e
       0.8416372 -0.9795538 -0.47272727 0.33141154
000380 93 27 8d bf ef 7b 46 bf 0b 54 8e bf a5 51 2b bf
       -1.1027702 -0.7753286 -1.1119398 -0.66921455
000390 2d 86 00 be 2b 49 0f bf d1 ad 51 3f 8c fa 9b be
       -0.12551184 -0.5597102 0.8190585 -0.3046459
0003a0 6e 75 48 3e 75 7d 85 be f9 d4 fa be 9a 5d 48 bf
       0.19576046 -0.2607228 -0.4899061 -0.78267825
0003b0 fd dc 75 bd 35 4d 4a be 46 ef 43 be 0a de 1b be
       -0.060025204 -0.19756015 -0.19134244 -0.1522142
0003c0 8b 60 48 bf d0 60 6c bf 55 16 34 bf e8 12 78 be
       -0.7827231 -0.92335224 -0.70346576 -0.24225962
0003d0 dd 34 1f be c5 41 db bd d8 17 05 be ab 37 3e bf
       -0.1554751 -0.10705904 -0.12997377 -0.7430369
0003e0 fc a7 4a 3b 03 ff 90 be b6 09 37 3f ef 71 a5 3d
       0.003092288 -0.28319559 0.7149919 0.08078372
0003f0 40 76 3c bf 62 e0 d1 be c9 ac 4d bf 35 be 13 bf
       -0.73617935 -0.40991503 -0.80341774 -0.5771211

lstm.weight_hh_l0 f4 [512, 128]
000000 b6 47 46 3f 9f 37 36 3f 56 64 bf 3e d3 e2 0a 3e
       0.7745317 0.7117862 0.37381238 0.13563089
000010 45 61 4a 3d 11 bd cb be 03 34 5f 3e 2c f8 b3 be
       0.04940917 -0.39792684 0.21797185 -0.35150278
000020 87 f5 9d bd cb 5b 48 bd 15 2e a6 3e ac 23 64 3e
       -0.07712846 -0.048915666 0.32457033 0.22279233
000030 1d 7a 1f 3e 8b 25 22 bf 98 7a c4 3f 1e 3e b6 3e
       0.15573926 -0.63338536 1.5349913 0.35594267
000040 9b 82 22 bd 0b f2 30 be c8 5e b8 bd 2d 10 3b 3e
       -0.039675336 -0.17279832 -0.09002453 0.1826789
000050 6c be 0d 3d f1 43 3b 3c 4a 65 16 3f a2 ff 22 3f
       0.03460543 0.011429773 0.58748305 0.63671315
000060 09 b6 93 be 7a 39 85 be 96 eb cd be 8d 23 6b be
       -0.2884982 -0.26020414 -0.402188 -0.2296278
000070 b3 6f b4 be 5c 7e e9 3e 0b b3 7e bf db 05 c3 3e
       -0.3524147 0.45604217 -0.9949195 0.38090405
000080 fd 3c 91 3e a2 0e e5 bd 55 b0 07 be 98 b1 b7 be
       0.28366843 -0.111844316 -0.13250859 -0.3587768
000090 b3 98 0d be 26 06 d1 3e f6 5f 30 3e 91 71 95 3e
       -0.13827781 0.40825003 0.17224106 0.29188207
0000a0 c1 27 71 3e a9 a1 d9 3d a8 d4 24 be 67 fd 41 be
       0.23550321 0.10626537 -0.16096747 -0.18944322
0000b0 67 1f 1d be c9 25 07 be 60 a9 8a bd b6 96 3a 3e
       -0.1534401 -0.13198008 -0.06770587 0.18221554
0000c0 1c 46 35 3f d7 1b 77 3d 15 44 ac 3c be 6e 9c 3e
       0.70810103 0.060329285 0.021028558 0.3055324
0000d0 b5 07 18 3e 45 6d 7f be 49 96 f7 3e 89 f7 1a bf
       0.1484669 -0.24944027 0.48356846 -0.6053396
0000e0 22 71 30 bd 92 d4 96 3e e6 fb ec be da 88 74 bd
       -0.04307664 0.29459053 -0.46285933 -0.059700824
0000f0 36 66 11 3e c9 30 31 3c d5 69 c3 3e 71 83 91 3d
       0.14199147 0.010814854 0.3816668 0.071051486
000100 2a 8e 31 3e 99 29 3b 3f d1 11 1e 3e bf 1d 73 3e
       0.17339388 0.7311035 0.15436484 0.23741816
000110 82 23 2b bd fb 6c 49 3e 6e 15 51 3e a4 14 13 bf
       -0.04178191 0.19670479 0.20418331 -0.5745337
000120 4d e7 09 bf 99 95 af 3d f1 fa 87 3e 0e bb b3 3e
       -0.5386856 0.08573455 0.2655864 0.3510365
000130 fe c7 61 be 4e b2 7a bd 50 de 23 ba a2 1b 3a bf
       -0.22048947 -0.0612052 -0.00062510837 -0.72698414
000140 3c 92 a2 3e c3 35 48 3f 70 c2 71 3e 09 c4 11 3e
       0.31752193 0.78207034 0.23609328 0.14234938
000150 06 72 81 3e 41 8f 12 be f0 50 12 3e 7f 91 ee 3d
       0.25282305 -0.1431246 0.14288688 0.11648845
000160 e1 1e d6 be 85 49 62 bd cc 7d 06 be 9c 53 79 be
       -0.41820434 -0.055245895 -0.13133925 -0.243483
000170 7e 65 1e 3e e0 12 d8 3d a2 e7 ab 3d 2e bc 0d bf
       0.15468404 0.10550475 0.0839379 -0.55365264
000180 20 75 f1 bc fb a0 bd 3d 94 fc 7d be 82 4e a1 3e
       -0.029474795 0.0925922 -0.24803382 0.3150521
000190 99 58 80 3e ae 9a b8 3d ac 97 48 bf 50 1d 89 3e
       0.25067595 0.09013878 -0.7835643 0.26780176
0001a0 19 56 f2 be cc d2 42 3d 52 c4 03 3e 97 53 95 be
       -0.47331312 0.047564313 0.12867859 -0.29165336
0001b0 75 3f fe 3d 46 06 7c be 46 2f 8b be 79 49 7f 3e
       0.12414447 -0.24611768 -0.27184504 0.24930371
0001c0 85 42 13 bf 69 f9 34 be 00 f9 80 3e 3e 16 c8 bc
       -0.57523376 -0.17673267 0.25189972 -0.024424668
0001d0 a3 e9 40 bd d0 83 2b 3f 95 df 65 3e f6 3b 08 3f
       -0.047097813 0.66998005 0.22448571 0.53216493
0001e0 9a 37 8e be 75 15 81 be 10 27 a0 be 2e 47 01 bd
       -0.27776796 -0.25211683 -0.31279802 -0.031562023
0001f0 38 9c 95 3e 2f 5f 92 3e 82 79 74 3e 9e 50 a8 be
       0.29220748 0.28588244 0.23874477 -0.32874006
000200 22 b1 0a bd 18 9b d4 bc 9c 0d 43 3a 2a 36 a9 be
       -0.033860333 -0.02595286 0.00074406876 -0.33049136
000210 8e bc c1 bd 8d ee df 3d 80 e5 0b 3e c2 a6 99 3e
       -0.09459792 0.10934172 0.13661766 0.3001004
000220 b6 59 62 bd ad b4 5e 3e 31 ef 16 bf 36 29 72 bc
       -0.055261336 0.2174861 -0.5895873 -0.014780333
000230 17 a3 ce bd 4c 5d 83 be 13 7f 5d be 13 bb 8f be
       -0.10089701 -0.25657117 -0.21630506 -0.28072414
000240 dd b4 b6 3d dc 7f 10 3e 7c 45 5b be c9 58 c4 be
       0.08921216 0.14111274 -0.21413225 -0.38348988
000250 53 00 c1 be f1 9a 0a 3b 8e 6c 14 3e ed 49 7e 3d
       -0.3769556 0.0021149481 0.14494535 0.06208222
000260 bc 18 1e be 8d 1f 40 3d c8 85 95 bc 8b 08 74 bd
       -0.15439123 0.04690509 -0.018252268 -0.05957846
000270 5d de a2 3c 6e 1d f3 bd 8f f9 60 be 20 bc 00 3f
       0.019881422 -0.11870848 -0.21970199 0.50287056
000280 a2 a7 24 bd 17 48 2e be 5b fe 48 be 1c be 00 3f
       -0.04019893 -0.17019688 -0.19628279 0.50290084
000290 00 16 83 3e 5f 8b ee bd 16 e6 01 3e 77 44 13 3f
       0.25602722 -0.11647677 0.12685427 0.57526344
0002a0 be 26 f2 bc f7 f0 5b be 47 5c 7d bb 31 9c 27 3f
       -0.02955949 -0.2147864 -0.0038659738 0.65472704
0002b0 a4 4a 8e 3e 8c bd 5e bd d5 11 52 3e c7 c9 d6 3e
       0.2779132 -0.054379985 0.20514615 0.4195082
0002c0 3c dc f6 3d 09 03 95 be 19 38 4d be 1d 5e a5 3e
       0.12053725 -0.29103878 -0.20040931 0.32298365
0002d0 1a 57 36 be 47 55 f1 3e 78 41 89 bd bf d6 57 be
       -0.17806664 0.47135374 -0.0670194 -0.21078013
0002e0 9e 32 cb 3e 06 86 85 be ea 84 96 be 72 87 37 3e
       0.39687055 -0.26078814 -0.2939828 0.17922762
0002f0 5e cd 63 3e 65 3e d7 3d b8 2f 6e 3d b5 1e ca 3e
       0.2224631 0.10509948 0.058150977 0.39476553
000300 cc 2a cf be 08 55 e5 bb 0e 62 22 3e ce a5 00 bf
       -0.4046234 -0.006998662 0.15857717 -0.50253
000310 82 e3 06 be ec 77 35 3d 96 e9 af be 2a c8 f3 3d
       -0.13172725 0.04430382 -0.343579 0.11903413
000320 22 ef 7f 3e 52 aa 97 be cc af a9 be 5a 3e d1 bd
       0.24993566 -0.29622132 -0.33141935 -0.10216971
000330 1e 88 e6 3e 83 dd 03 be e7 09 0e 3d 58 22 e2 3d
       0.45025724 -0.12877469 0.034677412 0.11041707
000340 33 82 22 3e bf 27 ce 3d 73 95 3c 3d 2c 0c 7c be
       0.1586998 0.10066175 0.046040963 -0.24614018
000350 1b fd 10 bf 93 19 18 3d 8a 68 4f bd d8 cf f2 3d
       -0.5663621 0.037133764 -0.050636806 0.11856049
000360 9c ae 15 bf ea 12 1e 3d f6 34 45 bf 49 00 be be
       -0.5846956 0.038592257 -0.77033937 -0.37109593
000370 f5 0f 3e be 88 9a 0a be 6e 00 ba 3d 47 19 7f 3d
       -0.18560775 -0.13535511 0.09082113 0.062279966
000380 4d 2b 44 be 91 f8 a0 bd 3f 36 09 3f 8d 69 9e 3d
       -0.19157143 -0.0785991 0.535984 0.07734976
000390 56 1a a2 be af 27 35 3f f5 a6 0e be 2c fc 90 bd
       -0.31660718 0.7076368 -0.13930877 -0.07079348
0003a0 ec b1 c8 3e cf 68 43 be 4b 4c 66 be 8b 3e 24 3e
       0.39198244 -0.1908295 -0.22490041 0.16039483
0003b0 98 45 05 3e 1e 67 49 3d 7d de cc 3d 25 dc 9b 3e
       0.13014829 0.049170606 0.10003374 0.30441394
0003c0 52 29 3c 3e ee c6 01 3f d1 eb 0e 3c ec 6b 8d be
       0.18375137 0.5069417 0.008723215 -0.276214
0003d0 f2 e3 b4 bc 56 60 da 3d ba 8f b2 bd d6 16 f2 3c
       -0.022081349 0.10662906 -0.0871882 0.029551905
0003e0 dc d5 b8 be 92 98 34 be 4c 0e ad be 6f 12 04 3e
       -0.36100662 -0.17636326 -0.3379997 0.12897657
0003f0 19 da 6e be 18 ac e0 3e 5c c5 fe bd a9 d9 65 3d
       -0.23325385 0.43881297 -0.12439987 0.05611578

lstm.bias_ih_l0 f4 [512]
000000 6e fd 58 bf 59 e7 da be e7 9c ca be e6 09 a3 3e
       -0.84761703 -0.4275463 -0.39572832 0.3184349
000010 f7 9d d1 be 46 dd a2 be 96 34 9d be 62 3a 00 bf
       -0.4094083 -0.31809443 -0.30704182 -0.50089085
000020 17 45 89 bf b7 18 94 bf dc b7 d2 be 2d 6c 77 be
       -1.072421 -1.1570042 -0.411559 -0.2416236
000030 a0 9c 07 bf 15 12 87 3b ea 56 85 bf 8d 95 ec be
       -0.52973366 0.0041220286 -1.0417149 -0.46207848
000040 23 db e5 be 6d 5d 7d be 3d 61 51 be a1 33 c3 be
       -0.4489375 -0.2474267 -0.2044725 -0.38125327
000050 3c 17 8c be 5c 14 b3 be b6 a4 de be ec 0b 41 be
       -0.27361476 -0.3497647 -0.4348504 -0.18852204
000060 18 64 c2 be 2d e7 2b bf 0c 7c 3a be 32 d6 27 bf
       -0.3796699 -0.6714962 -0.18211383 -0.6556121
000070 d9 81 85 bf 24 f5 98 be e0 b5 51 be b9 d9 59 bd
       -1.0430251 -0.29874527 -0.20479536 -0.053186152
000080 08 22 c4 be 7c ab b2 be 83 47 4b bf 1c 33 ba 3d
       -0.38307214 -0.34896457 -0.79405993 0.090917796
000090 11 2e 37 bf c7 b3 12 bf f0 66 bb be f3 28 34 ba
       -0.71554667 -0.5730557 -0.36601973 -0.0006872557
0000a0 66 f9 85 be 5c dd 08 3d f7 1c 48 3e d7 3d be be
       -0.26166838 0.03341423 0.19542299 -0.37156555
0000b0 04 e3 90 be da 02 40 bf bb 6a 60 be ec 87 24 be
       -0.282982 -0.7500435 -0.21915714 -0.16067475
0000c0 56 b4 2a bf e4 07 e3 be 01 c9 11 bf 46 39 04 be
       -0.6668142 -0.44341958 -0.5694733 -0.12912473
0000d0 5e 6e bf 3d 56 18 cc bc cb 77 e8 be 33 85 34 bf
       0.09347223 -0.024913948 -0.45403895 -0.70515746
0000e0 9c 51 32 bf 93 f0 92 be 1b 21 c4 be 88 05 01 bf
       -0.69655776 -0.2869917 -0.38306507 -0.50399065
0000f0 42 7d 37 bf 5f 9a 3c bf cf 60 61 be 2b 97 df be
       -0.71675503 -0.7367305 -0.22009586 -0.4367002
000100 40 19 18 bf e0 a7 03 bd 9f 15 f4 bc a2 d9 c0 3e
       -0.5941353 -0.03214252 -0.029795466 0.3766604
000110 f9 13 60 be 55 bc 7c be f1 28 28 bf ec 4b b7 be
       -0.21882619 -0.24681218 -0.6568747 -0.3580011
000120 f7 3d 8e 3d 36 e6 e3 be 31 c8 fa be 5b 7b 55 bf
       0.069454126 -0.44511575 -0.4898086 -0.8339135
000130 42 92 1f be 34 50 ae be 39 6a 0f bf db 8f bc bd
       -0.15583137 -0.34045565 -0.5602146 -0.09207126
000140 d6 d6 4c bf 36 fb f6 bd 26 94 98 be 52 aa b5 be
       -0.80015314 -0.120596334 -0.29800528 -0.35481507
000150 65 2b 19 bf 95 bb 11 bf 17 90 5c 3e 39 fc d9 be
       -0.5983184 -0.5692685 0.21539341 -0.42575243
000160 07 94 e2 be eb 93 f9 be fb b8 d8 bd 48 53 0b be
       -0.4425356 -0.48745665 -0.10582157 -0.13605988
000170 0f e3 34 bd 91 e0 b9 be 90 b7 10 bf d8 e1 ee bd
       -0.044161852 -0.36304143 -0.56530094 -0.1166417
000180 17 cc 65 bf f1 76 76 3d bd 44 99 be c7 75 0c be
       -0.8976454 0.060172025 -0.29935256 -0.13716803
000190 9f e2 cd be 10 fd ef be 5d 29 9f be a7 83 7f bf
       -0.4021196 -0.4687276 -0.31086245 -0.9981026
0001a0 46 10 94 be 75 63 e5 be 8f ca 4a bf 70 17 0c bf
       -0.28918666 -0.44802442 -0.7921533 -0.5472326
0001b0 5b b1 8e 3d a6 eb 35 bf 7d d0 c0 bf ec c6 1d bf
       0.069674216 -0.71062696 -1.5063626 -0.61631656
0001c0 cd 33 0f bf a4 c7 b9 be 55 95 e1 be 5a 2f b0 be
       -0.55938417 -0.36285126 -0.44059244 -0.34411126
0001d0 08 42 d5 be c0 7e ff be 8b e8 62 bf 75 3f a4 be
       -0.4165194 -0.4990139 -0.8863608 -0.32079664
0001e0 a2 73 2c be d6 cd 24 bf c9 30 d8 be 53 59 07 bf
       -0.16840985 -0.6437658 -0.4222472 -0.5287067
0001f0 0f e4 e1 be 7e 5a 2c bf 4d ba 56 3e 52 7b 63 bf
       -0.44119307 -0.6732558 0.20969506 -0.88860047
000200 44 ab 52 bf 6c 89 50 3e 6d cc 99 be 7f e7 0f be
       -0.8229258 0.20364922 -0.30038777 -0.14053153
000210 1e 02 84 be 64 58 6e be 75 f1 e0 3d 60 25 ed 3e
       -0.25782865 -0.23275906 0.10983554 0.46317577
000220 21 70 1b bf 69 35 20 bf 67 f2 80 3c 3b a6 36 3e
       -0.6071797 -0.625815 0.015740586 0.1783685
000230 e5 8c 90 bf f8 42 8d bd 9e 9f 34 bf 94 1b d4 be
       -1.1292998 -0.06897539 -0.70556056 -0.4142729
000240 bf 72 5b be 54 80 ad be 7d d5 73 bd 4b 72 b4 be
       -0.21430491 -0.3388697 -0.05952977 -0.3524345
000250 c0 5a b6 3b 97 66 b8 3d 7a d1 3c be 5b d3 26 3e
       0.0055650175 0.090039425 -0.18439284 0.16291563
000260 c1 01 95 bd b9 a4 03 bf d0 14 32 3f 20 2b 3e be
       -0.07275725 -0.5142322 0.6956301 -0.18571138
000270 bd 15 0b bf 8d 86 98 be 73 49 0e 3f 40 64 6f be
       -0.54330045 -0.29790154 0.55580825 -0.23378086
000280 37 e1 1b be a4 3b ea bd d8 8e 54 bf 59 47 25 3e
       -0.15222631 -0.11437157 -0.8303046 0.16140498
000290 27 3c 50 be cd ef e7 3d 60 e4 9e be 47 0f a4 be
       -0.20335446 0.11325035 -0.3103361 -0.32042906
0002a0 86 a6 7d be dd 38 03 be 7e 3c b0 be 59 c3 a7 bd
       -0.24770555 -0.1281466 -0.34421152 -0.081915565
0002b0 fd 81 a9 3d 3b 06 dc be dd c1 1d 3f 95 b4 17 be
       0.082767464 -0.42973503 0.61623937 -0.1481498
0002c0 92 9f b4 be 61 11 23 be 08 3f aa be b4 92 c0 be
       -0.35277992 -0.15924598 -0.33251214 -0.37611926
0002d0 af 98 d9 3e d1 10 e2 3e 17 ca 95 be 95 dd d7 be
       0.424993 0.44153455 -0.29255745 -0.4216124
0002e0 ce b6 aa be 71 1a 99 bc 51 69 82 be fa 1c a7 be
       -0.33342594 -0.018689366 -0.25470975 -0.32639295
0002f0 b6 58 31 bf 3e a2 cf be ef f4 9d be 36 96 81 be
       -0.6927599 -0.40553468 -0.30850932 -0.25309914
000300 56 c8 19 bf 53 28 b3 be 26 2f 6e 3e 71 3f 55 be
       -0.60071313 -0.34991702 0.23260173 -0.20824982
000310 48 86 c8 be 1c 6a 95 be ab 58 30 bf 7e 56 d2 3e
       -0.39164948 -0.29182518 -0.68885297 0.41081613
000320 fc 9d 43 bf 8b c6 fd be d6 35 f1 be 09 09 f8 be
       -0.7641294 -0.4956554 -0.47111386 -0.48444393
000330 e5 90 54 3e dd fc e6 bd cf 8f d4 bc 21 ac 3c 3f
       0.20758398 -0.112786986 -0.02594748 0.7370015
000340 ab c1 0f bf 44 ee 75 bf 92 8d f8 be 3e 3b f5 bc
       -0.5615489 -0.9606669 -0.4854551 -0.029935475
000350 60 30 3a bf 4b ac bc be 0a 99 38 be 78 60 9c be
       -0.72730064 -0.368502 -0.1802713 -0.3054235
000360 d9 b6 a0 bd f4 39 bd be 7b 30 7d 3e 34 c7 6e be
       -0.078473754 -0.36958277 0.24725525 -0.23318177
000370 a7 ac 7e 3d 44 6c 35 be 41 70 e8 be 84 d1 fd 3d
       0.062176373 -0.17717081 -0.45398143 0.123934776
000380 95 88 ab be a5 c9 ff 3d 0d 4a 88 be eb 5d 08 3e
       -0.3350264 0.124896325 -0.26618996 0.13317077
000390 8b c1 06 be 56 4b 87 be 19 c4 22 be 08 03 71 bf
       -0.13159768 -0.26424664 -0.15895118 -0.9414525
0003a0 05 90 1c bf 61 b3 49 be 7b e6 bc be 40 d5 c6 be
       -0.61157256 -0.19697334 -0.36894593 -0.38834572
0003b0 4e b1 67 bd 77 db 17 bf b4 49 5e bf 77 7d d3 be
       -0.056565575 -0.5931925 -0.8683121 -0.4130666
0003c0 64 d9 5e 3e d5 5e d1 3e 78 10 52 be e5 9c 82 3e
       0.21762615 0.40892664 -0.20514095 0.25510326
0003d0 1a 56 b5 be 6e cd e2 be 61 06 18 bf 96 9a f1 bd
       -0.35417253 -0.44297355 -0.59384733 -0.11797063
0003e0 e0 c3 87 3e a9 8b c2 3c 2d 72 8c 3e 03 47 bb bd
       0.26516628 0.023748236 0.2743086 -0.09144404
0003f0 a6 72 6a be 48 15 91 be 56 1a 05 bf 63 02 61 bf
       -0.22895297 -0.2833655 -0.5199331 -0.87894267

lstm.bias_hh_l0 f4 [512]
000000 e2 c5 57 bf b9 02 d1 be 2d c5 c9 be d4 30 b6 3e
       -0.8428632 -0.4082239 -0.39408246 0.35584128
000010 47 19 db be 45 eb d3 be 39 cb 78 be 5e ea e2 be
       -0.42792723 -0.41390434 -0.24296273 -0.44319433
000020 b4 7c 95 bf d6 46 8f bf b4 6a c3 be 5c 31 96 be
       -1.1678681 -1.1193492 -0.38167346 -0.29334533
000030 de 2f 1f bf 7a 5b fb 3c 97 e2 82 bf 6d 42 f4 be
       -0.62182415 0.030683268 -1.02254 -0.4770693
000040 48 6d cc be 23 1c cb be 37 dd 2f be 03 19 c6 be
       -0.39927125 -0.39669904 -0.1717423 -0.38690957
000050 2f 40 6e be 77 f9 c6 be 88 5d fc be 50 14 9a be
       -0.23266672 -0.38862202 -0.4929011 -0.30093622
000060 ce 52 bc be 12 cb 3e bf a4 03 36 be ee 72 20 bf
       -0.36781925 -0.7452861 -0.17774826 -0.6267537
000070 f9 fb 64 bf 36 06 b9 be 8c bd 47 be ff 88 29 be
       -0.8944698 -0.3613755 -0.195059 -0.16556166
000080 df 08 99 be c0 f8 8f be ee 1e 28 bf 72 18 df 3c
       -0.2988958 -0.2811947 -0.65672195 0.027233336
000090 28 1f 1c bf f0 b2 f4 be af 0c d3 be f2 6b 73 3d
       -0.6098504 -0.47792768 -0.41220614 0.059429117
0000a0 81 2a ad be 32 c3 d4 3d 0e 24 0e 3e 4b 99 a9 be
       -0.3382149 0.10388793 0.13880941 -0.33124766
0000b0 6d 2a b0 be dd 5a 37 bf 64 dd 77 be bd 92 66 be
       -0.34407368 -0.7162302 -0.24205548 -0.22516914
0000c0 74 33 37 bf 6c 6a e9 be 9e 4e 27 bf b9 25 50 be
       -0.71562886 -0.45589006 -0.65354335 -0.2032689
0000d0 e2 e3 cc 3d bc 4c a0 3d 5a e0 f1 be c2 ef 48 bf
       0.10004403 0.07827136 -0.4724148 -0.7849084
0000e0 33 b7 48 bf 54 b3 72 be 20 bc c2 be b1 f5 0d bf
       -0.7840454 -0.23701221 -0.38034153 -0.5545302
0000f0 ff fb 3c bf b5 78 1b bf aa dc b3 be 70 8e f5 be
       -0.73822016 -0.6073106 -0.3512929 -0.47960234
000100 a4 28 1a bf e9 e0 f0 bd 08 e1 ef bc 7c 15 ce 3e
       -0.6021826 -0.11761648 -0.029282108 0.40250766
000110 bf 16 61 be 39 70 b0 be 04 6c 1c bf 04 20 b0 be
       -0.21981333 -0.3446062 -0.6110232 -0.34399426
000120 0c 68 06 3e 73 00 b4 be 92 57 f1 be d8 39 4c bf
       0.13125628 -0.35156593 -0.47137123 -0.7977576
000130 63 e0 0d be 8c 13 a5 be 4b 9c 01 bf 20 55 76 bd
       -0.13855128 -0.32241476 -0.5062911 -0.060139775
000140 ff d9 3b bf 5a 3a 08 be 25 a6 5f be dd 65 9b be
       -0.7337951 -0.1330351 -0.21840723 -0.30351153
000150 07 89 31 bf 08 03 dd be 79 00 31 3e d0 9b 01 bf
       -0.6934971 -0.43166375 0.17285337 -0.50628376
000160 18 7f c9 be a6 7b fa be f0 3b 6a be dd f3 5b be
       -0.39354777 -0.4892246 -0.22874427 -0.21479745
000170 ea 87 ae bd 05 c0 d5 be d3 b5 13 bf 59 a3 24 be
       -0.08522017 -0.41748062 -0.57699317 -0.16077937
000180 7d a1 7f bf 43 02 79 3d c7 93 99 be a9 4d 14 be
       -0.99855787 0.060793173 -0.29995558 -0.1448275
000190 a0 4c db be 11 2a f4 be 18 ea 3a be 23 4a 71 bf
       -0.42831898 -0.47688344 -0.18253362 -0.9425375
0001a0 94 52 9c be b1 48 e8 be 32 c4 5b bf d6 87 f5 be
       -0.30531752 -0.4536796 -0.85846245 -0.47955197
0001b0 a4 97 71 bd 85 f3 49 bf d8 fb b8 bf d5 68 0c bf
       -0.058982506 -0.78887206 -1.4451857 -0.5484746
0001c0 7a 65 08 bf 1a 5a f7 be 2c b3 d3 be a7 d8 56 be
       -0.5327984 -0.4831093 -0.41347635 -0.20981084
0001d0 89 3a fd be 33 96 dc be 24 b8 71 bf ca 82 c7 be
       -0.4945872 -0.43083343 -0.944216 -0.38966972
0001e0 b5 17 6c be 9e 57 1e bf 82 bf c1 be a1 4b c7 be
       -0.23055919 -0.61852443 -0.3784142 -0.38924888
0001f0 c0 28 da be 7f 4d 29 bf fd e8 00 3e d2 7a 59 bf
       -0.42609215 -0.66133875 0.12588878 -0.84953034
000200 df d2 4b bf 8a 7a 49 3e ff 09 a8 be b6 0b 58 bd
       -0.7961864 0.19675651 -0.32820126 -0.052745543
000210 9b 5d b3 be 97 49 30 be 99 17 cd bc db 12 f6 3e
       -0.35032353 -0.17215572 -0.025035666 0.4806126
000220 b9 16 0a bf 2a 80 41 bf 96 02 2c bd 94 0e 2d 3e
       -0.5394092 -0.7558619 -0.041994654 0.16900092
000230 c2 f5 88 bf 16 14 29 be 62 93 10 bf dc 2e 05 bf
       -1.0699999 -0.16511568 -0.5647489 -0.52024627
000240 96 64 bf bd 39 59 68 be 71 fe f0 bd 77 59 ae be
       -0.09345357 -0.22690286 -0.11767281 -0.3405263
000250 1e ad 65 3d e9 1b 56 3d 42 a0 7c be 43 c2 1a 3e
       0.0560733 0.05227271 -0.24670509 0.15113167
000260 3d 19 bb bd 09 02 ea be a1 4d 2b 3f dc 5c 91 be
       -0.09135673 -0.45704678 0.6691533 -0.2839116
000270 78 84 28 bf ac 0f b6 be df 34 1c 3f 99 97 0e be
       -0.6582713 -0.35558832 0.61018175 -0.13925017
000280 74 93 19 be 39 2a fd bd 3c 37 42 bf 6e 96 21 3e
       -0.14997655 -0.12361569 -0.7586553 0.1578004
000290 98 3e bb be 49 91 35 3c cd 48 e6 be c2 b5 92 be
       -0.36571193 0.011082002 -0.44977418 -0.28654295
0002a0 e6 e7 b6 be 05 fd 95 bd 7d 50 d4 be db 58 6b bd
       -0.357238 -0.0732365 -0.41467658 -0.057457786
0002b0 5f cd c8 3c cc b8 fb be 51 67 1e 3f 7d d1 29 be
       0.024511991 -0.49164426 0.618764 -0.1658382
0002c0 6b a2 e1 be fb 4c 12 be 22 82 f0 be 06 f4 fb be
       -0.44069228 -0.14287178 -0.46974283 -0.49209613
0002d0 25 11 bc 3e d7 6b cf 3e d9 8f c0 be 6e d7 03 bf
       0.3673183 0.40511963 -0.37609747 -0.51500595
0002e0 03 e3 e7 be a2 7d 10 bd 73 bc 54 be d1 ad c8 be
       -0.45290384 -0.035276063 -0.20775013 -0.3919511
0002f0 00 ba 22 bf b3 2c b9 be 43 fb a6 be 94 54 a1 be
       -0.63565063 -0.36166915 -0.32613572 -0.3150984
000300 0f f7 1c bf c1 98 9d be 67 07 99 3e 98 01 44 be
       -0.6131448 -0.30780604 0.2988846 -0.19141233
000310 27 30 db be c8 2b 5f be ee 30 24 bf 94 7b 0a 3f
       -0.42810175 -0.21794045 -0.6413716 0.54094815
000320 f0 6e 2d bf cf 8d 00 bf 03 9c b5 be 87 40 01 bf
       -0.677474 -0.5021638 -0.3547059 -0.50489086
000330 4e ba 93 3e 40 be 0e bc e3 49 0b be 9f b6 40 3f
       0.28853077 -0.008712351 -0.13602404 0.7527866
000340 63 24 09 bf 43 72 5e bf 71 d0 0d bf ab 62 17 be
       -0.53571147 -0.868931 -0.5539618 -0.14783733
000350 52 12 38 bf 80 92 ee be c5 ef 58 be 40 4f 81 be
       -0.71902955 -0.46596146 -0.21185215 -0.25255775
000360 43 bf 93 bd 31 40 b7 be 18 0b bc 3e b8 50 86 be
       -0.07214215 -0.35791162 0.36727214 -0.2623346
000370 bb 6c 43 3c 90 10 3d be d8 91 ff be 59 39 b5 3d
       0.011927779 -0.1846335 -0.49915957 0.08848829
000380 3e 61 a4 be 7f 89 17 3e 91 6f 71 be 39 b5 ee 3d
       -0.3210544 0.14798544 -0.23577715 0.11655659
000390 84 aa 80 be ec 85 87 be 83 eb ea bd 33 a4 6f bf
       -0.25130093 -0.26469362 -0.114707015 -0.93609923
0003a0 9a e4 18 bf 59 9b 3a be 49 57 b2 be 78 24 b2 be
       -0.5972382 -0.18223323 -0.34832218 -0.34793448
0003b0 7b 98 01 bd 77 cc 23 bf bf 3b 4f bf e5 33 cd be
       -0.031639557 -0.63983864 -0.8095054 -0.40078655
0003c0 77 ae 87 3e d0 6c d7 3e bc 6d b1 be cc de 4d 3e
       0.26500294 0.42075205 -0.34654033 0.20104522
0003d0 38 c0 85 be a3 92 08 bf 6e 62 17 bf 8b 54 83 be
       -0.26123214 -0.5334875 -0.59134567 -0.2565044
0003e0 85 1c 43 3e cd 6e 91 bd 5a e1 23 3e a6 94 13 be
       0.19053848 -0.07101212 0.16003934 -0.14412174
0003f0 47 fd 31 be 8a c7 90 be 36 01 05 bf 34 12 47 bf
       -0.17381774 -0.28277236 -0.5195497 -0.7776215

fc.weight f4 [4, 128]
000000 d2 52 16 bf 6c 9d 23 3f 32 b1 56 3f 4d 1c a5 3f
       -0.58720124 0.6391208 0.8386413 1.2899262
000010 c1 d0 88 bf ba 2e 69 3e 19 75 d7 bf 68 7a 9d bf
       -1.0688707 0.22771731 -1.683261 -1.230298
000020 79 cc 3b 3f 15 4d d1 bd d5 48 35 3f 1d 6a 8a bf
       0.73358876 -0.1021978 0.7081426 -1.0813633
000030 dc 81 ea 3d f3 1e c8 be 77 b1 df bd 03 1f 85 be
       0.1145055 -0.39086112 -0.109225206 -0.26000223
000040 59 60 5f be e4 e1 ea 3d 48 32 3a bf df 71 23 3f
       -0.21814097 0.114688665 -0.72732973 0.6384563
000050 b3 2c a4 bf b4 ae 6c 3f d7 4b 18 bc fa ff 62 40
       -1.2826141 0.92454076 -0.009295425 3.5468736
000060 e6 09 96 bf 57 3a 38 3e ac eb 52 3d 64 32 9e be
       -1.1721771 0.17991005 0.051494285 -0.3089782
000070 d1 35 70 3f 76 15 81 bd cc 36 bd bf bc 53 2a 3e
       0.9383212 -0.063029215 -1.4782348 0.16633505
000080 9f b6 fb be 3c fd 17 c0 39 d2 08 3d 1c 9b 79 bf
       -0.49162766 -2.3748312 0.03340361 -0.97502303
000090 92 e3 25 be 5e 3b ee be 66 28 eb be 14 ff e1 3d
       -0.16200092 -0.4652967 -0.4592926 0.110349804
0000a0 7e b3 3a 3e b6 4d 10 3f 3f 34 28 bf e8 87 5d 3e
       0.18232533 0.5636858 -0.6570472 0.21633875
0000b0 52 a3 90 c0 3d 30 3c 3f 9a 6a 8d 3c c7 c4 72 3e
       -4.5199366 0.73511106 0.017262746 0.23707877
0000c0 56 c0 a4 3e 7a 6c 59 3f 75 66 75 be 27 38 22 bf
       0.3217799 0.8493115 -0.23964866 -0.6336693
0000d0 75 c1 fe 3e 64 f3 bd bf c2 b3 e0 bd ec b9 b1 be
       0.4975697 -1.4839902 -0.10971786 -0.3471216
0000e0 ad c7 c0 be 58 53 20 3f 16 a4 50 3f de 7a 67 c0
       -0.3765234 0.6262717 0.81500375 -3.6168742
0000f0 cc 70 3d bf d3 b7 55 3e 1f 1c ac bf 44 d6 00 3f
       -0.7400024 0.20870905 -1.3446082 0.50326943
000100 4b 5c bc bc e6 44 02 bf d6 a9 21 3f fe 4f 3a bf
       -0.022993227 -0.5088638 0.63149774 -0.7277831
000110 83 37 9d 3e 9b 2c 18 c0 56 db a8 3e 6f 1b 6b c0
       0.30706415 -2.3777225 0.3297984 -3.6735494
000120 08 dc 91 be ef 51 2d 3f 04 67 29 3f ef 34 d4 bc
       -0.28488183 0.67703146 0.66172814 -0.025904147
000130 21 f2 55 3f c3 c7 34 bf 84 04 ae 3f ae 2c 04 3f
       0.83572584 -0.7061731 1.3595128 0.51630676
000140 d6 a5 c7 bf d5 f5 83 3e 12 b5 5c 3f c9 15 68 bf
       -1.5597484 0.25773492 0.8621379 -0.9065824
000150 b2 e9 a2 be 66 7f 49 bf 7d 65 0c bf b8 7f a3 bf
       -0.3181892 -0.7871002 -0.5484236 -1.2773352
000160 54 7c 66 c0 91 04 6d 3e 76 ed 55 c0 fa ce f7 3e
       -3.6013384 0.23146273 -3.3426185 0.48400098
000170 32 9a 72 bf 3a da 8b 3d e5 e5 dc 3d ee 39 a8 be
       -0.94766533 0.06828733 0.107860364 -0.32856697
000180 fc e9 9d be 52 52 9d 3d fa 5a 0a bf af e5 f9 be
       -0.30842578 0.07681717 -0.5404507 -0.48808047
000190 d7 fc 9e bf 55 d8 78 bd 94 eb 3a bf e6 af 3f be
       -1.2420911 -0.060753185 -0.73015714 -0.18719444
0001a0 a7 1f 1e 3e f8 89 02 3e bf 42 d3 3f 78 81 0a 3c
       0.15441762 0.12747943 1.6504744 0.008453719
0001b0 0a 96 de 3f f2 3e 2b 3e b6 9c f1 3d ab f8 fe bf
       1.7389538 0.1672323 0.11797468 -1.9919637
0001c0 35 7c 5b bf a1 4c 36 3f 86 ca 3a bf 02 18 a1 3d
       -0.857364 0.71210676 -0.72965276 0.07865907
0001d0 34 3e 94 bf 67 f3 d6 3c 0c a5 ad bd 38 14 f3 3f
       -1.1581483 0.02623911 -0.08478746 1.8990545
0001e0 7c 4f 18 bf 67 55 03 be 61 78 ad bf 4d a1 88 3e
       -0.59496284 -0.12825547 -1.3552362 0.26685563
0001f0 c2 42 93 3e 88 ab ed 3f e9 f2 fb 3e 43 95 a1 bc
       0.2876187 1.8567972 0.49208763 -0.019724494
000200 44 31 e3 3e cd 9f 93 3e 85 53 b3 3e e4 db 5a 3d
       0.44373524 0.28832856 0.35024658 0.05343236
000210 9a ba 13 bf 90 43 79 3f 78 ae a9 3e 90 9a 6d bd
       -0.57706606 0.9736872 0.33140922 -0.05800873
000220 43 97 c8 be ed 18 f9 3e d9 d3 14 40 67 97 58 3f
       -0.39177904 0.4865183 2.3254302 0.8460602
000230 99 dd 24 3f 6a 3b f6 be a1 be b5 3e 0f 7d 95 bf
       0.6440063 -0.48092204 0.35497 -1.167879
000240 b5 4b da bf 34 f6 43 3f f5 59 d2 3c 59 10 ca 3f
       -1.7054354 0.7654755 0.02567766 1.5786239
000250 db 56 2d bf 29 86 c5 be 9f 4d 77 3f 59 7c 23 bd
       -0.67710656 -0.3857892 0.96602815 -0.03991351
000260 be f2 9c 3f f1 3f 40 be a7 68 97 be ae 07 96 3f
       1.2261579 -0.18774392 -0.2957203 1.1721094
000270 33 34 47 bf f7 73 65 3f ac b1 27 be ee e4 7b 3d
       -0.77814025 0.89630073 -0.1637637 0.06149762
000280 a0 f5 aa 3d b1 6d 3c 3d de 25 93 3e b9 ac 3f be
       0.083476305 0.046003047 0.28739828 -0.18718232
000290 cb d1 62 3e e2 ac 8b 3e 49 b1 db 3e 5a e7 d2 be
       0.22150342 0.27280337 0.42908695 -0.41192132
0002a0 60 66 83 3d b4 2c a6 3f 2f 2a 14 be 86 46 07 bf
       0.06416011 1.2982392 -0.14469217 -0.52841985
0002b0 c9 64 2d bd 95 a4 ef be d3 d7 bf be 98 f4 d7 be
       -0.042332444 -0.46805254 -0.37469348 -0.42178798
0002c0 9f bf 52 bb 91 1c 5e 3e c6 35 a7 3e 56 6a f1 3f
       -0.0032157672 0.21690585 0.32658213 1.8860576
0002d0 c4 60 84 be eb d8 0b 3f aa 64 37 3f b9 fe 3d 3e
       -0.25855076 0.54627866 0.71637976 0.185542
0002e0 35 1e e0 bf 2e cb 66 bc ff 3d f2 bf 51 f0 1e bf
       -1.7509218 -0.014086528 -1.892517 -0.62085444
0002f0 c7 0f 01 bf 30 c1 89 3f 4e 04 bf be d2 a3 0d 3f
       -0.504147 1.0762081 -0.37307972 0.55328095
000300 e7 a9 fd 3e 59 25 06 bf 48 58 e9 bf 66 eb ab bd
       0.49543688 -0.5240074 -1.8230066 -0.08394508
000310 55 02 df bf 8b 00 e3 be 47 b3 9c 3f 56 3a 67 3e
       -1.7422587 -0.44336352 1.2242211 0.22580847
000320 17 58 d3 be 60 9d fc 3e df 34 47 3f 26 77 33 3e
       -0.41278145 0.49338818 0.7781505 0.1752592
000330 b2 7f 67 be 2b 71 34 3f ed 85 c3 be d5 39 ad bd
       -0.22607306 0.7048518 -0.38188115 -0.08458296
000340 4e d4 02 be 92 10 81 3e 17 8c 66 3f c0 5c b4 3e
       -0.127763 0.25207955 0.9005751 0.35227013
000350 71 eb 3c 3f 78 96 82 3f 51 b1 f1 bd a7 fd d1 bf
       0.73796755 1.020217 -0.118013985 -1.6405534
000360 3e 81 89 3f 50 9a e3 be 9e 0b d6 3e 21 bb 0d be
       1.0742567 -0.4445367 0.41805738 -0.13840915
000370 67 53 41 bf 35 b4 46 bf 2c 77 97 bd 44 2f 2d 3e
       -0.75517887 -0.77618724 -0.07395777 0.16912562
000380 c1 a0 84 3d af 2d 8d bf 86 6a 8a bf 33 f0 bc bf
       0.06475974 -1.1029567 -1.0813758 -1.4760803
000390 11 e4 bc 3d 78 98 39 bf b1 8b 5d bf 28 9e 00 3d
       0.09223188 -0.72498274 -0.8654128 0.03140083
0003a0 86 9b a8 3d bb a2 86 bf 6c 3b 2a be 85 be 97 be
       0.08232789 -1.0518411 -0.1662423 -0.29637542
0003b0 6e 4c 3e 3c 92 a4 65 3e 3d 59 06 bd 65 4b fb bd
       0.011614902 0.2242606 -0.032799948 -0.1227024
0003c0 e5 4c 93 be f4 60 25 bf 3a a9 a3 be c9 98 68 3e
       -0.28769603 -0.64601064 -0.31965047 0.22714533
0003d0 77 d4 61 bf 2a ab 5e 3f 01 7c 3e 3f 8d 9f 81 bd
       -0.8821482 0.86979926 0.74407965 -0.0632926
0003e0 3e f3 5f 3e b8 9a 1d be 1f 3d 2b 3e a2 e1 41 3f
       0.21870133 -0.15391052 0.16722535 0.75734913
0003f0 b7 31 01 3f ce a3 1c 3f d3 3a a9 be 52 4a 38 3f
       0.50466484 0.61187446 -0.33052692 0.71988404

fc.bias f4 [4]
000000 12 5d 66 bf 7d b2 94 bc 0f ed 70 3d 27 0c 26 bf
       -0.89985764 -0.018151516 0.058819827 -0.64862293
