CNN/CNN1/model.pth (torch, 108815 bytes, 8 tensors)

conv1.weight f4 [16, 3, 3]
-0.12680861 0.09009448 -0.22371833 0.025347263 0.04370022 0.08317456 -0.12670633 0.108623505
-0.25858325 0.20983656 0.13483101 -0.2268428 0.76075125 0.18245432 -1.306173 -0.26918253
-0.9647365 0.006456575 -1.2340487 -1.2141055 -0.90477234 0.63856167 0.5263552 0.07036025
0.6515109 0.4447128 -0.42028722 0.17139915 0.28710595 -0.259448 -0.32195053 -0.19658017
-0.027728468 -0.19576459 -0.20172617 -0.25961822 -0.31029043 -0.56503284 -0.75289345 0.5936842
0.27316406 0.74939656 -0.6789606 -0.61828715 -0.7772585 0.021960326 0.09492719 0.09504916
0.27533063 0.09225866 0.42069584 -0.49802262 -0.53338504 -0.8132476 -0.66730964 -0.7175008
-0.8815139 0.3514163 0.38034764 0.760663 -0.1037934 -0.57059246 -0.5117293 0.20648415
0.48811466 0.26163808 -0.5784734 -0.22464815 0.071846776 -0.21579906 -0.22140338 -0.16524489
-0.076716006 0.15449746 -0.2638558 -0.8796552 -0.48237222 -0.21996373 0.3673708 0.3908115
0.3538425 0.0538006 0.48524788 0.6642888 -0.6279203 -0.9925939 -0.25707352 -0.04895029
0.052783288 0.24730092 -0.728079 0.038086157 -0.01942134 0.46603632 0.6869344 0.2828174
-0.1336853 -0.4245068 -0.21636899 -0.48038176 -0.45789495 -0.48433623 0.31722888 0.3742136
0.3986109 0.36401692 0.062205344 0.35423988 0.80755436 0.7771177 1.0522153 -1.4722922
-1.6252031 -1.5580914 0.09898629 0.12042228 -0.38881528 -0.5283063 -0.54272133 -0.5152942
-0.36883944 0.36706287 0.15697193 0.34028843 0.5497512 0.4092143 0.17536378 0.09164089
0.27389407 -0.10946589 0.31880218 0.20428331 -0.10710583 -0.7774752 -0.8929631 -0.6789411
-0.29043058 -0.65935403 -0.68742675 -0.5862869 -1.0836314 0.405455 0.28875434 0.4029666
00000000: 1eda 01be 7483 b83d 6b16 65be 10a5 cf3c
00000010: 00ff 323d 6c57 aa3d 4ebf 01be 0076 de3d
00000020: 0665 84be 65df 563e 2411 0a3e 7b49 68be
00000030: 98c0 423f 4ed5 3a3e ad30 a7bf 4bd2 89be
00000040: f9f8 76bf ad91 d33b 4ff5 9dbf cf67 9bbf
00000050: 299f 67bf c778 233f 37bf 063f 0919 903d
00000060: 6bc9 263f 65b1 e33e e32f d7be 4283 2f3e
00000070: 8dff 923e 5ed6 84be b3d6 a4be 504c 49be
00000080: d026 e3bc 8376 48be 4e91 4ebe aeec 84be
00000090: 63de 9ebe fea5 10bf a0bd 40bf b0fb 173f
000000a0: 29dc 8b3e 74d8 3f3f 5dd0 2dbf 1148 1ebf
000000b0: 6afa 46bf 24e6 b33c 3069 c23d 22a9 c23d
000000c0: 23f8 8c3e 1cf2 bc3d 7265 d73e d2fc febe
000000d0: ec8b 08bf ff30 50bf ced4 2abf 22ae 37bf
000000e0: e5aa 61bf d6ec b33e edbc c23e cfba 423f
000000f0: a291 d4bd 5912 12bf b100 03bf 9570 533e
00000100: 2aea f93e 6df5 853e d516 14bf 2a0a 66be
00000110: 6724 933d 6efa 5cbe 91b7 62be f535 29be
00000120: 481d 9dbd 9534 1e3e 1b18 87be 1531 61bf
00000130: 7ef9 f6be 2c3e 61be 0718 bc3e 7218 c83e
00000140: d82a b53e 055e 5c3d 6972 f83e d50e 2a3f
00000150: 63bf 20bf a21a 7ebf 249f 83be 1980 48bd
00000160: 4a33 583d 743c 7d3e 6363 3abf 3b00 1c3d
00000170: 8119 9fbc 509c ee3e efda 2f3f 71cd 903e
00000180: cde4 08be f558 d9be d58f 5dbe 99f4 f5be
00000190: 3571 eabe ebfa f7be d36b a23e ed98 bf3e
000001a0: ba16 cc3e 6d60 ba3e 08cb 7e3d ee5e b53e
000001b0: e2bb 4e3f 30f1 463f feae 863f 1274 bcbf
000001c0: a806 d0bf 8a6f c7bf 53b9 ca3d f59f f63d
000001d0: cc12 c7be 153f 07bf c9ef 0abf 52ea 03bf
000001e0: 86d8 bcbe aaef bb3e 40bd 203e 493a ae3e
000001f0: 7fbc 0c3f 8984 d13e 9092 333e 38ae bb3d
00000200: d83b 8c3e a72f e0bd 0a3a a33e a52f 513e
00000210: 4d5a dbbd 9d08 47bf 3b99 64bf 15cf 2dbf
00000220: 51b3 94be 6dcb 28bf 33fb 2fbf e616 16bf
00000230: 6fb4 8abf cc97 cf3e 9cd7 933e a351 ce3e

conv1.bias f4 [16]
-0.24548507 -0.051062003 -0.124065384 -0.12264192 -0.43633965 0.057679802 -0.013780615 0.02486127
-0.2556057 0.065087676 -0.24759163 -0.45883483 -0.19067663 0.22716565 0.015919872 0.2262159
00000000: 7060 7bbe 6426 51bd fe15 febd b02b fbbd
00000010: e967 dfbe a841 6c3d 17c8 61bc dda9 cb3c
00000020: c0de 82be b04c 853d a988 7dbe 66ec eabe
00000030: bc40 43be 1d9e 683e 646a 823c 24a5 673e

conv2.weight f4 [32, 16, 3]
0.057684287 -0.08880224 -0.08753015 -2.5305173 -7.1776533 0.16270027 0.7288441 0.82040757
0.7288476 0.003940806 -0.08622755 -0.040354088 -0.08518256 1.5285727 -0.48255023 0.056846727
0.114271335 0.17071858 -0.93257767 -0.084519364 -1.08614 -0.10376751 0.07853187 0.1330053
-0.045024194 0.23852275 0.57939947 -1.7790849 -0.61094636 0.18509525 -0.48977402 -0.54105365
-0.8108524 0.37630433 0.4011208 0.18332545 0.48834327 -0.45572016 -0.52377427 0.14503326
0.040499073 -0.1799456 0.28229108 0.29165295 0.294777 -0.09104126 0.04938505 -0.17925078
0.11454263 -0.13713178 -0.12922113 0.076893926 0.06484537 0.110987 0.033724822 0.108647265
0.09039068 0.0030965805 0.034778714 0.06254403 -0.030766672 -0.15465899 0.02562728 -0.061104942
-0.018389378 0.058050856 0.08138417 -0.005356274 -0.098518446 -0.17076382 -0.17655551 0.07993994
0.029404879 -0.0622719 0.0016161203 -0.14040017 0.042953283 -0.13883346 -0.08328157 0.07932907
0.05106291 -0.092472464 -0.07621709 0.087343566 0.10081116 0.04859824 -5.5026903e-05 0.016752854
-0.13466083 -0.14863537 0.012422304 -0.19263795 -0.131513 -0.024500031 -0.057554834 -0.06320188
-0.00058209896 -0.05814884 0.1261197 -3.0211818 -4.4706764 1.1096991 0.50726897 0.10900386
0.35676712 0.1338973 0.001232326 0.02610214 -0.43951774 0.928945 -1.2379973 0.0731799
0.22598527 0.434017 -1.160665 0.032459877 -1.668822 -0.0844725 -0.12208163 0.16763596
0.6946989 0.3642788 0.19295652 -0.20317991 -0.12435987 -0.14239275 -0.34406412 -0.33008167
-0.38294944 0.3196093 0.2917388 0.2904328 -0.90875465 -2.8522613 -0.17419983 0.10453546
0.015352171 0.061705526 0.33294827 0.38565543 0.36558992 0.32776016 0.09532001 -0.055466127
-0.07570208 0.12569675 0.10489614 -0.13929133 0.008089349 -0.017105043 -0.02633416 -0.12821198
-0.064005196 -0.08508256 -0.13392428 0.009253174 -0.012567674 -0.13289137 0.07009815 -0.06143245
-0.114577666 -0.11797946 0.0603078 0.11075637 0.07483512 0.07081343 0.02415169 -0.14300598
-0.10573016 -0.049130753 0.07195619 0.07470068 0.05736595 -0.12556626 -0.0100324005 0.03341171
0.069127604 -0.047210366 -0.104943424 -0.071417585 -0.07615679 -0.0149806375 0.038741358 0.055094626
-0.1817397 -0.036636777 0.14071351 -0.087117225 0.00365673 0.0932925 -0.009310384 0.112123996
0.026162922 -0.086259775 0.047885165 0.10853888 0.11607775 0.9924246 -0.58480954 -0.4579817
1.7141399 0.029719993 0.058369353 -0.065441296 0.59454757 -0.26320705 -1.5476758 -0.21684587
0.21628682 -0.013075929 0.15644895 -0.70869815 -1.7978384 -1.0299697 -1.4545135 -1.500397
0.4666531 0.34108162 0.32572222 -0.004243266 -0.07153559 -0.09445959 -0.13604562 -0.0027289588
-0.21344486 0.24496621 0.3154401 0.18065712 0.008736718 0.1223522 0.1422726 0.42103803
0.36017433 0.34418824 -0.15351824 0.19060637 0.052066263 0.44124815 0.5702801 0.75028926
-0.13264912 0.022362962 -0.12184669 3.2788448 2.5089734 0.619815 1.9004852 1.6903386
1.9613285 -0.073234856 -0.094457135 -0.11673442 1.1359111 1.3675743 1.7018955 -0.16056287
00000000: 5c46 6c3d f3dd b5bd 0243 b3bd fff3 21c0
00000010: 56af e5c0 e69a 263e 8795 3a3f 3b06 523f
00000020: c295 3a3f e021 813b 1298 b0bd 544a 25bd
00000030: 3274 aebd 45a8 c33f d310 f7be 1dd8 683d
00000040: 1707 ea3d dad0 2e3e 69bd 6ebf 7d18 adbd
00000050: a306 8bbf 0f84 d4bd 51d5 a03d 8b32 083e
00000060: 4a6b 38bd 4f3f 743e 8653 143f 0eb9 e3bf
00000070: fb66 1cbf 9c89 3d3e a9c3 fabe 7e82 0abf
00000080: 0694 4fbf f6aa c03e b55f cd3e abb9 3b3e
00000090: 2108 fa3e 2754 e9be 1216 06bf 9983 143e
000000a0: 5be2 253d a943 38be 7588 903e 8953 953e
000000b0: 03ed 963e d773 babd fa47 4a3d 848d 37be
000000c0: 5495 ea3d 466c 0cbe 8b52 04be 907a 9d3d
000000d0: a6cd 843d 274d e33d 0a23 0a3d 7582 de3d
000000e0: c01e b93d 00f0 4a3b 2074 0e3d 1617 803d
000000f0: 630a fcbc ed5e 1ebe 4df0 d13c 2d49 7abd
00000100: 52a5 96bc bcc6 6d3d beac a63d af83 afbb
00000110: 0ac4 c9bd b6dc 2ebe f8ca 34be 8db7 a33d
00000120: 80e2 f03c d210 7fbd 00d4 d33a 10c5 0fbe
00000130: c8ef 2f3d 5c2a 0ebe 878f aabd 4877 a23d
00000140: 5827 513d 3462 bdbd b517 9cbd 2fe1 b23d
00000150: 1576 ce3d f30e 473d b0cc 66b8 483d 893c
00000160: 87e4 09be df33 18be eb86 4b3c e242 45be
00000170: 58ab 06be 4ab4 c8bc 9ebe 6bbd fd6f 81bd
00000180: 0098 18ba 7a2d 6ebd 8625 013e 0b5b 41c0
00000190: c80f 8fc0 9f0a 8e3f 61dc 013f 6a3d df3d
000001a0: 2eaa b63e 601c 093e 0086 a13a 28d4 d53c
000001b0: 7808 e1be 57cf 6d3f b276 9ebf 58df 953d
000001c0: af68 673e 7a37 de3e ac90 94bf a6f4 043d
000001d0: f69b d5bf ebff acbd ef05 fabd c3a8 2b3e
000001e0: cad7 313f c082 ba3e 6596 453e 650e 50be
000001f0: 63b0 febd 68cf 11be 2c29 b0be 7700 a9be
00000200: f311 c4be d5a3 a33e ca5e 953e 9cb3 943e
00000210: 25a4 68bf 738b 36c0 7161 32be b016 d63d
00000220: ac87 7b3c efbe 7c3d 3278 aa3e a174 c53e
00000230: 9a2e bb3e 2ed0 a73e 2337 c33d 7330 63bd
00000240: b109 9bbd a6b6 003e cad3 d63d 63a2 0ebe
00000250: 3089 043c e01f 8cbc bcba d7bc 004a 03be
00000260: 2815 83bd c43f aebd 7223 09be a09a 173c
00000270: a5e8 4dbc ad14 08be 9e8f 8f3d 98a0 7bbd
00000280: b2a7 eabd 379f f1bd 5005 773d 3cd4 e23d
00000290: 2843 993d a206 913d c4d9 c53c 2970 12be
000002a0: 0e89 d8bd 543d 49bd c45d 933d acfc 983d
000002b0: 8ff8 6a3d 7194 00be f05e 24bc b8da 083d
000002c0: c692 8d3d a85f 41bd 94ec d6bd 6243 92bd
000002d0: 17f8 9bbd 5971 75bc 42af 1e3d e7aa 613d
000002e0: f919 3abe 7210 16bd 3417 103e 846a b2bd
000002f0: c0a5 6f3b 2310 bf3d 958a 18bc 44a1 e53d
00000300: a053 d63c f7a8 b0bd 3c23 443d a249 de3d
00000310: 2cba ed3d 8a0f 7e3f 14b6 15bf 947c eabe
00000320: f068 db3f 5877 f33c b414 6f3d 1606 86bd
00000330: 4534 183f 13c3 86be 3e1a c6bf d80c 5ebe
00000340: 4b7a 5d3e 6c3c 56bc 2734 203e 3e6d 35bf
00000350: 921f e6bf 0cd6 83bf 802d babf 020d c0bf
00000360: 28ed ee3e 40a2 ae3e 10c5 a63e 180b 8bbb
00000370: 4081 92bd 0874 c1bd 8b4f 0bbe 55d8 32bb
00000380: 4a91 5abe 6cd8 7a3e 5d81 a13e 2efe 383e
00000390: 7424 0f3c ca93 fa3d e9af 113e 4c92 d73e
000003a0: c568 b83e 7139 b03e e333 1dbe 512e 433e
000003b0: 6f43 553d 47eb e13e e0fd 113f f512 403f
000003c0: 2cd5 07be 8832 b73c c28a f9bd 98d8 5140
000003d0: 0593 2040 32ac 1e3f 1943 f33f 045d d83f
000003e0: d00c fb3f 28fc 95bd be72 c1bd 7512 efbd
000003f0: 8965 913f ad0c af3f b6d7 d93f 986a 24be

conv2.bias f4 [32]
-0.121550195 -0.1562704 -0.08560812 -0.17668809 -0.22312844 -0.8286961 -0.6299836 -0.16638736
-0.14562921 -0.014637118 -0.691462 -0.0061619794 0.00025784006 -0.1905454 0.20479542 -0.15549716
0.18744627 -0.7154907 0.21817563 -0.019936195 -0.87483263 -0.04797389 -0.35385612 -0.117501
-0.08573069 -0.014326827 -0.6919993 -0.33011454 -0.123067744 0.3988827 -0.09833205 0.063224174
00000000: 4fef f8bd 5905 20be 4f53 afbd b9ed 34be
00000010: c87b 64be 6d25 54bf 9b46 21bf 7361 2abe
00000020: d31f 15be 86d0 6fbc a703 31bf 6eea c9bb
00000030: b52e 8739 551e 43be e4b5 513e a63a 1fbe
00000040: eaf1 3f3e 662a 37bf 6f69 5f3e 3b51 a3bc
00000050: 08f5 5fbf 4580 44bd a12c b5be 5da4 f0bd
00000060: 9293 afbd 11bb 6abc de26 31bf c604 a9be
00000070: f10a fcbd 5a3a cc3e 5062 c9bd ad7b 813d

fc1.weight f4 [64, 384]
0.39215735 0.23210034 0.46831617 0.56967455 0.4693358 0.1407623 0.21134794 -0.007825923
0.03638442 0.22024122 0.3479344 0.48000935 -0.010860071 0.033795133 0.025552273 0.017810216
0.038875155 0.023822226 0.0659542 0.019478371 -0.07290938 -0.025391413 0.035542615 -0.015537832
0.30679607 0.05083765 0.24022965 0.18584566 -0.13805202 -0.051030073 -0.30262214 -0.35823166
-0.1450518 -0.21947019 -0.15822712 0.07389857 0.015682096 -0.019661311 -0.016907662 0.030886441
-0.02520966 -0.006773513 -0.0125920735 0.050279394 -0.014516097 -0.041050337 0.0033419058 -0.0178089
1.2276387 0.6324748 0.65960366 0.5857469 0.35044232 0.25700933 0.18520065 0.21613458
0.31925347 0.2371583 0.21547426 0.358384 -0.5520354 -0.54576206 -0.56623995 -0.7428441
-0.49843797 -0.64389753 -1.2198333 -1.9830616 -1.6805173 -1.1500472 -0.67798203 -0.21333858
-0.24187052 0.56876385 -0.0019294574 -0.46881875 0.0426131 0.00045881976 0.114857234 0.6557688
0.43702918 0.38693103 0.69446576 -0.16161162 0.028680556 0.03917321 0.033484288 -0.023652097
0.006284632 0.02680754 0.011707298 0.04774879 -0.017682288 0.008709315 0.0039576106 -0.031526685
0.28372425 -0.07442249 0.16180503 0.30260423 0.16412306 0.17898527 0.12046411 0.03723207
0.035443023 0.21290872 0.35804227 0.533981 -0.16300462 0.043375555 0.03756047 0.04630945
0.39277536 0.74819964 1.0840579 0.7157236 0.29704595 0.15099806 0.7215556 0.69194394
-0.4074134 -0.01604572 0.10063482 -0.01761823 0.3133203 0.3145483 0.634398 0.8272586
0.22416127 0.38405362 0.61789393 -0.17255965 0.15463878 0.26194313 0.23877805 0.24622954
0.19650918 0.26929715 -0.15649006 -0.51286346 -0.68044484 -0.9379679 -0.477893 -0.48723203
0.28926426 0.30321938 0.36835465 0.28824565 0.32059187 0.3394188 -0.012604654 -0.46090162
-0.5155388 -0.7143077 -0.14163478 -0.4007532 0.50433755 0.35285535 0.67017275 0.19236785
0.44022545 0.6495869 1.2182384 0.8564862 -0.066818714 -0.051932957 0.0016425069 0.34760013
0.00071377074 -0.332215 -0.4618694 -0.7200684 -0.6218439 -0.52615273 -0.5245771 -0.41294944
-0.45687288 0.07760438 0.21271919 -0.14544953 -0.024324635 -0.042758454 0.030561969 -0.03210391
0.009956054 0.029063106 -0.014190961 -0.002992209 -0.022680108 0.019829817 0.039302655 -0.04263035
-0.1759561 0.22865629 0.34613565 0.41837963 0.31030452 -0.20751087 -0.26973528 -0.16035755
-0.10408116 -0.19181591 -0.1396495 0.08933442 -0.3027782 -0.28853896 -0.13603725 -0.25930184
0.26674435 0.03744658 0.14669757 0.45374563 0.04150571 0.1146407 0.68237907 -0.00637496
-0.48323125 -0.017288465 0.10728082 0.13004963 -0.12601118 -0.2583688 -0.1812526 -0.24632987
-0.2416597 -0.45841488 -0.05538026 0.05685116 0.11321215 0.15126227 0.16525741 0.17471716
0.1424004 0.10932707 -0.24466781 -0.64149797 -0.8560361 -0.9204428 -0.4456728 -0.6057912
0.094593465 0.48021543 0.27395245 0.48370004 0.641205 0.32109132 -0.17201844 -0.57723016
-0.62238854 -0.36229274 -0.28509814 0.040635437 -0.58602 -0.8435564 -0.89938664 -0.9550896
00000000: d9c8 c83e b6ab 6d3e 23c7 ef3e 31d6 113f
00000010: c84c f03e fe23 103e 986b 583e 4d38 00bc
00000020: d407 153d ea86 613e 7524 b23e c9c3 f53e
00000030: 70ee 31bc c46c 0a3d 0053 d13c bbe6 913c
00000040: 8e3b 1f3d d426 c33c ff12 873d 1b91 9f3c
00000050: 8351 95bd a701 d0bc 2295 113d 6492 7ebc
00000060: 6014 9d3e 243b 503d c3fe 753e 534e 3e3e
00000070: 825d 0dbe e904 51bd 4af1 9abe 246a b7be
00000080: 7688 14be cbbc 60be 4a06 22be 2258 973d
00000090: bd77 803c c210 a1bc f081 8abc 9005 fd3c
000000a0: 7d84 cebc 58f4 ddbb fc4e 4ebc c4f1 4d3d
000000b0: ecd4 6dbc 6624 28bd e003 5b3b f8e3 91bc
000000c0: 4423 9d3f dee9 213f c9db 283f 82f3 153f
000000d0: 2d6d b33e ba96 833e 3da5 3d3e 6252 5d3e
000000e0: 3175 a33e a0d9 723e 49a5 5c3e 1c7e b73e
000000f0: 3152 0dbf 10b7 0bbf 1af5 10bf 082b 3ebf
00000100: 4333 ffbe 78d6 24bf 7f23 9cbf f6d4 fdbf
00000110: 311b d7bf bf34 93bf 3b90 2dbf 6e75 5abe
00000120: e8ac 77be 829a 113f d9e5 fcba 0309 f0be
00000130: 138b 2e3d bf8d f039 453a eb3d 77e0 273f
00000140: 4ac2 df3e d31b c63e 82c8 313f 847d 25be
00000150: 7cf3 ea3c 1674 203d d226 093d 0bc2 c1bc
00000160: 50ef cd3b 7c9b db3c f8cf 3f3c 3c94 433d
00000170: 72da 90bc 84b1 0e3c d8ae 813b 2022 01bd
00000180: 4e44 913e d26a 98bd 38b0 253e f1ee 9a3e
00000190: e00f 283e ea47 373e e3b5 f63d a880 183d
000001a0: b42c 113d be04 5a3e 5151 b73e fbb2 083f
000001b0: afea 26be 91aa 313d 02d9 193d faae 3d3d
000001c0: da19 c93e 038a 3f3f 69c2 8a3f a939 373f
000001d0: 6816 983e 3c9f 1a3e deb7 383f 3d23 313f
000001e0: 7d98 d0be 5072 83bc a119 ce3d 1b54 90bc
000001f0: 856b a03e 7a0c a13e e867 223f 38c7 533f
00000200: 888a 653e ada2 c43e 4c2e 1e3f 7ab3 30be
00000210: a159 1e3e 691d 863e 3c82 743e 9923 7c3e
00000220: b439 493e 51e1 893e ee3e 20be 054b 03bf
00000230: a231 2ebf aa1e 70bf 64ae f4be 7a76 f9be
00000240: 721a 943e 923f 9b3e fb98 bc3e ef94 933e
00000250: 9e24 a43e 4dc8 ad3e c083 4ebc 4cfb ebbe
00000260: 5afa 03bf dfdc 36bf b508 11be 862f cdbe
00000270: 441c 013f 75a9 b43e 7190 2b3f 14fc 443e
00000280: 3b65 e13e 544b 263f 3cef 9b3f ae42 5b3f
00000290: 40d8 88bd a7b7 54bd 6349 d73a a5f8 b13e
000002a0: 581c 3b3a 1618 aabe 257a ecbe 6756 38bf
000002b0: 2931 1fbf f2b1 06bf af4a 06bf 1c6e d3be
000002c0: 3eeb e9be 0cef 9e3d 0fd3 593e b9f0 14be
000002d0: 7544 c7bc 7d23 2fbd 185d fa3c 647f 03bd
000002e0: b81e 233c c015 ee3c 3481 68bc f018 44bb
000002f0: a2cb b9bc 2472 a23c d2fb 203d 299d 2ebd
00000300: d62d 34be e024 6a3e b138 b13e db35 d63e
00000310: 3ce0 9e3e bb7d 54be be1a 8abe c534 24be
00000320: 8128 d5bd 646b 44be 4700 0fbe f7f4 b63d
00000330: bf05 9bbe 61bb 93be 594d 0bbe 36c3 84be
00000340: b792 883e 9661 193d e337 163e 5951 e83e
00000350: e401 2a3d bec8 ea3d 65b0 2e3f 0ae5 d0bb
00000360: 166a f7be 8aa0 8dbc 0cb6 db3d bb2b 053e
00000370: 1309 01be ea48 84be 489a 39be e63d 7cbe
00000380: a475 77be 5bb5 eabe 69d6 62bd c3dc 683d
00000390: c6db e73d 7fe4 1a3e 3d39 293e 0ee9 323e
000003a0: 69d1 113e dfe6 df3d 338a 7abe 3639 24bf
000003b0: 2f25 5bbf 24a2 6bbf 3a2f e4be 2215 1bbf
000003c0: 38ba c13d ccde f53e 7f43 8c3e 88a7 f73e
000003d0: 0326 243f 1566 a43e 9a25 30be 5bc5 13bf
000003e0: db54 1fbf 6f7e b9be 62f8 91be 5871 263d
000003f0: 6805 16bf 50f3 57bf 343e 66bf c180 74bf

fc1.bias f4 [64]
-0.5433529 -0.006784105 -0.11122704 -0.07500811 -0.0004836804 -0.082926415 -0.040939983 -0.29980657
-0.0074643847 0.75098526 -0.05292221 -0.00999081 -0.034878727 -0.083262935 -0.4918988 -0.045723148
-0.058162488 -0.09142844 -0.487259 -0.2898535 -0.09010384 0.011743934 -0.08324732 -0.0065520736
-0.15404257 0.0065326802 -0.027501052 -0.035394687 -0.6109994 -0.06892977 -0.06627014 -0.5724062
-0.009057474 -0.0882103 -0.12862687 -0.32730737 -0.18370815 -0.8556544 -0.9392387 -0.14708404
-0.3591127 -0.026045006 -0.020651417 -0.068971545 -0.26727992 -0.02832934 0.23995356 -0.04775096
-0.065997384 -0.017845342 -0.050890915 -0.04440306 0.0018695536 -0.057372067 -0.029223941 -0.22754906
-0.1073915 -0.008278278 -0.107898824 -0.2173467 -0.08237831 -0.05685929 -0.21639669 -0.9046911
00000000: 2d19 0bbf 334d debb 01cb e3bd da9d 99bd
00000010: 7c96 fdb9 53d5 a9bd afb0 27bd 3f80 99be
00000020: cc97 f4bb 9240 403f f6c4 58bd 7fb0 23bc
00000030: ffdc 0ebd c285 aabd 29da fbbe 3248 3bbd
00000040: ca3b 6ebd d53e bbbd 037a f9be ae67 94be
00000050: 5d88 b8bd a169 403c 927d aabd c7b2 d6bb
00000060: 56bd 1dbe 1810 d63b e349 e1bc 05fa 10bd
00000070: 756a 1cbf 0d2b 8dbd a4b8 87bd 3689 12bf
00000080: cd65 14bc 9aa7 b4bd c3b6 03be d594 a7be
00000090: fd1d 3cbe 2b0c 5bbf f371 70bf 339d 16be
000000a0: 9fdd b7be 565c d5bc 292d a9bc f440 8dbd
000000b0: ead8 88be ef12 e8bc 63b6 753e 8396 43bd
000000c0: a329 87bd 6530 92bc fe72 50bd fcdf 35bd
000000d0: cf0b f53a f9fe 6abd 0c67 efbc 9f02 69be
000000e0: 13f0 dbbd 9da1 07bc 0ffa dcbd 2290 5ebe
000000f0: f6b5 a8bd 49e5 68bd 1897 5dbe d699 67bf

fc.weight f4 [4, 64]
0.46410042 0.03277466 -0.010828971 0.06316496 0.09283254 0.06211292 0.063857354 -6.765823
0.04866303 -6.4546313 -0.017020231 0.07958693 0.041796353 -0.25498077 -0.8944676 0.05489516
0.08363293 -0.08888976 -4.450979 1.0370051 -0.14114198 0.060690258 -0.0635529 -0.013726227
-0.78526384 -0.013177186 0.08564345 0.0745677 -1.8859516 0.062008187 -0.028996589 0.86348337
0.015835136 0.07109707 -0.3524556 0.72651315 -0.23965941 -1.9181038 -0.9146081 -7.254517
-1.434658 0.08192415 0.20170213 0.017712893 0.66047305 -0.05707057 0.62324864 -0.0226246
0.110267 -0.14185825 -0.0341167 -0.1923584 0.102158055 0.056572914 0.10924504 -6.9824605
-0.076457046 0.13139029 0.57075876 -0.2602429 0.004141734 0.03208551 -0.15680242 -0.94793224
0.34115452 -0.081263974 0.004007285 0.006587778 -0.06218455 -0.08746728 -0.023786047 0.15098117
-0.034704443 0.44749236 0.029494561 -0.08054133 0.057354726 0.032772645 -1.3585863 0.08055194
0.0040107183 0.033205155 0.06277195 -0.1533287 -0.0017215521 0.090684734 -0.030267319 -0.054307155
0.07560976 -0.046819206 0.08351729 0.028545879 0.58685356 -0.07218656 -0.025191132 -0.22215222
-0.03282335 -0.072564304 0.057214227 -1.5798376 0.1637296 0.44909772 0.44501722 0.36254165
0.4941546 0.051723152 -0.030338863 0.004972068 -0.5130452 0.04717187 0.24537286 0.092456564
0.014237061 -0.0045560943 -0.04415269 -0.011906271 -0.0990839 -0.10688246 0.037017446 -0.27697158
-0.048091073 -0.03215746 -0.70181876 0.1236264 0.033273324 0.055505592 0.08343913 -1.884948
-0.6425169 -0.035467163 -0.024095278 -0.09980502 0.02321125 -0.031148903 -0.014725838 -0.040310528
-0.010988737 0.49646735 -0.0056144507 -0.11768334 0.06273604 0.07788881 1.2452773 0.048358604
0.028882623 0.074478075 0.20907234 -0.9350094 0.03905785 -0.11374349 0.037381765 -0.056835867
0.086750716 -0.06566213 -0.04184869 -0.07603537 -0.55092746 -0.018059704 -0.040022835 -1.0126069
0.020951657 -0.08469258 0.0056059253 -0.6008092 0.116328076 -0.27873996 -0.37544948 -0.14581868
-0.27363372 -0.007048613 -0.0067750313 0.04545565 -0.3063791 -0.023823462 -0.59100366 -0.114012726
-0.095870465 -0.06792402 0.021494925 -0.070040226 -0.057249993 -0.06896869 0.055715393 0.46923405
-0.003892588 -0.044891395 0.2295118 0.10006103 0.028842144 -0.06103045 0.11278124 1.9367471
-0.17214519 -0.04203628 0.0050474335 -0.06938587 -0.042028658 0.042157535 0.09077013 -8.182538
-0.114351586 -1.564603 -0.013251185 0.089977704 0.034148786 -0.16464524 0.7828965 0.103703626
0.032792605 -0.6050355 -4.241305 0.37874198 -0.0262767 -0.015019864 -0.100905724 -0.083655596
-0.6305907 -0.07409871 -0.10738998 -0.016942408 2.3367276 -0.107237875 0.01277879 0.73888385
0.041372042 -0.004053261 -2.0327103 0.8596785 -0.6495176 -2.7814348 2.7084801 -0.6936712
-2.2487836 0.0827136 0.018961806 -0.12715784 0.29018942 0.019954065 -0.017428536 -0.08790741
-0.035781167 -0.027525833 0.08132519 -0.2739407 -0.089099474 0.028451126 -0.0938988 0.6899523
-0.11690055 -0.15929797 0.41850102 -0.77842754 0.017454151 -0.0357606 -0.42370752 -0.5040178
00000000: 929e ed3e b93e 063d ff6b 31bc a15c 813d
00000010: fd1e be3d 1e6a 7e3d a5c7 823d 9f81 d8c0
00000020: e352 473d 578c cec0 036e 8bbc 79fe a23d
00000030: a732 2b3d d78c 82be d4fb 64bf bfd9 603d
00000040: be47 ab3d d60b b6bd 6c6e 8ec0 95bc 843f
00000050: 8687 10be 5996 783d 0628 82bd f8e3 60bc
00000060: 0d07 49bf 20e5 57bc d565 af3d f3b6 983d
00000070: dd66 f1bf 4cfc 7d3d 418a edbc 3f0d 5d3f
00000080: b0b8 813c 579b 913d 0f75 b4be c4fc 393f
00000090: 4769 75be 6d84 f5bf c223 6abf 0125 e8c0
000000a0: e0a2 b7bf d9c7 a73d 018b 4e3e a11a 913c
000000b0: c314 293f d4c2 69bd 398d 1f3f 3a57 b9bc
000000c0: aad3 e13d 4a43 11be f4bd 0bbd 9af9 44be
000000d0: 3e38 d13d 00b9 673d ddbb df3d 5170 dfc0
000000e0: 8395 9cbd 2d8b 063e 3f1d 123f 8f3e 85be
000000f0: 62b7 873b 196c 033d d090 20be b0ab 72bf
00000100: ceab ae3e ba6d a6bd 8b4f 833b 4ade d73b
00000110: 3ab5 7ebd 0c22 b3bd f5da c2bc cf9a 1a3e
00000120: 3f26 0ebd b81d e53e 949e f13c daf2 a4bd
00000130: caec 6a3d 9c3c 063d 28e6 adbf 6af8 a43d
00000140: 586c 833b 2102 083d 958e 803d 3302 1dbe
00000150: b4a5 e1ba ebb8 b93d 2bf3 f7bc 2e71 5ebd
00000160: 4ad9 9a3d 7fc5 3fbd 1d0b ab3d 0cd9 e93c
00000170: 093c 163f 8cd6 93bd a25d cebc df7b 63be
00000180: c771 06bd 989c 94bd 7759 6a3d 1e38 cabf
00000190: bba8 273e 23f0 e53e 4cd9 e33e 0f9f b93e
000001a0: d501 fd3e a8db 533d 3589 f8bc bbec a23b
000001b0: ee56 03bf 4a37 413d 0643 7b3e de59 bd3d
000001c0: 9042 693c 4a4b 95bb 73d9 34bd 8512 43bc
000001d0: 80ec cabd 31e5 dabd 9b9f 173d 38cf 8dbe
000001e0: 25fb 44bd 8ab7 03bd 65aa 33bf d72f fd3d
000001f0: 9c49 083d d559 633d 22e2 aa3d fa45 f1bf
00000200: fd7b 24bf 0446 11bd 7663 c5bc 9366 ccbd
00000210: 8525 be3c fc2b ffbc a444 71bc a71c 25bd
00000220: 1b0a 34bc f830 fe3e 6df9 b7bb f703 f1bd
00000230: c17b 803d 2b84 9f3d 3f65 9f3f ac13 463d
00000240: 409b ec3c f687 983d 0f17 563e c75c 6fbf
00000250: 20fb 1f3d 59f2 e8bd 9f1d 193d bacc 68bd
00000260: 5caa b13d de79 86bd 8869 2bbd 6fb8 9bbd
00000270: 9509 0dbf f2f1 93bc fcee 23bd 1a9d 81bf
00000280: cfa2 ab3c 4e73 adbd e9b1 b73b a2ce 19bf
00000290: 6a3d ee3d 01b7 8ebe ea3a c0be 7e51 15be
000002a0: b819 8cbe 0df8 e6bb 1501 debb b42f 3a3d
000002b0: b9dd 9cbe 6c29 c3bc 044c 17bf 817f e9bd
000002c0: bc57 c4bd c01b 8bbd 2016 b03c 4071 8fbd
000002d0: f87e 6abd 753f 8dbd d335 643d 723f f03e
000002e0: ca1a 7fbb 0ae0 37bd 2405 6b3e ccec cc3d
000002f0: 5c46 ec3c 11fb 79bd daf9 e63d 54e7 f73f
00000300: d446 30be 3c2e 2cbd f164 a53b 2e1a 8ebd
00000310: 3e26 2cbd 61ad 2c3d b1e5 b93d adeb 02c1
00000320: 2a31 eabd e944 c8bf 801b 59bc 3b46 b83d
00000330: 99df 0b3d c398 28be e86b 483f 9162 d43d
00000340: 8a51 063d 9be3 1abf c5b8 87c0 78ea c13e
00000350: 3c42 d7bc e015 76bc a9a7 cebd a053 abbd
00000360: 646e 21bf 11c1 97bd 47ef dbbd ceca 8abc
00000370: f28c 1540 889f dbbd 215e 513c 7e27 3d3f
00000380: bb75 293d 38d1 84bb ed17 02c0 e413 5c3f
00000390: c946 26bf 0703 32c0 bd57 2d40 7094 31bf
000003a0: 12ec 0fc0 bf65 a93d ca55 9b3c aa35 02be
000003b0: b593 943e b576 a33c 4ac6 8ebc cd08 b4bd
000003c0: 468f 12bd db7d e1bc d28d a63d f541 8cbe
000003d0: c979 b6bd 5612 e93c 044e c0bd b7a0 303f
000003e0: 8e69 efbd 021f 23be c445 d63e 0747 47bf
000003f0: 02fc 8e3c b579 12bd 31f0 d8be 4f07 01bf

fc.bias f4 [4]
0.73077464 -0.2614921 0.17693983 -1.4324486
00000000: 0c14 3b3f 4be2 85be b72f 353e 7a5a b7bf
