CNNV2/CNNV21/model.pth (torch, 26959 bytes, 8 tensors)

conv1.weight f4 [16, 3, 3]
0.31155285 0.9458995 0.7808325 -0.62177145 -0.22932495 -0.5383356 -0.11449545 -1.001161
-1.5084075 -0.33299896 -0.98386836 -0.5629444 -0.12761757 -0.197499 -0.08805123 0.5713214
0.46174264 -0.7350117 -0.5713119 -1.1370616 -1.4274076 0.065440245 0.02388631 0.2922963
-0.15272284 0.19173265 0.0107516 -1.3220528 -1.0085776 -0.5458448 0.36861697 0.5187006
0.7252038 -0.016716724 -0.1745654 -0.54303944 0.55732566 0.26312828 0.027361961 -0.59387296
-0.9712377 -0.45930544 0.34388572 0.63287795 0.43310192 -0.001325367 -0.50186694 -0.63489455
-0.0136614 -0.50499123 -0.1115067 0.22106378 0.5183518 0.5963255 0.70261747 0.4815271
0.0066071325 -0.75627947 -0.80203205 -1.623145 -0.18258846 0.06068553 -0.2881023 -0.16934228
-0.47839236 -0.2754708 0.874945 0.60830545 0.60572314 -0.31652415 -0.73543936 -0.39921075
-0.073925875 -0.22912708 0.6193788 0.29004985 0.04884089 -0.027129577 -0.38328212 -0.47269037
-0.7685643 -0.04066049 0.30803603 0.30377638 -0.093848474 0.3475149 -0.047145884 -1.1795249
-1.4489549 -0.86517435 -0.83473635 -1.1711242 -0.99145633 -0.5707518 0.31801298 0.22316189
0.2633621 0.619353 0.43518224 -0.11866697 -0.04218996 0.18906839 0.03701996 -0.36924693
0.007284665 0.3613068 0.07775508 0.5919793 -0.19695032 -0.19497818 -0.2393564 -0.00554453
-0.065748245 -0.18631217 0.1751027 -0.27126062 0.012742281 -0.13836467 0.0375354 -0.009640187
0.02406025 -0.1512568 -0.25537512 -0.24480204 -0.10840921 -0.22364542 0.17454138 -0.2604919
-0.21693811 -0.21511912 -0.0902147 0.15472877 -0.2081281 0.11538097 0.039768666 -0.0755624
-0.44568026 -0.058620088 0.14164767 0.16315103 0.08603564 -0.27653742 -0.5700683 -0.42953628
00000000: db83 9f3e 7826 723f a4e4 473f 6a2c 1fbf
00000010: 29d4 6abe 5dd0 09bf 977c eabd 0b26 80bf
00000020: 7f13 c1bf d77e aabe ccde 7bbf 201d 10bf
00000030: 2eae 02be 2e3d 4abe 3454 b4bd 1f42 123f
00000040: 8869 ec3e ba29 3cbf 7f41 12bf 3c8b 91bf
00000050: 4bb5 b6bf 8905 863d 39ad c33c dca7 953e
00000060: 6063 1cbe 9055 443e 7b27 303c 0739 a9bf
00000070: 1219 81bf 7cbc 0bbf 5dbb bc3e 90c9 043f
00000080: f5a6 393f 83f1 88bc 46c1 32be a204 0bbf
00000090: e5ac 0e3f c0b8 863e 3126 e03c 0f08 18bf
000000a0: 09a3 78bf 152a ebbe ca11 b03e 4a04 223f
000000b0: 89bf dd3e f0b7 adba 5a7a 00bf 7388 22bf
000000c0: 11d4 5fbc 1b47 01bf a05d e4bd 8b5e 623e
000000d0: b4b2 043f caa8 183f bdde 333f b88a f63e
000000e0: a580 d83b 889b 41bf f951 4dbf 37c3 cfbf
000000f0: 78f8 3abe 6491 783d 2582 93be 1068 2dbe
00000100: d8ef f4be 820a 8dbe 65fc 5f3f e8b9 1b3f
00000110: ac10 1b3f 740f a2be c145 3cbf 5a65 ccbe
00000120: 7366 97bd 4aa0 6abe 9c8f 1e3f 6a81 943e
00000130: 630d 483d d93e debc 8e3d c4be 7904 f2be
00000140: a1c0 44bf 9d8b 26bd e6b6 9d3e 9488 9b3e
00000150: a133 c0bd 79ed b13e 0b1c 41bd acfa 96bf
00000160: 5b77 b9bf 117c 5dbf 48b1 55bf 66e7 95bf
00000170: 15d0 7dbf ca1c 12bf 99d2 a23e 8d84 643e
00000180: 66d7 863e eb8d 1e3f 35d0 de3e ab07 f3bd
00000190: 61cf 2cbd 259b 413e 3ea2 173d ef0d bdbe
000001a0: 33b4 ee3b 34fd b83e 0e3e 9f3d f58b 173f
000001b0: 58ad 49be 5ca8 47be d819 75be e4ae b5bb
000001c0: 04a7 86bd 9ec8 3ebe 1f4e 333e ace2 8abe
000001d0: 00c5 503c 78af 0dbe b8be 193d e0f1 1dbc
000001e0: 001a c53c 10e3 1abe 87c0 82be 63ad 7abe
000001f0: a605 debd 4e03 65be faba 323e 325f 85be
00000200: 0625 5ebe 3048 5cbe 7cc2 b8bd 3871 1e3e
00000210: 881f 55be dc4c ec3d 78e4 223d 76c0 9abd
00000220: 3430 e4be 9e1b 70bd 160c 113e 1011 273e
00000230: 7433 b03d 5096 8dbe ffef 11bf 2eec dbbe

conv1.bias f4 [16]
-0.22979248 0.04537709 0.23431924 0.2654648 -0.055690616 -0.1055325 -0.0811399 0.07571723
0.28541884 0.2297754 -0.12190957 -0.25814077 0.06613846 -0.21219067 -0.2893033 0.3270644
00000000: b84e 6bbe 54dd 393d 62f1 6f3e 01eb 873e
00000010: d81b 64bd 6c21 d8bd ad2c a6bd a311 9b3d
00000020: 6b22 923e 3e4a 6b3e baab f9bd 072b 84be
00000030: 9a73 873d 8348 59be 901f 94be fc74 a73e

conv2.weight f4 [32, 16, 3]
0.4465766 -0.26173198 0.5952892 -0.032770317 -0.09660505 -0.0030913819 0.033622313 0.91410524
1.9676076 0.10856765 -0.14875314 0.16226545 0.71714914 0.4618631 0.8353269 0.019353587
-0.24230246 -0.07362266 2.3439896 2.2403722 0.47828746 0.57502425 0.4963261 0.25697246
-0.37331852 -0.1446124 -0.059879825 0.15487152 -0.21002425 0.2906279 0.4453513 0.44990307
1.26042 -0.103493 -0.40336138 -0.48122802 -0.14311264 -0.040418044 0.05954559 -0.068294816
0.11819056 0.021120131 -0.08556704 0.048536763 -0.10322994 0.045296352 -0.05246136 -0.32105693
1.2076944 -0.43355224 -0.45028394 -0.07973131 -0.14656723 0.010027441 -0.20757774 -0.922538
0.6937116 -1.045563 0.43150437 -0.42202213 -2.8066847 -3.932373 -0.519517 -0.55457526
0.50671136 -0.7914145 0.07230543 -0.2726624 0.45175505 1.3968313 0.47498667 -1.1089572
-0.21670114 0.047966 -0.41462684 0.26851246 -0.13202716 -0.0058136997 -0.1348165 -0.21257573
-0.26466185 0.2945185 -0.41779605 0.23741175 -0.02903822 -0.12014805 -0.05336956 0.10532001
-0.07250601 0.0034629703 0.0032039434 -0.0036006272 -0.024010777 -0.9239965 -0.6586552 -0.25054702
-1.6560317 0.25966668 -2.09497 -0.08289935 0.041391604 0.04161888 -0.60184455 -1.4959372
-2.1805074 -0.29107887 -2.1755736 -1.7044655 0.61133826 3.3982873 -0.6075961 -0.038487982
0.01421911 0.05040147 -1.8610001 -1.9507971 0.13565682 0.65972334 1.8329166 1.6651531
-0.22913522 0.18477821 0.26611555 -0.038958114 -0.16308971 1.0623266 0.03225653 -0.47634503
-0.6136675 0.33430818 -0.20241338 -0.37788323 -0.030262478 0.0020507723 0.036623534 -0.11700529
-0.07746374 0.09916 -0.0388785 -0.074879065 0.09086825 -1.5595628 -0.9802 -0.74098957
0.448988 0.39194933 0.86964595 0.1353925 0.075615264 -1.8396748 0.5415721 0.30491596
2.6639657 0.56548965 0.67157227 0.28205317 0.87704945 0.74466604 0.5256307 0.064438626
-0.4614681 -0.5072078 4.747674 4.7278967 0.8115073 0.036885686 0.24121313 0.39694437
0.0039910567 -0.41316035 -0.16774315 0.1748357 -0.067264505 0.21876068 0.22445968 0.8657013
1.9158236 -0.28650418 -0.5595643 -0.5657667 -0.05318679 0.1392918 0.09678432 0.048345417
-0.0071388334 0.046848834 -0.12567864 0.033722356 0.13387534 -0.19735938 -0.023567328 -0.10592701
-0.059298806 -0.35367224 1.0990074 0.09439731 0.008746099 -3.0443947 0.19518535 0.67538065
2.7976112 1.1488198 0.22626227 -0.038705748 0.6766891 0.24161215 0.45775858 -0.25853655
-0.31497407 -0.14530511 4.9700046 5.1418705 1.1479383 0.69697475 0.08130489 -0.6140745
-0.57673615 -0.15823254 0.5637086 0.35566762 -0.3344833 -0.0022755316 0.04666125 0.21841915
1.4393095 0.27575457 -0.4215545 -0.74198216 0.08777237 0.084968835 -0.06680314 -0.06574184
0.00317353 -0.13756268 0.033439964 -0.11195199 0.02320975 0.34089527 -0.24024534 -0.8408162
-1.8793374 -0.864309 -1.0823779 0.071018055 0.086371996 0.0051932847 -0.27766615 -0.11652348
-0.41426143 -0.8133412 -0.7604572 -0.09035931 -0.9776544 1.3006564 1.91455 -0.2552883
00000000: b0a5 e43e bc01 86be df64 183f 2b3a 06bd
00000010: ded8 c5bd c898 4abb 8db7 093d cd02 6a3f
00000020: 91da fb3f b758 de3d be52 18be ea28 263e
00000030: 1697 373f 5279 ec3e fcd7 553f 6a8b 9e3c
00000040: 231e 78be 7ac7 96bd ed03 1640 4262 0f40
00000050: 18e2 f43e ca34 133f 741e fe3e e591 833e
00000060: 9b23 bfbe 4615 14be 8c44 75bd a496 1e3e
00000070: 9910 57be 2ecd 943e 1605 e43e b259 e63e
00000080: 7155 a13f 23f4 d3bd 6285 cebe 8563 f6be
00000090: 1f8c 12be 648d 25bd 14e6 733d 27de 8bbd
000000a0: e40d f23d 2004 ad3c c63d afbd 7cce 463d
000000b0: 386a d3bd ab88 393d b9e1 56bd 9361 a4be
000000c0: bb95 9a3f 8ffa ddbe 9e8b e6be 2b4a a3bd
000000d0: b815 16be 234a 243c 428f 54be 732b 6cbf
000000e0: 1597 313f 02d5 85bf 24ee dc3e 4913 d8be
000000f0: b9a0 33c0 00ac 7bc0 11ff 04bf a5f8 0dbf
00000100: d6b7 013f 249a 4abf df14 943d 689a 8bbe
00000110: 704c e73e 5ecb b23f 7431 f33e 4ff2 8dbf
00000120: e7e6 5dbe ff77 443d f849 d4be 777a 893e
00000130: 2132 07be d980 bebb 560d 0abe 74ad 59be
00000140: c281 87be 21cb 963e 5de9 d5be 111c 733e
00000150: 90e1 edbc 2e10 f6bd 0a9a 5abd 04b2 d73d
00000160: 087e 94bd 00f3 623b 40f9 513b 80f8 6bbb
00000170: 40b2 c4bc 098b 6cbf a19d 28bf b347 80be
00000180: d9f8 d3bf 08f3 843e fd13 06c0 22c7 a9bd
00000190: 3e8a 293d 8f78 2a3d 7c12 1abf df7a bfbf
000001a0: 6f8d 0bc0 4a08 95be 993c 0bc0 ed2b dabf
000001b0: aa80 1c3f 8a7d 5940 6b8b 1bbf 93a5 1dbd
000001c0: 45f7 683c c671 4e3d 4035 eebf b8b3 f9bf
000001d0: 9fe9 0a3e a1e3 283f 039d ea3f bd23 d53f
000001e0: 6ca2 6abe 8036 3d3e 4c40 883e 8b92 1fbd
000001f0: fd00 27be 51fa 873f 6c1f 043d 7fe3 f3be
00000200: 5019 1dbf 712a ab3e 7445 4fbe e979 c1be
00000210: 04e9 f7bc 4066 063b 8f02 163d 78a0 efbd
00000220: 4fa5 9ebd 6614 cb3d 103f 1fbd 325a 99bd
00000230: 2219 ba3d c19f c7bf 63ee 7abf 7eb1 3dbf
00000240: c1e1 e53e 95ad c83e 1ea1 5e3f 55a4 0a3e
00000250: 2ddc 9a3d 777a ebbf 78a4 0a3f f21d 9c3e
00000260: 6a7e 2a40 eec3 103f 29ec 2b3f 4669 903e
00000270: 5086 603f 6fa2 3e3f bc8f 063f 66f8 833d
00000280: 8c45 ecbe 5fd8 01bf f2ec 9740 ee4a 9740
00000290: f1be 4f3f 7215 173d 9300 773e 4b3c cb3e
000002a0: 69c7 823b c189 d3be dcc4 2bbe 2108 333e
000002b0: f9c1 89bd cd02 603e c2d8 653e 9a9e 5d3f
000002c0: b539 f53f adb0 92be 9b3f 0fbf 16d6 10bf
000002d0: 64da 59bd 82a2 0e3e dc36 c63d d805 463d
000002e0: e0ec e9bb 90e4 3f3d e7b1 00be 7420 0a3d
000002f0: 9e16 093e 9418 4abe 4510 c1bc 43f0 d8bd
00000300: 4ee3 72bd 8714 b5be 46ac 8c3f 6053 c13d
00000310: cc4b 0f3c 5dd7 42c0 abde 473e bfe5 2c3f
00000320: 100c 3340 870c 933f 4cb1 673e eb89 1ebd
00000330: 7f3b 2d3f 2d69 773e 555f ea3e e75e 84be
00000340: 4844 a1be ddca 14be 470a 9f40 348a a440
00000350: a4ef 923f f06c 323f 2e83 a63d fd33 1dbf
00000360: fba4 13bf b607 22be 354f 103f 111a b63e
00000370: 6541 abbe 1621 15bb de1f 3f3d 45a9 5f3e
00000380: 4b3b b83f b42f 8d3e fed5 d7be 8bf2 3dbf
00000390: 00c2 b33d 2404 ae3d 16d0 88bd a8a3 86bd
000003a0: 00fb 4f3b 3bdd 0cbe 58f8 083d 1647 e5bd
000003b0: 6022 be3c d389 ae3e e002 76be bb3f 57bf
000003c0: 218e f0bf 5b43 5dbf 5c8b 8abf ea71 913d
000003d0: cde3 b03d 6e2c aa3b 422a 8ebe dda3 eebd
000003e0: 131a d4be 2137 50bf 53ad 42bf 4d0e b9bd
000003f0: 8f47 7abf e97b a63f f90f f53f 26b5 82be

conv2.bias f4 [32]
-0.35026744 -0.02158062 -0.1569139 -0.4181622 -0.28835306 0.034501683 -0.40323693 -0.5994381
0.01971033 0.00037779685 -1.1662244 -0.023458976 -0.087821886 -0.08610787 -0.56135267 -0.12151401
-0.19354926 -0.066603735 -0.07466731 -0.07728202 -0.12523717 -0.006063031 -0.30739865 -1.4858589
-0.045253757 -0.4614846 -0.104395546 -0.31848347 -0.04482679 -0.074274234 -0.4273276 -0.06019209
00000000: 4156 b3be d7c9 b0bc 0aae 20be 5b19 d6be
00000010: 03a3 93be a351 0d3d 1275 cebe c674 19bf
00000020: 8f77 a13c 0913 c639 d746 95bf 0a2d c0bc
00000030: f6db b3bd 5359 b0bd cfb4 0fbf 56dc f8bd
00000040: c731 46be 8a67 88bd 2deb 98bd 0946 9ebd
00000050: 2c3e 00be 64ac c6bb 5b63 9dbe a030 bebf
00000060: 015c 39bd b647 ecbe 55cd d5bd 4410 a3be
00000070: 4c9c 37bd 171d 98bd afca dabe fb8b 76bd

fc1.weight f4 [64, 64]
0.12642953 -0.1249026 0.47576487 0.38096303 0.04307088 -0.039601278 -0.5720259 -1.6497881
-1.0599337 -1.1824919 -0.040248044 -0.004007186 -0.5430272 -0.2654724 -0.91032475 -1.2674654
-0.12676771 0.32559463 0.15202852 0.13674769 -0.32476595 -0.3374364 0.19259237 -0.00025967596
-0.041405633 -0.047478624 0.06829742 0.09248877 -1.0051932 -1.348163 -0.045580238 0.094391115
0.06323642 -0.26792666 0.12973253 0.29528272 0.051277284 1.2749594 -0.0049015894 0.11651403
-0.08864536 -0.03194353 1.4301629 0.78206223 -1.0632532 -1.090638 -0.79022753 -0.8694772
0.44935426 -0.0752307 -0.48400977 -0.8361165 0.020921826 0.013072409 0.030851716 -0.1554264
0.3111321 0.72517294 0.06853022 -0.0008259377 -1.0226375 -1.1295581 0.5070641 0.4404338
-2.2604156 -1.697826 1.5333514 1.059751 0.12265979 0.14257704 -1.2488137 -0.69785774
-0.60946333 -1.1523995 0.27397037 0.270328 -1.7445784 -1.253192 -0.8349881 -0.9769113
-0.87659675 -0.72320586 0.24860372 0.43858418 -0.712296 -0.6163732 0.44598672 1.332491
-2.0001614 -1.9508123 0.34559062 -0.04780958 -1.309536 -1.568684 -0.012132964 -0.3846853
-2.0052195 -2.8004751 0.039508015 0.06056724 -0.04582289 -0.13468315 0.1453401 0.21872187
-0.02973017 -0.12119256 -0.21003266 -0.12540135 -0.39496052 -1.0927657 -0.33103108 -0.93681353
0.16953659 -0.00042515868 -1.9669327 -1.1785198 0.11356636 -0.024964582 0.07115837 0.08121289
-0.078288 -0.09052508 0.34230453 0.25398943 -0.9403809 -0.94883645 -0.2164278 -0.07855444
-0.21089628 -0.30231193 0.99004734 0.86000216 -1.3252136 -1.4696418 -0.41093552 0.21098445
-0.6342997 0.06957235 -1.2952932 -1.3486348 -0.42407876 -0.9008627 -0.20926405 -0.32697764
1.5779983 0.5077314 -1.3945463 -1.4259573 0.22059144 0.21903461 -0.39802894 -1.5864676
0.25407547 0.24789767 -0.819247 -2.8745573 0.31077936 0.020456573 0.27850762 -0.06711861
0.019899905 -0.27304715 -1.060355 -1.0722522 -0.14488244 -0.605344 -0.81619096 -1.0683984
0.10594536 0.0010396391 -0.71251124 -1.4922142 -0.2636383 -0.073661745 0.06636301 0.30569077
-0.34790444 -0.41022915 -0.34199637 0.023378609 -1.3511138 -1.8300899 0.03980664 -0.099584945
-0.57954854 -0.83707637 -0.29005462 -1.6661471 -0.4895993 0.15101543 -0.71087414 -0.42855945
0.20677993 -0.35390717 0.16987255 -2.1459806 -0.11751691 0.53318745 -1.2115754 -2.231846
-1.6324735 -1.5900503 -1.4367628 0.14077318 -0.2535261 -0.62519175 -1.6428518 -1.7800595
0.32437313 0.7721241 -0.67676395 0.2710627 0.044902522 0.27457497 -0.9936574 0.17046551
0.6136765 1.3883822 -0.023321558 0.28972107 -2.1581995 -1.9911494 1.1988156 -0.73269695
-0.21690668 1.7822347 -0.43501464 -0.012232858 -6.1315327 -4.8582225 -1.0986462 0.04786845
0.13129734 -0.042974472 -3.3479798 -1.5123872 -1.7283189 -2.8018715 0.45258832 0.11810012
-5.89423 -3.1413422 -0.5349705 -1.2729203 -0.32767373 -0.059413947 0.0042170705 0.038698696
-3.052838 -2.3739178 -0.2592493 0.08512653 -2.0294683 -2.1949456 -0.73182625 -0.124279276
00000000: be76 013e efcc ffbd 7497 f33e 960d c33e
00000010: 176b 303d f334 22bd 4a70 12bf 422c d3bf
00000020: e8ab 87bf e55b 97bf 22db 24bd b64e 83bb
00000030: d503 0bbf 00ec 87be 0b0b 69bf 4e3c a2bf
00000040: 65cf 01be 57b4 a63e 5dad 1b3e 9607 0c3e
00000050: b947 a6be 77c4 acbe ef36 453e 1e25 88b9
00000060: f498 29bd f278 42bd 85df 8b3d c16a bd3d
00000070: 2caa 80bf 9b90 acbf 58b2 3abd 2150 c13d
00000080: 1982 813d af2d 89be 9bd8 043e 4c2f 973e
00000090: 2108 523d df31 a33f 839d a0bb e89e ee3d
000000a0: b38b b5bd 38d7 02bd 940f b73f 3b35 483f
000000b0: ae18 88bf 079a 8bbf 5a4c 4abf 0f96 5ebf
000000c0: c311 e63e 8e12 9abd 21d0 f7be bb0b 56bf
000000d0: 4064 ab3c a82d 563c bdbc fc3c 1928 1fbe
000000e0: b54c 9f3e efa4 393f 9259 8c3d be83 58ba
000000f0: c9e5 82bf 5c95 90bf f4ce 013f 8a80 e13e
00000100: a6aa 10c0 5d52 d9bf dc44 c43f eca5 873f
00000110: 0e35 fb3d b7ff 113e 21d9 9fbf cea6 32bf
00000120: ca05 1cbf d481 93bf d845 8c3e 6e68 8a3e
00000130: 584e dfbf 9868 a0bf c8c1 55bf dc16 7abf
00000140: a568 60bf 0524 39bf f991 7e3e 1b8e e03e
00000150: 0859 36bf a2ca 1dbf 5f58 e43e 118f aa3f
00000160: a502 00c0 38b4 f9bf 41f1 b03e fad3 43bd
00000170: e09e a7bf a3ca c8bf 57c9 46bc 79f5 c4be
00000180: 8455 00c0 fc3a 33c0 28d3 213d 5b15 783d
00000190: c8b0 3bbd 61ea 09be 09d4 143e a0f8 5f3e
000001a0: af8c f3bc ce33 f8bd cd12 57be 3669 00be
000001b0: 4438 cabe bfdf 8bbf e87c a9be 03d3 6fbf
000001c0: 009b 2d3e d5e7 deb9 73c4 fbbf bdd9 96bf
000001d0: 7b95 e83d 8682 ccbc 7bbb 913d f252 a63d
000001e0: 7555 a0bd 3765 b9bd 8a42 af3e e70a 823e
000001f0: cdbc 70bf f2e6 72bf 409f 5dbe 26e1 a0bd
00000200: 32f5 57be a1c8 9abe be73 7d3f 1a29 5c3f
00000210: 99a0 a9bf 391d bcbf 2466 d2be 4f0c 583e
00000220: 7761 22bf f37b 8e3d 2bcc a5bf 11a0 acbf
00000230: da20 d9be f09e 66bf 5149 56be 9d69 a7be
00000240: d9fb c93f affa 013f 7e80 b2bf c585 b6bf
00000250: b9e2 613e 9c4a 603e 73ca cbbe 5f11 cbbf
00000260: 2e16 823e e3d8 7d3e 2cba 51bf bff8 37c0
00000270: 791e 9f3e 8b94 a73c 8d98 8e3e 7b75 89bd
00000280: 2005 a33c d6cc 8bbe b6b9 87bf 8f3f 89bf
00000290: 105c 14be d3f7 1abf e4f1 50bf 47c1 88bf
000002a0: e2f9 d83d 8044 883a 2367 36bf e000 bfbf
000002b0: 99fb 86be f8db 96bd 54e9 873d 8083 9c3e
000002c0: 8820 b2be 8e09 d2be 261a afbe 7f84 bf3c
000002d0: 4cf1 acbf 6340 eabf 4a0c 233d 31f3 cbbd
000002e0: 4b5d 14bf a34a 56bf 0a82 94be 4f44 d5bf
000002f0: c2ac fabe caa3 1a3e d9fb 35bf 256c dbbe
00000300: 1ebe 533e 5233 b5be 12f3 2d3e bf57 09c0
00000310: b5ac f0bd f97e 083f e714 9bbf 91d6 0ec0
00000320: e4f4 d0bf c586 cbbf d8e7 b7bf d826 103e
00000330: 2cce 81be 910c 20bf f848 d2bf fdd8 e3bf
00000340: 3c14 a63e eda9 453f 6740 2dbf bbc8 8a3e
00000350: b5eb 373d 1795 8c3e 5560 7ebf 838e 2e3e
00000360: e719 1d3f 82b6 b13f da0c bfbc 5256 943e
00000370: f11f 0ac0 fcdd febf ca72 993f 0792 3bbf
00000380: c91c 5ebe 4420 e43f 3dba debe 536c 48bc
00000390: 8435 c4c0 8f76 9bc0 70a0 8cbf b511 443d
000003a0: cf72 063e 0006 30bd 4d45 56c0 e795 c1bf
000003b0: 8e39 ddbf dd51 33c0 a8b9 e73e 7ade f13d
000003c0: 889d bcc0 c00b 49c0 d4f3 08bf 0def a2bf
000003d0: dac4 a7be 0a5c 73bd 5a2f 8a3b 8682 1e3d
000003e0: b361 43c0 45ee 17c0 53bc 84be d156 ae3d
000003f0: cfe2 01c0 fd79 0cc0 f758 3bbf 2286 febd

fc1.bias f4 [64]
0.058755137 0.24390066 0.065831624 0.036468476 -0.24320827 -0.0099682165 -0.23044494 -0.03451233
0.08014562 0.40566722 0.240651 -0.1623435 0.2267914 -0.0023028827 0.13930798 -0.0382225
-0.9133917 -0.1811418 0.011887398 -0.29901898 0.16739823 -0.33327544 -0.027451629 -0.037647977
0.30295748 0.14384665 -0.38848904 0.055602666 0.5930414 -0.8306325 -0.015931658 -0.24547125
-0.52725655 0.09107265 -0.060749702 0.059956107 0.122095905 0.14025593 0.087190606 -0.56039333
-0.013725432 0.076774046 0.29720983 -0.29229662 0.06413323 -0.02221566 0.37106296 -0.7639697
0.28676826 -0.09667711 0.0775892 0.08224146 0.17155917 0.48345694 -0.2530242 0.055175867
0.18713276 0.20167504 -0.33535284 -0.13571337 0.32806078 0.08812282 -0.19316968 -0.7999052
00000000: 3aa9 703d 18c1 793e bbd2 863d f85f 153d
00000010: 970b 79be bb51 23bc c2f9 6bbe cd5c 0dbd
00000020: 6323 a43d 9db3 cf3e 376d 763e 603d 26be
00000030: 013c 683e f6eb 16bb c0a6 0e3e 328f 1cbd
00000040: 0ad4 69bf 3c7d 39be 5cc3 423c 0419 99be
00000050: 716a 2b3e 14a3 aabe 3de2 e0bc c434 1abd
00000060: 3e1d 9b3e 894c 133e 09e8 c6be 9fbf 633d
00000070: 90d1 173f 55a4 54bf 1c83 82bc d15c 7bbe
00000080: 49fa 06bf 4c84 ba3d aed4 78bd 8994 753d
00000090: 6b0d fa3d 409f 0f3e fd90 b23d f075 0fbf
000000a0: a2e0 60bc b63b 9d3d e32b 983e e7a7 95be
000000b0: 4858 833d 9efd b5bc f7fb bd3e 8593 43bf
000000c0: 4ad3 923e a6fe c5bd 16e7 9e3d 366e a83d
000000d0: 35ad 2f3e ab87 f73e 638c 81be 1700 623d
000000e0: bb9f 3f3e e783 4e3e 5eb3 abbe 72f8 0abe
000000f0: 95f7 a73e bd79 b43d 46ce 45be 96c6 4cbf

fc.weight f4 [4, 64]
0.102861136 -0.39405212 -6.183308 -6.976952 0.04104206 0.051044628 -0.72087514 -0.2178079
-6.792585 0.7099845 0.1500009 -0.042231467 0.13920817 -0.74325657 -0.4663067 -0.104644194
-3.0222316 -0.1044282 -0.17643318 -5.4766917 -0.047340058 -2.4493854 -0.11453127 -1.6553191
-1.1208405 -0.09624418 -4.908999 0.11656955 0.5048375 -2.6263552 0.28482896 0.01635833
-1.0127391 0.017679844 -0.071448095 -5.9308944 -0.3492125 -3.3222992 -0.17312734 -3.439794
-0.12258275 -6.1545296 -0.38653633 -0.077046074 -5.669706 0.088675335 0.007102279 -4.214262
-0.96133417 -0.5091576 -2.8123195 -4.918832 0.0045093084 -0.20429513 -2.091521 -5.993709
0.8191317 0.0074873464 -3.0930753 0.060635354 0.69085175 -3.948168 0.042305283 -5.0256305
-0.7943788 -0.114433944 0.579996 -0.22528097 0.008562243 -4.1842475 0.05598984 0.03007169
0.1483541 -0.054320734 -1.269714 -0.015282925 -0.75174123 -0.047390442 0.3598359 -2.8173723
-0.941946 0.0026890868 -0.75499725 0.12510966 -0.733471 0.38021353 -0.26006943 -0.29107943
1.7240174 -0.07951671 0.33834606 0.038970184 0.30425707 0.40982902 -2.0329406 -0.034111787
0.41653493 -0.43782255 0.13018544 0.55758405 -0.046413466 1.1202551 0.17210677 -0.21071915
-0.43639737 0.32065618 -0.28836694 -0.06863703 0.30671394 -5.25764 -0.065819755 0.3852185
-0.022472125 -0.3777625 0.1332058 0.24906136 -0.5280642 -0.019821972 0.017246313 0.3735355
0.32529217 -1.1870984 0.0184066 -0.06207252 -0.58084303 0.8066626 0.06112824 0.2346448
0.09088637 -0.21379454 0.5386841 0.7248621 0.029288743 0.056445632 0.028928695 0.10132682
0.094474904 0.7905607 0.13967483 -0.009855382 0.12766096 -0.035423987 -0.6057707 -0.10452298
1.0024718 -0.018299272 -0.121374756 0.040662132 -0.08231422 0.33068 -0.09210127 0.44838494
-0.5709248 -0.08733114 0.21923998 0.110784985 0.5240274 0.31963938 0.118788265 -0.088585116
0.20273376 -0.021306908 -0.10277872 0.5800507 -0.019852597 0.26759362 0.13998017 0.10682908
-0.21193251 0.33530003 -0.33089203 -0.040294852 0.40028477 0.022953756 -0.07951007 0.29041278
-0.067743875 -0.37262243 0.59201556 0.29338488 -0.037238274 -0.043280534 0.7030538 0.2941188
0.72414196 -0.054768626 0.4728259 -0.024321811 0.73645943 0.5290115 0.074186474 0.24087735
0.56979984 0.4427271 -3.0870218 -3.4054418 0.040149596 0.7985668 -0.3271129 0.31261864
-5.3698707 -2.8822384 0.51864684 0.06647709 0.44059741 0.81670886 0.9369884 0.64620006
-3.7091842 -0.25985828 0.22468194 -1.8509995 0.49402797 -3.54016 0.06541032 -0.73948234
-1.4959266 0.7483535 -2.5703228 -1.6854267 -2.5638647 -4.2546964 -1.1666045 0.009473879
-3.6514752 0.3657151 0.4676185 -3.1306427 0.7626463 -2.2463138 -2.7934353 -4.470357
0.33464783 -3.5106015 0.72665656 -0.03318716 -3.0703382 0.7631403 0.72879356 -3.6189945
0.736398 0.3341517 -2.039158 -1.9120687 0.41489187 1.188632 -2.1395416 -3.4153728
-4.005403 0.6666365 -2.3367832 -0.044100575 -1.3519373 -2.3623884 -0.08021298 -4.317762
00000000: dca8 d23d 33c1 c9be a9dd c5c0 3143 dfc0
00000010: b81b 283d 2c14 513d 468b 38bf 0909 5fbe
00000020: db5c d9c0 8bc1 353f d699 193e e7fa 2cbd
00000030: 968c 0e3e 1046 3ebf c0bf eebe b24f d6bd
00000040: 3e6c 41c0 74de d5bd e6aa 34be 0f41 afc0
00000050: a6e7 41bd bbc2 1cc0 5f8f eabd 7fe1 d3bf
00000060: b477 8fbf ab1b c5bd 8516 9dc0 04bc ee3d
00000070: 083d 013f 3416 28c0 1ad5 913e e801 863c
00000080: 6fa1 81bf 52d5 903c 6153 92bd e3c9 bdc0
00000090: fbcb b2be 8da0 54c0 4b48 31be 9625 5cc0
000000a0: aa0c fbbd e8f1 c4c0 17e8 c5be 55ca 9dbd
000000b0: 3b6e b5c0 6a9b b53d 3cba e83b 3cdb 86c0
000000c0: ff19 76bf 2758 02bf 0bfd 33c0 1267 9dc0
000000d0: d2c2 933b be32 51be 7bdb 05c0 77cc bfc0
000000e0: 9db2 513f 6a58 f53b f2f4 45c0 c75c 783d
000000f0: a9db 303f c9ae 7cc0 4e48 2d3d f7d1 a0c0
00000100: 695c 4bbf 585c eabd 9e7a 143f 0eb0 66be
00000110: a648 0c3c 5be5 85c0 9a55 653d e858 f63c
00000120: 23ea 173e 6b7f 5ebd fd85 a2bf 3c65 7abc
00000130: 1d72 40bf 7b1c 42bd 693c b83e d44f 34c0
00000140: 6023 71bf 643b 303b 8047 41bf bf1c 003e
00000150: c1c4 3bbf 59ab c23e d227 85be 5d08 95be
00000160: 9aac dc3f a8d9 a2bd b23b ad3e 339f 1f3d
00000170: 95c7 9b3e 1cd5 d13e b31b 02c0 cdb8 0bbd
00000180: 1144 d53e 472a e0be 554f 053e d4bd 0e3f
00000190: 0c1c 3ebd 8564 8f3f c23c 303e c3c6 57be
000001a0: 7a6f dfbe 0c2d a43e d5a4 93be 9291 8cbd
000001b0: 9c09 9d3e 963e a8c0 82cc 86bd 5c3b c53e
000001c0: 7617 b8bc 166a c1be 1a67 083e f109 7f3e
000001d0: 372f 07bf b061 a2bc 2448 8d3c 0c40 bf3e
000001e0: b28c a63e d7f2 97bf 70c9 963c c13f 7ebd
000001f0: 21b2 14bf 7181 4e3f 9b61 7a3d ba46 703e
00000200: a222 ba3d f5ec 5abe 34e7 093f 9090 393f
00000210: f2ee ef3c 8933 673d dffb ec3c 7084 cf3d
00000220: 0f7c c13d 3062 4a3f eb06 0f3e 7878 21bc
00000230: 8eb9 023e be18 11bd ca13 1bbf 2510 d6bd
00000240: ff50 803f 5be8 95bc 5493 f8bd 568d 263d
00000250: 5c94 a8bd e44e a93e 979f bcbd b692 e53e
00000260: 2128 12bf abda b2bd 7280 603e 3de3 e23d
00000270: a926 063f c6a7 a33e 4347 f33d 1d6c b5bd
00000280: 7099 4f3e d38b aebc a67d d2bd 347e 143f
00000290: eaa1 a2bc 0802 893e f656 0f3e 34c9 da3d
000002a0: d604 59be 72ac ab3e ae6a a9be 370c 25bd
000002b0: 20f2 cc3e 8409 bc3c 2dd6 a2bd fcb0 943e
000002c0: 4dbd 8abd 5ec8 bebe 558e 173f 8b36 963e
000002d0: 2987 18bd ee46 31bd 55fb 333f bd96 963e
000002e0: 5e61 393f 1155 60bd 3d16 f23e 893e c7bc
000002f0: 9b88 3c3f 4c6d 073f 14ef 973d 8da8 763e
00000300: 67de 113f 20ad e23e c491 45c0 c2f2 59c0
00000310: e773 243d e06e 4c3f 587b a7be 8d0f a03e
00000320: fbd5 abc0 9876 38c0 0ac6 043f 2425 883d
00000330: fc95 e13e d513 513f 79de 6f3f 5e6d 253f
00000340: 4663 6dc0 250c 85be 0613 663e 8ded ecbf
00000350: 3cf1 fc3e fb91 62c0 d9f5 853d b74e 3dbf
00000360: 867a bfbf 1894 3f3f 2b80 24c0 10bc d7bf
00000370: 5c16 24c0 7926 88c0 4c53 95bf 5438 1b3c
00000380: c5b1 69c0 023f bb3e b16b ef3e 735c 48c0
00000390: ca3c 433f 9bc3 0fc0 a5c7 32c0 2a0d 8fc0
000003a0: f656 ab3e b2ad 60c0 2a06 3a3f 42ef 07bd
000003b0: 6c80 44c0 2a5d 433f 3792 3a3f 9b9d 67c0
000003c0: 9484 3c3f ee15 ab3e 9181 02c0 abbe f4bf
000003d0: b56c d43e 1825 983f 40ee 08c0 7895 5ac0
000003e0: 432c 80c0 b1a8 2a3f db8d 15c0 cea2 34bd
000003f0: 480c adbf 5f31 17c0 b446 a4bd 1b2b 8ac0

fc.bias f4 [4]
-0.33796492 0.73584837 -0.45719254 0.22785017
00000000: bd09 adbe 8f60 3c3f 2415 eabe 8e51 693e
