LSTM/LSTM8/model.pth (torch, 275929 bytes, 6 tensors)

lstm.weight_ih_l0 f4 [512, 3]
000000 b6 2b 9e bd f2 f1 18 3f 7b 56 b3 bd 67 0e 9a be
       -0.07723181 0.5974418 -0.08756729 -0.30089113
000010 67 ed 93 be a2 15 e1 bc fd 37 19 bf f3 e4 b5 3d
       -0.2889206 -0.027476136 -0.59851056 0.08881559
000020 b4 3c 39 be 73 8e 8c bd 35 3c bb bb e1 70 20 be
       -0.18089563 -0.068631075 -0.0057139643 -0.1566806
000030 41 3a 23 be 18 d2 d4 bd 54 b3 13 be 6d 5e 54 bd
       -0.15940191 -0.10391635 -0.14423877 -0.051847864
000040 b9 64 91 3e 8a ac e6 3d 51 41 da be bb d9 c1 be
       0.28397158 0.11263378 -0.42627957 -0.37861428
000050 2c 98 19 bf a7 17 8a be a9 c9 d7 be ab 80 b2 be
       -0.5999782 -0.2697117 -0.42146042 -0.3486379
000060 ab bb de be 71 31 a8 be 2d 13 cc be 57 c2 a0 be
       -0.43502554 -0.3285022 -0.3985838 -0.3139827
000070 7f 3c 17 bf a9 52 ae bd a8 e5 33 be 50 c9 26 3d
       -0.59076685 -0.0851186 -0.17568076 0.04071933
000080 42 70 06 3e 3f 86 40 be 64 43 51 3b 25 3d 4f be
       0.1312876 -0.18801211 0.0031931037 -0.20238169
000090 cf 33 28 be 3a 50 2a bf 02 f0 66 bd 3a a3 bb be
       -0.16426013 -0.66528666 -0.056381233 -0.3664797
0000a0 ae bd ff be f1 30 e1 be 60 17 32 be 01 02 07 bf
       -0.49949402 -0.43982652 -0.1739173 -0.5273743
0000b0 f4 2d 1b bd af c2 c7 3d 99 e1 4c 3e 35 48 17 bf
       -0.03788562 0.0975393 0.20007934 -0.59094554
0000c0 db 3b 55 bd e4 1b d6 3c da 80 25 bf 20 11 cd bc
       -0.052059036 0.026136346 -0.64649737 -0.02503258
0000d0 2f 7b 05 3c 35 ef a5 3d e0 58 25 bc 3b 79 3e 3d
       0.008147045 0.08102266 -0.01009199 0.046502333
0000e0 09 57 22 3e 59 66 9f bd bf 5f 43 3e 9d e9 65 be
       0.15853514 -0.07783193 0.19079493 -0.22452398
0000f0 dd 7f 19 be 4a 22 47 bf 65 5e fd be f0 69 12 bf
       -0.14990182 -0.77786696 -0.4948608 -0.571929
000100 26 5b 34 bd 04 8e 57 be 53 be 06 be 56 4a 95 bd
       -0.04403224 -0.21050268 -0.1315854 -0.07289569
000110 0e bc 00 be e4 41 59 be 03 24 d0 be fa da 7c bd
       -0.12571737 -0.21216542 -0.40652475 -0.06173227
000120 11 cc 5c be 22 b0 86 bd d1 8f d4 be 7d 34 62 be
       -0.2156222 -0.065765634 -0.41515973 -0.22090335
000130 09 28 a5 be 9a 3c 6e be 38 80 0e bd 40 db 23 3e
       -0.32257107 -0.23265305 -0.034790248 0.16001606
000140 9a 2f 91 bd 09 1f 90 be fb 19 10 bf 40 fb c8 bd
       -0.070891574 -0.28148678 -0.56289643 -0.09813547
000150 06 a3 42 be 91 bf d2 3c bd c3 9e be ed dd ef bd
       -0.19007501 0.025726112 -0.3100871 -0.11712251
000160 e1 ff 13 be 8c 8c 2f ba 64 49 cc be 55 61 e2 be
       -0.14453079 -0.00066966633 -0.39899743 -0.44214883
000170 95 43 79 be 64 6e 26 be 91 a6 19 3e 7f ef 3f 3e
       -0.24342187 -0.16253048 0.15004946 0.18743704
000180 e8 6a 93 be c9 ea e8 be fe 6d ec 3b 9a 0b 72 bf
       -0.287925 -0.45491627 0.0072152605 -0.9454895
000190 a1 89 86 bc 0e 82 fe be 56 de 41 be 9d 63 2b be
       -0.016423048 -0.497086 -0.1893247 -0.16737218
0001a0 c8 a4 e0 bb 00 26 16 be 47 c9 f7 be d6 4c c1 be
       -0.006855581 -0.14662933 -0.4839575 -0.37753934
0001b0 5c d3 2d be e6 39 5d be ab 2b 67 3e 26 43 38 be
       -0.16975158 -0.21604118 0.22575252 -0.17994365
0001c0 07 1a 08 be 33 e3 d9 3c 0e ac 53 bd 2a f3 2c 3e
       -0.13291179 0.026597595 -0.051677756 0.16889635
0001d0 a7 27 a2 3d 8c a6 4c be 2f e2 2a be c7 64 15 be
       0.07917719 -0.19985408 -0.16687845 -0.14589225
0001e0 75 c6 ce be 00 1a cc be c5 9a 71 be d2 66 84 be
       -0.40385786 -0.39863586 -0.23594196 -0.25859696
0001f0 90 c0 3f 3c 4c 8a 47 be 22 72 aa be 54 bc 72 be
       0.011703625 -0.1948635 -0.332902 -0.23704654
000200 6f 20 0b bf 38 a1 83 be df 5e 37 bf cd 11 a4 bd
       -0.54346365 -0.25708938 -0.71629137 -0.08011208
000210 d7 65 5c 3e 20 82 cc bd c4 0d 66 be b7 18 1c bc
       0.21523224 -0.09985757 -0.22466189 -0.009527377
000220 a6 e7 1b be 7f 7b 57 3e 66 03 41 be c5 28 d4 bd
       -0.15225086 0.21043204 -0.18848953 -0.10359339
000230 a1 0c ff bd 1b d5 a9 be ab 85 9a be b5 ef 8a be
       -0.12453581 -0.331704 -0.30180106 -0.27136007
000240 23 55 1b 3e 36 52 b3 3e 57 5e ea bd e5 95 b2 bc
       0.15169196 0.3502366 -0.11443775 -0.02179999
000250 73 54 84 3c d9 a0 d0 be 74 30 97 bd 40 89 f3 3d
       0.01615355 -0.40747717 -0.073822886 0.11891413
000260 d8 75 97 bd 56 01 4e be bc b8 af be 4f a9 b0 bc
       -0.07395524 -0.20117697 -0.3432063 -0.021565108
000270 df d6 05 be 50 71 1b 3c 00 44 11 bf 85 b9 68 be
       -0.13070248 0.009487465 -0.56744385 -0.2272702
000280 79 34 53 be dc 0d 93 3d f6 a7 ba bd 91 10 bf bd
       -0.20625485 0.07180378 -0.09114067 -0.09329332
000290 55 03 e9 be a2 e4 93 be be f5 7c be 76 50 88 be
       -0.45510355 -0.2888537 -0.24703118 -0.26623887
0002a0 c2 03 2e 3e 8b f7 68 3e dd 1f a0 3e fc a7 a4 be
       0.16993621 0.2275068 0.3127431 -0.32159412
0002b0 56 59 af be 76 30 aa be 9a a6 46 be 29 d7 e2 bd
       -0.34247845 -0.33240098 -0.19399491 -0.11076195
0002c0 7f 8d b0 be d0 c0 21 be f7 f4 99 bd 76 20 71 bd
       -0.34482953 -0.15796208 -0.075174265 -0.058868848
0002d0 72 30 c0 be be 8e 9f be ea 05 c3 be b4 b9 26 bc
       -0.3753696 -0.3116359 -0.3809045 -0.010176111
0002e0 42 66 d3 be 62 11 8b be 67 39 5a be 53 c5 6c be
       -0.41288954 -0.271617 -0.2131096 -0.23122148
0002f0 d6 7d d9 be 40 8d 16 bf fe be 12 bf 25 58 dd be
       -0.42478818 -0.5880928 -0.5732268 -0.4323131
000300 63 0e 85 bd 7d 41 2b be 14 17 ae be cc c4 b8 be
       -0.06496885 -0.167242 -0.34001982 -0.36087644
000310 8b 2e be be bb 3a 8b be bc 4d 65 be ae 04 20 bd
       -0.37144884 -0.27193245 -0.22392935 -0.039066963
000320 61 d4 b1 be 73 68 51 be ce 53 43 be 9f 47 eb bd
       -0.34732345 -0.2045 -0.19074938 -0.1148827
000330 7e 29 91 be e1 b3 d6 be fc 22 1a bf ea 86 c5 bd
       -0.2835197 -0.41934112 -0.6020963 -0.096448734
000340 66 6f 2d be 8c 51 93 3d 06 e7 76 3d b5 c4 d3 bd
       -0.16937026 0.07193288 0.060278915 -0.10340253
000350 9b 58 51 be 9b 79 1a be 41 4f 3e be 6c e0 1a 3e
       -0.20443957 -0.15085451 -0.1858492 0.15124673
000360 b5 9f 15 bd 76 2b 19 be ba ca 07 be 20 52 b8 3c
       -0.03652926 -0.14957985 -0.13260928 0.022500098
000370 3f a6 78 bd 7a de c2 3e 7d be ae bc 2e a7 b0 be
       -0.06070542 0.3806036 -0.021331066 -0.34502548
000380 7e 5a 81 be 17 10 2e bd fd 62 bf 3d 68 ed 4e 3e
       -0.25264353 -0.042495813 0.093450524 0.20207751
000390 52 83 1d be 30 8b 9e bd d6 9b 98 be 62 a2 86 3e
       -0.15382126 -0.07741392 -0.29806393 0.26295763
0003a0 1e 54 46 3d a2 53 65 3e e5 f7 dd bd 31 21 90 be
       0.048420064 0.22395185 -0.10838298 -0.28150323
0003b0 02 12 c6 3d 16 e9 9d be 57 90 07 bf 9e 63 8e be
       0.096714035 -0.30841893 -0.5295462 -0.27810377
0003c0 2d 00 82 be af 8e e6 be 10 97 cb be 09 db 90 be
       -0.2539076 -0.45030734 -0.3976369 -0.2829211
0003d0 7c b9 84 be 80 a2 73 be 44 22 6e be e0 fc 7e be
       -0.25922763 -0.23792458 -0.23255259 -0.24901152
0003e0 a7 e4 bd be f5 62 5f bf 3e 2c 06 3d a6 24 9d be
       -0.3708851 -0.8726037 0.032757036 -0.30692023
0003f0 1c 3d d3 be 94 37 6c be 9a 1e b8 be 7d 94 43 be
       -0.4125756 -0.23068076 -0.35960847 -0.19099613

lstm.weight_hh_l0 f4 [512, 128]
000000 cb 3e 4e be 95 06 82 3e b8 56 d8 bd 3b aa d5 bd
       -0.20141141 0.25395647 -0.10563415 -0.104328595
000010 5b 63 8a 3e 66 33 01 be 89 e7 00 be 27 b3 02 be
       0.27028927 -0.12617263 -0.12588324 -0.12763654
000020 45 5d 4e 3e eb 93 90 3d c9 8a a7 be 9f bb a0 3c
       0.20152767 0.07059463 -0.32723072 0.019620715
000030 27 40 3c 3d f5 71 30 3e 6b 5f 1a be bc 86 03 be
       0.045959618 0.17230971 -0.15075462 -0.12844366
000040 b6 91 ad bd ec 2e 80 3d e1 6e c0 3c 5d c4 1d be
       -0.08475058 0.0625895 0.023490371 -0.15406938
000050 06 f4 39 3e 4d db 04 bd 4d 00 da 3d b9 39 14 bd
       0.18159494 -0.032435704 0.106445886 -0.03618786
000060 c5 1a 06 be e1 fe 16 be f6 95 36 bd 90 06 40 3e
       -0.1309615 -0.14745666 -0.044576608 0.18752503
000070 31 b5 27 be 90 37 c8 bc aa 83 5c 3d 0f 03 bb bd
       -0.16377713 -0.024440557 0.053836502 -0.09131443
000080 98 0a 17 3e c1 fb ec 3d 6b 26 58 be fc 69 86 bb
       0.14750135 0.11571456 -0.21108405 -0.00410199
000090 64 d3 f4 3d 2e 75 50 3e 23 36 5e bd a6 ed 04 3d
       0.11954382 0.203572 -0.054250848 0.0324532
0000a0 f5 8f 32 3e 1a 87 1e 3c d6 d9 f9 bd 1d 1a a0 3b
       0.17437728 0.009675765 -0.12199752 0.0048859254
0000b0 98 83 9b 3d 02 93 b3 be b7 14 57 3e b2 bc 58 3d
       0.07593459 -0.35073096 0.21003996 0.05291433
0000c0 1d 9c f9 bd 28 a8 68 3d 59 f5 10 3e 9e 2e 46 bd
       -0.12187979 0.05680099 0.14156093 -0.0483843
0000d0 40 8b 28 3d 30 6a b1 3d a3 f1 62 be 60 a7 ad bd
       0.041148424 0.08662832 -0.2216249 -0.0847919
0000e0 dd 7d d8 be b2 eb f7 3d c9 9a a1 bd af 2f da bd
       -0.42283526 0.12105502 -0.07890851 -0.10653626
0000f0 6d be 61 3d 54 51 87 3d 6d 1b 62 3e 9d 08 32 be
       0.055113245 0.06607309 0.22080775 -0.17386098
000100 42 80 87 bd 77 8a d9 bc 50 e6 5b 3e d1 45 ca 3e
       -0.0661626 -0.026555283 0.21474576 0.3950639
000110 b8 3d 37 be 10 24 5f be ba 6b 6a be 61 97 a4 be
       -0.17894638 -0.217911 -0.22892657 -0.32146743
000120 3b 84 d2 bd c1 13 9e 3e ef 20 1f be 7e 64 99 3e
       -0.10279127 0.30874446 -0.15539907 0.29959482
000130 4f 78 ad bd c6 d9 69 3d 59 fa 2f 3e f4 e6 89 bc
       -0.08470213 0.05709245 0.17185344 -0.01683376
000140 14 d9 a0 3d 43 41 03 bd 5b 17 8d be 23 57 d2 bc
       0.07853904 -0.03204466 -0.2755688 -0.025676316
000150 6f ea c1 3d 3a 47 cc 3d 64 48 5c 3e ad 4a 2a 3e
       0.09468543 0.09974523 0.2151199 0.16630049
000160 46 54 0e bc 6a 00 0d be 53 e8 c7 3d b6 a0 4a be
       -0.008687085 -0.13769689 0.09761109 -0.19787869
000170 e0 a8 cb 3d 00 68 c2 3d a1 72 64 be 16 a8 c2 3d
       0.0994432 0.09492493 -0.22309352 0.09504716
000180 12 a4 6c be 64 d8 d8 3d bb 39 88 bc b2 97 3c 3d
       -0.23109463 0.10588148 -0.01662909 0.046043105
000190 74 58 0e 3e 21 ef 61 be ef 5e 1f 3e 4c 5b 04 3e
       0.1390093 -0.22063877 0.15563558 0.12925452
0001a0 45 0d 17 be a0 c0 8f bc f5 cc 86 3e 10 29 b3 3e
       -0.14751156 -0.017547905 0.26328245 0.34992266
0001b0 6e 11 66 3c 23 bb 93 3d ad 63 c2 be ab db 02 be
       0.0140422415 0.07213428 -0.37966672 -0.12779109
0001c0 74 9b 85 bd 5b e2 d2 bd 6e 62 5e 3e d5 46 0d bd
       -0.06523791 -0.1029708 0.21717235 -0.03449138
0001d0 7d c5 bc bc b9 ef 04 be 52 ea 45 bd cd bf 6f 3d
       -0.023043389 -0.12982072 -0.04831917 0.058532525
0001e0 1c 23 1e be d5 42 2b 3d 4a 23 23 3e cf 7f 37 3e
       -0.1544308 0.041811783 0.1593143 0.17919849
0001f0 c5 6e 00 3e 81 f5 f2 3d a9 b9 13 3d e7 14 33 3d
       0.12542255 0.118632324 0.03606573 0.043721106
000200 d3 56 1e be 68 6b 36 3e 98 48 a1 3c 05 24 16 3e
       -0.15462808 0.1781441 0.019687936 0.14662178
000210 1d 5c d5 be 02 78 1e 3e 21 8f a4 be a1 58 e7 bd
       -0.4167184 0.15475467 -0.3214045 -0.112962015
000220 e3 21 49 3e 19 62 a6 3e 5e 73 69 3e ec dd 62 3e
       0.19641833 0.32496718 0.22797915 0.22154969
000230 4c b7 85 3d 47 2f 11 3e 5e 59 78 3e 45 a5 11 3c
       0.06529102 0.14178191 0.24252841 0.008889501
000240 af dc 6c be 0b 47 a6 bc 55 03 08 3e f7 59 8e be
       -0.23131059 -0.020297548 0.13282521 -0.27803013
000250 a3 b2 b3 3d 71 d0 70 3d b4 e7 f7 3d d1 be dd bb
       0.087743066 0.058792535 0.12104741 -0.006767132
000260 b4 15 18 be 42 0c 86 3d 6e 57 7f 3e a6 cb 88 3e
       -0.14852029 0.06545307 0.24935696 0.2671787
000270 2d 06 f3 bc 41 33 06 be 0f 00 81 3e c1 5e 95 3d
       -0.02966603 -0.1310549 0.25195357 0.072934635
000280 d6 d0 33 3e 6e 04 d2 bc cf 5f 81 3d ab 90 6c be
       0.17560133 -0.025636878 0.06317102 -0.23102061
000290 1f e6 be bd cc e9 05 bd c2 42 20 3e 3e 8e 03 bd
       -0.09321236 -0.03269367 0.15650466 -0.032118075
0002a0 58 83 2d 3e 58 5d a8 bd f7 88 8c 3d 77 38 d4 bd
       0.16944635 -0.08220929 0.068620615 -0.10362332
0002b0 b8 9c 98 3e 65 65 35 3e e9 97 94 3c 93 3c bc bc
       0.29807067 0.1771446 0.018138843 -0.022978103
0002c0 0f ee 84 be 98 2c 9a bd bb 1b e6 bc 96 83 59 bc
       -0.25962874 -0.07528037 -0.028089395 -0.013276001
0002d0 4f 90 a6 be 43 37 7c 3d 0e a6 86 be a1 d5 92 3c
       -0.32531974 0.06157614 -0.26298565 0.017924132
0002e0 0f 84 14 bd 58 bf ef 3c 21 cb 79 3e c8 f7 9b 3d
       -0.036258753 0.029266044 0.24393894 0.0761562
0002f0 26 83 ad 3d 54 4b 33 3e 22 7a 0c bc 7c 99 b0 3d
       0.0847228 0.17509204 -0.008574041 0.08623025
000300 a9 50 08 bf 0a 25 e1 bc c6 75 fb 3d 67 7f 7e bd
       -0.5324808 -0.027483482 0.12278323 -0.06213322
000310 e3 58 75 be 41 43 09 3e ff d1 13 bd 22 df 68 3e
       -0.23959689 0.13404562 -0.03608894 0.22741368
000320 60 19 77 be 60 f6 cc bd aa de 54 be 82 fb e9 3b
       -0.24130774 -0.1000793 -0.20788065 0.007140578
000330 3d 2a 7f bd 51 89 35 be f7 fc 07 3d c2 4a a2 bd
       -0.06229614 -0.17728163 0.03320023 -0.07924415
000340 d9 44 69 bd 4b 96 88 3e 0f 3a 7e bd 76 ee ea 3d
       -0.056950424 0.26677164 -0.062067088 0.11471264
000350 de 84 c2 3b e5 24 12 bc 8f 05 da 3d be e2 89 be
       0.005936249 -0.008919929 0.106455915 -0.26930803
000360 97 0c 3c bd 39 49 69 be 7b 46 76 be 73 09 b5 bd
       -0.045910444 -0.22781838 -0.24050324 -0.08839693
000370 f1 f9 d6 3d 63 33 05 be 0d 73 65 bc f0 9e b9 bd
       0.10496891 -0.13007884 -0.014004481 -0.09063518
000380 98 87 92 be 0f 6c 30 3d d7 6e d0 3c 56 f6 b0 bc
       -0.28619075 0.043071803 0.025443478 -0.021601837
000390 52 e7 31 bd 02 82 e2 bd b9 66 19 be 47 ad 92 3d
       -0.043433495 -0.11059953 -0.14980592 0.07161956
0003a0 06 c9 61 be e0 9e c3 bd ef 08 0f be 8a e2 94 3d
       -0.2204934 -0.095517874 -0.13968252 0.072697714
0003b0 87 e3 e0 3e 32 5e 8e bd b2 72 12 be fe 38 f4 3d
       0.4392359 -0.0695156 -0.14301565 0.11924933
0003c0 ac bf c0 3c 2c dd 13 be 58 7b 9c 3d 9b e0 b2 bc
       0.023528896 -0.14439839 0.076407135 -0.021835616
0003d0 71 30 e2 3e e2 e9 9a bc d7 7c 77 bd 46 bc 7c bd
       0.44177583 -0.018910352 -0.06042179 -0.06170299
0003e0 62 a6 f6 3b 59 81 af bd fb 62 11 3d 09 c6 85 3e
       0.0075271586 -0.08569593 0.035494786 0.2612765
0003f0 90 9d 33 be 15 13 5b be 7e 22 64 bd f1 6d ea bd
       -0.17540574 -0.21393998 -0.055696957 -0.11446751

lstm.bias_ih_l0 f4 [512]
000000 73 f4 29 3e 54 3f 51 be aa a0 ae be cc 1a 94 3d
       0.16597156 -0.20434314 -0.34106952 0.072316736
000010 65 00 b6 bd bf 04 8e 3d b9 f4 b6 be 46 47 48 be
       -0.08886794 0.06934499 -0.35733584 -0.19558439
000020 e4 42 a4 be 64 a5 91 be cd e3 50 bd 2a c4 d5 bd
       -0.32082283 -0.28446496 -0.050998498 -0.10437806
000030 13 2f 67 be 56 fb b5 be f7 c4 10 be 41 6e 48 3d
       -0.22576551 -0.35543317 -0.14137636 0.04893327
000040 ac ce ac 3d 8f 58 9d bd f0 10 6f bd 37 36 dd 3c
       0.08437857 -0.07682907 -0.058365762 0.02700339
000050 ce d4 8e be 77 af 09 be 8e 94 63 be c9 bb 9c be
       -0.27896732 -0.13445841 -0.22224638 -0.3061202
000060 b3 59 1a be 06 90 84 be b8 21 9d bd d6 d4 63 be
       -0.1507328 -0.2589113 -0.07672447 -0.22249159
000070 3a 01 c9 bd fd 0f 7f be 81 43 97 be 33 ce 02 be
       -0.09814687 -0.24908443 -0.2954369 -0.12773971
000080 e6 71 81 be 5f b8 8d be 4b 3d c4 bd 1e 7b 04 be
       -0.2528221 -0.27679726 -0.09582003 -0.1293759
000090 d3 2e 2a be 75 69 14 be d3 df b5 3c 57 15 41 be
       -0.16619425 -0.14493354 0.022201454 -0.18855797
0000a0 ff 7b 9d be 0c de 3f bd d6 49 5d be 31 c2 56 be
       -0.30758664 -0.04684262 -0.21610197 -0.20972516
0000b0 51 bc c8 3d 00 53 6d 3c 52 f8 40 be 96 4c 73 be
       0.098015435 0.014485121 -0.18844727 -0.23759684
0000c0 7d 57 ca 3d 13 43 b9 bd 9b 1d 3a bc 14 87 39 be
       0.09879968 -0.090459965 -0.011359598 -0.18117934
0000d0 dc 53 09 be 83 87 39 be f0 16 03 be 00 85 27 be
       -0.13410896 -0.181181 -0.12801719 -0.16359329
0000e0 39 26 2a 3e 4b 53 c3 be 5f be 6a be 29 1e 47 be
       0.16616143 -0.38149485 -0.22924183 -0.19445099
0000f0 18 98 8a be 76 15 94 be 86 42 2d be bc fb 0b bf
       -0.27069163 -0.28922623 -0.16919908 -0.5468099
000100 04 d5 ad bd 40 95 b7 be 62 5d 11 be 65 7a 6e be
       -0.08487895 -0.35856056 -0.14195779 -0.23288877
000110 c4 f3 96 be 2b c8 cf bd 9a 4f 93 3d 41 3c 9c 3b
       -0.29482853 -0.10145601 0.07192917 0.004767925
000120 5c d8 a6 bc 66 3c 7a 3c 0f 48 2e be f6 3f a2 3c
       -0.02036684 0.015273189 -0.17019676 0.01980589
000130 d8 f5 eb bd 69 47 17 3e 22 47 21 be 8c 17 93 be
       -0.115215 0.14773335 -0.15749791 -0.28728902
000140 cb 54 81 be 1e 1e 80 be bf 8d ca bd b8 6e 57 be
       -0.25260004 -0.25022978 -0.09890317 -0.2103833
000150 53 50 d2 be 1a a3 3a be 3c af bc be 1b 92 33 be
       -0.41076908 -0.18226281 -0.36852443 -0.17536204
000160 5f e1 1a be f5 0b a5 bc 87 38 32 bd 45 4e 49 be
       -0.15125035 -0.020147303 -0.04351094 -0.19658764
000170 e2 c9 bc be e3 c8 a6 bd 90 f5 54 be 2c dc 4e be
       -0.36872774 -0.08143785 -0.207968 -0.20201176
000180 65 12 1f be 03 04 fd bd 82 d9 33 3d b1 e0 a0 bd
       -0.1553436 -0.12354281 0.043908603 -0.078553565
000190 c5 e2 2f bd 68 54 a2 be be c8 88 3e fe ef db be
       -0.042940874 -0.31705022 0.26715654 -0.42956537
0001a0 2c 13 a3 be 10 4e a1 3d 2e 4b 2e 3e 36 32 ee bd
       -0.31850564 0.07876217 0.17020866 -0.11630671
0001b0 37 66 3d be a5 ab bf bd 9f 5a 23 be fe a0 2c be
       -0.18496023 -0.093589105 -0.15952538 -0.16858289
0001c0 ed 06 da bd 21 8b a4 be 3a 6d f9 3d a7 b8 2a be
       -0.10645852 -0.32137397 0.121790364 -0.16672002
0001d0 48 10 5e be d9 46 8e be cc d7 00 bd ea ca e2 bd
       -0.21685898 -0.27788427 -0.0314558 -0.11073859
0001e0 7a 2c 17 be b0 8b 35 3e 1a 21 23 be e6 67 9e bc
       -0.1476306 0.17729068 -0.15930596 -0.019336652
0001f0 74 f5 65 be 2e 6c 74 be 81 85 94 be be fe a1 be
       -0.22456914 -0.23869392 -0.29008105 -0.31639665
000200 c2 20 4a bd 34 2c d9 bd 87 4d 30 be 37 3e 4d 3e
       -0.049347647 -0.10604134 -0.17217074 0.20043264
000210 41 c4 e2 bc 43 0d 49 3d ed ce 7d be f6 3e 33 3d
       -0.027681472 0.049084913 -0.24785967 0.043761216
000220 9f a1 87 be 95 16 13 be 60 67 ac bc 02 9c 33 be
       -0.26490495 -0.14364083 -0.021045387 -0.17539981
000230 fb 5a 1a be 8a af 81 be d0 eb 0e be 23 9c 96 3e
       -0.15073769 -0.25329238 -0.13957143 0.29415998
000240 3e f7 f3 bc a5 b5 48 3b 2b 3b 75 3d ba 14 ba 3d
       -0.02978098 0.0030625847 0.05987088 0.090859845
000250 4b 7c 2f be ed 9d 8f bd f7 c5 1e be 38 7c 6a be
       -0.17137258 -0.07012544 -0.15505205 -0.22898948
000260 dc 8d 0d bd 72 db 39 be 10 00 4a 3d e6 48 dc bd
       -0.034559116 -0.18150118 0.049316466 -0.10756092
000270 f1 eb 4d bc ec e1 cc bc 56 9f 02 be 65 06 24 3d
       -0.01256846 -0.025010072 -0.12756094 0.04004516
000280 0c e2 14 bd 7d 3d 56 be bf 30 1a be d2 09 29 bc
       -0.036348388 -0.20921893 -0.15057658 -0.010317283
000290 3e 6f b4 3d e4 31 ba bc fe 2f 1f bd 77 2e 8c be
       0.0881028 -0.022728868 -0.03886413 -0.273792
0002a0 24 95 6c be 80 b2 6f be 2e 18 4b be 75 a0 45 be
       -0.23103768 -0.23407936 -0.19833443 -0.19299491
0002b0 e0 98 4c 3e 09 7c bc bd 98 9c 29 bd 91 84 67 be
       0.19980192 -0.09203345 -0.041409105 -0.22609164
0002c0 4a d7 5b bc a7 0a 92 3d c7 fa 6f bd 5d 94 f8 bd
       -0.013418028 0.07130938 -0.05858877 -0.12137673
0002d0 f7 5f 07 3c 59 e9 a1 3c d9 47 13 3d 2b a6 0e be
       0.008262626 0.01976459 0.03595719 -0.13930576
0002e0 3f 1c 01 3c aa 63 9f be 26 b1 fe bb 0e 1a 2c bc
       0.00788027 -0.31130725 -0.0077725826 -0.010504259
0002f0 44 57 8f be 3c 03 4c bd bf d5 d8 3d d8 9f 25 be
       -0.27996266 -0.049807772 0.10587644 -0.16174257
000300 a2 21 10 bc 27 c8 a1 be 4e 02 c5 bd e0 f7 04 be
       -0.008797081 -0.31598017 -0.0961958 -0.12985182
000310 11 f9 12 be 87 2d 01 be f1 b7 8f 3d 3f 26 f4 3d
       -0.14352824 -0.12615024 0.07017506 0.11921357
000320 1b c3 e0 bd 20 3e 5d 3d 55 72 73 ba 2b 0f 7d 3e
       -0.109747134 0.054014325 -0.0009286751 0.24712817
000330 ef fe 13 be 2b 8e 22 bd b4 2a 28 be 31 3d 59 be
       -0.14452718 -0.039686363 -0.1642254 -0.21214749
000340 1a 36 2e be 90 bc 81 be a7 b0 d1 bc 04 c8 28 bd
       -0.17012826 -0.25339174 -0.02559693 -0.041206375
000350 68 36 90 be 2a 2f 2a bd 05 8a b5 bd b8 ba e3 bc
       -0.2816651 -0.041548885 -0.08864216 -0.027798995
000360 e4 b2 b7 bd 7e d6 2c bd af f4 ab 3c 03 5b 4a 3e
       -0.089696676 -0.042196743 0.020990698 0.1976128
000370 68 d7 0d be ea 20 40 3c d0 6a 0b be 15 a2 36 be
       -0.13851702 0.011726597 -0.13614964 -0.17835267
000380 a1 70 06 be 1b 73 a0 be e6 0b 02 bd 9a 46 20 bb
       -0.13128902 -0.31337819 -0.03174963 -0.0024456144
000390 da 0b a1 bd b0 5e 3b be b2 bd b4 3d 5c 9a 9b be
       -0.07863589 -0.18297839 0.08825244 -0.30391204
0003a0 30 e9 29 be 0a 6b 40 3d d8 39 c2 3d 3c 42 9d bd
       -0.1659286 0.04697708 0.09483689 -0.07678649
0003b0 86 b6 8c bd 87 91 1f 3d b1 3b 0f be 3f 3f d3 3d
       -0.06870751 0.038957145 -0.13987614 0.103147976
0003c0 6e 27 be bd ce e2 86 be 38 29 2e 3d 5a 02 c7 bb
       -0.09284864 -0.26344913 0.042519778 -0.0060732784
0003d0 c4 cb e4 bd 5d 7e 7a be f7 c7 d4 3b 36 d6 b8 bd
       -0.11171678 -0.24462266 0.006493564 -0.090252325
0003e0 00 8b e6 3b 56 6b cf 3b d7 b1 a5 3c 4e f2 bf 3c
       0.007035613 0.006329934 0.020226402 0.02343097
0003f0 67 49 90 be 5a 97 27 be cb 2e 51 3d a9 0b 91 be
       -0.28181002 -0.1636633 0.051070016 -0.28329208

lstm.bias_hh_l0 f4 [512]
000000 b9 ae 3d 3e a8 1f 19 be 7a 6e 99 be c8 14 7b 3d
       0.18523683 -0.14953482 -0.299671 0.061299115
000010 b9 c4 0f be 19 eb cd 3d 01 fe bf be 6a 92 47 be
       -0.14039887 0.10054607 -0.37498477 -0.19489446
000020 03 bd cf be 67 09 6b be 13 fc 24 be 51 30 18 be
       -0.40573892 -0.22952805 -0.16111784 -0.14862181
000030 fe ec 7c be 44 bc f8 be 89 c6 d9 bd 5c 48 a6 3d
       -0.2469978 -0.48581135 -0.10633571 0.0811927
000040 a2 1a ce 3b ed 20 ed bd 32 b2 5b 39 7d f7 ac bc
       0.006289796 -0.11578546 0.0002095185 -0.021114105
000050 a5 d7 a4 be 02 0e 06 be d3 90 65 be 7e 4e 7e be
       -0.32195774 -0.13091281 -0.22418527 -0.2483463
000060 d4 71 13 be a7 ef b4 be a3 08 83 bd 48 dc 89 be
       -0.1439889 -0.3533909 -0.06398132 -0.26925874
000070 ff 3f b2 bd 24 26 d3 bd 91 6e 86 be 12 a8 89 bd
       -0.087036125 -0.10310009 -0.2625623 -0.0672151
000080 4d cb 81 be c9 a5 97 be c7 54 27 be 94 e4 24 be
       -0.2535042 -0.29618672 -0.16340934 -0.1610282
000090 f9 3a 95 be b0 bb 0a be 1e 37 c9 bb d8 b1 0c be
       -0.29146555 -0.1354816 -0.0061406037 -0.13739717
0000a0 5c 07 9a be 90 27 24 be 58 65 55 be fa 15 93 be
       -0.3008374 -0.16030717 -0.20839441 -0.28727704
0000b0 ce b7 53 3d 5a fe 9a 3c e5 39 8f be 00 ec 82 be
       0.05168896 0.018920112 -0.27973858 -0.2557068
0000c0 60 da 1a 3e db 31 3a bc 4c c3 c7 bc 9b 64 10 be
       0.15122366 -0.0113644255 -0.024385117 -0.14100878
0000d0 67 0b 52 be 58 c6 70 be 7d 0e 06 be ca 72 5a be
       -0.20512162 -0.23513162 -0.13091464 -0.21332851
0000e0 50 1c 10 3d d2 0a bb be df 12 32 be bc b6 35 bd
       0.03518325 -0.36531693 -0.17390011 -0.044363722
0000f0 3f ce bf be c3 2f 44 be 96 b9 04 be 89 90 e1 be
       -0.3746204 -0.19158845 -0.1296142 -0.44055584
000100 b8 c1 f5 bd b1 e7 b2 be 0b 52 3c be 10 85 43 be
       -0.119998395 -0.34942392 -0.18390672 -0.19093728
000110 e4 73 59 be 05 8c 93 bd 2f 70 cb 3d 3d b1 c9 bd
       -0.21235615 -0.07204441 0.09933507 -0.09848259
000120 b3 c1 87 bd 3d dc b5 3c 56 60 38 be 24 b9 b3 3c
       -0.06628742 0.022199744 -0.18005499 0.021938868
000130 f5 65 32 be 04 51 3a 3e 1f 10 42 be d6 cd 9c be
       -0.17421706 0.18194968 -0.18951462 -0.3062579
000140 dd 05 9c be 97 d4 8c be 8b 2c fe bd a5 ee f9 bd
       -0.30473223 -0.27505943 -0.1241084 -0.12203721
000150 e9 91 c7 be 8e 20 2e be 45 15 d3 be dd b6 4c be
       -0.38978508 -0.17004606 -0.41227165 -0.19991632
000160 19 f2 d6 bd 43 c5 b5 bd 29 82 2a be 03 cf 81 be
       -0.10495395 -0.08875515 -0.16651215 -0.2535325
000170 c6 d5 ae be 54 e4 0e bd 82 1f 40 be ea 4f 88 be
       -0.3414747 -0.03488572 -0.1876202 -0.2662347
000180 a2 9c 5b be 54 67 27 be bf 37 e8 bd 5f af 7c 3d
       -0.2144647 -0.1634801 -0.11338758 0.061690684
000190 e6 e3 01 be d9 97 f2 be b7 d3 41 3e a2 0d e0 be
       -0.12684593 -0.47381476 0.18928419 -0.437604
0001a0 d3 79 b1 be bb e9 a2 3d a3 73 60 3e 87 bf 9e 3c
       -0.34663257 0.07954737 0.21919112 0.019378437
0001b0 b2 28 e6 bd f9 29 99 bd 97 64 84 bd 14 f1 43 be
       -0.11238231 -0.07478709 -0.064644985 -0.19134933
0001c0 5c 1b 79 bb d8 4c 8b be b4 a2 4e 3d cc 40 60 be
       -0.0038010692 -0.27207065 0.050448135 -0.21899718
0001d0 47 69 dc bd 26 fe b1 be aa 75 00 be cd 7a f2 bd
       -0.107622676 -0.34764212 -0.12544885 -0.11839829
0001e0 73 f9 08 bd a4 45 e4 3d 0b ac 7c be 40 1c ce bd
       -0.03344102 0.111460954 -0.24675004 -0.10063982
0001f0 cf 22 28 be d2 ff 65 be cd c0 92 be 5a a6 b2 be
       -0.16419528 -0.22460869 -0.2866272 -0.3489254
000200 ac 92 ce bc 34 6f 87 bd 78 b0 24 be 68 21 aa 3e
       -0.025216423 -0.06613007 -0.16082942 0.33228612
000210 14 17 09 be 99 c0 82 3d 72 50 68 be e1 ce 75 3d
       -0.1338771 0.06384391 -0.22686937 0.06001175
000220 24 10 6a be a1 f9 6e bd 26 bf c4 3d 61 1b ff bd
       -0.2285772 -0.058343533 0.09606771 -0.12456394
000230 df 41 ee bd 01 11 74 be 6c 3a ba bc 7e b3 b5 3e
       -0.11633658 -0.23834611 -0.022732936 0.35488504
000240 85 6a 29 3d 1c 2f fb 3d 5c 7d 9d bd dc 0b c6 3d
       0.04136135 0.12264845 -0.07689926 0.09670231
000250 30 a8 11 be 9c e4 2f be 99 90 30 3b 19 4e 53 be
       -0.14224315 -0.17177051 0.0026941656 -0.2063526
000260 57 c9 35 be a0 36 cb bd bf 09 19 bd 7a d7 77 bd
       -0.17752586 -0.09922528 -0.03736281 -0.06050823
000270 4f 7b a1 bd 56 79 e2 bd 20 58 27 be c7 cd e1 3d
       -0.078848474 -0.11058299 -0.16342211 0.11025577
000280 05 55 d3 bd 35 64 1c be 1f af 27 bd 7d b9 aa bd
       -0.103189506 -0.15272601 -0.040938493 -0.0833616
000290 dc 8c 53 bd 14 65 34 bd ef 9d 99 3d 63 ff 8b be
       -0.051648006 -0.044041708 0.075008266 -0.27343282
0002a0 91 f8 82 be d3 9c 31 be 15 bf d9 bc 83 2c d9 bd
       -0.25580266 -0.1734498 -0.026580373 -0.10604193
0002b0 15 a6 95 3e ca b2 9b 3c 60 05 4b bc 09 58 53 be
       0.29228273 0.019006152 -0.012391418 -0.20639051
0002c0 0c a1 29 bc 3c 64 b1 3c 1e 1f 8d bd f1 04 70 be
       -0.010353338 0.02165424 -0.06890701 -0.23439385
0002d0 f2 4f d6 bd 38 5b e6 bd 91 af c7 3c 7c 87 1f be
       -0.10464467 -0.11247867 0.024375709 -0.15579027
0002e0 3b e0 bc 3b 55 c9 51 be fb 4a c3 bd 1d 34 ab bd
       0.005764035 -0.20486958 -0.09535786 -0.08359549
0002f0 fe 83 a8 be c7 72 fe bd 26 ec 25 3e cf 5a 99 be
       -0.32913202 -0.12424236 0.16203365 -0.29952094
000300 dd ed ea 3b 7c 67 c8 be 79 bf 03 be 1e c9 4a be
       0.007169469 -0.39141452 -0.1286601 -0.19803283
000310 57 85 38 be b1 fd 5d bd 0f 5a 81 bc 2c a9 11 3d
       -0.18019615 -0.054197017 -0.015790014 0.035561725
000320 2c 5f fe bd ad 5b 9d 3c 0a 7c 9c 3d e5 bf 7a 3e
       -0.12420496 0.019208753 0.07640846 0.24487264
000330 3b a9 f5 bd 1a fb 4d 3d 9a ab c2 bd 55 90 6f be
       -0.11995169 0.050288297 -0.09505387 -0.23394902
000340 32 ca 57 be 74 03 08 be 2a d0 31 be 40 1a 34 3d
       -0.21073225 -0.13282567 -0.17364565 0.043970346
000350 e2 fa a9 be 3e fd 1c bd e0 0e 07 be 29 f5 db bd
       -0.3319922 -0.038327448 -0.13189268 -0.1074012
000360 dc 8b 5f be 02 79 5a bc 1b f8 06 3d 24 b8 5a 3d
       -0.21830696 -0.013334515 0.032951456 0.053398266
000370 64 73 9c bd dc ca 62 3d 66 45 2f be 95 06 b0 bd
       -0.076391965 0.055369243 -0.17116317 -0.085950054
000380 98 f1 02 be ca 99 50 be 8d d5 cf bc cb 0d d9 3d
       -0.12787473 -0.20371166 -0.025370384 0.10598334
000390 1d d0 31 bd 9d f2 90 be a1 d7 de 3d 78 64 c4 be
       -0.043411363 -0.283101 0.10880972 -0.38357902
0003a0 83 ad 5e bd 8b 43 c7 3d 31 a8 8a 3d 6d 79 18 3d
       -0.054364692 0.0972968 0.06770361 0.037225176
0003b0 c1 4c 40 bc 1d bc ba bd bc 5e 31 bd 65 c2 58 3d
       -0.01173705 -0.09117911 -0.043303236 0.052919764
0003c0 3e b9 ea bc 09 80 67 be 1c e4 89 bd 2f 37 57 bd
       -0.028652783 -0.22607435 -0.067329615 -0.05254286
0003d0 32 45 aa bd c6 18 4c be 5b 0c af 3d 2e 6a 87 bd
       -0.08313979 -0.19931325 0.085472785 -0.06612049
0003e0 34 82 ad bd d5 85 a6 bb e2 ad af 3d 55 85 cb bc
       -0.084721 -0.005081872 0.085780874 -0.024843851
0003f0 a8 5e 47 be c3 aa 33 be dc 42 89 3d 6a ff cb be
       -0.19469702 -0.17545609 0.067022055 -0.39843303

fc.weight f4 [4, 128]
000000 15 ee 90 3e 52 59 f8 bf cf c3 84 be 88 19 b5 3e
       0.28306642 -1.9402258 -0.2593064 0.3537104
000010 e2 f4 03 3d 99 0c 8a be d0 d0 dd 3e a9 1f 29 3f
       0.03221596 -0.26962736 0.43323374 0.66063935
000020 a3 1b cc bd bb 26 1d c0 7e a1 97 be 3e d4 76 be
       -0.09966209 -2.455489 -0.29615396 -0.24104401
000030 4d b3 79 be 1d 29 e4 be e5 98 e8 be dd 41 1f 3e
       -0.24384804 -0.44562617 -0.4542915 0.15552469
000040 ec 42 a4 3e fd 9b 98 3e 2f 85 a0 be a1 a5 68 3e
       0.32082307 0.2980651 -0.3135161 0.22719432
000050 b2 2c 82 bd 1a 54 ef 3d b7 e4 aa 3d be e8 8d 3e
       -0.06356181 0.11685963 0.08344405 0.2771663
000060 b7 02 62 3e d1 53 1d 3e 36 ed bf be a9 fb f1 be
       0.22071348 0.15364005 -0.37485665 -0.47262314
000070 e0 60 76 bd 28 3e 34 3f eb 0c ac bf 08 23 c9 3e
       -0.06015098 0.7040734 -1.3441442 0.3928454
000080 60 57 f0 bf 8a d8 bf 3b f5 50 54 be c4 1e 0f 3f
       -1.8776665 0.005854671 -0.20734008 0.5590632
000090 4c f7 bb 3e 7a 69 0f bf 6c 56 af be d0 ef bf be
       0.3671211 -0.5602032 -0.34245622 -0.3748765
0000a0 1f bb 1f bf 7f 30 00 3e 58 21 65 3e a2 93 a2 3e
       -0.623949 0.125185 0.22376001 0.3175326
0000b0 ec 3d 4f 3e cf 7e 05 bf 56 18 0b 3f e3 4a 83 bd
       0.20238465 -0.5214662 0.5433401 -0.06410768
0000c0 16 fb e7 3e f1 e9 61 3e 45 19 c6 be 7e 0a b1 be
       0.4530875 0.22061898 -0.38691154 -0.34578317
0000d0 20 b5 90 3e bd ed 78 3e 5f a7 92 3e fa 49 38 bc
       0.28263187 0.2430944 0.2864332 -0.011248106
0000e0 19 bc 05 3e 71 72 c8 be 81 ca 87 be a3 4e 66 be
       0.13060035 -0.39149812 -0.26521686 -0.22490935
0000f0 0f 6e 4c be 29 66 bb be 20 db ec be a7 22 ff 3d
       -0.19963859 -0.3660138 -0.4626093 0.12457781
000100 3b 22 08 be 19 ea b5 3e 4b 6c 47 be 95 ec bb 3e
       -0.13294308 0.35530165 -0.19474904 0.36703935
000110 c4 1d 6f bc ed fe 80 bf 37 a9 b6 bd 60 27 bc be
       -0.014594499 -1.0077797 -0.08918994 -0.3674879
000120 d1 98 50 3f f1 2e e9 3e 19 98 57 bd 53 26 b0 3e
       0.8148318 0.45543626 -0.052635286 0.3440424
000130 df 7b f0 3d b6 e6 87 3e 8e d5 60 3d 67 ac 6d 3e
       0.117423765 0.26543206 0.05489116 0.23210298
000140 96 97 66 3e 92 c0 6b 3e 53 b0 ad 3d 2b 85 38 be
       0.22518763 0.23022678 0.08480897 -0.1801955
000150 df fc a8 3d a5 28 52 3e 3a 80 56 bd 4f 80 e8 3e
       0.08251356 0.20523317 -0.05236838 0.45410392
000160 bb 64 64 3e 75 76 46 3f 1c 3a dc bd a9 75 f6 3d
       0.2230405 0.775245 -0.10753271 0.12034161
000170 87 0c 86 be 56 7c d4 bd 62 ef a6 be f1 b1 44 3d
       -0.26181433 -0.10375278 -0.3260451 0.04802126
000180 3d 9b 29 3f a2 62 f8 bd 51 4c 1a be 7e bb 9e be
       0.662525 -0.12128188 -0.15068175 -0.3100242
000190 8e 69 72 3e ab 91 a0 3e 78 04 af 3e df 26 b2 be
       0.23673078 0.31361136 0.34183097 -0.3479528
0001a0 59 71 84 3f 6c 0c c0 be 8b 5c e4 3e 16 8c af 3e
       1.0347091 -0.37509477 0.44601855 0.34286565
0001b0 ad 14 14 be 13 46 a6 3e 1a b6 e4 3d b2 17 c9 3e
       -0.14461012 0.32475337 0.111675456 0.3927589
0001c0 43 d5 de be 0e a4 71 bd b5 45 57 be b4 02 ec 3b
       -0.4352208 -0.058994345 -0.21022685 0.0072024707
0001d0 02 f3 99 be e2 43 08 3e ad d6 a5 be a5 b1 42 be
       -0.30068213 0.13307145 -0.32390347 -0.19013079
0001e0 e9 ae fc 3d 60 96 57 bd 7c b0 b0 be cf 9b c4 3e
       0.12338049 -0.052633643 -0.34509647 0.38400123
0001f0 75 63 7f 3e 45 3e b0 3e 41 50 66 3f c7 27 f9 3d
       0.24940284 0.34422508 0.8996621 0.1216579
000200 94 5f 0c bc 38 b9 bb 3d 7e 7f 61 3e 2a 73 a5 3e
       -0.0085677095 0.09166187 0.2202129 0.32314426
000210 a0 99 6f be 17 13 a2 3e c8 99 92 bb 31 56 29 bd
       -0.23398447 0.3165519 -0.0044738986 -0.041341964
000220 8a d6 46 be 3a cd 10 3e c6 6e ac 3d b3 db d1 3d
       -0.19417778 0.14140788 0.08419566 0.102469824
000230 d6 64 9a be f2 bb 5d bd 65 ae 6f bd f7 a9 26 be
       -0.30155057 -0.054134317 -0.058515925 -0.16275774
000240 fe a0 22 be 09 f2 1c be 81 24 c6 3d 61 38 ed bd
       -0.15881726 -0.15326704 0.09674931 -0.11583019
000250 e4 8e e6 3e 13 16 0a be b1 bc 0c 3e ff 2a f4 3d
       0.45030892 -0.13484983 0.13743855 0.11922263
000260 21 8e 46 bd 31 9d 30 3d 77 b8 18 3e ae 2a 51 3e
       -0.04847539 0.04311866 0.14914118 0.20426437
000270 c8 6b 3a 3e f2 1a 62 be c5 c6 1e 3e 8a 08 a5 bd
       0.18205178 -0.22080591 0.15505512 -0.08058269
000280 4d 21 36 3e cc a9 e6 3e 06 ef 60 3e fd e0 95 3d
       0.1778614 0.4505142 0.2196618 0.07318304
000290 e5 ea 63 be ed 44 65 bc 05 42 49 3e cd f7 16 3d
       -0.22257574 -0.013993484 0.1965409 0.036857415
0002a0 8f c7 c6 3d 8e e5 ac bd 23 1a ce bd 71 9c eb 3d
       0.097060315 -0.084422216 -0.10063579 0.11504448
0002b0 71 4f 3f be 87 2b b8 bc 42 85 76 bd c6 6c 1c bf
       -0.18682648 -0.022481693 -0.06018568 -0.61103475
0002c0 e2 38 7a 3d 92 29 d1 bd 8d bc 47 3d e0 30 35 be
       0.061089404 -0.10213007 0.0487638 -0.17694426
0002d0 57 66 1d be f8 0e fe bd d4 a4 0a 3f 4f 0a a2 3d
       -0.15371071 -0.12405199 0.5415776 0.079121225
0002e0 b8 dd 67 3e c6 d4 fb 3d d4 7a 4c 3e 91 47 1f bd
       0.22643173 0.12296443 0.1996873 -0.03888661
0002f0 db 40 36 3e 1c a3 b2 3e bd 91 0f be 40 60 2b 3d
       0.17798178 0.34890068 -0.14020438 0.041839838
000300 a2 1c eb bd 2e 89 ed bc 85 77 08 3e d5 54 68 3d
       -0.11480071 -0.028996076 0.13326843 0.056721527
000310 62 7e ac 3e d7 d4 66 bc 15 63 9c be bb 4e fb 3d
       0.33690172 -0.014088831 -0.30544344 0.12270876
000320 25 1a 33 be 95 67 91 3b e6 c2 26 3e fa f4 84 be
       -0.17490442 0.004437397 0.16285285 -0.25968152
000330 fc 0a 57 bd 1d d8 4f 3e 7d 43 05 3e d6 b1 fe bd
       -0.05250071 0.20297284 0.13014026 -0.12436263
000340 78 2b 80 3d 8e fb b5 be 6c a0 85 3e 9e 62 c6 3e
       0.06258291 -0.35543483 0.26098955 0.38747114
000350 5d d0 c2 3d 34 6c bd bc ee d2 41 3c bb 2d ad bd
       0.095123984 -0.023122884 0.011830075 -0.08455988
000360 6a 9d b0 3d 34 d7 30 be 37 30 d1 bd 57 f2 da 3e
       0.08623774 -0.17269593 -0.102142744 0.42763016
000370 7b 16 d4 bd 9b e8 5b be b0 3e 97 bd b6 56 22 bf
       -0.1035585 -0.2147545 -0.073850036 -0.6341356
000380 10 c2 01 be df 42 40 3e 6b 17 3b 3e 1d 45 0b 3e
       -0.12671685 0.1877551 0.18270652 0.13600583
000390 ca 69 80 be eb 17 3d be 85 83 19 bd b7 3d 33 3c
       -0.2508071 -0.18466155 -0.037478942 0.010940007
0003a0 c9 c3 1a be ce c2 f8 3d 4f 62 4c be 90 b1 20 be
       -0.15113749 0.12146531 -0.19959377 -0.15692735
0003b0 06 e7 df 3d 4c 71 13 be 37 3c 59 bd 13 66 14 3e
       0.10932736 -0.14398688 -0.05303594 0.14492063
0003c0 c0 f0 8e 3d ee e8 2f bd a5 7f 18 3d 16 63 04 3e
       0.06979513 -0.04294675 0.037231106 0.12928423
0003d0 47 23 55 3e 1c 39 ce bd 21 e4 0f 3d 75 df a1 3d
       0.20814238 -0.100694865 0.03512967 0.07903949
0003e0 62 ff 6b 3e 7e a3 58 39 11 ad 08 bd 16 39 b0 bd
       0.2304664 0.00020660271 -0.033368174 -0.08604638
0003f0 12 5c 24 bc 4e 85 98 be 0b 82 19 3d c9 d8 e8 bc
       -0.010031717 -0.29789203 0.037477534 -0.028423684

fc.bias f4 [4]
000000 a2 a8 40 be bc 6e 02 be a9 a9 89 3c ef cc bd 3e
       -0.18814328 -0.12737554 0.016804533 0.37070414
