LSTM/LSTM13/model.pth (torch, 275929 bytes, 6 tensors)

lstm.weight_ih_l0 f4 [512, 3]
-0.28833514 -0.5617647 -0.7172929 0.021836847 -0.15134011 0.21354467 -0.096904516 0.1776893
0.23469748 -0.102990426 -0.17278251 -0.04755646 0.52752006 0.70753884 0.62233627 0.030798113
0.1513127 -0.11268593 0.12155545 -0.10526535 0.25546837 0.099761784 0.053986225 0.1625579
-0.016738202 -0.08317376 -0.124718636 -0.059229136 -0.12868188 -0.0076881256 -0.2439713 -0.36823642
-0.15902695 0.08285674 -0.18058823 -0.17509614 -0.09130246 -0.09901126 -0.07817845 -0.10030049
-0.2649935 -0.12244869 0.14391534 0.25024766 -0.056720085 -0.10783489 -0.1052996 -0.06671343
0.03382122 0.021814859 -0.17410314 -0.09906461 -0.15885878 -0.101105474 -0.039233826 -0.012744021
0.1588763 0.06198666 -0.14151594 0.22619236 -0.064736426 -0.15351854 0.080224015 0.13268611
0.2167446 0.18478349 -0.0056980713 0.10518011 -0.112482734 -0.20303373 -0.2638186 -0.47509247
0.06971935 0.19427934 -0.13558708 0.16418028 0.29334873 0.27831376 0.20346396 0.08842091
0.02949831 0.14489843 0.16534163 -0.16767727 0.026093662 0.15293029 -0.119138144 -0.026845755
-0.2492734 -0.11016649 0.08881944 0.110301204 0.062093277 0.45418558 -0.4083898 0.3006862
-0.100778386 0.11338317 0.21592158 0.17504446 0.16528124 -0.24545272 0.059048507 -0.112856485
-0.13872373 -0.024739098 0.026450654 -0.007827686 -0.056133624 -0.0046172673 0.072686575 -0.018075166
-0.08693657 -0.14131005 0.6023075 0.7694161 0.37025213 0.027090274 0.0014835771 -0.27259895
-0.03757299 -0.08442437 0.22171442 -0.028847232 -0.34667364 -0.44009542 -0.18671271 -0.1892246
-0.14560623 0.0613381 -0.0774793 -0.25216344 0.15604737 0.49601936 -0.16790311 -0.17156208
-0.32765308 -0.7907286 -0.05909106 -0.47141704 -0.23909141 0.011895856 0.20721726 0.057037238
-0.010303631 -0.16405964 0.1134288 -0.016963007 -0.24540053 -0.17427902 -0.07888104 0.04683882
-0.0056238747 -0.025366131 -0.1289397 0.13721852 0.0067431577 -0.16734448 -0.0070311585 -0.107588105
-0.29898003 -0.3366445 -0.10785044 -0.15854964 -0.118097566 0.0015654354 -0.12596329 0.31071055
-0.10774086 0.20236233 -0.018508662 -0.09275588 0.04951594 -0.21202745 0.14607458 0.5459618
-0.04282767 -0.026614439 -0.082218684 0.2854726 0.06562317 0.22388786 0.59260154 0.041131016
0.23704736 -0.10065504 -0.07135861 -0.098437995 0.2353293 -0.07800853 0.023812735 -0.20924747
-0.22197354 -0.11336614 -0.0977111 0.027580908 0.18469092 -0.049267143 -0.22845244 -0.31468514
-0.21357132 0.1306974 0.281501 0.7072455 -0.03483405 0.035383873 0.4518599 0.224691
-0.08703156 0.3156209 0.058041807 -0.39872843 0.14549434 -0.004437659 -0.3105174 -0.34759244
0.14956148 0.20870131 -0.20309228 0.38699144 0.32408103 0.6059942 -0.025845611 -0.012662535
0.201333 0.22194193 0.24057607 0.23013036 -0.008918114 -0.31059456 -0.039142158 0.020611225
0.08844675 -0.18469289 -0.064456634 -0.09253512 -0.33111957 -0.027807888 -0.14442228 0.2429671
0.08943656 0.29031414 -0.07811265 -0.09331111 0.16541101 -0.07224539 0.34281215 0.58581185
0.0751838 -0.06938099 -0.06885105 0.29208782 0.02450661 0.03878703 -0.246914 -0.12185346
00000000: aaa0 93be d0cf 0fbf 82a0 37bf 30e3 b23c
00000010: e7f8 1abe 74ab 5a3e e075 c6bd 2ff4 353e
00000020: 8954 703e a5ec d2bd e6ed 30be 90ca 42bd
00000030: 8e0b 073f 4421 353f 6e51 1f3f 534c fc3c
00000040: b7f1 1a3e e2c7 e6bd 10f2 f83d 5c95 d7bd
00000050: c0cc 823e e84f cc3d a920 5d3d 9475 263e
00000060: 8e1e 89bc 0157 aabd 7c6c ffbd 409a 72bd
00000070: 2fc5 03be acec fbbb 9dd3 79be 7c89 bcbe
00000080: f6d7 22be cbb0 a93d 1fec 38be 674c 33be
00000090: c9fc babd 6ac6 cabd 061c a0bd 586a cdbd
000000a0: 3aad 87be 61c6 fabd 8b5e 133e 7620 803e
000000b0: 5253 68bd 8ad8 dcbd 51a7 d7bd 0da1 88bd
000000c0: 1f88 0a3d 13b5 b23c 1848 32be 63e2 cabd
000000d0: e0ab 22be 6310 cfbd a6b3 20bd 4ccc 50bc
000000e0: 78b0 223e b9e5 7d3d 8ee9 10be f89e 673e
000000f0: 8894 84bd f733 1dbe 7d4c a43d dede 073e
00000100: 4cf2 5d3e e237 3d3e e3b6 babb ab68 d73d
00000110: 595d e6bd 13e8 4fbe 3b13 87be 523f f3be
00000120: 05c9 8e3d 2af1 463e 57d7 0abe e01e 283e
00000130: ce31 963e 247f 8e3e db58 503e 0616 b53d
00000140: 71a6 f13c 4160 143e 514f 293e 97b3 2bbe
00000150: 60c2 d53c c299 1c3e b3fe f3bd a1eb dbbc
00000160: 8741 7fbe f89e e1bd f7e6 b53d 99e5 e13d
00000170: 8555 7e3d 038b e83e 7818 d1be 8bf3 993e
00000180: e664 cebd 6f35 e83d 8c1a 5d3e db3e 333e
00000190: 7c3f 293e f557 7bbe d9dc 713d 4d21 e7bd
000001a0: 980d 0ebe a6a9 cabc 0baf d83c b23f 00bc
000001b0: 5fec 65bd 724c 97bb b3dc 943d 5f12 94bc
000001c0: cd0b b2bd 95b3 10be d330 1a3f 74f8 443f
000001d0: b091 bd3e 6cec dd3c 9674 c23a 1792 8bbe
000001e0: 23e6 19bd afe6 acbd 1b09 633e 0851 ecbc
000001f0: 357f b1be 3054 e1be 9e31 3fbe 18c4 41be
00000200: cd19 15be a93d 7b3d 78ad 9ebd 911b 81be
00000210: e2ca 1f3e 40f6 fd3e cbee 2bbe f8ad 2fbe
00000220: 25c2 a7be 316d 4abf 7809 72bd 935d f1be
00000230: 61d4 74be d6e6 423c c330 543e e19f 693d
00000240: 90d0 28bc 40ff 27be 5c4d e83d 01f6 8abc
00000250: 474a 7bbe 3376 32be 628c a1bd 10da 3f3d
00000260: 7b48 b8bb a2cc cfbc c508 04be 0383 0c3e
00000270: b5f5 dc3b 5a5c 2bbe a265 e6bb 2757 dcbd
00000280: e913 99be ab5c acbe b1e0 dcbd d65a 22be
00000290: 23dd f1bd 4c2f cd3a 85fc 00be 7415 9f3e
000002a0: 3da7 dcbd 1238 4f3e 7a9f 97bc cbf6 bdbd
000002b0: 3ad1 4a3d b91d 59be 9394 153e 27c4 0b3f
000002c0: 116c 2fbd 8606 dabc 4562 a8bd 7729 923e
000002d0: 7165 863d dc42 653e bcb4 173f ff78 283d
000002e0: 8bbc 723e 3b24 cebd 7724 92bd dc99 c9bd
000002f0: 2afa 703e f0c2 9fbd ed12 c33c f844 56be
00000300: 084d 63be 822c e8bd c21c c8bd 5bf1 e13c
00000310: 9e1f 3d3e 58cc 49bd 70ef 69be 691e a1be
00000320: 71b2 5abe 8ad5 053e e620 903e 0b0e 353f
00000330: 26ae 0ebd aeee 103d 2e5a e73e 6615 663e
00000340: 9a3d b2bd 1099 a13e 3fbd 6d3d 2226 ccbe
00000350: 78fc 143e c869 91bb 23fc 9ebe a3f7 b1be
00000360: a526 193e ccb5 553e 6cf7 4fbe be23 c63e
00000370: f3ed a53e 7022 1b3f 2dba d3bc 8576 4fbc
00000380: 3d2a 4e3e bf44 633e 9359 763e 4ba7 6b3e
00000390: 481d 12bc 4006 9fbe 8753 20bd dfd8 a83c
000003a0: 9223 b53d 2220 3dbe d701 84bd 0e83 bdbd
000003b0: 8188 a9be 5ecd e3bc 6fe3 13be 5ecc 783e
000003c0: 842a b73d 0ea4 943e 86f9 9fbd e519 bfbd
000003d0: 8161 293e 64f5 93bd 1385 af3e c4f7 153f
000003e0: f7f9 993d 9f17 8ebd c801 8dbd 898c 953e
000003f0: 16c2 c83c 26df 1e3d 06d7 7cbe 4f8e f9bd

lstm.weight_hh_l0 f4 [512, 128]
-0.020982554 0.24704097 -0.15140876 0.1021613 -0.41341496 0.25741994 0.21014227 0.19272664
0.25382486 0.06201128 -0.085236 0.25254267 0.15192395 0.043638233 0.59291834 0.107297935
-0.2008651 0.17538239 -0.010244016 -0.009899107 -0.29883698 0.29821584 -0.31068078 0.20431708
-0.21353829 -0.56231356 0.1465015 0.34997487 -0.023043066 -0.20619194 -0.35738853 -0.25747123
0.07567664 -0.18439053 -0.0065500876 -0.29433346 -0.2594864 -0.21834205 -0.19962837 -0.20686635
-0.17127888 -0.21014962 -0.36161628 0.29565316 0.08973441 0.04574056 0.08754037 -0.13171777
0.09873618 -0.14373375 -0.3703332 0.026889285 0.10976506 0.036054842 -0.13962094 0.5304582
0.14064142 0.31541646 0.1864689 0.35978305 -0.30302784 0.20544162 0.008536322 0.22541693
-0.05551613 0.5243774 0.10525849 -0.077041656 0.39663568 -0.026009146 0.063061096 0.16458485
-0.15083912 -0.21704203 -0.19201049 0.1212715 0.15600933 0.10705766 -0.17459549 -0.054774053
-0.17091009 0.24058053 0.058993544 -0.48014712 -0.12916313 0.15679361 0.16583407 0.08521851
-0.21492535 -0.2741974 0.021909045 0.9066625 -0.24038382 0.30519608 -0.20860443 -0.1560947
-0.5678036 -0.3269585 0.45101157 -0.23818132 0.28781304 0.30743012 -0.6077216 -0.34161818
0.51016957 -0.48382995 0.35559052 0.15906748 0.028504824 0.68454605 0.4614946 -0.31053695
0.47471583 -0.22250491 0.1617658 0.024564061 -0.12220681 0.21107987 -0.24502519 -0.6298784
-0.33432677 -0.29404145 0.014561351 -0.0022619476 -0.13751638 -0.01562356 0.18649177 -0.16832583
-0.33533934 -0.309873 -0.08055787 -0.023019098 0.3609281 0.10448083 -0.5316812 -0.15155303
0.047375742 -0.028661968 -0.066285364 -0.074005455 -0.026403535 -0.08119651 -0.17936575 0.10170436
0.013226253 0.11758115 -0.114197716 0.16250755 -0.06345926 -0.3151844 -0.10665819 0.20025773
-0.059339765 0.39492282 0.06869728 0.0378448 -0.048516434 0.08071153 -0.36750335 0.3695423
0.19294445 -0.15505613 -0.051207695 -0.15289956 -0.12632674 -0.017321825 -0.51641834 0.10597081
0.33867094 0.043876965 0.053101614 -0.13685757 -0.007868098 -0.28791395 -0.07331286 -0.4230605
0.037284184 0.111491926 -0.42455637 -0.08529511 0.1216735 -0.030315612 0.0965136 -0.2797156
0.06194454 0.14175439 0.010935744 -0.1624528 0.15241902 0.35916412 0.22225048 0.03514781
-0.5282203 -0.10079445 -0.0299108 -0.17266537 -0.32086277 0.20787361 -0.64512664 0.24039316
0.33109683 0.30176577 0.020578079 0.59839875 -0.16931753 0.16839823 0.12143354 -0.2806077
0.058005832 -0.27369004 0.42298123 0.17539038 -0.16937126 -0.06435768 -0.0203888 0.017261308
-0.10122442 0.09842709 -0.17630544 -0.520796 -0.024267998 0.4279346 -0.07405762 -0.035585646
0.12387287 -0.0004126032 -0.48652536 1.0609165 0.1947962 -0.020747349 0.40788385 0.14382166
-0.2218339 0.0009631501 -0.06551622 -0.19534813 0.004791531 -0.47684747 0.021910645 -1.4569519e-05
-0.27970794 0.19946511 0.030348293 -0.21163134 -0.006722403 0.03667061 -0.07097922 0.22531442
0.04545774 -0.19715264 0.25893977 0.27129573 0.20557442 0.17726049 0.33998144 -0.028170574
00000000: 9be3 abbc 4ff8 7c3e e60a 1bbe f239 d13d
00000010: 20ab d3be 8ccc 833e 892f 573e 225a 453e
00000020: 55f5 813e 8aff 7d3d 3690 aebd 464d 813e
00000030: f491 1b3e 01be 323d 7fc9 173f 05bf db3d
00000040: 95af 4dbe 7197 333e 84d6 27bc dd2f 22bc
00000050: 2901 99be bfaf 983e 8d11 9fbe 7f38 513e
00000060: c8a9 5abe c8f3 0fbf 7d04 163e e82f b33e
00000070: d0c4 bcbc fb23 53be a1fb b6be 45d3 83be
00000080: 5bfc 9a3d dfd0 3cbe 1ea2 d6bb e0b2 96be
00000090: 67db 84be 0f95 5fbe 616b 4cbe c6d4 53be
000000a0: bb63 2fbe 7631 57be c525 b9be da5f 973e
000000b0: adc6 b73d 745a 3b3d 5e48 b33d 06e1 06be
000000c0: 3236 ca3d f12e 13be 509c bdbe eb46 dc3c
000000d0: 81cc e03d 3eae 133d cbf8 0ebe 1ccc 073f
000000e0: 4e04 103e 447e a13e b4f1 3e3e 7c35 b83e
000000f0: 7726 9bbe 4a5f 523e eedb 0b3c b2d3 663e
00000100: e264 63bd 993d 063f c391 d73d 04c8 9dbd
00000110: d513 cb3e 2211 d5bc 2d26 813d ee88 283e
00000120: 9275 1abe 4440 5ebe 669e 44be 315d f83d
00000130: e9c0 1f3e 0c41 db3d 29c9 32be c25a 60bd
00000140: 0e03 2fbe be5a 763e 37a3 713d d8d5 f5be
00000150: 5743 04be 818e 203e 68d0 293e 0b87 ae3d
00000160: 6415 5cbe 9a63 8cbe 997a b33c 091b 683f
00000170: 2d27 76be a942 9c3e 669c 55be 4ad7 1fbe
00000180: 945b 11bf 1b67 a7be fdea e63e cee5 73be
00000190: 3b5c 933e 7b67 9d3e a593 1bbf 94e8 aebe
000001a0: 799a 023f 8fb8 f7be f60f b63e 96e2 223e
000001b0: f382 e93c 693e 2f3f 0549 ec3e b3fe 9ebe
000001c0: f40d f33e 54d8 63be efa5 253e 923a c93c
000001d0: 9047 fabd 5225 583e e2e7 7abe b63f 21bf
000001e0: e12c abbe 9a8c 96be bc92 6e3c 2f3d 14bb
000001f0: 18d1 0cbe f6f9 7fbc b3f7 3e3e 9b5d 2cbe
00000200: 99b1 abbe ada7 9ebe 86fb a4bd 8c92 bcbc
00000210: 91cb b83e 0cfa d53d 421c 08bf b830 1bbe
00000220: 110d 423d 81cc eabc 9fc0 87bd 2c90 97bd
00000230: 3a4c d8bc 5b4a a6bd a8ab 37be 604a d03d
00000240: edb2 583c 63ce f03d 7ee0 e9bd 6168 263e
00000250: eef6 81bd da5f a1be 9c6f dabd 5d10 4d3e
00000260: 410e 73bd 5333 ca3e 29b1 8c3d 2603 1b3d
00000270: 2bb9 46bd 164c a53d 6629 bcbe a634 bd3e
00000280: 3b93 453e 09c7 1ebe 29bf 51bd b491 1cbe
00000290: cc5b 01be 80e6 8dbc fe33 04bf 3907 d93d
000002a0: 4766 ad3e 55b8 333d 1481 593d 6424 0cbe
000002b0: 32e9 00bc 7569 93be 0e25 96bd 639b d8be
000002c0: 4db7 183d e155 e43d 745f d9be 34af aebd
000002d0: f52f f93d 7258 f8bc eca8 c53d e236 8fbe
000002e0: 8fb9 7d3d 1028 113e d62b 333c 075a 26be
000002f0: bb13 1c3e 5ce4 b73e a195 633e 26f7 0f3d
00000300: 7239 07bf 526d cebd 7e07 f5bc 31cf 30be
00000310: 2048 a4be d2dc 543e 0527 25bf a029 763e
00000320: 8685 a93e 0b81 9a3e 5c93 a83c a930 193f
00000330: 9361 2dbe 9670 2c3e 26b2 f83d d0ab 8fbe
00000340: 8697 6d3d 1a21 8cbe ff90 d83e 8999 333e
00000350: a96f 2dbe f6cd 83bd 6a06 a7bc 9667 8d3c
00000360: c04e cfbd 2494 c93d 6a89 34be e352 05bf
00000370: aecd c6bc 3e1a db3e 85ab 97bd 41c2 11bd
00000380: 0fb1 fd3d aa52 d8b9 da19 f9be 1dcc 873f
00000390: a878 473e 58f6 a9bc 27d6 d03e fc45 133e
000003a0: 6d28 63be e97b 7c3a 5e2d 86bd 5709 48be
000003b0: 4602 9d3b 5a25 f4be f47d b33c 9c6f 74b7
000003c0: e135 8fbe 9540 4c3e fc9c f83c e3b5 58be
000003d0: 9b47 dcbb ec33 163d 8e5d 91bd d3b8 663e
000003e0: e531 3a3d 62e2 49be c193 843e 46e7 8a3e
000003f0: 1a82 523e c683 353e 0c12 ae3e fac5 e6bc

lstm.bias_ih_l0 f4 [512]
-0.35840955 -0.061327424 -0.0905654 -0.18822756 0.5314483 0.114305295 0.021527221 0.16003056
-0.108291306 -0.046170164 -0.30092904 -0.0042468924 -0.07336087 -0.13447776 0.09595274 -0.048326313
-0.024331203 -0.021304559 -0.016016638 0.14240018 -0.13421644 0.01350599 0.12727343 -0.24961607
0.07633862 0.30131093 0.19696173 0.06405657 0.12344932 -0.097299986 0.1300249 0.19933194
-0.11541307 0.1500342 0.04999049 -0.02188199 -0.109015465 0.011532732 0.5383273 -0.0133132655
-0.14741394 -0.26430458 -0.08568623 0.051454462 0.14216702 -0.11883116 -0.17468786 0.16637316
-0.05198784 -0.056897763 -0.09194483 -0.07421802 -0.12332254 -0.1688862 -0.033103652 -0.07560489
-0.064899705 0.005857839 0.3083763 0.004701087 0.13121858 0.027632661 0.03344437 -0.051865887
-0.061856672 0.108853556 -0.23721907 -0.080692984 0.036734134 0.16026677 -0.035061453 -0.21019131
0.14867012 0.3492453 0.029400593 0.12145429 0.046391495 -0.013657863 -0.1503374 0.05757017
0.1612081 0.026556564 0.36490005 -0.042227816 -0.04516636 0.038342062 0.07949908 0.013533652
0.05941929 -0.0044855042 0.1354866 0.06092885 0.30383587 -0.0026744937 -0.25070873 -0.042077094
0.19595307 -0.04183428 0.07436863 1.9401 -0.20590918 0.17208545 0.049159575 -0.07853425
0.20665486 0.22838897 0.02725584 0.0609949 -0.16871569 0.095421165 0.099710174 -0.0486641
0.021022221 0.18217874 0.05797026 0.14851606 -0.16012482 -0.09748114 -0.098357104 -0.12079089
0.080288224 0.021232942 -0.08962906 0.11313813 0.014644404 0.14019577 0.04583599 -0.0013849755
-0.16598159 -0.09760266 0.020412272 -0.16923845 0.18484552 0.053403314 0.0011671251 0.033568066
0.037207726 -0.0667122 -0.22860146 -0.025888063 0.14182451 -0.065268576 0.018601166 -0.021598067
0.0476409 0.050919015 -0.09832846 -0.05536626 0.036614556 0.07328875 0.10810552 -0.11002576
0.05733763 0.09966993 0.10225454 0.069955684 0.13751514 0.05249241 -0.04865845 -0.03800329
-0.22554599 0.39715034 0.19159299 0.21025452 0.10367663 0.08521796 0.2794673 0.043028194
-0.26199332 -0.09685623 0.05014862 -0.15898442 0.1936716 0.04204897 -0.15953627 0.0026698436
0.13002852 0.056468494 0.02205702 -0.025703687 0.028120907 -0.016041629 0.2990629 -0.36259994
-0.18862012 0.034659494 0.29984987 -0.2831027 -0.12318868 0.14125931 -0.11091732 -0.10697507
0.04561461 0.14315891 0.04783689 -0.11580484 -0.23403585 -0.14177677 0.112297386 0.07913103
0.032927595 0.23993357 -0.02448822 0.018957593 0.030345194 0.03624963 -0.11334462 0.13095963
0.16200483 -0.0002319856 0.07393406 -0.16462743 -0.04856044 -0.04064371 0.2278476 -0.115041725
0.080739 0.0768868 0.17264225 -0.12205158 0.24646823 0.042952508 -0.059636712 -0.019859167
0.10886906 0.04506585 -0.0076534175 1.6692818 0.08780769 0.13499981 -0.09979572 -0.0012297782
0.21714404 0.002928793 0.072642006 0.08245364 -0.36102733 -0.008543046 0.19045638 -0.08874659
0.06027278 0.042814244 0.024301706 0.11326071 0.077139206 -0.038101673 -0.017753027 -0.09930202
0.0662628 -0.07038692 0.050951183 0.09066606 0.027920816 0.19637717 0.14867109 -0.09128771
00000000: 7581 b7be 7732 7bbd 5a7a b9bd babe 40be
00000010: ff0c 083f e518 ea3d db59 b03c 0ddf 233e
00000020: d5c7 ddbd ed1c 3dbd 5f13 9abe 8429 8bbb
00000030: 393e 96bd 8ab4 09be df82 c43d d0f1 45bd
00000040: 3b52 c7bc e686 aebc 5335 83bc 5ad1 113e
00000050: 0970 09be 3a48 5d3c f753 023e 5b9b 7fbe
00000060: 6c57 9c3d 6d45 9a3e 56b0 493e 1730 833d
00000070: ffd2 fc3d 3745 c7bd 3f25 053e ac1d 4c3e
00000080: b05d ecbd 91a2 193e d4c2 4c3d dc41 b3bc
00000090: 8043 dfbd c9f3 3c3c d1cf 093f e21f 5abc
000000a0: aef3 16be ee52 87be 437c afbd eac1 523d
000000b0: 3b94 113e c05d f3bd 60e1 32be ba5d 2a3e
000000c0: 34f1 54bd a10d 69bd 924d bcbd 9eff 97bd
000000d0: 8790 fcbd 81f0 2cbe b297 07bd bdd6 9abd
000000e0: 23ea 84bd 1df3 bf3b 80e3 9d3e 930b 9a3b
000000f0: 2a5e 063e e45d e23c f7fc 083d 5371 54bd
00000100: 6c5d 7dbd 9dee de3d 8ee9 72be 5d42 a5bd
00000110: 8876 163d f91c 243e 999c 0fbd 643c 57be
00000120: fb3c 183e 48d0 b23e 83d9 f03c 07bd f83d
00000130: 0205 3e3d 3bc5 5fbc 0cf2 19be b3ce 6b3d
00000140: bc13 253e 278d d93c 2ed4 ba3e 13f7 2cbd
00000150: 5c00 39bd 910c 1d3d 6ad0 a23d 40bc 5d3c
00000160: a461 733d 23fb 92bb 00bd 0a3e 8890 793d
00000170: 6090 9b3e 8f46 2fbb e55c 80be 0859 2cbd
00000180: eca7 483e 6c5a 2bbd 954e 983d 3255 f83f
00000190: dbd9 52be 2b37 303e 8d5b 493d 91d6 a0bd
000001a0: 559d 533e ccde 693e a447 df3c cad5 793d
000001b0: cec3 2cbe 2c6c c33d d934 cc3d 0254 47bd
000001c0: cb36 ac3c 108d 3a3e 3972 6d3d 9814 183e
000001d0: c3f7 23be 31a4 c7bd 736f c9bd 3761 f7bd
000001e0: 276e a43d b5f0 ad3c 718f b7bd f7b4 e73d
000001f0: 15ef 6f3c 7b8f 0f3e 85be 3b3d 1188 b5ba
00000200: 14f7 29be e7e3 c7bd a337 a73c d84c 2dbe
00000210: 2548 3d3e 6fbd 5a3d 38fa 983a ab7e 093d
00000220: 2167 183d 68a0 88bd 8016 6abe 3413 d4bc
00000230: 723a 113e 88ab 85bd 7961 983c 6eee b0bc
00000240: 1b23 433d 7590 503d 6e60 c9bd bbc7 62bd
00000250: 25f9 153d 6a18 963d 6d66 dd3d 3055 e1bd
00000260: ddda 6a3d c01f cc3d d46a d13d ed44 8f3d
00000270: c5d0 0c3e 4802 573d 154e 47bd 56a9 1bbd
00000280: 87f5 66be 4a57 cb3e f430 443e f64c 573e
00000290: 6a54 d43d c186 ae3d 5716 8f3e 553e 303d
000002a0: fd23 86be 8f5c c6bd a468 4d3d d0cc 22be
000002b0: d951 463e 8a3b 2c3d 7a5d 23be 8bf8 2e3b
000002c0: 3226 053e 824b 673d ecb0 b43c 8a90 d2bc
000002d0: d15d e63c bc69 83bc c61e 993e b3a6 b9be
000002e0: a225 41be 1df7 0d3d ec85 993e d6f2 90be
000002f0: 594a fcbd 48a6 103e 9f28 e3bd bf15 dbbd
00000300: 63d6 3a3d 4098 123e 9df0 433d 172b edbd
00000310: 18a7 6fbe ee2d 11be 2cfc e53d 730f a23d
00000320: 16df 063d 25b1 753e 859b c8bc f44c 9b3c
00000330: 7c96 f83c 7e7a 143d 3921 e8bd 481a 063e
00000340: 98e4 253e 2941 73b9 be6a 973d 1894 28be
00000350: 50e7 46bd 057a 26bd e250 693e ff9a ebbd
00000360: 7d5a a53d d476 9d3d 21c9 303e 2ef6 f9bd
00000370: 2b62 7c3e f8ee 2f3d a045 74bd b1af a2bc
00000380: bef6 de3d f896 383d 85c9 fabb 07ab d53f
00000390: 85d4 b33d 643d 0a3e b361 ccbd 8230 a1ba
000003a0: 025b 5e3e fef0 3f3b 55c5 943d 74dd a83d
000003b0: 93d8 b8be 22f8 0bbc ff06 433e c6c0 b5bd
000003c0: 97e0 763d fd5d 2f3d 5f14 c73c 3bf5 e73d
000003d0: 29fb 9d3d 8010 1cbd cc6e 91bc dc5e cbbd
000003e0: cab4 873d 0427 90bd 30b2 503d 21af b93d
000003f0: 32ba e43c 1917 493e 3c3d 183e 0df5 babd

lstm.bias_hh_l0 f4 [512]
-0.23776093 0.030085696 -0.02143359 -0.061949935 0.60575897 0.12410674 0.11081833 0.181844
-0.032656323 -0.0022444876 -0.32509604 -0.010240211 -0.06400609 -0.113728665 0.05080073 -0.17036657
-0.12544037 -0.0057898117 -0.12984224 0.13190927 -0.13672501 0.06520909 -0.016172057 -0.17119817
0.06607924 0.25664908 0.06535373 0.11056764 0.13633442 -0.015395878 0.025839578 0.19971907
-0.1011306 0.24548994 0.05168048 -0.09942342 0.008228974 0.04375185 0.564113 -0.01142234
-0.059164863 -0.236249 -0.07352468 0.06549256 0.18966325 -0.03174082 -0.19847499 0.07898929
-0.002657363 -0.1628645 -0.05557179 0.017686255 -0.1067531 -0.19688202 -0.06509696 -0.031689852
0.03165604 -0.094390936 0.23411638 0.0173328 0.028779646 0.14558266 -0.038877342 -0.09365883
-0.053905662 0.07366159 -0.2769776 -0.032820154 -0.09747833 0.19106953 -0.025888324 -0.14930147
0.17404355 0.23626837 -0.0099070845 0.15045348 0.011381261 -0.12827843 -0.0855183 -0.09884644
0.14219302 0.01360769 0.25309664 -0.012232316 0.02477985 -0.008897075 0.06227168 -0.052431658
-0.039935734 0.011774532 0.14250958 0.0957214 0.23013711 0.022009697 -0.22153889 0.045487247
0.18900791 -0.047667798 0.1828657 2.0173256 -0.11846447 0.19961147 0.18941323 -0.08110588
0.17972104 0.15776916 -0.030880008 0.17673568 -0.32354084 0.13576701 0.13935679 -0.013576655
0.11429935 0.18664266 0.09609797 0.03825178 -0.08412187 -0.07210242 -0.20005798 -0.021884311
-0.00061140605 0.025773399 -0.08209095 0.2519339 0.019359412 0.06553311 0.114884004 -0.03131121
-0.096010886 -0.118763916 0.08598583 -0.10787292 0.30828857 0.09132957 0.023309918 0.055864796
-0.026678748 -0.10279635 -0.21009663 0.06011744 0.15638806 0.048062887 0.0921588 -0.071214505
-0.04789118 0.07472405 -0.09671153 0.0876497 -0.041787934 -0.006455524 -0.0027271013 -0.011569079
0.142629 0.17960957 0.27147144 0.1462997 0.17252997 0.07423386 0.04449958 -0.030012002
-0.19919327 0.26875976 0.25138712 0.12102492 0.08655266 0.02216118 0.16511223 0.039200716
-0.2831553 -0.09085448 0.07915053 -0.00060549215 0.08477441 0.14785886 -0.0054651736 0.017486377
0.11400248 0.07396502 0.023388702 0.058137022 0.04523273 0.018274639 0.16729029 -0.31418777
-0.11853998 0.08880213 0.27560872 -0.21294396 -0.023853803 0.0046580625 -0.05861771 -0.17624082
0.088254765 -0.01693006 0.038192123 -0.087579094 -0.09899356 -0.10276587 0.10865882 0.012325646
0.007873917 0.24731635 -7.49016e-05 0.04034764 0.06004704 0.07644869 -0.03907005 0.005131549
0.1463478 -0.060778793 0.039461736 -0.21398477 0.105666876 0.11443442 0.11965299 -0.16871634
0.014865741 0.034453016 0.22094165 -0.03309372 0.26282036 -0.055753294 -0.1920705 0.05480513
-0.006142485 0.048312366 0.08127632 1.6058292 0.025119815 0.027574528 -0.0071633914 -0.034326833
0.099887595 -0.03395637 0.16806668 0.052062094 -0.3623988 -0.0015286864 0.023589564 -0.057736102
0.016587093 0.118231475 0.04149467 0.13739344 0.05037957 0.12072904 0.053981088 -0.024799718
0.09712252 0.063459955 0.06928637 0.15599501 0.057854556 0.1324435 0.14966395 -0.0011731442
00000000: 9a77 73be 4776 f63c 7f95 afbc 37bf 7dbd
00000010: 0513 1b3f ad2b fe3d b8f4 e23d 5035 3a3e
00000020: a3c2 05bd 4118 13bb fd72 a6be 8fc6 27bc
00000030: a015 83bd 93ea e8bd 6d14 503d 9374 2ebe
00000040: 7173 00be 76b8 bdbb 5df5 04be 3913 073e
00000050: a401 0cbe 588c 853d 437b 84bc 934e 2fbe
00000060: 8d54 873d 8267 833e 2dd8 853d 4971 e23d
00000070: 409b 0b3e fe3e 7cbc 86ad d33c 2883 4c3e
00000080: 8f1d cfbd b761 7b3e e9ae 533d 829e cbbd
00000090: d2d2 063c 2435 333d b669 103f c424 3bbc
000000a0: db56 72bd 42eb 71be 1c94 96bd f720 863d
000000b0: 1537 423e a902 02bd 073d 4bbe 23c5 a13d
000000c0: 2727 2ebb f4c5 26be 3f9f 63bd c4e2 903c
000000d0: 5fa1 dabd 719b 49be 8e51 85bd 38cd 01bd
000000e0: c4a9 013d 0950 c1bd 34bc 6f3e 84fd 8d3c
000000f0: 4bc3 eb3c 9f13 153e d93d 1fbd 33d0 bfbd
00000100: 2fcc 5cbd e3db 963d 02d0 8dbe 6d6e 06bd
00000110: b8a2 c7bd bba7 433e c013 d4bc 7ce2 18be
00000120: 7938 323e 56f0 713e 5351 22bc 7a10 1a3e
00000130: 7878 3a3c 6c5b 03be 3824 afbd 0170 cabd
00000140: 0c9b 113e caf2 5e3c e295 813e 0d6a 48bc
00000150: 1dff ca3c 0ac5 11bc 9710 7f3d 94c2 56bd
00000160: a793 23bd f7e9 403c 08ee 113e 9509 c43d
00000170: 10a9 6b3e ae4d b43c 17db 62be d650 3a3d
00000180: 4a8b 413e 4f3f 43bd 2541 3b3e dd1b 0140
00000190: 809d f2bd f366 4c3e 8bf5 413e d71a a6bd
000001a0: cb08 383e 3d8e 213e 12f8 fcbc 33fa 343e
000001b0: 25a7 a5be 8206 0b3e 8cb3 0e3e 9e70 5ebc
000001c0: c715 ea3d 411f 3f3e 03cf c43d e6ad 1c3d
000001d0: 1648 acbd 6faa 93bd 00dc 4cbe ba46 b3bc
000001e0: c446 20ba bc22 d33c 4d1f a8bd 7bfd 803e
000001f0: a197 9e3c 3936 863d 4e48 eb3d 2f40 00bd
00000200: 5ba1 c4bd 7f3a f3bd 5719 b03d 7aec dcbd
00000210: 00d8 9d3e ff0a bb3d 71f4 be3c 7cd2 643d
00000220: 648d dabc e586 d2bd 9223 57be b43d 763d
00000230: 3124 203e 97dd 443d c1bd bc3d e9d8 91bd
00000240: 8b29 44bd ec08 993d b210 c6bd b081 b33d
00000250: d329 2bbd dc88 d3bb 2bb9 32bb 3c8c 3dbc
00000260: 560d 123e 92eb 373e 4efe 8a3e 97cf 153e
00000270: b2ab 303e ec07 983d 3145 363d bbdb f5bc
00000280: 52f9 4bbe e19a 893e d0b5 803e eadb f73d
00000290: 8542 b13d 5d8b b53c 2e13 293e ee90 203d
000002a0: bbf9 90be ea11 babd ac19 a23d e4b9 1eba
000002b0: 359e ad3d 5068 173e 3315 b3bb 973f 8f3c
000002c0: 227a e93d f97a 973d aa99 bf3c 1621 6e3d
000002d0: f545 393d b2b4 953c 254e 2b3e 38dd a0be
000002e0: 17c5 f2bd e4dd b53d 961c 8d3e fb0d 5abe
000002f0: 0d69 c3bc a9a2 983b 2019 70bd 7978 34be
00000300: eabe b43d e9b0 8abc 586f 1c3d ab5c b3bd
00000310: 23bd cabd ea76 d2bd 8488 de3d 82f1 493c
00000320: 9a01 013c 7f40 7d3e 7e14 9db8 9143 253d
00000330: e3f3 753d 2191 9c3d eb07 20bd 8e26 a83b
00000340: 33dc 153e 2ff3 78bd a1a2 213d d31e 5bbe
00000350: e067 d83d 985c ea3d a00c f53d fac3 2cbe
00000360: 708f 733c 9b1e 0d3d 873e 623e 488d 07bd
00000370: 6490 863e 915d 64bd 21ae 44be 587b 603d
00000380: e646 c9bb 30e3 453d 3374 a63d d08b cd3f
00000390: 12c8 cd3c fae3 e13c e2ba eabb 4b9a 0cbd
000003a0: de91 cc3d d615 0bbd ac19 2c3e 103f 553d
000003b0: 568c b9be 345e c8ba e73e c13c b17c 6cbd
000003c0: a8e1 873c 5823 f23d 51f6 293d deb0 0c3e
000003d0: cf5a 4e3d c940 f73d 461b 5d3d c728 cbbc
000003e0: 2ce8 c63d 4bf7 813d 03e6 8d3d 28bd 1f3e
000003f0: e6f8 6c3d 459f 073e 8241 193e 30c4 99ba

fc.weight f4 [4, 128]
0.36931476 0.25887027 0.13891281 -0.2632388 0.285352 -0.50139534 0.10220425 0.37521258
-0.1487758 0.0014050299 -0.42496592 -0.32335165 -0.27689347 0.3468313 0.030243935 -0.21293414
0.15322231 -0.25765747 0.16653728 0.1944956 0.2312329 0.2702883 0.23566748 -0.35345653
0.030477477 -0.1945496 -0.23597617 -0.1268925 0.09253821 -0.33952972 0.1288157 -0.1951732
-0.56423116 0.33466992 -0.1523985 0.49390858 0.13006455 -0.13461775 -0.24929509 0.21267219
-0.50197977 0.39425278 0.07543599 -0.18903412 -0.30476466 -0.044449102 -0.30710676 0.28622186
-0.3448684 0.4556531 0.20473915 0.06868376 -0.22276512 0.15148155 0.30302647 0.1850248
-0.36471516 0.20930018 -0.27108496 -0.18019505 0.92902434 -0.43488666 -0.3293915 -0.111616164
0.50419164 -0.46238488 -0.27574685 0.14904597 0.12831622 0.12761779 -0.27144015 -0.45827988
0.26920727 -0.09908971 -0.65640223 0.09490405 -0.13030836 0.12932546 0.12169755 0.3363199
-0.11785389 -0.08223105 0.16089526 -0.116276294 0.3662173 0.033529513 -0.31275287 -0.5611063
0.13729466 -0.0322131 0.5822594 0.23753917 0.32743242 -0.14406382 -1.6488159 0.51674193
0.620731 0.28145358 0.42612818 -0.35517538 -0.3479134 -0.24603146 -0.05933087 0.10077348
0.434501 1.1914548 -0.13486452 -0.08728989 -0.36309567 0.15013944 -0.18900435 0.05194887
0.114988 -0.4424221 -0.30952188 0.21836883 0.16220936 0.27366486 0.10236676 -0.5205605
0.010757836 0.20108348 -0.5007675 0.0931067 -0.2163469 -0.39554313 -0.33377126 0.40023407
-0.03003939 -0.03485718 -0.17443337 0.06333458 -0.008656989 0.06785223 -0.08951244 -0.092096806
-0.01082091 0.11780987 0.025038138 -0.012065418 0.042496633 -0.04194286 0.14950648 0.08140836
-0.14748377 0.07764804 -0.045931358 0.1352891 0.032856517 0.04536255 -0.043897916 -0.055287868
-0.03439095 0.13520786 0.1822776 0.07896034 -0.12565283 0.03450124 -0.032047182 -0.015831208
0.07473999 -0.22319797 0.05009502 -0.07463145 -0.02904833 -0.11438268 -0.15140316 -0.037952606
-0.28611436 -0.03920716 -0.0014452293 0.1553976 0.092834614 -0.049163952 0.042022236 -0.052826267
0.09870816 0.031791028 -0.10632687 -0.0918693 0.120305546 -0.07834079 -0.016854297 -0.09572107
0.21106799 0.15939254 0.20910423 -0.07857717 -0.05219253 0.009070466 0.02324078 0.054873906
-0.15603893 -0.060578298 0.020552719 0.025718957 -0.1354423 -0.08501676 -0.19349016 0.1113601
-0.22504377 0.14608565 0.10361656 -0.21192023 -0.20209363 0.11009745 -0.032439034 -0.1480403
-0.14857017 -0.041262116 -0.20384702 0.07489463 -0.21489586 0.08853714 0.1613994 0.024780434
-0.097826235 -0.07459407 -0.2898378 -0.051266555 -0.1792805 0.09226159 0.09917061 -0.1296739
-0.005162437 -0.11260909 -0.17794849 -0.15622418 0.08013876 0.06621309 0.05885405 -0.1592896
-0.052353594 0.113691844 0.14573482 0.20911112 -0.24314904 -0.13591518 0.10524551 -0.06515764
0.033674553 0.11024133 0.1497951 0.15137973 -0.120040074 -0.05855271 -0.09458203 0.103984244
-0.052349873 -0.09256895 0.053107593 0.05372109 0.066311024 0.11215427 0.10392414 -0.0014805906
00000000: d316 bd3e a58a 843e 293f 0e3e 3cc7 86be
00000010: a819 923e 725b 00bf 7650 d13d dd1b c03e
00000020: af58 18be fb28 b83a 2295 d9be 598e a5be
00000030: fbc4 8dbe df93 b13e 21c2 f73c 680b 5abe
00000040: 4fe6 1c3e aeeb 83be c088 2a3e db29 473e
00000050: 51c8 6c3e 3a63 8a3e d152 713e 41f8 b4be
00000060: e7ab f93c 0338 47be bda3 71be 1cf0 01be
00000070: ac84 bd3d d7d6 adbe 43e8 033e 7cdb 47be
00000080: 7471 10bf db59 ab3e 5a0e 1cbe 96e1 fc3e
00000090: a42f 053e 3cd9 09be 3647 7fbe bdc6 593e
000000a0: bf81 00bf 80db c93e 2f7e 9a3d 2992 41be
000000b0: 1d0a 9cbe 4310 36bd 193d 9dbe ac8b 923e
000000c0: 9792 b0be 5d4b e93e 24a7 513e 12aa 8c3d
000000d0: 8a1c 64be fb1d 1b3e 4926 9b3e 2477 3d3e
000000e0: f2bb babe c952 563e a6cb 8abe 0d85 38be
000000f0: 8ad4 6d3f 77a9 debe 01a6 a8be 0497 e4bd
00000100: b412 013f b6bd ecbe b12e 8dbe 829f 183e
00000110: 5465 033e 3dae 023e 34fa 8abe a9a3 eabe
00000120: 89d5 893e 8cef cabd fa09 28bf 0e5d c23d
00000130: 8e6f 05be e56d 043e 913c f93d 1f32 ac3e
00000140: 615d f1bd c168 a8bd bac1 243e 4422 eebd
00000150: d580 bb3e 3e56 093d 2521 a0be aaa4 0fbf
00000160: f996 0c3e e2f1 03bd f40e 153f 783d 733e
00000170: 39a5 a73e 7785 13be 660c d3bf 3349 043f
00000180: 3ae8 1e3f af1a 903e 792d da3e 8cd9 b5be
00000190: b521 b2be acef 7bbe ed04 73bd 5462 ce3d
000001a0: ea76 de3e 9781 983f ed19 0abe 0bc5 b2bd
000001b0: ade7 b9be 27be 193e 5b8a 41be 57c8 543d
000001c0: d47e eb3d 2685 e2be a779 9ebe 149c 5f3e
000001d0: 361a 263e cd1d 8c3e aaa5 d13d 7443 05bf
000001e0: a241 303c d4e8 4d3e 4d32 00bf baae be3d
000001f0: 0b8a 5dbe a184 cabe 11e4 aabe 7beb cc3e
00000200: 2b15 f6bc 67c6 0ebd a99e 32be 8fb5 813d
00000210: 0bd6 0dbc 1cf6 8a3d 4c52 b7bd 409d bcbd
00000220: 304a 31bc 4d46 f13d c81c cd3c 08ae 45bc
00000230: f310 2e3d 47cc 2bbd 3a18 193e 6db9 a63d
00000240: fc05 17be f005 9f3d 8522 3cbd 3a89 0a3e
00000250: 8e94 063d 15ce 393d 4dce 33bd 8875 62bd
00000260: 86dd 0cbd ee73 0a3e fba6 3a3e f5b5 a13d
00000270: 23ab 00be 2c51 0d3d e843 03bd 73b0 81bc
00000280: 4811 993d 028e 64be 7030 4d3d 60d8 98bd
00000290: c3f6 edbc 7741 eabd 6e09 1bbe 3174 1bbd
000002a0: 957d 92be b097 20bd d96d bdba 8c20 1f3e
000002b0: 1320 be3d 2460 49bd 821f 2c3d 5b60 58bd
000002c0: 8127 ca3d 4f37 023d e7c1 d9bd f925 bcbd
000002d0: c162 f63d 2371 a0bd 0612 8abc 6909 c4bd
000002e0: 3522 583e cc37 233e 6b1f 563e 11ed a0bd
000002f0: d6c7 55bd 4b9c 143c 7363 be3c 76c3 603d
00000300: abc8 1fbe f320 78bd 2d5e a83c 90b0 d23c
00000310: 63b1 0abe 441d aebd 4922 46be c410 e43d
00000320: e071 66be 7a97 153e eb34 d43d 9e01 59be
00000330: a2f1 4ebe c67a e13d cbde 04bd e097 17be
00000340: c722 18be 7702 29bd 46bd 50be 5b62 993d
00000350: a90d 5cbe f652 b53d e245 253e 5600 cb3c
00000360: 1f59 c8bd c7c4 98bd 9f65 94be e1fc 51bd
00000370: 4f95 37be a5f3 bc3d f619 cb3d 3cc9 04be
00000380: a929 a9bb 989f e6bd 2138 36be 3bf9 1fbe
00000390: ca1f a43d bb9a 873d f210 713d d01c 23be
000003a0: b970 56bd 45d7 e83d 823b 153e 3a21 563e
000003b0: 10fc 78be 592d 0bbe f58a d73d 5e71 85bd
000003c0: 54ee 093d 35c6 e13d e363 193e 4a03 1b3e
000003d0: 92d7 f5bd f7d4 6fbd 39b4 c1bd b1f5 d43d
000003e0: d26c 56bd ca94 bdbd 5987 593d a50a 5c3d
000003f0: 13ce 873d 23b1 e53d 2ed6 d43d 6010 c2ba

fc.bias f4 [4]
-0.30418292 0.11370531 0.05088865 -0.008432255
00000000: ddbd 9bbe 54de e83d 9e70 503d 7127 0abc
