LSTM/Data_2/LSTM8/model.pth (torch, 275939 bytes, 6 tensors)

lstm.weight_ih_l0 f4 [512, 3]
0	0xbe3aec5a	-0.18254223
1	0xbe432f06	-0.19060907
2	0xbe462e6f	-0.1935365
3	0x3e16b90f	0.14719032
4	0x3e888b2f	0.2666869
5	0x3dc25512	0.09488882
6	0xbeaf92d8	-0.3429172
7	0x3ca100d5	0.019653717
8	0xbe3505ba	-0.17677966
9	0xbf4cbb3d	-0.799732
10	0x3e574000	0.21020508
11	0xbe18c3bc	-0.14918417
12	0xbdca6172	-0.098818675
13	0x3ea1177d	0.31463233
14	0x3dd6d030	0.10488927
15	0xbe0afee4	-0.13573796
16	0x3e66df0d	0.22546025
17	0x3e05632a	0.1302611
18	0xbea981f9	-0.33106974
19	0xbd89f359	-0.06735868
20	0xbe5b05e3	-0.21388964
21	0xbd76db71	-0.06026787
22	0x3d3cef68	0.046126753
23	0xbf0be747	-0.54649776
24	0x3d82afad	0.06381164
25	0x3dba786a	0.091049984
26	0xbf146ad2	-0.57975495
27	0x3bafb2aa	0.0053618746
28	0xbe81cf8e	-0.25353664
29	0xbcc007ae	-0.023441162
30	0xbeb99579	-0.3624685
31	0xbee25735	-0.4420716
32	0xbf00688f	-0.50159544
33	0xbf0ce2c0	-0.55033493
34	0xbe424926	-0.18973216
35	0xbdd74192	-0.105105534
36	0x3c68c921	0.014208109
37	0xbcdaf4b6	-0.026728015
38	0xbd9e8978	-0.07741064
39	0xbe08ccb3	-0.13359337
40	0xbe2061bd	-0.15662284
41	0x3d89c92c	0.067278236
42	0xbe90e86d	-0.28302327
43	0x3d521b60	0.051295638
44	0x3e74ebe3	0.23918109
45	0x3cc6b884	0.024257906
46	0x3d9e10fd	0.07718084
47	0x3e2d0118	0.16894948
48	0x3e30011c	0.17187923
49	0xbdab08ab	-0.08351263
50	0x3e1f8bcd	0.15580674
51	0xbe9058d1	-0.28192762
52	0xbe104fa4	-0.1409288
53	0xbf043b81	-0.51653296
54	0x3e6944ac	0.22780102
55	0xbea75e36	-0.32689065
56	0xbc2b2713	-0.010446328
57	0xbe8a44de	-0.27005666
58	0xbde463c8	-0.11151844
59	0xbc1986e4	-0.009370539
60	0x3dfb1af3	0.122609995
61	0xbee33ba7	-0.4438145
62	0xbf0613e0	-0.52374077
63	0x3dbdd19d	0.09268496
64	0x3e17714d	0.14789315
65	0xbe2a13ac	-0.16609067
66	0xbead678f	-0.3386807
67	0x3d60df76	0.05490061
68	0x3e99119b	0.29896244
69	0x3e38e951	0.18057753
70	0x3d2879ca	0.041131772
71	0xbcaa7734	-0.020808794
72	0xbd769155	-0.060197193
73	0xbdf9ac10	-0.121910214
74	0xbe7f0033	-0.2490242
75	0xbd95db04	-0.073171645
76	0xbd843531	-0.06455458
77	0xbe9ebe11	-0.31004384
78	0xbd9aeb29	-0.075643845
79	0xbe700cf8	-0.23442447
80	0xbe3f7370	-0.1869638
81	0xbe839b3d	-0.25704375
82	0xbdc0755c	-0.093973845
83	0xbeb0ccb5	-0.3453118
84	0xbdc463aa	-0.09589322
85	0x3e47e292	0.19520023
86	0xbd7c95e3	-0.06166638
87	0xbe2c3fc0	-0.16821194
88	0x3dec7e61	0.11547542
89	0xbe4c95c2	-0.19979003
90	0xbe16b49d	-0.14717336
91	0xbeeb5746	-0.45965022
92	0xbe932614	-0.2873999
93	0xbec1ab18	-0.37825847
94	0xbeadc84c	-0.33941877
95	0xbe8e23d8	-0.27761722
96	0xbe37fd5a	-0.1796774
97	0xbdfa4338	-0.12219852
98	0x3db0b007	0.086273246
99	0x3c1ab77f	0.009443163
100	0xbe1f9284	-0.15583235
101	0xbe70835c	-0.2348761
102	0xbe56b94a	-0.2096912
103	0x3df36e2b	0.11886247
104	0xbea07c85	-0.31345
105	0x3ccd5049	0.025062697
106	0xbe3b2b80	-0.18278313
107	0xbe2bb208	-0.16767132
108	0xbda2a072	-0.07940759
109	0xbd4264d6	-0.047459446
110	0xbe968a13	-0.29402217
111	0xbe7a7788	-0.2445966
112	0xbdf97ed6	-0.12182395
113	0xbee1ad8b	-0.44077715
114	0xbeb8a8a0	-0.3606615
115	0x3e31c3e2	0.1735988
116	0xbe87b897	-0.26508018
117	0xbe40a96c	-0.1881463
118	0xbbf348da	-0.007424456
119	0x3ec82233	0.39088592
120	0xbd49270b	-0.0491095
121	0xbdcfd5e4	-0.10148218
122	0x3d145d85	0.036222
123	0xbe8d527d	-0.27601996
124	0xbeeae897	-0.45880577
125	0xbf1123d3	-0.5669529
126	0xbe80b5d6	-0.2513873
127	0xbe02655f	-0.12733983
128	0xbe1ac372	-0.15113619
129	0xbc0eb89b	-0.008711006
130	0xbe19c290	-0.15015626
131	0xbefeebe3	-0.49789342
132	0xbe96e7b4	-0.2947365
133	0xbf109166	-0.5647186
134	0xbeca92c8	-0.3956511
135	0x3e6fa809	0.23403944
136	0x3d1cb2cb	0.038256448
137	0xbeb0f713	-0.34563503
138	0xbe8dfec7	-0.27733442
139	0xbd27ad91	-0.04093701
140	0x3d3e9305	0.046526928
141	0xbdb8245c	-0.0899131
142	0xbe740675	-0.23830588
143	0xbed99aab	-0.42500815
144	0xbe40364e	-0.18770716
145	0xbda1a79c	-0.07893297
146	0xbe05011a	-0.12988701
147	0xbe61aa8b	-0.22037713
148	0xbd2457f4	-0.04012294
149	0xbe949666	-0.29020995
150	0xbdc86d04	-0.09786418
151	0xbdde1de8	-0.10845548
152	0xbe44619c	-0.1917786
153	0xbf4cdbd0	-0.8002291
154	0x3e1e72e0	0.15473509
155	0xbebb2997	-0.36555168
156	0xbe05fbcf	-0.13084339
157	0x3e02886e	0.12747356
158	0xbdf87e8b	-0.12133511
159	0xbe1a9566	-0.15096053
160	0x3b9b5bec	0.0047411826
161	0x3ec84d34	0.391214
162	0xbec66ef3	-0.38756523
163	0xbe80e961	-0.25178054
164	0xbea335f4	-0.318771
165	0x3d98eaf0	0.07466686
166	0xbe261f10	-0.16222787
167	0xbe201b5c	-0.15635437
168	0xbf19ecc4	-0.601269
169	0xbe009425	-0.12556513
170	0xbd947f77	-0.072508745
171	0xbdd78982	-0.105242744
172	0x3dee965f	0.11649775
173	0xbf041cc0	-0.5160637
174	0xbedf06f5	-0.43559995
175	0xbcd0911e	-0.025459822
176	0xbe5a2283	-0.21302228
177	0xbe87bd8d	-0.26511803
178	0xbdbf585f	-0.09343027
179	0xbd845322	-0.06461169
180	0xbcbe8273	-0.023255562
181	0xbe1159bf	-0.14194392
182	0xbe62f784	-0.22164732
183	0xbaa48375	-0.0012551384
184	0xbddbb5c3	-0.10728028
185	0x3e0e841c	0.13917583
186	0xbea654d6	-0.324866
187	0xbe9ab898	-0.3021896
188	0xbeb5a322	-0.35476023
189	0xbe28ef78	-0.164976
190	0xbe7983eb	-0.24366729
191	0xbee0aaec	-0.43880403
192	0xbda1c523	-0.07898929
193	0xbebdba6e	-0.37056297
194	0xbf0b3a4b	-0.54385823
195	0x3c92e8fe	0.017933365
196	0xbd26ad00	-0.04069233
197	0x3d9aa348	0.07550675
198	0xbe221675	-0.15828879
199	0x3cd02501	0.02540827
200	0x3cffcf52	0.031226788
201	0x3c1199b5	0.008886744
202	0xbdb03e5d	-0.08605645
203	0x3cda487a	0.026645888
204	0x3b339a64	0.0027405256
205	0xbbee3159	-0.0072690663
206	0x3e960633	0.29301605
207	0xbebffc5e	-0.37497228
208	0xbe0ea5a7	-0.13930379
209	0xbde9494b	-0.11390933
210	0xbe56ffbf	-0.20995997
211	0xbe84b327	-0.25917932
212	0xbe203a12	-0.15647152
213	0xbd93dd8e	-0.072199926
214	0xbe96c687	-0.2944834
215	0xbebd9140	-0.3702488
216	0xbe9f8e1e	-0.31163114
217	0x3d738c6f	0.0594601
218	0xbe890fd9	-0.26769903
219	0xbf07914e	-0.5295609
220	0x3e6a5727	0.22884808
221	0x3d7c27a9	0.06156126
222	0xbe0bf926	-0.13669261
223	0xbda6b5ef	-0.0814017
224	0xbd12dd8d	-0.03585582
225	0xbde9d4f0	-0.11417568
226	0xbe4aa29f	-0.19788598
227	0xbe78b56a	-0.24287954
228	0xbd3a4e6e	-0.045484953
229	0x3c68a147	0.014198608
230	0x3db757a2	0.089522615
231	0x3b40172d	0.002931069
232	0xbe5e8619	-0.21730842
233	0xbe8579cc	-0.26069486
234	0x3c16f652	0.009214001
235	0xbf475118	-0.77858114
236	0xbecde841	-0.40216258
237	0xbd6e1bac	-0.05813186
238	0x3d7fcd50	0.06245166
239	0xbed79fa1	-0.42113975
240	0xbe4cd96a	-0.20004812
241	0x3e06c3b3	0.13160591
242	0xbe7f7bb9	-0.2494954
243	0xbda0f93d	-0.078600384
244	0xbe6b82c4	-0.22999102
245	0xbef2e36a	-0.47439128
246	0x3d6a3ea7	0.057188656
247	0x3e20e6cb	0.1571304
248	0x3da78278	0.08179182
249	0x3e6e057a	0.23244277
250	0x3ba0a11d	0.0049020187
251	0x3ea14be2	0.31503206
252	0xbebe022f	-0.3711104
253	0xbc8ea558	-0.017412826
254	0x3e67e3ea	0.22645536
255	0xbe369665	-0.17830808

lstm.weight_hh_l0 f4 [512, 128]
0	0xbe193b48	-0.1496402
1	0x3d9be917	0.07612818
2	0x3db5244e	0.08844815
3	0x3f1929c5	0.5982936
4	0x3e46df58	0.19421136
5	0x3c9b7f7a	0.018981684
6	0xbe9ab9f8	-0.30220008
7	0xbcc01228	-0.023446158
8	0xbe4a776d	-0.1977212
9	0x3b8a759d	0.0042254464
10	0x3e18da0f	0.14926933
11	0xbdbbd0c4	-0.09170678
12	0x3dcd0d01	0.10012246
13	0xbe1c1511	-0.15242411
14	0x3da10282	0.078618065
15	0x3e3c5a97	0.18393932
16	0xbe3b2627	-0.18276273
17	0xbdf0a08b	-0.11749371
18	0xbdb88774	-0.09010211
19	0x3b7907d1	0.0037999044
20	0xbd7e0775	-0.06201883
21	0x3a9c8d35	0.0011943938
22	0x3d31cf8b	0.04341082
23	0x3e6eb88e	0.2331259
24	0x3e272076	0.16320977
25	0xbd921a24	-0.07133892
26	0x3daf02e7	0.085454755
27	0x3d9d90b5	0.07693616
28	0xbe1f078a	-0.1553022
29	0x3e0c4533	0.13698272
30	0xbe3af2e3	-0.18256716
31	0x3e1c4685	0.15261276
32	0x3e2d5dab	0.16930263
33	0x3d66f758	0.05638823
34	0x3d06591d	0.03279983
35	0x3e577ea3	0.21044402
36	0x3e1eb795	0.15499718
37	0xbe8901d1	-0.26759198
38	0x3d87b093	0.06625476
39	0x3e64ee9b	0.22356646
40	0xbdb6282d	-0.08894382
41	0x3d8e9d32	0.069635764
42	0x3dfe02c8	0.12402874
43	0x3c3f6b35	0.011683275
44	0xbe5a62e9	-0.21326794
45	0x3e752389	0.23939337
46	0x3de2b754	0.11070123
47	0x3e61b1f5	0.22040541
48	0x3d984b85	0.07436279
49	0x3d1f8f65	0.03895511
50	0x3d3482f8	0.044070214
51	0xbd866bf4	-0.06563559
52	0xbe0e8b33	-0.13920288
53	0xbe501e6c	-0.20324105
54	0xbe0f4d5b	-0.13994353
55	0x3cd7da78	0.026349291
56	0xb9972dd6	-0.00028835115
57	0x3e1832a3	0.14863066
58	0xb918d457	-0.00014574952
59	0x3d8bbb14	0.06822792
60	0x3da3a49e	0.079903826
61	0x3d944a60	0.072407484
62	0x3e303c34	0.17210466
63	0xbd9667bb	-0.07344004
64	0xbe1088b7	-0.14114653
65	0xbe16b1c0	-0.14716244
66	0xbe621660	-0.22078848
67	0x3b9897e7	0.00465678
68	0xbd7bb9c5	-0.06145646
69	0x3c28478f	0.010270967
70	0x3ca0403d	0.019561881
71	0xbc1547a7	-0.0091113215
72	0xbd9f334a	-0.077734545
73	0xbe8faed8	-0.28063083
74	0xbce4035c	-0.027833633
75	0xbde9570a	-0.113935545
76	0x3e11fd9c	0.142569
77	0xbd9ef2a5	-0.077611245
78	0x3d5f427a	0.054506756
79	0x3eb9155a	0.36149102
80	0xbe07101f	-0.13189743
81	0xbe22e866	-0.15908965
82	0x3d034ce3	0.032055747
83	0x3e4c37db	0.19943182
84	0xbdc43194	-0.09579769
85	0xbdcc84e4	-0.099862844
86	0x3d0fd1bd	0.03511213
87	0xbdfd8f3b	-0.12380835
88	0x3e1cff62	0.15331796
89	0x3df7e9e3	0.12105157
90	0xbce4f7f3	-0.027950263
91	0x3d8d7a36	0.069080755
92	0xbdc53a88	-0.096303046
93	0xbe5b4509	-0.21413054
94	0x3dbe8e73	0.09304514
95	0xbd8b74fd	-0.06809423
96	0xbe027059	-0.1273817
97	0x3d0c3afc	0.03423594
98	0xbdc9192c	-0.09819254
99	0xbdf123ab	-0.11774381
100	0xbdc6b93f	-0.09703302
101	0x3da5a8d4	0.08088842
102	0xbd42dcdc	-0.04757391
103	0xbe27f741	-0.16402914
104	0xbddf15e3	-0.108928464
105	0x3e47ef93	0.19524984
106	0xbe1c3e4d	-0.15258141
107	0x3d525ae8	0.051356226
108	0x3d8ce28e	0.068791494
109	0xbcf7cdb8	-0.030249462
110	0x3e5e339b	0.21699373
111	0x3dc3c134	0.09558335
112	0x3e38bac2	0.18039992
113	0xbca5da2a	-0.02024563
114	0xbdbdc245	-0.092655696
115	0x3e04d04a	0.12970081
116	0xbda37d0d	-0.07982836
117	0xbac82fc6	-0.0015273027
118	0xbdcd12e6	-0.1001337
119	0x3dcb7c39	0.09935803
120	0x3e1f65d4	0.15566188
121	0x3d96e670	0.07368171
122	0x3d9d3269	0.076756306
123	0xbe29f4f8	-0.16597354
124	0xbb6edf78	-0.0036449116
125	0xbeb9ba3e	-0.36274904
126	0x3db906b8	0.090344846
127	0xbc7ca7a2	-0.015420826
128	0xbcdb749c	-0.026789002
129	0x3e2af988	0.16696751
130	0xbe02e160	-0.12781286
131	0x3cd0b355	0.025476137
132	0x3d7be62c	0.061498806
133	0xbc747f1d	-0.014922884
134	0xba731a5c	-0.0009273642
135	0x3d2388ce	0.03992539
136	0x3cc61b0c	0.024182819
137	0xbcc2f8ce	-0.02380028
138	0xbdd3bda3	-0.10338905
139	0xbb54708f	-0.0032415723
140	0x3d061274	0.032732442
141	0x3ce55d98	0.02799873
142	0x3dc5516e	0.09634672
143	0xbcffb520	-0.031214297
144	0xbe26c463	-0.16285853
145	0x3c2a8698	0.010408066
146	0xbe6a4019	-0.22876014
147	0xbe41350d	-0.18867894
148	0x3c52cbe2	0.012865992
149	0xbe67fea7	-0.22655736
150	0xbbaf1918	-0.0053435676
151	0x3c43fa0d	0.011961472
152	0x3d9f9c8d	0.077935316
153	0xbcff6b1f	-0.031179009
154	0x3d934678	0.07191175
155	0xbcfaa1d0	-0.030594736
156	0xbdfc92ed	-0.12332711
157	0x3c484f92	0.012226002
158	0x3e2bcc08	0.1677705
159	0x3d29e945	0.04148223
160	0xbdafc7d1	-0.08583034
161	0xbdd9f10c	-0.10641679
162	0x3d369521	0.044575814
163	0x3dfaa73f	0.12238931
164	0xbc3ea2d2	-0.011635499
165	0x3df07137	0.11740344
166	0x3e4f8925	0.2026716
167	0xbdf7285b	-0.12068244
168	0xbe049fcf	-0.12951587
169	0xbd89196a	-0.066943005
170	0xbd43c246	-0.047792695
171	0x3d832781	0.06404019
172	0x3bcaf5cd	0.0061938525
173	0xbe0543de	-0.1301417
174	0x3d16e940	0.03684354
175	0x3d56fa34	0.052484706
176	0xbc57a497	-0.0131618
177	0x3d6ace28	0.057325512
178	0xbd5621d8	-0.05227837
179	0x3daac186	0.08337693
180	0x3c6bdaa4	0.01439539
181	0x3a2f6dc7	0.00066920783
182	0xbd24c764	-0.040229216
183	0x3e786972	0.24258974
184	0x3d7cb74d	0.061698247
185	0x3d2b5e95	0.041838247
186	0x3b6457fa	0.0034842477
187	0xbe3c8ec7	-0.1841384
188	0xbcd4b53f	-0.025965331
189	0xbdde865b	-0.1086547
190	0x3d767154	0.060166672
191	0x3ce7c990	0.028294355
192	0xbd87848e	-0.0661708
193	0x3d5e7fa6	0.054320954
194	0x3d3458d3	0.044030022
195	0x3dfa8c01	0.12233735
196	0x3e18eb82	0.14933589
197	0x3db39278	0.08768171
198	0x3eb545c1	0.3540478
199	0x3cabac93	0.020956313
200	0x3e6b961f	0.23006485
201	0xbd2994a5	-0.041401524
202	0xbd6e7ad2	-0.0582226
203	0x3d9626e7	0.07331639
204	0xbda449fc	-0.08021924
205	0xbda6de46	-0.08147864
206	0xbe5fd5d2	-0.2185891
207	0xb9855808	-0.00025433325
208	0x3dc5093f	0.09620904
209	0x3d42160e	0.047384314
210	0x3c3d7602	0.01156378
211	0xbe174793	-0.14773397
212	0x3cf57c64	0.02996654
213	0xbd2b01a6	-0.04174962
214	0x3b2d796e	0.0026470083
215	0xbd0b4bb2	-0.034007736
216	0xbccae440	-0.024767041
217	0x3e1c0e10	0.1523974
218	0x3e06299c	0.1310181
219	0xbd0368f8	-0.032082528
220	0x3d3d663e	0.046240084
221	0x3ded9a32	0.11601676
222	0x3d5c2b28	0.053752095
223	0xbdbf6d2b	-0.09346994
224	0x3e3ed5e8	0.18636286
225	0xbc676faf	-0.014125749
226	0x3dbc600a	0.091980055
227	0xbb920f40	-0.0044573843
228	0x3d6bf640	0.05760789
229	0x3de6d103	0.112703346
230	0xba8fa9d8	-0.0010960652
231	0x3e080419	0.13282813
232	0x3e433128	0.1906172
233	0x3bec015b	0.00720231
234	0x3da3ba51	0.079945214
235	0xbdfdd414	-0.12393966
236	0xbd320c6d	-0.04346888
237	0xbca5f97b	-0.020260563
238	0xbe360f47	-0.17779265
239	0x3dbe5a12	0.09294523
240	0xbcff4920	-0.031162798
241	0x3bd44bc8	0.0064787604
242	0x3d95a797	0.07307356
243	0x3dcabbf8	0.098991334
244	0x3e15e588	0.1463834
245	0x3e759dc7	0.23985969
246	0xbd4a70eb	-0.049424093
247	0x3e1f82f4	0.15577298
248	0xbe022f15	-0.12713273
249	0x3ca2b9fd	0.019864077
250	0xbddee0d1	-0.10882724
251	0x3d08806c	0.033325598
252	0xbe1cd5a0	-0.15315866
253	0x3dcb7212	0.099338666
254	0xbda35722	-0.07975604
255	0xbd84d1ca	-0.064853266

lstm.bias_ih_l0 f4 [512]
0	0xbd7a1f48	-0.06106499
1	0x3e8cddc6	0.2751295
2	0xbdc323bc	-0.095283
3	0xbe985e3c	-0.29759395
4	0x3e31a528	0.17348158
5	0x3ae0dc5d	0.0017155517
6	0xbe2f3994	-0.17111808
7	0xbe207185	-0.15668304
8	0x3d7b0856	0.061287247
9	0xbe05ac36	-0.13053975
10	0xbee6302d	-0.4495863
11	0xbeb090c4	-0.34485447
12	0xbd0bd203	-0.03413583
13	0xbdde2209	-0.108463354
14	0xbd3f3ff1	-0.04669184
15	0xbd0548a0	-0.032539964
16	0xbbcb4b9a	-0.006204081
17	0xbe862d5f	-0.2620649
18	0xbe1aab2e	-0.15104362
19	0xbe68c10f	-0.22729896
20	0xbdeba982	-0.115069404
21	0x3de3635b	0.11102935
22	0xbc1b868f	-0.0094925305
23	0x3db948cf	0.0904709
24	0xbdf47bb0	-0.11937654
25	0xbd4e4ee6	-0.050368212
26	0xbe4daed5	-0.20086224
27	0xbe297536	-0.16548619
28	0x3e230da6	0.15923175
29	0x3d21364c	0.039358422
30	0xbe8b350f	-0.27188918
31	0xbeb0a039	-0.3449724
32	0xbe0bf96f	-0.1366937
33	0xbdebe614	-0.11518493
34	0xbd0ddaeb	-0.034632605
35	0x3b890185	0.0041810893
36	0x3d17f383	0.037097465
37	0xbe3d2380	-0.18470573
38	0x3d2e7187	0.042588737
39	0xbda9a65f	-0.08283686
40	0xbdf359e3	-0.11882379
41	0xbec2cea0	-0.38048267
42	0xbe2c95d4	-0.1685403
43	0xbc851c5c	-0.016248874
44	0xbee18593	-0.44047222
45	0x3d2f0b64	0.042735472
46	0xbe08d54e	-0.1336262
47	0xbe6d923a	-0.23200312
48	0xbe3a7dc0	-0.18212032
49	0xbe0c809d	-0.13720937
50	0xbe30ae92	-0.17254093
51	0xbe443a2d	-0.19162817
52	0x3d9a825f	0.075443976
53	0x3d487ab8	0.04894516
54	0xbeb916c9	-0.36150196
55	0xbe03354c	-0.128133
56	0xbe91f335	-0.28505865
57	0x3d337140	0.043809175
58	0xbe8545eb	-0.26029906
59	0xbdea2f31	-0.11434782
60	0xbe1cf800	-0.1532898
61	0x3c12f5dc	0.00896975
62	0xbeb24393	-0.3481718
63	0xbe2d2299	-0.16907729
64	0xbe7eade0	-0.24871016
65	0x3d428c68	0.047497183
66	0xbdb6b5e2	-0.0892141
67	0xbd851d81	-0.06499768
68	0xbba476cd	-0.005019045
69	0xbe86af52	-0.26305634
70	0xbe16d9f9	-0.14731587
71	0xbe944c8e	-0.28964657
72	0xbe5998aa	-0.21249643
73	0xbda10849	-0.078629084
74	0xbdba7425	-0.09104184
75	0xbe588e37	-0.21148
76	0xbcccfbff	-0.025022505
77	0x3cf9b29e	0.03048068
78	0xbed33e53	-0.41258487
79	0x3dc3da1c	0.095630854
80	0xbd73f7d4	-0.05956252
81	0xbe65b474	-0.22432119
82	0x3dec4a2a	0.11537583
83	0x3d2ac888	0.041695148
84	0xbd86170c	-0.065473646
85	0xbe12829d	-0.14307638
86	0xbe3a90de	-0.18219325
87	0x3d1464be	0.036228888
88	0xbe5007f5	-0.20315535
89	0xbe72a88e	-0.23697111
90	0xbe7c5b66	-0.2464424
91	0xbe1ac8fe	-0.15115735
92	0xbe8dc882	-0.27692038
93	0x3cec753f	0.028864501
94	0xbe656d15	-0.22404893
95	0x3d353d4b	0.044247907
96	0xbe29b999	-0.16574706
97	0x3c67ad35	0.014140417
98	0xbe0d559a	-0.13802186
99	0xbd51bd48	-0.051205903
100	0xbe872a74	-0.26399577
101	0xbe8d4207	-0.27589437
102	0x3d70a3b7	0.05874988
103	0xbdb6905f	-0.08914255
104	0xbe0e233b	-0.13880627
105	0x3e4dfa3d	0.2011499
106	0x3d8aee7b	0.06783768
107	0xbe5641ba	-0.2092351
108	0xbda8a3ee	-0.08234392
109	0xbde97163	-0.1139858
110	0xbdcd93d1	-0.10037959
111	0x39ef2132	0.00045610365
112	0xbe608e38	-0.21929252
113	0xbdd2becf	-0.102903
114	0xbe686857	-0.22696052
115	0xbd60302a	-0.054733433
116	0xbf024b5c	-0.5089624
117	0xbe6964d6	-0.22792372
118	0xbde57009	-0.1120301
119	0xbd8ae67b	-0.06782242
120	0xbe8491b5	-0.25892416
121	0xbeb46c3c	-0.35238826
122	0xbd8603b9	-0.06543679
123	0x3dc8b150	0.09799445
124	0xbe9f156d	-0.31071034
125	0xbd9e4959	-0.07728834
126	0xbd1bac9f	-0.03800642
127	0xbda4a06a	-0.08038409
128	0xbd8b226b	-0.06793674
129	0x3dfea2de	0.12433408
130	0xbd522d8b	-0.051312964
131	0xbe7ae90a	-0.2450296
132	0xbc76101a	-0.015018487
133	0x3d8fb3b0	0.070166945
134	0xbe3f0115	-0.18652757
135	0xbc71cc73	-0.014758217
136	0x3db8df8e	0.09027015
137	0xbdec03f0	-0.115241885
138	0xbec5aa60	-0.38606548
139	0xbe7bb4cd	-0.24580689
140	0x3da66726	0.08125143
141	0xbdb0b288	-0.08627802
142	0x3e2db8e1	0.16965057
143	0xbd39b10f	-0.04533487
144	0x3dd45f93	0.10369792
145	0xbe3a6dda	-0.18205968
146	0xbe1da988	-0.15396702
147	0xbd098866	-0.033577345
148	0xbd813a41	-0.06309939
149	0x3db71d73	0.08941164
150	0xbde6845c	-0.11255714
151	0x3d8c6365	0.068548955
152	0x3d8afff2	0.06787099
153	0x3d3521da	0.044221736
154	0xbd0b8cdb	-0.034069877
155	0xbdb14e7a	-0.08657546
156	0xbc3e2809	-0.011606225
157	0xbd2ed872	-0.042686887
158	0xbe0f8f9e	-0.1401963
159	0xbe8c75fb	-0.27433762
160	0xbde39b46	-0.111136004
161	0xbdf5b436	-0.11997263
162	0x3d208b99	0.03919563
163	0xbdf31acb	-0.11870345
164	0x3d1fe713	0.03903873
165	0x3e1515de	0.14559123
166	0xbd0ca755	-0.034339268
167	0x3ccad3b2	0.024759147
168	0x3ce4cbb3	0.027929163
169	0xbe96c92b	-0.29450354
170	0xbe000aef	-0.12504171
171	0x3e25b834	0.16183549
172	0xbe05eee2	-0.13079408
173	0x3e4e59ef	0.20151494
174	0x3e200963	0.15628581
175	0xbe38193f	-0.1797838
176	0xbe8e1c55	-0.2775599
177	0x3e24cca7	0.16093694
178	0x3bd9a16d	0.006641558
179	0xbe217f97	-0.15771328
180	0x3d0ecad2	0.034861393
181	0xbd653ad2	-0.0559643
182	0x3c3fa508	0.011697061
183	0x3d5280c4	0.05139233
184	0xbe050dfd	-0.12993617
185	0x3e2be91a	0.1678814
186	0xbe130f54	-0.14361316
187	0xbe352bc7	-0.17692481
188	0xbd6612ff	-0.05617046
189	0xbd38b61d	-0.04509555
190	0x3cf78be8	0.03021808
191	0xbe4d5194	-0.20050651
192	0xbde7cdcc	-0.113185495
193	0x3dcde6f8	0.100538194
194	0xbd6f2232	-0.05838222
195	0xbccbd756	-0.024882954
196	0x3d86a75d	0.06574891
197	0xbd9f242a	-0.077705696
198	0x3c628c9e	0.013827471
199	0xbe8c1ac5	-0.27364174
200	0xbe338bf5	-0.17533858
201	0x3d270a48	0.04078129
202	0x3d936914	0.071977764
203	0x3d4aac72	0.049480863
204	0x3b9f8d35	0.004869128
205	0x3c6b6384	0.014366988
206	0xbe89af94	-0.26891768
207	0x3da50dce	0.08059274
208	0xbd2727ce	-0.040809445
209	0xbe20957f	-0.15682028
210	0x3ca3d414	0.019998588
211	0x3e92bdce	0.28660434
212	0xbd0cf91a	-0.03441725
213	0xbdfc110c	-0.12307939
214	0xbd1f8e71	-0.038954202
215	0x3e057bfb	0.13035576
216	0xbce5f296	-0.028069776
217	0xbe127272	-0.1430147
218	0xbe3aef3f	-0.18255328
219	0xbcd16931	-0.025562854
220	0xbea4bee5	-0.3217689
221	0x3d2088d7	0.039193
222	0xbd8e02e0	-0.06934142
223	0xbddfaf90	-0.10922158
224	0xbd28e175	-0.041230638
225	0x3d4d8c77	0.050182786
226	0xbdd41184	-0.10354903
227	0x3e5cea45	0.21573742
228	0xbd4df999	-0.050286863
229	0x3d0a8b77	0.03382441
230	0xbafcd974	-0.001929088
231	0x3e02ebf6	0.12785324
232	0x3d06e4c7	0.032933023
233	0x3dd54f3b	0.10415503
234	0x3e2ee075	0.17077811
235	0xbddd9b8b	-0.10820683
236	0xbccb2404	-0.024797447
237	0xbd0ea406	-0.034824394
238	0x3cbc0695	0.022952357
239	0xbd296b98	-0.041362375
240	0xbda429ed	-0.08015809
241	0xbd8e8439	-0.06958813
242	0xbe550b50	-0.20805097
243	0xbd08251a	-0.033238508
244	0xbe416cb0	-0.18889117
245	0x3ddba571	0.10724915
246	0xbba54607	-0.0050437483
247	0xbceb549e	-0.028726872
248	0xbda7f686	-0.082013175
249	0xbe7d7f18	-0.24755514
250	0x3b77340e	0.0037720236
251	0x3ddac20c	0.10681543
252	0xbe1886df	-0.14895199
253	0xbddc586a	-0.10759051
254	0xbc826741	-0.015918376
255	0xbda4f1ea	-0.08053954

lstm.bias_hh_l0 f4 [512]
0	0xbdef1dd3	-0.116756104
1	0x3e9bea01	0.30451968
2	0xbe0928f8	-0.13394535
3	0xbe792a41	-0.24332525
4	0x3e08460a	0.13307968
5	0xbccbd10e	-0.024879958
6	0xbe91e62d	-0.28495923
7	0xbe0db4f8	-0.13838565
8	0x3d552aef	0.052042898
9	0xbe052f7a	-0.13006392
10	0xbeef6564	-0.46757042
11	0xbeb2f6c9	-0.34953907
12	0x3c9f129f	0.019418059
13	0x3b9164f6	0.0044370843
14	0xbd67f08b	-0.056625884
15	0xbd1eceb3	-0.038771342
16	0xbc5d3a16	-0.013502618
17	0xbe7d4bec	-0.24735993
18	0xbe056d53	-0.13029985
19	0xbe6031cb	-0.21893995
20	0xbe0a8f1e	-0.13531157
21	0x3dba1713	0.09086432
22	0xbd055ac5	-0.032557268
23	0x3e083d53	0.13304643
24	0xbc31dc70	-0.010855779
25	0xbe09ed70	-0.13469481
26	0xbdd4e804	-0.10395816
27	0xbe0b7075	-0.13617118
28	0xbc565c60	-0.013083547
29	0x3d2f5906	0.04280951
30	0xbe68c0e4	-0.22729832
31	0xbeb59e14	-0.35472167
32	0xbe2407b7	-0.16018568
33	0xbc7c388e	-0.015394343
34	0xbc77460c	-0.015092384
35	0x3db31c1e	0.08745597
36	0xbdef765f	-0.11692499
37	0xbe4b3a35	-0.19846423
38	0x3cdf950b	0.027292749
39	0xbe0530d4	-0.13006908
40	0xbe00353f	-0.12520312
41	0xbea294d8	-0.31754184
42	0xbdded57e	-0.10880564
43	0x3c88e877	0.01671241
44	0xbed583a0	-0.41701984
45	0x3dd125f5	0.10212318
46	0xbe4573ea	-0.19282499
47	0xbe6a26fc	-0.22866434
48	0xbe3c5c29	-0.18394531
49	0xbca88543	-0.020571357
50	0xbe6c3c41	-0.2306986
51	0xbe936842	-0.2879048
52	0xbc74a8eb	-0.014932851
53	0xbd747e2a	-0.059690632
54	0xbec63746	-0.38714045
55	0x3b4e6259	0.0031491725
56	0xbe579dbe	-0.21056268
57	0x3cab5b07	0.020917429
58	0xbe3ef386	-0.18647584
59	0xbdf2911b	-0.11844083
60	0xbd8e7b0f	-0.06957065
61	0xbd3a5e97	-0.045500364
62	0xbe7d6246	-0.2474452
63	0xbe16ee33	-0.14739303
64	0xbe778dd4	-0.24175197
65	0x3d72b5e8	0.05925551
66	0xbe143ddd	-0.14476724
67	0x3c017b0d	0.007902873
68	0xbc8599e8	-0.01630874
69	0xbe90dc05	-0.28292862
70	0xbde62ba6	-0.11238794
71	0xbe924978	-0.28571677
72	0xbe389be3	-0.18028216
73	0xbdcb7412	-0.09934248
74	0xbe647607	-0.22310649
75	0xbda8db6f	-0.08244979
76	0xbd6c2bb3	-0.057658862
77	0x3cef3ae0	0.029202878
78	0xbea9b553	-0.33146152
79	0x3d9f195b	0.07768508
80	0xbb9a0bc1	-0.004701108
81	0xbe3653b5	-0.17805369
82	0x3dd9be07	0.10631948
83	0x3d89ce5f	0.06728815
84	0xbe4db296	-0.20087656
85	0xbe19f4d8	-0.15034807
86	0xbe6a82cd	-0.22901459
87	0xba81e4dc	-0.0009910124
88	0xbdf77e56	-0.120846435
89	0xbe31050f	-0.17287086
90	0xbe325b73	-0.17417698
91	0xbd34f215	-0.04417618
92	0xbebf2277	-0.37330982
93	0x3d22faac	0.03978984
94	0xbe60790d	-0.21921177
95	0x3ddeec96	0.10884969
96	0xbdb5c1d3	-0.0887486
97	0x3cdf945b	0.027292421
98	0xbdafcd03	-0.08584025
99	0xbd2034a6	-0.03911271
100	0xbe28315f	-0.16425084
101	0xbe4b2da2	-0.19841626
102	0x3d65a50a	0.056065597
103	0xbdbfccd7	-0.09365242
104	0xbdf36a23	-0.11885478
105	0x3df4b436	0.11948435
106	0x3d159288	0.036516696
107	0xbe024a50	-0.1272366
108	0x3d53ed49	0.051739965
109	0xbbcb6925	-0.0062076026
110	0xbe2f6e18	-0.17131841
111	0xbd263547	-0.040578153
112	0xbe81f82b	-0.2538465
113	0xbdaf3594	-0.08555141
114	0xbe84b626	-0.25920218
115	0xbd5e9464	-0.054340735
116	0xbee2e55c	-0.44315612
117	0xbe6a3d7f	-0.22875021
118	0xbe0a2b08	-0.13492978
119	0xbdb83edc	-0.089963645
120	0xbe34a2da	-0.17640248
121	0xbeb44027	-0.35205194
122	0xbdebb1c1	-0.11508513
123	0x3d026a52	0.031839676
124	0xbebd9e31	-0.37034753
125	0xbe4c9654	-0.1997922
126	0xbcd44011	-0.025909455
127	0xbd39fa20	-0.045404553
128	0x3d60fa72	0.054926343
129	0x3cf2f095	0.029655734
130	0xbdffed7d	-0.12496469
131	0xbe06ee81	-0.1317692
132	0x3d9778d6	0.073960945
133	0xbb258485	-0.002525599
134	0xbda37e21	-0.079830416
135	0x3cd4b6ba	0.025966037
136	0x3d424463	0.0474285
137	0x3c8afde8	0.016966775
138	0xbeab9287	-0.3351023
139	0xbe5471df	-0.20746563
140	0xbd1e2cd9	-0.03861699
141	0x3974c460	0.00023342809
142	0x3e36c2cc	0.17847747
143	0xbd284f52	-0.04109127
144	0x3e356ea9	0.17717995
145	0xbda991a3	-0.08279731
146	0xb9e1bf20	-0.00043057743
147	0xbdacb410	-0.08432782
148	0x3cee5d89	0.029097335
149	0x3c3ad6e4	0.011403773
150	0xbdaebec9	-0.08532483
151	0xbdb9ad31	-0.09066237
152	0x3dd26e0c	0.10274896
153	0xbba1b805	-0.004935267
154	0xbdaa9b9f	-0.083304636
155	0xbdf0908e	-0.117463216
156	0x3b3fce31	0.0029267187
157	0x3d01b812	0.031669684
158	0xbde5e8dc	-0.11226055
159	0xbe390d21	-0.18071415
160	0xbdee8482	-0.116463676
161	0x3c10cf96	0.008838555
162	0xbc8301bf	-0.015992044
163	0xbdd8c548	-0.105845034
164	0xbcecbb9b	-0.028898051
165	0x3da550a3	0.08072021
166	0xbde546f6	-0.11195175
167	0xbd8783a9	-0.06616909
168	0x3d25b331	0.040454093
169	0xbe9f04e4	-0.3105842
170	0xbe63f12b	-0.22259967
171	0x3e196db4	0.14983255
172	0xbe5098aa	-0.20370737
173	0x3e8a3f92	0.27001625
174	0x3d844626	0.06458692
175	0xbd988fd2	-0.074493065
176	0xbe1da853	-0.15396242
177	0x3e092b2c	0.13395375
178	0x3cff6a49	0.03117861
179	0xbc61325d	-0.013744918
180	0xbc30aab8	-0.01078289
181	0xbd22f982	-0.03978873
182	0x3b21c64d	0.0024684847
183	0x3d9e17bf	0.07719373
184	0xbe2523f8	-0.16127002
185	0x3e4570be	0.19281289
186	0xbdffa0b7	-0.12481826
187	0xbdb79f70	-0.08965957
188	0xbc9fdc1d	-0.019514138
189	0xbda5052a	-0.080576256
190	0xbb9aa22d	-0.00471904
191	0xbddfd825	-0.10929898
192	0xbd31ba46	-0.043390535
193	0x3e3a90e7	0.18219338
194	0x3d2bc6cc	0.041937634
195	0xbbe6cdae	-0.007043562
196	0xbd9813c2	-0.074256435
197	0xbe446366	-0.19178542
198	0xbd8e0955	-0.06935374
199	0xbe81edd7	-0.2537677
200	0xbdba8381	-0.09107114
201	0x3d453815	0.048149187
202	0xbcf0fc22	-0.029417101
203	0x3dac5899	0.08415336
204	0x3b1c9de6	0.0023897826
205	0xbd2f17dd	-0.042747367
206	0xbe28c534	-0.16481477
207	0x3cf82864	0.030292697
208	0x3cde5783	0.027141338
209	0xbdfdf4a5	-0.12400178
210	0xbc527ffd	-0.012847898
211	0x3e1033ae	0.14082214
212	0x3d8878ff	0.06663703
213	0xbd2c9849	-0.042137418
214	0xbd21ffb2	-0.03955049
215	0x3e59c501	0.21266557
216	0xbd5bc8af	-0.053658184
217	0xbe526997	-0.20548092
218	0xbdc12a20	-0.09431863
219	0xbe00e67f	-0.12587927
220	0xbe37156a	-0.17879263
221	0x3d50f497	0.05101451
222	0xbe240c0d	-0.16020222
223	0x3a92e1e0	0.0011206232
224	0xbd778407	-0.060428645
225	0xbcc530c8	-0.024071112
226	0xbe3b8fff	-0.18316649
227	0x3e2b9c31	0.16758801
228	0xbcfb0c23	-0.030645436
229	0xbdae90e5	-0.0852373
230	0x3ddee9e1	0.108844526
231	0x3e0a6328	0.13514388
232	0xbde09684	-0.109662086
233	0x3cbc6d85	0.023001442
234	0x3e01f95b	0.12692778
235	0xbcc5ab7e	-0.024129625
236	0xbd9255db	-0.07145282
237	0xbd2e8c52	-0.04261429
238	0xbdc192f9	-0.09451861
239	0xbd4be43d	-0.04977821
240	0xbdc3c1d1	-0.09558452
241	0xbdc7b4cd	-0.09751282
242	0xbe4e51f5	-0.20148452
243	0x3d218465	0.039432902
244	0xbdf811bf	-0.1211276
245	0xbd50434d	-0.050845433
246	0xbd669be8	-0.056301028
247	0xbd056820	-0.032570004
248	0xbe276b48	-0.16349518
249	0xbeb00a17	-0.34382698
250	0x3cc1bf44	0.023650773
251	0x3e3b36c6	0.18282613
252	0xbe82982d	-0.25506726
253	0xbd286dd5	-0.04112037
254	0x3cb108d8	0.021610662
255	0x3bb23c40	0.0054393113

fc.weight f4 [4, 128]
0	0x3e281d9d	0.16417547
1	0x3b90f783	0.004424037
2	0xbec76ba0	-0.389493
3	0x3dd9050d	0.105966665
4	0xbe70b5fe	-0.23506925
5	0x3e8476e9	0.2587197
6	0xbfdbc3dc	-1.7169147
7	0x3da8d071	0.08242882
8	0x3e3667e5	0.1781307
9	0x3eaf671e	0.3425836
10	0xbc7a9902	-0.015295269
11	0x3cf40303	0.029786592
12	0xbece9b2a	-0.40352756
13	0xbd70f6fa	-0.058829285
14	0x3e423d85	0.1896878
15	0xbe4d1f56	-0.20031485
16	0x3f02fa1d	0.5116289
17	0xbe1c747f	-0.15278815
18	0x3cc1d8de	0.02366298
19	0x3e95c30e	0.29250377
20	0xbeaf4d46	-0.34238642
21	0xbec8a7b2	-0.3919044
22	0xbda0b521	-0.078470476
23	0x3d815e70	0.06316841
24	0xbf7c35e8	-0.98519754
25	0xba77234a	-0.0009427561
26	0xbeb831a4	-0.35975373
27	0xbe84de91	-0.25951055
28	0x3e335a47	0.17514907
29	0x3ea41827	0.32049677
30	0x3e1c78ae	0.1528041
31	0x3dfe5289	0.12418086
32	0xbe0a5508	-0.13509
33	0xbca115ca	-0.01966371
34	0xbf0bd185	-0.54616576
35	0xbe8eff52	-0.2792917
36	0xbd10c056	-0.035339676
37	0xbf237c6b	-0.6386172
38	0xbbc39c93	-0.005969593
39	0xbdd2f06d	-0.10299764
40	0x3dd460e5	0.10370044
41	0x3e7b54a2	0.24544004
42	0x3d98d7d9	0.07463045
43	0x3ea45e7b	0.32103333
44	0xbdd72fcd	-0.10507164
45	0xbb232140	-0.0024891645
46	0x3da27646	0.07932715
47	0xbca6a16e	-0.020340648
48	0xbd0b0457	-0.033939686
49	0xbf2ec29b	-0.68265694
50	0xbe9c73c1	-0.30557063
51	0x3c5b46df	0.013383596
52	0x3d3a52bf	0.04548907
53	0x3d2f11b6	0.0427415
54	0x3f630a61	0.8868771
55	0x3e05952c	0.13045186
56	0xbe30bc0b	-0.17259233
57	0xbe28165a	-0.16414776
58	0x3e7c6e21	0.24651386
59	0xbe8b2b88	-0.2718165
60	0xbcbf105f	-0.023323236
61	0xbd4dea3c	-0.05027221
62	0x3fbbd37e	1.4673917
63	0x3e4f218a	0.20227638
64	0x3da8d806	0.08244328
65	0xbe8e851e	-0.27835935
66	0x3d84697d	0.06465433
67	0x3d585a0f	0.05282026
68	0xbe8183f1	-0.25295976
69	0xbea37a8e	-0.3192944
70	0xbdf484c6	-0.11939387
71	0x3ca847c3	0.020542031
72	0xbf028ef8	-0.50999403
73	0xbd128af4	-0.035777047
74	0x3eb5e197	0.35523674
75	0x3d765a8b	0.060144942
76	0xbd9642cb	-0.073369585
77	0xbda5651c	-0.08075926
78	0x3f6b9db2	0.920375
79	0xbd3eb3ae	-0.046558075
80	0xbeae33d0	-0.34023905
81	0x3b60c8dd	0.0034299411
82	0xbe4e5bba	-0.20152178
83	0xbdb99a05	-0.0906258
84	0x3e410046	0.1884776
85	0x3b2d6392	0.0026457054
86	0x3e4bf824	0.19918877
87	0x3ede5040	0.434206
88	0x3de1808e	0.11010848
89	0xbd810019	-0.06298847
90	0xbe5c1383	-0.21491818
91	0xbde8756c	-0.113505214
92	0xbdd74f27	-0.10513144
93	0x3eadbcd8	0.3393314
94	0x3eb970d8	0.36218905
95	0xbdecd8c4	-0.11564782
96	0xbe4b6a3a	-0.19864741
97	0xbc01d6c7	-0.007924742
98	0x3e585110	0.21124673
99	0x3cee6b2d	0.02910384
100	0xbfa92808	-1.3215342
101	0xbee650df	-0.44983575
102	0xbebe29ed	-0.37141362
103	0xbecc7de5	-0.399398
104	0xbe179837	-0.14804159
105	0x3c5cd94f	0.013479545
106	0x3e1be9e2	0.15225938
107	0xbcbfa0dd	-0.023392135
108	0x3c8d05bb	0.017214647
109	0x3d75f0be	0.060044043
110	0xbdc72c99	-0.09725303
111	0xbe3ccc1c	-0.18437237
112	0xbe5e6e8b	-0.21721856
113	0x3ee51ca1	0.44748405
114	0x3e10b83a	0.14132777
115	0xbe01025d	-0.12598558
116	0xbfcf1f4a	-1.6181424
117	0xbf4de20f	-0.80423063
118	0x3e76edea	0.24114195
119	0xbd86b190	-0.06576836
120	0x3e0fb6b9	0.14034547
121	0xbd242960	-0.04007852
122	0x3da4315e	0.080172285
123	0x3e8a2e65	0.2698852
124	0x3e34ecd1	0.17668463
125	0x3e9e5da1	0.30930808
126	0xbd6a36f0	-0.0571813
127	0x3e02df6b	0.1278054
128	0xbe9cf7b2	-0.30657727
129	0x3e01f5a8	0.12691367
130	0xbcb2635e	-0.021775898
131	0x3d705e13	0.058683466
132	0x3d806489	0.062691756
133	0xbd9ea504	-0.07746318
134	0x3d2eabcb	0.042644303
135	0xbdcae124	-0.099062234
136	0xbd948416	-0.07251756
137	0xbe258578	-0.16164196
138	0xbd230d40	-0.039807558
139	0x3d822101	0.06353951
140	0xbcf3e4b3	-0.029772138
141	0x3e21bcb6	0.15794644
142	0xbe3ac26b	-0.18238227
143	0x3f43c912	0.76478684
144	0xbccdfc88	-0.02514483
145	0xbdf72fcc	-0.120696634
146	0xbb9e7d11	-0.0048366864
147	0xbd89a149	-0.06720216
148	0x3c3f02d0	0.011658385
149	0xbbcc951d	-0.0062433616
150	0xbde5a0b5	-0.11212293
151	0xbc8174da	-0.01580279
152	0x3dd4b5fe	0.10386275
153	0x3d4eceee	0.050490312
154	0xbcc3b650	-0.023890644
155	0x3e0846b9	0.13308229
156	0xbdbb7460	-0.09153056
157	0x3e6a4fa1	0.22881939
158	0xbf5c7066	-0.86109006
159	0x3ebf5bb1	0.37374642
160	0x3ffb6427	1.9639939
161	0x3d8f4657	0.06995838
162	0x3daef1b0	0.08542192
163	0xbd723510	-0.059132636
164	0xbe6ac97e	-0.22928426
165	0xbd0a65f3	-0.033788633
166	0xbe5cee5e	-0.21575305
167	0x3e498b1c	0.19681972
168	0xbe19fe87	-0.150385
169	0x3e2deae6	0.16984138
170	0xbe183df6	-0.14867386
171	0xbd3f4140	-0.046693087
172	0xbd9c1b4d	-0.07622395
173	0x3e6cbbf6	0.23118576
174	0x3e4a251f	0.19740723
175	0xbdc83ad7	-0.09776848
176	0x3f6747f3	0.9034416
177	0x3d224b64	0.03962268
178	0x3dfcd1cc	0.12344703
179	0x3fa6fc3a	1.3045723
180	0x3d7c1dee	0.06155198
181	0xbea079d5	-0.3134295
182	0xbd042ff7	-0.032272305
183	0xbc80ec15	-0.015737573
184	0xbe877117	-0.26453468
185	0x3e601b15	0.21885331
186	0x3c9fae0c	0.019492172
187	0x3e9fa329	0.3117917
188	0x3f1cf571	0.61312014
189	0x3f8437bf	1.0329512
190	0x3c215e52	0.009849148
191	0xbe0f2dfc	-0.13982385
192	0xbe905a20	-0.2819376
193	0x3e318c5a	0.17338696
194	0x3db53c09	0.088493414
195	0xbe050c75	-0.12993033
196	0xbc97e7c5	-0.018543134
197	0xbd98c1de	-0.07458852
198	0xbe234af4	-0.15946561
199	0xbe007e35	-0.12548144
200	0x3dab07cf	0.08351099
201	0x3ebc6bfb	0.36801133
202	0xbe442714	-0.19155532
203	0x3fde3c0b	1.7362074
204	0x3d8fbe77	0.0701875
205	0x3e5c5cb9	0.21519746
206	0x3d486c9b	0.0489317
207	0xbd613510	-0.054982245
208	0x3d8f0a05	0.06984333
209	0xbdb861dd	-0.09003041
210	0x3e2369fa	0.15958396
211	0x3edb3106	0.4281084
212	0x3e030209	0.12793745
213	0xbdd5882c	-0.10426363
214	0x3b762978	0.0037561338
215	0xbe823740	-0.25432777
216	0xbde1ef83	-0.11032011
217	0xbda68fa6	-0.081328675
218	0xbeb64c65	-0.3560516
219	0xbcb4d7e6	-0.022075605
220	0xbe18a4b2	-0.14906576
221	0xbfa420b8	-1.2822485
222	0x3ecc10f1	0.39856675
223	0xbd56a385	-0.052402038
224	0x3e2b497f	0.16727255
225	0x3c7640c4	0.01503009
226	0xbe3091d3	-0.17243128
227	0x3e80d272	0.25160557
228	0x3db46c3b	0.08809706
229	0xbbb4f633	-0.0055225133
230	0x3e1de8ca	0.15420833
231	0x3c2d4c63	0.010577294
232	0x3b3eb5f9	0.0029100163
233	0xbf6ef925	-0.93348914
234	0x3db9419d	0.09045718
235	0xbe5f8a0b	-0.21830003
236	0x3eaf1614	0.34196532
237	0x3c42f929	0.011900225
238	0x3ebd59ab	0.36982474
239	0x3dc1f90d	0.09471331
240	0x3f2f3dd3	0.6845371
241	0x3bb5a26e	0.005543045
242	0x3b519f6d	0.0031985894
243	0xbd3723eb	-0.04471199
244	0x3da432f3	0.0801753
245	0x3e436f7e	0.190855
246	0x3cb2d297	0.021828933
247	0xbe8ee7c0	-0.27911186
248	0xbd61bd19	-0.05511198
249	0x3e628d79	0.2212428
250	0xbe06d4a4	-0.13167053
251	0xbd792116	-0.06082257
252	0x3e1be6b8	0.15224731
253	0x3e95e87d	0.29278937
254	0x3d93039e	0.07178424
255	0xbd31ac0f	-0.04337698

fc.bias f4 [4]
0	0xbea6d013	-0.32580623
1	0xbe8d5500	-0.27603912
2	0x3e99d035	0.30041662
3	0x3e4b106f	0.19830488
