LSTM/Data_2/LSTM9/model.pth (torch, 275939 bytes, 6 tensors)

lstm.weight_ih_l0 f4 [512, 3]
000000 8e 1e ea 3b 5f 9e 07 3d b9 c6 77 be d6 59 d5 bd
       0.0071447557 0.03311002 -0.241969 -0.104175255
000010 d1 9d 4c 3d 2f 4a c2 bd e2 c3 46 bd c1 1d 20 bc
       0.049955193 -0.09486806 -0.048526652 -0.009772719
000020 38 22 20 be d1 40 8c 3d 29 59 46 be b8 9f 12 be
       -0.15638053 0.068483 -0.1936995 -0.1431874
000030 d1 dd 52 be 81 94 ed 3c 44 2f 22 bf 4f 9d c2 be
       -0.20592429 0.029001476 -0.6335337 -0.38010642
000040 0f 88 48 3e 72 f5 84 be b3 7c fb 3d 1a 2a 09 be
       0.19583152 -0.2596851 0.12279644 -0.13394967
000050 e1 28 50 3e d1 16 d0 bc 33 66 5d be a3 dc 7a 3c
       0.20328094 -0.025401505 -0.21621017 0.015311393
000060 4e a8 be bc 6a 9b 3e bd bc 70 6e 3e f3 43 16 be
       -0.023273613 -0.046534933 0.23285192 -0.14674358
000070 6e 57 6a 3e 00 f2 ef be 76 18 42 be e8 59 8a be
       0.22884914 -0.4686432 -0.18954644 -0.27021718
000080 e5 f3 96 be 12 30 3f 3e 50 13 64 3c e3 ec 75 3d
       -0.29482952 0.18670681 0.01392062 0.060040366
000090 bd d9 d1 3d b7 de 4a bd 75 d2 98 be 05 aa 36 be
       0.102466084 -0.049528804 -0.29848066 -0.17838295
0000a0 c9 eb 93 3d 39 15 d3 be 94 6e 21 be 2a ed a3 bb
       0.07222707 -0.4122713 -0.15764838 -0.0050026374
0000b0 bb 3c 70 be fa 28 2a 3e ef 3e c8 bd 3b 9c 3e 3e
       -0.23460667 0.16617194 -0.09777629 0.18614285
0000c0 14 ff 62 3b 07 82 30 be 64 3d 5d 3e 7e 00 70 bd
       0.0034636902 -0.17237101 0.2160545 -0.05859422
0000d0 ce ab cc 3c 64 ad 8b bb 3c ee 6a bd a9 84 98 bd
       0.024984267 -0.004262613 -0.057356104 -0.07447178
0000e0 6b e4 a9 be 18 80 fd bc 64 89 5b bd 29 58 bc bc
       -0.33182082 -0.030944869 -0.053597823 -0.022991257
0000f0 19 9b 1d bc 4f 47 cc bd 55 46 bb 3d af 2d 28 bc
       -0.009619498 -0.099745385 0.09144274 -0.010264798
000100 0e d4 04 be 79 5d ef 3c 0f 66 99 3d 6f 72 8d 3d
       -0.12971517 0.029219376 0.07490169 0.06906592
000110 7c b4 ee 3e 10 f5 03 3f cc a8 e3 3e b2 95 4a 3e
       0.46622074 0.5154581 0.4446472 0.19783667
000120 aa ad 16 3d a7 f1 91 be 7d 10 4a 3d fb 46 15 be
       0.036786713 -0.2850468 0.04933213 -0.14577858
000130 38 2d bd 3b 1d 72 15 bf b9 09 34 3e 43 ca fa bc
       0.0057732128 -0.5837725 0.17581834 -0.030614024
000140 c8 76 ff 3e 57 f3 e8 bd 5e 6c 80 be dc bf 21 be
       0.4989531 -0.113745384 -0.25082678 -0.15795845
000150 fe 55 84 bd 10 b2 92 3c 1f 64 d5 be 29 70 81 bd
       -0.06461714 0.017907172 -0.4167795 -0.06320221
000160 c9 f9 83 3c c3 55 47 3a 00 05 d4 be 12 eb af 3d
       0.016110318 0.0007604027 -0.41410065 0.08589758
000170 06 7e d8 be 98 12 fc 3c c0 31 d5 be c6 9b 84 be
       -0.42283648 0.030770585 -0.4163952 -0.25900096
000180 78 0e aa be 71 a6 b9 3b 74 62 2e be d1 a4 a0 be
       -0.33214164 0.0056655933 -0.17029744 -0.31375745
000190 31 c9 3f 3e bb 7a c7 be 00 2b a2 bd 59 7b 13 bd
       0.18729092 -0.38960823 -0.07918358 -0.036006305
0001a0 27 22 1e bf 01 62 c0 3d 23 2c 8a 3e 78 ee b4 3d
       -0.6177086 0.09393693 0.269868 0.08834547
0001b0 66 a6 a4 be 15 97 18 be 3c c8 e9 be 49 12 03 be
       -0.32158202 -0.14901383 -0.4566058 -0.12799944
0001c0 d0 49 25 be b4 ba ca be 6a 64 fc 3d 90 90 31 be
       -0.16141438 -0.39595568 0.1232384 -0.17340302
0001d0 05 4b 32 3e c5 c9 18 3e 72 a2 b2 be 13 8a 29 bf
       0.1741143 0.14920719 -0.3488956 -0.6622631
0001e0 0c 63 1b be bd 72 8e bd f6 c1 06 bf 60 9b 05 be
       -0.15174502 -0.06955478 -0.5263971 -0.13047552
0001f0 e6 f5 f9 bd 8a aa b2 bd df fa 57 3e 0d 5f ee bd
       -0.122051045 -0.08723934 0.21091793 -0.11639223
000200 a7 ab b1 3e 3d a6 ec bd d8 a5 60 3d 58 cd 9c be
       0.34701273 -0.11555145 0.05484566 -0.30625415
000210 a2 8e 6b be 17 31 27 bd f6 b6 01 3e 2a bb 94 3c
       -0.23003629 -0.0408183 0.1266745 0.018155653
000220 ea 76 0d be be 57 96 3d 90 2f 38 3f 2d 3e 31 bf
       -0.13814893 0.07340954 0.71947575 -0.692355
000230 d6 c3 63 bd 85 a7 7d be 12 9b 16 be 41 23 a8 3b
       -0.055606686 -0.24770935 -0.14707592 0.0051311557
000240 64 a8 20 3e e8 5f 0e be 4a 08 c6 3d 51 21 4d bd
       0.15689236 -0.13903773 0.0966955 -0.0500806
000250 8f 9e ec bc a9 0e 58 bd 56 69 8e be f9 68 21 3c
       -0.0288842 -0.052748356 -0.2781474 0.009851688
000260 34 9c 12 bf 88 3c 22 3e e4 3e f8 bc 91 21 a1 be
       -0.572696 0.15843403 -0.030303426 -0.31470922
000270 cb 97 05 bd 12 1b ec 3c b9 07 b9 bc 3b c5 80 bd
       -0.032615464 0.028821502 -0.02258669 -0.06287619
000280 25 eb 3f 3d bf b7 82 3e 32 29 af 3b a7 54 84 be
       0.04685511 0.25530812 0.005345487 -0.25845835
000290 15 3b d8 be 31 73 1c 3e 9a 8a 6f bd c5 cb 1b bd
       -0.42232576 0.15278317 -0.05848179 -0.038036127
0002a0 a8 33 e6 bd a2 a0 2b 3b da 2a a9 be a3 c1 95 3d
       -0.112403214 0.0026188274 -0.33040506 0.07312324
0002b0 7b 23 87 bc df c2 46 3d 55 2b ac bc b8 8f 24 be
       -0.01649641 0.048525687 -0.021016756 -0.1607045
0002c0 8b 27 85 3e 4a 1e 55 3e 5b c7 97 be 0c fb 36 be
       0.2600673 0.20812336 -0.29644284 -0.17869204
0002d0 be df 6c be b7 e7 b1 be 52 e0 14 be b4 29 1d 3f
       -0.23132226 -0.34747097 -0.14538696 0.6139176
0002e0 5f 99 5c 3e e2 87 67 bd 8c eb f2 39 e8 1f 27 bd
       0.21542881 -0.056526072 0.00046333333 -0.040801913
0002f0 20 cc a7 3e 12 53 c0 bd 18 b3 db be 07 ab 6d be
       0.32772923 -0.093908444 -0.42910075 -0.23209773
000300 00 43 45 be d1 2b cb 3b 19 04 e1 be e0 7d 9c 3d
       -0.1926384 0.0062002917 -0.4394844 0.07641196
000310 f9 23 3c be 4e c1 61 3e 38 4a b4 bd 7e 49 0b be
       -0.18373097 0.22046396 -0.088032186 -0.13602254
000320 c1 0d 91 be 2e 85 be bd e9 0c 87 3e 26 43 ce bd
       -0.28330806 -0.09302746 0.26377037 -0.10071401
000330 75 a9 5f be 46 e1 61 bc dd f2 c6 bd c4 21 a0 3b
       -0.21841986 -0.0137866195 -0.09714291 0.0048868377
000340 bc 29 5d be 58 ee 7e 3d b8 a5 aa bd 2c dc 3e be
       -0.21597952 0.06223902 -0.083323896 -0.18638676
000350 69 5a c5 be cb ec a2 bd 9c 5d 9d 3c ac a0 a7 3c
       -0.3854554 -0.07955321 0.019209675 0.020462357
000360 db 7d 99 be 0f 3b f7 3d 78 e2 02 be 03 f9 a2 bc
       -0.29978833 0.120718114 -0.12781703 -0.019894129
000370 2f 41 83 be 3e 62 b0 bd 82 54 b1 3d b1 65 ff bd
       -0.2563567 -0.08612488 0.08658697 -0.12470568
000380 f3 ef 82 3d 26 64 f2 bd ee 66 b2 be f6 94 87 3d
       0.06393423 -0.11835508 -0.34844154 0.06620209
000390 d0 0a 44 be 72 c5 01 3c 59 b8 a3 be fd b9 1e bb
       -0.1914475 0.00792061 -0.31976584 -0.0024219744
0003a0 79 40 33 bd dc f0 4e 3e ee b7 8f 3e f0 30 4b 3d
       -0.043762658 0.20209068 0.28070015 0.049607217
0003b0 97 6d c3 bc a6 cd b0 be db 5b 29 be ea 2e 13 bf
       -0.023855967 -0.34531897 -0.16538946 -0.5749346
0003c0 f9 6e 12 be 19 bd 42 3c 19 d7 16 3d 79 6f 74 be
       -0.14300145 0.011885905 0.036826227 -0.23870648
0003d0 79 e6 e9 bb 1d 23 ba be 14 4b 39 be 5f fc 88 3d
       -0.00713807 -0.36354914 -0.18095046 0.06688761
0003e0 6c 72 0b be 45 f2 f7 3d ae cb 42 be fb 68 b3 3e
       -0.13617867 0.12106756 -0.1902301 0.3504103
0003f0 50 ce 07 bc d3 e2 b3 bd 1c 10 05 bf 34 12 3f bd
       -0.008288935 -0.08783498 -0.51977706 -0.04664822

lstm.weight_hh_l0 f4 [512, 128]
000000 d7 b5 9a 3e 92 3d 1c bc 21 02 91 3c 38 bd a8 be
       0.30216858 -0.009536164 0.01770121 -0.32956862
000010 0f 28 b0 3e ab 0a c8 3a 3d 1a 0c 3d 9f a7 81 bd
       0.34405562 0.0015261968 0.03420471 -0.06330799
000020 a3 5c da 3c e3 4a 9f 3d 5a f7 51 be 0b 15 ff bc
       0.0266555 0.077779554 -0.20504513 -0.031137964
000030 4a 0d 4d 3e 00 30 e8 bc 65 cf 0c be 86 c6 a9 3d
       0.200246 -0.0283432 -0.1375099 0.082898185
000040 17 12 7a be 52 3b 0f 3e 26 99 61 be 37 76 06 3e
       -0.24420963 0.13987473 -0.22031078 0.13131033
000050 bb 3d eb bc ab 93 44 3e 9a 6d d4 bd 50 48 a9 bd
       -0.028715959 0.19196956 -0.10372467 -0.08265746
000060 38 94 25 be 5f c5 95 3d 3d ad 85 3e a4 92 54 3d
       -0.16169822 0.07313036 0.26108733 0.05189766
000070 d5 03 57 bc cc e2 6e bb 19 48 1f 3e 0e b4 07 be
       -0.013123472 -0.00364511 0.15554847 -0.13252279
000080 ff 1b 8e 3c d1 53 a2 3c 5f 99 fb 3d 5c 2f 33 3e
       0.017347334 0.019815357 0.122851126 0.17498535
000090 d7 9b 3f ba 6b 8b be bd b5 42 86 be cc 89 b8 bc
       -0.0007309294 -0.093039356 -0.26222768 -0.022526644
0000a0 6b 41 0c 3e d6 0d a6 3d 51 ed b6 3e 9e a9 cb 3d
       0.1369683 0.08108108 0.35727933 0.09944461
0000b0 31 22 34 3e c8 c5 0e be 86 c7 b5 3d 4b 56 6b 3e
       0.17591168 -0.13942635 0.08875947 0.22982137
0000c0 3a 7e 93 3d fc 9b 96 3e 61 c7 fb bd 5d 73 85 3d
       0.0720181 0.29415882 -0.12293888 0.065161444
0000d0 d4 1f 3d 3d df b3 f3 3d b3 4a f4 3d ea 69 47 3b
       0.04617293 0.11899542 0.1192831 0.003042812
0000e0 9c fa 26 3e fc 9d 8c 3d 9e 9b 6d be c7 79 4e 3d
       0.16306537 0.06866071 -0.23203894 0.050409105
0000f0 ee 01 80 be d5 76 b8 3d 51 c4 9b 3e be 54 7b 3e
       -0.25001472 0.090070404 0.30423215 0.24544045
000100 fa 29 25 be c3 96 79 3d 4b b3 55 3d 36 63 b9 bd
       -0.16129294 0.060934793 0.05217294 -0.09052126
000110 57 a3 76 3e 31 1a f2 3d e4 cc bd 3e 6e 71 2a 3d
       0.24085747 0.11821402 0.37070382 0.04161208
000120 1a 21 6f 3e 73 fd 3a be 60 50 7d 3e dc 0d 9a 3b
       0.23352471 -0.18260746 0.24737692 0.004701359
000130 c0 c5 a2 3e fc 1f a6 3d ba 2a 15 3d a6 01 ce 3d
       0.31791496 0.08111569 0.0364177 0.10058908
000140 2b 37 16 be 35 dd 4f be 44 0e d1 3b b1 f4 a7 3c
       -0.14669482 -0.20299228 0.0063798744 0.02050242
000150 5b 23 1b 3c f8 ae e6 3c 15 d4 46 be 11 1d 57 be
       0.009468879 0.028159603 -0.1941684 -0.21007182
000160 7a 27 bb bd 36 a1 e4 be 84 a7 fb bc a4 24 09 bb
       -0.09138389 -0.44654244 -0.030719526 -0.002092638
000170 75 d0 3e 3e 49 85 c5 bc ab 6e 0d be b5 c0 ee 3d
       0.18634208 -0.024111407 -0.13811748 0.1165785
000180 dc b3 bb 3c 36 b3 24 3d a4 5a c4 bd de 44 1d bc
       0.022912912 0.04020997 -0.09587601 -0.009598939
000190 50 a4 a6 3e 4b 47 3c 3d a7 1e b9 3d df 01 82 3d
       0.32547235 0.045966428 0.090390496 0.06348013
0001a0 08 eb 15 be 2c 44 9e 3d 86 5f 0a bd 03 44 01 3e
       -0.14640439 0.077278465 -0.033782504 0.126236
0001b0 7d 10 be 3c da c4 11 3d c7 94 81 3d dd a3 dd 3d
       0.023201222 0.035588123 0.06327205 0.1082227
0001c0 11 2d d7 3d 63 36 c1 3e 53 09 39 3e 31 f4 39 3d
       0.105066426 0.37736806 0.18069963 0.045398895
0001d0 00 3e 74 3d 9f 0f e1 bc 2c 49 2c 3e db 80 00 3e
       0.05962944 -0.027473269 0.16824788 0.12549154
0001e0 d4 33 4c 3e be 39 d2 3d 5e c2 75 3e 44 c8 bc 3d
       0.19941646 0.1026492 0.23999926 0.09217885
0001f0 24 7c 08 3d 5d 73 6e be 05 92 40 3d f3 4f 90 3d
       0.033321515 -0.23286195 0.047014255 0.07046499
000200 b8 1f 98 3e 0d ad 49 3d f1 8b 5e 3e c4 a8 f6 bd
       0.297117 0.0492373 0.21733071 -0.12043908
000210 cc 7a 6e 3d 54 c1 d7 3b ec 80 86 be 5c d3 df bb
       0.058222577 0.006584326 -0.26270235 -0.006830616
000220 6e 91 f6 3d a1 cc 96 3e 28 2d 8c 3e de 77 3a be
       0.12039457 0.29452994 0.273782 -0.18209788
000230 f2 74 16 be 3d f0 cf 3e a2 5c cd 3d 34 cd fc bc
       -0.14693049 0.40612975 0.10027434 -0.030859567
000240 46 06 0e be bc 38 89 bd 43 d7 09 3e 23 fc 23 3e
       -0.1386958 -0.06700274 0.13461022 0.16014151
000250 59 23 66 3e 0e f0 19 3d 67 78 cf 3b c1 3e 83 bd
       0.22474422 0.03758245 0.0063314917 -0.06408454
000260 ab 1e 72 bc e8 6b d4 3e c6 e3 e0 3d f1 4d 0a be
       -0.01477782 0.41488576 0.10980944 -0.13506295
000270 9b 2c f1 be 93 bd 22 3e 59 9c bf 3d 09 07 bc bc
       -0.47104344 0.1589263 0.09355993 -0.022952573
000280 1c c3 27 3e 0a 23 51 3e d4 b9 0d bf 90 6e a3 3d
       0.16383022 0.20423523 -0.55361676 0.079800725
000290 85 9a 2c bc 2f e9 a6 3d a4 90 80 3e 92 ad 89 3e
       -0.010534887 0.08149945 0.25110352 0.26890236
0002a0 ce f7 71 be af 9b ef 3c 9b 42 86 be bc bd b3 bc
       -0.23629686 0.02924904 -0.2622269 -0.021941058
0002b0 66 9a c9 bd 57 84 6e be 92 d2 18 3e 7d 4d 72 3e
       -0.09843902 -0.23292671 0.14924076 0.23662372
0002c0 92 ad b2 bd 71 6c 1a bd e1 86 71 be 0e 06 04 3f
       -0.08724512 -0.037701074 -0.23586608 0.5157174
0002d0 55 c3 a6 3e d1 56 8a 3d 54 da cc bd c9 e0 b6 3d
       0.32570902 0.0675484 -0.1000258 0.08929593
0002e0 d8 19 c5 3e 27 0d df 3d 70 43 24 bd 4a 04 09 be
       0.3849628 0.108911805 -0.040103376 -0.13380542
0002f0 f9 27 16 be 2b bb 2c 3e d2 3b b6 3c 8e 1a 16 3e
       -0.14663686 0.16868274 0.022245321 0.14658567
000300 65 01 a1 be a6 88 e1 bd 2b b9 38 be ec 66 65 bd
       -0.31446376 -0.11012392 -0.18039386 -0.056006357
000310 3e a1 92 3d 88 2d c6 bd dd 41 82 be af c4 16 be
       0.07159661 -0.09676653 -0.25440875 -0.14723466
000320 91 84 38 3e 46 cb a5 3d b3 ee 03 be 4f c8 da 3c
       0.1801932 0.08095412 -0.12884025 0.026706843
000330 77 44 9c be 12 4e c3 bb b1 d2 9b 3e fa e2 df bd
       -0.30520985 -0.0059602344 0.30434182 -0.10931964
000340 c4 c6 56 3d 61 79 6f 3d 36 99 84 3d 1e 6e b6 bd
       0.05243565 0.058465365 0.06474535 -0.08907722
000350 a6 b7 8a 3e 2b aa 65 bd 5b 03 d9 bd da 1b 5f 3e
       0.27093238 -0.056070488 -0.10596343 0.21787968
000360 12 83 6f 3e b8 b6 09 3d d8 43 11 3d a8 3a ac be
       0.23389843 0.03362152 0.03546509 -0.336385
000370 4f a2 ae be 1b 60 39 bd 3f 77 3f be 7b ba 5c 3d
       -0.34108207 -0.04525767 -0.18697833 0.05388878
000380 87 96 94 3d f9 63 48 bd 53 cf 11 3e 8d 3c 97 3e
       0.07255273 -0.048923466 0.14239244 0.29538384
000390 57 dc 44 3c 98 ad d5 3d 60 fe cd 3c a8 62 17 be
       0.012015424 0.10433501 0.02514571 -0.14783728
0003a0 8f 18 18 3e ce 42 01 bc e9 6f 56 bd e7 f4 82 bc
       0.14853118 -0.007889463 -0.05235282 -0.01598592
0003b0 a8 51 82 3d 0c 0f 62 bc 60 60 4a be 87 4f ef bd
       0.06363231 -0.013797533 -0.19763327 -0.116850905
0003c0 9c e1 87 3d 5d 0c 31 be 14 2a 1e be 8c 31 e6 bd
       0.066348284 -0.17289872 -0.15445739 -0.11239919
0003d0 ca cb b1 bd e0 25 5c be c5 10 0a bc c6 1a 73 bd
       -0.08681448 -0.21498823 -0.00842685 -0.059351705
0003e0 71 c1 90 3d ca ab 33 be c7 17 33 3d ab a1 ad ba
       0.07068146 -0.17546001 0.043723848 -0.0013247033
0003f0 51 59 c8 bd 1a 41 04 be 51 b6 5d 3d 68 2c 3d bd
       -0.09782661 -0.1291546 0.05412895 -0.046184927

lstm.bias_ih_l0 f4 [512]
000000 78 17 be 3d 38 54 ba 3c b6 c2 f8 bc b4 bc b6 bd
       0.0928182 0.022745237 -0.030366283 -0.08922711
000010 22 4b 8d bd e9 51 32 bd 5a b0 6e bd 8d dd 07 be
       -0.06899096 -0.043535147 -0.05827365 -0.13268109
000020 af 5f eb bd 4f e3 11 bd 97 10 44 be d7 87 ac 3d
       -0.114928596 -0.03561717 -0.19146954 0.08424347
000030 31 b6 41 bd 12 d3 37 bd 04 b8 e0 bd f5 c7 27 bd
       -0.047292892 -0.044879027 -0.10972598 -0.04096218
000040 59 e5 26 bd 48 e4 ac 3d b8 59 14 be 4d fb 40 3c
       -0.040746067 0.08441979 -0.1448735 0.011778665
000050 0a 36 ac 3d a4 c1 02 be 15 48 1b 3e 46 ba e0 3e
       0.08408745 -0.1276918 0.15164216 0.43892115
000060 be 3b d7 bd e1 ff db bd 03 c1 4a 3d a9 32 6b be
       -0.10509442 -0.107421644 0.049500477 -0.22968544
000070 c2 37 49 bd 81 71 af 3d a6 9a 72 bd 18 b2 1c be
       -0.04912544 0.08566571 -0.059229515 -0.15302312
000080 2a 5d 11 be aa 50 fe bd f4 64 54 be 23 58 18 3e
       -0.14195696 -0.12417729 -0.20741636 0.14877371
000090 cf 95 23 be e0 42 12 be cf 94 20 bd e0 08 19 be
       -0.15975116 -0.14283323 -0.039204415 -0.14944792
0000a0 0a 21 ac bd b9 c9 4b be 63 dd b1 3d 27 dc a8 3c
       -0.08404739 -0.1990117 0.08684804 0.02061279
0000b0 da 0b 64 bd 6f 3a 0e be cb 21 82 3d 6c e7 85 be
       -0.055675365 -0.13889478 0.06354102 -0.26153123
0000c0 22 8d da 3d a5 5c da ba e1 8d 18 be f5 d4 01 3e
       0.1067145 -0.001665969 -0.14897873 0.12678893
0000d0 8f 30 6c 3d 84 1f 9e bc 40 30 3e be 1e ac a1 3d
       0.057663497 -0.019302137 -0.18573093 0.07894157
0000e0 9a 83 31 be 1b 4e ad bc 24 1d 7a bd f5 44 a7 bd
       -0.17335358 -0.021155408 -0.061062947 -0.081674494
0000f0 41 4c b5 be a5 95 e1 3e dd 52 26 bc e0 1a 57 be
       -0.3540974 0.44059482 -0.010151592 -0.21006346
000100 8a 3a 3f be c1 65 f2 bc e4 cf 92 bd 2a 66 a9 3d
       -0.18674675 -0.029589536 -0.07168558 0.082714394
000110 11 32 a1 3c bf d4 0b be be 1d c5 bd 4e 83 49 ba
       0.019677194 -0.13655375 -0.096248135 -0.00076871074
000120 97 17 23 be 02 d6 53 be 1d 8c 9c 3a c1 66 4b be
       -0.15926968 -0.20687106 0.0011943612 -0.19863416
000130 39 8d 10 bd 00 eb 51 3d ad c9 f3 3d 9d 3d 56 be
       -0.03529093 0.051249504 0.11903701 -0.20921941
000140 ad 68 46 bd c4 e3 10 be 38 40 09 be cd 15 d2 bd
       -0.04843967 -0.14149386 -0.13403404 -0.102580644
000150 56 b6 c8 bd 1d cc 62 bd 01 ca 53 be d4 36 48 bd
       -0.09800403 -0.05537044 -0.20682527 -0.048880413
000160 b7 f9 01 be 1c c0 07 3d 97 3f 6e be 48 d2 fc bb
       -0.12692915 0.033142194 -0.23266445 -0.007715497
000170 bb 93 3b be 6b 8a f1 3b ea c5 03 be bf dc 9c be
       -0.18318073 0.007371237 -0.12868467 -0.30637166
000180 1c b7 52 bd 6e c1 b1 bd 9f f7 40 be 41 07 40 bd
       -0.051444158 -0.08679472 -0.1884446 -0.046881918
000190 c4 60 fb bd 02 fd 04 be 6d 2e 13 be 04 9f b8 3d
       -0.12274316 -0.1298714 -0.14373179 0.09014705
0001a0 bf 68 f7 bd 4a 78 56 bc d9 45 6a bd 86 ee 1b be
       -0.120805256 -0.013090203 -0.05719552 -0.15227708
0001b0 b8 0f 6f 3d fc 01 13 be f6 93 96 3d 62 15 23 be
       0.0583646 -0.14356226 0.0735244 -0.15926126
0001c0 17 43 4d bd b5 e1 19 bd d9 ae f1 bc b1 e7 34 bc
       -0.05011281 -0.037568767 -0.02950232 -0.011041568
0001d0 3b 9d a6 bd 17 06 bd bd 31 35 73 bd e2 8f f8 bd
       -0.08135458 -0.09229677 -0.0593769 -0.121368185
0001e0 de 47 db bc ef e6 fc bd cf 02 93 be f9 61 d9 3d
       -0.026767667 -0.123487346 -0.2871308 0.1061439
0001f0 00 6f 8b 3d 25 cd 48 be e7 9f 58 be 7b 85 83 3d
       0.06808281 -0.19609506 -0.21154748 0.06421944
000200 bb 97 3d 3e c6 66 ca bd 28 e8 13 3d d4 11 56 bb
       0.18514912 -0.09882884 0.036110073 -0.0032664435
000210 00 fb 34 be bc 39 1c be 1a 95 f9 3c 01 43 0e bd
       -0.17673874 -0.15256399 0.030466605 -0.03473187
000220 c2 29 83 bd 4d 9f ca 3d d5 d4 41 be 7e a6 27 3c
       -0.06404449 0.098936655 -0.18928845 0.010232566
000230 3e 0e 3b 3d ed a6 0e be 32 d0 d8 3d ff da 25 bd
       0.04566788 -0.13930865 0.10586585 -0.040492054
000240 57 9e c6 bd 41 d6 75 bd 3a 34 f8 bd 0a 79 56 3c
       -0.0969817 -0.06001878 -0.121193364 0.013090381
000250 21 da 11 3e a2 57 a8 3d ef 11 44 3d f6 36 87 3d
       0.14243366 0.0821984 0.047868665 0.0660228
000260 6c f9 73 bd 45 36 fb bc 6c 58 48 3e 6d df 87 bd
       -0.05956404 -0.030665526 0.1956498 -0.06634412
000270 9a 2e 28 be 4a dd 45 3e 9c b2 ea bd fb 8a 2f bd
       -0.16424027 0.19322696 -0.11459848 -0.04285715
000280 8a 60 c4 bd 5b d1 51 bd 00 99 a9 bd 43 d9 2d 3d
       -0.09588726 -0.051225048 -0.082811356 0.042443525
000290 7e 6c 77 be e3 48 94 bd 21 90 68 bd e8 07 7e bd
       -0.2416248 -0.072404645 -0.056778077 -0.06201926
0002a0 d8 a7 37 bd 14 1f ec bd e8 42 d9 3d 43 26 5b bc
       -0.044837803 -0.11529365 0.106084645 -0.0133758215
0002b0 9c 08 a2 bd 6b f4 5b bd f0 c5 98 3c 11 2a 17 be
       -0.07911798 -0.053699892 0.018649071 -0.14762141
0002c0 27 5f c9 bd 7b 33 2d bd 6f 01 5a be 69 d4 f9 3d
       -0.09832602 -0.042285424 -0.2128961 0.12198717
0002d0 1f 56 09 3d 7a 47 39 3e 6f f0 99 bb 0b af 88 bd
       0.033529397 0.18093672 -0.0046978514 -0.06674012
0002e0 b7 e3 bb 3c a9 de 48 3d 68 4d fe bd a6 c3 1d be
       0.022935731 0.04904047 -0.12417108 -0.15406665
0002f0 3e 39 16 be da dc 1c 3d c3 dd 27 3c 3e 52 a7 bd
       -0.14670274 0.038296558 0.010245743 -0.08169983
000300 4e 90 c6 bc 95 f6 9f bd d2 de 45 be 58 32 8c bd
       -0.024238732 -0.07810704 -0.1932328 -0.0684554
000310 55 0c 24 3c 52 09 f7 bd 93 9e a2 bd 1c b5 f0 3c
       0.010012706 -0.120623246 -0.07940402 0.029383235
000320 4c 1c 75 bd 64 02 94 bd d5 1d 52 bc cb 88 51 3d
       -0.05984144 -0.072270185 -0.012824495 0.051155847
000330 95 2a 89 3d 19 00 81 3d 5b be 06 3d 3c c9 16 be
       0.06697575 0.06298847 0.03289638 -0.14725202
000340 fe 2a 90 3b 5f 81 72 bc c5 dd 9f 3d 2c 72 1a 3b
       0.0043996563 -0.014801352 0.07805971 0.0023566587
000350 8d fb 07 bd b4 98 21 be 3a 28 2b 3c b9 5d 1b 3d
       -0.033198882 -0.15780908 0.0104466025 0.037931178
000360 62 82 79 bd 9b 1d ef bd 2e f9 59 be 2a ad d7 3d
       -0.06091536 -0.11675569 -0.21286461 0.10531075
000370 88 61 a0 bd fa a5 e6 bc 24 03 5a bd 38 4e 0b be
       -0.078311026 -0.028155316 -0.05322565 -0.13604057
000380 ca a9 f0 3c f5 2c a0 bd 75 a1 b8 bd c8 51 b2 3d
       0.029377837 -0.07821075 -0.090151705 0.08707005
000390 ae a1 5d 3d 28 fd 9b bd 5f ea d7 bd ab 46 72 3c
       0.054109268 -0.07616645 -0.105427496 0.014787356
0003a0 70 b2 22 bc 93 2a 00 bc c1 8d 8a bd 35 86 0a be
       -0.009930238 -0.0078226505 -0.06765319 -0.13527758
0003b0 ba 19 0e 3e 8b 52 40 be 4f 5b b1 3d f8 be 23 be
       0.13877001 -0.18781488 0.08659994 -0.15990818
0003c0 62 f2 45 bd 25 e6 dc bd e8 12 79 3c 8b 92 b6 3c
       -0.048326857 -0.10786084 0.0152022615 0.022286674
0003d0 d3 94 ba bd 5c 3b 6a bd a0 a3 10 bd 33 3a 1d bd
       -0.09110417 -0.057185516 -0.035312295 -0.03838558
0003e0 f0 c4 79 bd 31 a1 02 be b0 9d 4b be ea a6 7b bc
       -0.06097883 -0.12756802 -0.19884372 -0.01535962
0003f0 9b 53 89 3d 55 bd 52 bd d9 72 61 be d8 50 32 3c
       0.067053996 -0.051450092 -0.22016467 0.010883532

lstm.bias_hh_l0 f4 [512]
000000 c0 30 cf 3a 51 09 1e 3c 75 04 a5 bd dd 7b f9 bc
       0.0015807375 0.009645776 -0.08057491 -0.03045457
000010 93 f0 59 bc 12 81 07 be 16 19 fe bc 19 f0 50 be
       -0.013301986 -0.1323283 -0.031017821 -0.2040409
000020 0e 8b 99 bd ba 90 24 bd ae de 8b be 35 7e cf 3d
       -0.07497226 -0.040177085 -0.2731833 0.10131494
000030 1b 31 81 3a 91 85 f4 bd 6a b0 db bd 7c 36 33 bb
       0.0009856554 -0.11939538 -0.10727008 -0.0027345708
000040 52 57 5d bd 09 b1 da 3b 6d 22 0a be fe bf 06 bc
       -0.054038353 0.0066739363 -0.13489695 -0.008224485
000050 df fb 75 bd 95 60 06 be a5 d0 f9 bb 30 5c d7 3e
       -0.060054656 -0.1312278 -0.0076237493 0.4206252
000060 4a eb 3f bd a8 6b 20 be 5d de 0e 3e dc de 86 be
       -0.04685525 -0.15666068 0.13952012 -0.26341903
000070 92 f8 dc bd 92 4d 21 3c e4 f2 8e bd 54 e2 67 be
       -0.107895985 0.009845154 -0.069799215 -0.22644931
000080 71 ee fe bd 24 cb 80 bd 18 36 1b be e1 d9 01 3e
       -0.12447823 -0.06288746 -0.15157354 0.1268077
000090 b7 23 7f be bf 7b 78 bd 78 5e e8 3c 1a 9c 22 be
       -0.24915968 -0.06066489 0.028365359 -0.1587986
0000a0 f3 b2 6c be a6 9e 0a be c3 86 4c bc 9e 23 77 bd
       -0.23115139 -0.13537082 -0.012483302 -0.0603367
0000b0 6d c3 64 be f5 bb fe bc 04 eb f8 bc 22 98 14 be
       -0.22340174 -0.031095484 -0.030385502 -0.14511159
0000c0 e4 29 e5 3c 62 25 1f bc 00 b2 b4 bd 48 f6 5e 3c
       0.027974077 -0.009713503 -0.08823013 0.013608523
0000d0 4e 43 53 3d 51 92 80 bd 18 80 de bd 3e 86 36 3d
       0.05157786 -0.06277908 -0.10864276 0.044561617
0000e0 c2 0e d2 bd 9b ed ee bc 13 f2 ee bd f5 95 f2 bc
       -0.10256721 -0.029166033 -0.11667266 -0.02961252
0000f0 fd fb 98 be 11 4e dc 3e 41 aa 6a bd aa d1 6b be
       -0.29879752 0.4302831 -0.057291273 -0.23029199
000100 95 01 55 be 1a 1d da bd d4 67 8c bd 5c 61 90 3d
       -0.20801385 -0.10650082 -0.06855741 0.0704982
000110 f1 02 0e be 2b 8d 04 bd 93 6c 31 be ca 41 9c bd
       -0.1386831 -0.03236119 -0.17326574 -0.07629736
000120 2e 3b 1e be 14 7f f4 bd ef d1 d4 bd 95 17 40 be
       -0.15452263 -0.11938301 -0.10391604 -0.18758996
000130 14 4c c2 3c 53 58 c1 3c fd fe e0 3d 28 85 5c be
       0.023717918 0.023601687 0.10986135 -0.2153517
000140 00 af 99 bd ad 15 f3 bd 78 a3 82 bd a6 4f 95 3c
       -0.07504082 -0.11869369 -0.063788354 0.018226456
000150 f3 f5 b8 bd d9 a3 d9 bd 34 ed da bd b5 6a 25 bd
       -0.09031286 -0.106269546 -0.10689774 -0.040384967
000160 1b 95 33 be 40 d1 ea bd 46 4d 8a be 6e df ab bd
       -0.17537348 -0.114656925 -0.2701208 -0.08392225
000170 46 1f 99 be 41 c5 00 be c7 56 e8 bc 1c 32 22 be
       -0.29906672 -0.12575246 -0.028361691 -0.15839428
000180 19 4b 36 3c 51 48 7a bd 0c 72 b0 bd 3b e5 18 bc
       0.011126303 -0.061104123 -0.08615503 -0.009331997
000190 80 93 f4 bd 01 0a b5 bc 9f 86 1f be 33 39 95 bd
       -0.11942196 -0.022099497 -0.15578698 -0.072863005
0001a0 c2 f0 3a be f1 0a 45 bd d3 ff c6 bd 11 69 64 be
       -0.18255904 -0.048106138 -0.09716763 -0.22305705
0001b0 b5 19 ac 3d 97 3e 55 be 9b 2f f9 3d d9 e9 ec bd
       0.08403341 -0.20824657 0.12167283 -0.115680404
0001c0 f0 fc 01 be 56 70 5d 3b 56 9e ff bd db b6 3f bd
       -0.12694144 0.0033788881 -0.12481372 -0.046805244
0001d0 7d 15 c7 bd 7b db 07 be ae fc 60 be 38 01 02 bd
       -0.097208954 -0.13267319 -0.2197139 -0.031739444
0001e0 f3 0d fc bd 5f 37 d8 bd 8d 80 74 be 1f e6 0c 3e
       -0.12307348 -0.10557436 -0.23877163 0.13759659
0001f0 5d 93 65 3d 01 aa e8 bd a3 71 9c be 94 88 b1 bd
       0.05604874 -0.11360551 -0.30555448 -0.08668628
000200 a1 75 55 3d 30 0f b0 bd bc 45 9e 3d 56 b5 c3 3d
       0.052114133 -0.08596647 0.077281445 0.095560715
000210 1e 51 0a bd ec e9 b7 bd 2c b3 03 bd 10 2d d7 bd
       -0.033768766 -0.08980164 -0.032153293 -0.10506642
000220 9e 97 ab 3c 41 45 a0 3d 88 f5 63 be 94 59 20 3d
       0.02094632 0.07825709 -0.22261631 0.03914793
000230 f8 91 1d 3b 31 c4 d7 3c 0e e0 37 bd cb 82 1e bd
       0.0024043303 0.026338669 -0.04489141 -0.038698953
000240 75 44 95 bd 15 9c 00 be b8 fd a0 bd ad cc a6 3d
       -0.07288448 -0.1255954 -0.07860893 0.081445076
000250 29 b2 40 3d ae bc 02 3d 45 c3 aa 3b 21 89 72 bc
       0.047044907 0.03191822 0.005211266 -0.014803202
000260 29 5a c8 bc bf 53 95 bd af 9e f6 3d 9a 19 f9 bd
       -0.024457054 -0.07291364 0.12041985 -0.12163086
000270 df 2d b9 bd 73 a0 1e 3e c8 ca 07 be 2e 58 97 bd
       -0.09041952 0.15490894 -0.13260949 -0.07389866
000280 3f ff 75 bd 7d f2 42 3d be a1 31 3d 9e b0 09 3d
       -0.060057875 0.047594536 0.04336714 0.0336157
000290 4f 4d d4 bd 4c f5 8a 3c 1e 01 8c bb c5 d1 c2 bd
       -0.10366308 0.01696267 -0.004272594 -0.095126666
0002a0 f5 47 97 bd 26 37 13 be cc 8e fd 3d 9a 4c d3 bc
       -0.073867716 -0.14376506 0.12380752 -0.025793362
0002b0 4d f6 0a 3a ba 4f a8 3d 0a ab 90 3d db e9 0b bd
       0.0005300984 0.08218332 0.07063873 -0.03415857
0002c0 14 26 49 bd 65 e9 27 3d 56 a8 82 be 7e 47 b7 3d
       -0.04910858 0.040994067 -0.25519055 0.08949183
0002d0 18 f9 f0 3d 88 69 1b 3e 95 76 cc bd e7 82 fa 3c
       0.11766261 0.15176976 -0.09983555 0.030579997
0002e0 ab e1 b9 bd da 25 71 bc f7 89 e1 bd f6 ab c2 bd
       -0.09076246 -0.014718497 -0.11012643 -0.09505455
0002f0 27 ea 4c be e7 10 92 3d c9 ae 3c bd d6 77 38 be
       -0.20011197 0.0713213 -0.046065126 -0.18014464
000300 d1 37 89 bd 95 0d 90 3d ca 8e 36 be b8 22 e5 ba
       -0.06700099 0.070338406 -0.17827907 -0.001748166
000310 12 1d 04 be 88 42 00 bd 73 c3 56 bd 4d c9 c4 bc
       -0.12901714 -0.03131345 -0.05243249 -0.024021769
000320 47 36 32 bd 5c 66 a9 bd 14 b9 cc bd ef 99 b4 bd
       -0.043508794 -0.082714766 -0.09996238 -0.08818423
000330 70 d8 d4 bb c5 e7 4c bd c5 8a d4 3d 91 0c 09 be
       -0.006495528 -0.05002572 0.10378031 -0.133837
000340 52 e7 0b be 5d 45 6f bc 6a b9 f5 3c 74 b5 f9 3c
       -0.1366246 -0.01460394 0.029995639 0.030482031
000350 aa 36 ef bd f4 66 35 be 29 5f 29 3d b9 b1 b1 3c
       -0.11680348 -0.17715055 0.041350517 0.02169119
000360 df 7f 00 bd e6 04 b1 bd a4 3c 81 be 06 2a 39 3c
       -0.031371947 -0.086435124 -0.25241578 0.011301523
000370 03 53 98 bd b8 d3 ab bc 4f 10 2a 3d 29 a3 d0 bc
       -0.07437708 -0.020974979 0.04151946 -0.025468426
000380 df db 76 3d 2c c3 de bd 3b a5 1f bd 50 cf d9 3d
       0.06026828 -0.1087707 -0.038975935 0.10635245
000390 58 9b 83 bd 79 bc b2 3c 8a 03 86 bd 05 10 43 3d
       -0.06426114 0.021818386 -0.06543644 0.0476227
0003a0 c3 3c 0d bc 07 2a 93 bc 11 ab 2f bd 9a c6 63 be
       -0.008620444 -0.017964376 -0.04288775 -0.22243729
0003b0 d8 d9 46 3e f5 56 b4 bd 06 e0 92 3d 61 50 42 be
       0.19419038 -0.08805648 0.07171635 -0.18975975
0003c0 a2 d3 fe bc b6 b6 a0 bd 2c ae d3 3c 49 dd b0 bc
       -0.031106774 -0.07847349 0.025839888 -0.021589892
0003d0 74 f7 58 bd a9 63 41 3b fb a1 ee bc 96 c0 09 3c
       -0.052970365 0.0029508865 -0.029129973 0.0084077325
0003e0 30 a0 69 bd 7f 48 1c bd bf 96 f7 bd e5 a4 00 3d
       -0.057037532 -0.038155075 -0.120892994 0.031407256
0003f0 ec 04 13 3d 1f c1 b5 bd e4 80 6a be 2c 87 76 bd
       0.035893366 -0.088747256 -0.2290073 -0.060187504

fc.weight f4 [4, 128]
000000 89 3c 63 3e f0 e5 65 3e 39 cf 02 3f 52 ae d7 3b
       0.22191061 0.22450995 0.51097447 0.00658206
000010 00 e9 4f be 10 34 e2 3d 69 ff c9 bc 05 ff 95 3c
       -0.20303726 0.110450864 -0.024657922 0.01831008
000020 d5 c2 13 3e e5 49 d6 bd 66 b0 f8 3d 98 16 20 3e
       0.14429791 -0.10463313 0.1214302 0.15633619
000030 39 56 20 3e a9 e8 5d 3e 43 8c 28 3f 42 f3 78 3e
       0.15657891 0.21670784 0.6583902 0.24311545
000040 bd cc aa 3e e3 30 ba bd 7e 43 16 be 5c 3e d4 be
       0.33359328 -0.09091356 -0.14674184 -0.41453826
000050 ce 64 a5 3d 10 24 93 be 77 a5 1b 3d b3 c4 76 3e
       0.080758676 -0.2873845 0.037999596 0.24098472
000060 9a 89 62 3d ed dc 52 3d 40 b3 ad be c5 66 2a 3d
       0.05530701 0.051480222 -0.3392582 0.041601915
000070 5e 65 cf bd 87 3f f7 3e 71 73 19 3f 67 69 36 be
       -0.10126756 0.48290655 0.59941775 -0.17813645
000080 ee 38 91 be d4 9f 07 bf 7a e9 5c be 67 3a c3 be
       -0.28363746 -0.52978253 -0.21573439 -0.38130495
000090 d5 a3 0b 3e 4b 84 b7 bd d8 34 d4 3e 7f e1 4f be
       0.13636716 -0.0896078 0.41446567 -0.20300864
0000a0 7b e9 86 be 16 6a 86 3e b1 cf 32 be 13 da 01 bf
       -0.26350006 0.26252812 -0.1746204 -0.5072338
0000b0 1e f9 2c 3e d0 2f 9c 3e bd 67 b8 3c 83 d6 cc bd
       0.16891906 0.30505228 0.022510404 -0.10001852
0000c0 d8 d0 06 be 1b 2f 84 bd 50 d6 cf 3e ff 09 06 3e
       -0.13165605 -0.06454297 0.40593195 0.1308975
0000d0 ab 67 e6 3d 65 f7 ed 3d b0 f1 5b 3d da dc 13 be
       0.11250242 0.116194524 0.053697288 -0.14439717
0000e0 a9 ba 1b be 9d 3f aa be cd 78 18 3f e3 80 c3 3e
       -0.15207924 -0.33251658 0.5955933 0.3818427
0000f0 48 ce 94 3f f3 58 ca 3e ca 0b 7c be 28 1c b5 be
       1.1625452 0.39520988 -0.24613872 -0.35373044
000100 38 a2 04 3e 02 e0 f8 bd 6f 07 07 3e 78 c1 7c be
       0.12952507 -0.12152101 0.1318643 -0.24683177
000110 e7 50 9e 3c 8b b0 84 be 3f 2b c3 bd 1b c0 0c 3e
       0.019325687 -0.25915942 -0.09529733 0.13745157
000120 19 26 91 bd c2 a4 d6 be 83 f9 f6 3d 3e 1b 2d 3e
       -0.07087345 -0.41922575 0.12059309 0.16904923
000130 c4 d8 87 3d 1d b9 ef be c0 f2 ea 3e 3d 66 b7 bd
       0.06633142 -0.46820918 0.4588833 -0.08955047
000140 b5 6f 8d 3e 92 3a 4a 3e 11 51 1d bf a4 3d 0f bd
       0.27624288 0.19748905 -0.6145182 -0.034970894
000150 d3 7c cd be 52 58 6f be d2 dd 0d 3e 3d 7f bf 3d
       -0.40134296 -0.23373535 0.13854149 0.09350441
000160 21 ab 9f 3e 9a 3e 5b bd 13 f0 20 be fa 21 d3 3e
       0.31185248 -0.0535265 -0.15716581 0.4123686
000170 8e 06 a5 bc 82 30 0c 3e 52 c2 1f be 66 bd 05 3d
       -0.020144727 0.1369038 -0.15601471 0.032651328
000180 c4 09 1d be 8f c5 97 be 7d e3 63 bf 5c 78 db bd
       -0.15335757 -0.29642913 -0.89018995 -0.10716316
000190 4d b5 a4 3d 59 40 bc bc 3c 73 37 3e 2b 7c ee 3d
       0.08042393 -0.022979902 0.17915052 0.11644777
0001a0 00 ff e7 3d 09 4b 37 be 41 50 64 bf 42 52 87 3d
       0.11327934 -0.17899717 -0.8918496 0.06607486
0001b0 32 9e 16 3f ea 8b 7c be 7f 33 fb be a2 d6 e6 bd
       0.58835137 -0.24662748 -0.49062726 -0.11271407
0001c0 e6 44 75 3d 85 c2 4c be 13 30 35 3d 33 53 90 3e
       0.05988016 -0.19996078 0.0442353 0.28188476
0001d0 91 7a e0 3e 9a c6 83 3d 88 71 45 bd c6 f5 e3 bd
       0.4384351 0.064343646 -0.048203975 -0.11130862
0001e0 89 1e 18 be c1 2c ca 3d b0 3c ab be 08 f7 f6 be
       -0.14855398 0.098718174 -0.33444738 -0.48235345
0001f0 a1 5e 14 bf 05 1f d9 bd 93 50 25 bd 96 14 4b 3e
       -0.5795689 -0.1060162 -0.040360045 0.19832072
000200 e2 aa 00 bd 27 ca 99 be 01 c9 6b 3c a7 ae 82 3e
       -0.031412967 -0.30037042 0.014391185 0.25523874
000210 0f 69 ba 3e 5a ef b5 3e f8 f0 e9 bd e7 81 dc 3c
       0.36408278 0.35534173 -0.11422914 0.026917411
000220 63 63 82 bc f4 eb 58 3e 65 c2 61 3e 07 cf 76 be
       -0.015916532 0.21183759 0.22046812 -0.24102412
000230 4d 0f 20 bd 4d d7 a9 3d d3 58 19 bf 93 c9 8f 3d
       -0.039077092 0.082930185 -0.5990116 0.07020869
000240 63 7f 66 3d 6e 50 0c bc 27 98 db bd d4 6b 83 bd
       0.05627383 -0.008564098 -0.1072238 -0.06417051
000250 ce 33 84 3d e4 af 39 3e 7c 9e 8d be a1 80 d4 bd
       0.064551935 0.18133503 -0.27659976 -0.103760965
000260 65 1f cc 3d 4f 85 fb bd ec a7 9e 3e c1 a6 87 be
       0.099669255 -0.12281286 0.3098749 -0.2649441
000270 8d 4f dc bd 43 2f 1a be 3b 61 8b 3e 3f 8d 91 be
       -0.107573606 -0.15057091 0.27222618 -0.28428075
000280 93 73 c8 3d 0f 48 bb 3e 8a 0e b1 bd b1 9a 07 3f
       0.09787669 0.36578414 -0.08645351 0.52970415
000290 97 e4 cb 3d b6 38 2e be 8a 1b 8e be a9 10 a4 bc
       0.099557094 -0.17013821 -0.27755386 -0.020027475
0002a0 23 4a e7 3c 3f e6 97 3e a3 ce c4 3e dd 78 14 3e
       0.028233593 0.2966785 0.384389 0.1449923
0002b0 85 2e 1b 3e 0b 2d 35 be db f5 ed be f3 34 3c 3e
       0.15154465 -0.17692964 -0.46476635 0.18379574
0002c0 77 c8 3e 3e f7 60 84 3d 03 a1 0c 3d ac 48 8f 3b
       0.18631159 0.06463807 0.03433324 0.004372677
0002d0 37 88 91 bd 2c e5 43 3d f9 bb a4 3b 23 25 b7 3d
       -0.07106059 0.047825977 0.005027291 0.0894263
0002e0 c6 37 f7 3c 82 08 91 bd fb 05 a2 bc df 25 06 bd
       0.030177962 -0.07081701 -0.019778242 -0.03275096
0002f0 11 66 b2 bc dc 58 be be 87 83 39 3e f1 cb 4c be
       -0.021777185 -0.3717717 0.1811658 -0.19999672
000300 07 3a 26 bd e8 26 02 bd 49 13 0f be ad a0 56 bd
       -0.040582683 -0.031775385 -0.139722 -0.052399326
000310 b8 90 dd 3e bf 44 6c bf 54 3f 6e be 45 15 0b 3e
       0.43274474 -0.922924 -0.23266345 0.13582332
000320 e8 71 2c 3d 29 93 9e 3e 4b ba 42 be c0 41 ae be
       0.042100817 0.3097165 -0.19016378 -0.34034538
000330 9f cc c2 3d 66 c8 56 3d fe 11 64 bd 68 18 eb bd
       0.095116846 0.05243721 -0.05568122 -0.114792645
000340 c4 2e b1 bd 57 08 39 bc 3f 2d dc 3d c2 b6 3c 3d
       -0.08651498 -0.011293492 0.107508175 0.04607273
000350 41 36 d7 3d 26 b9 b0 3d e7 ce 4a 3e f8 42 4a be
       0.10508395 0.08629064 0.1980549 -0.19752109
000360 36 2c 72 be 92 4f 82 be a0 51 4b be cf fa da bd
       -0.23649678 -0.25451332 -0.19855356 -0.10692369
000370 d3 b9 41 3d c3 94 93 bc dd 49 9e bd 69 3b 4d 3d
       0.047296356 -0.018015271 -0.07728932 0.050105486
000380 96 5b 9a be 38 86 01 3e d0 44 4d 3d 6b 27 88 3e
       -0.30148 0.12648857 0.050114453 0.26592574
000390 79 67 92 3e aa ec 22 3d 66 54 3c 3e ca 69 13 3e
       0.28594568 0.03977648 0.1839157 0.14395824
0003a0 88 1f 34 be 4f 7a 20 be 59 5e 59 bc 9b 29 88 3e
       -0.17590153 -0.15671657 -0.013267123 0.26594242
0003b0 e6 04 9b be e1 9b 27 3d ce e4 79 3e e4 47 13 3e
       -0.30277175 0.040920142 0.24403688 0.14382893
0003c0 34 fb 92 3e 48 3f 73 bd e6 74 fd be f7 b4 8f be
       0.28707278 -0.05938652 -0.4950325 -0.28067753
0003d0 29 e1 57 3d 8a ce d4 bd a0 0d 93 3d 57 d6 c6 bd
       0.052704964 -0.10390957 0.07180333 -0.09708851
0003e0 70 52 cd 3e c8 f6 12 be 2d ce fe bc 10 d7 fc 3e
       0.40101957 -0.14351952 -0.031104172 0.4938283
0003f0 b2 04 6c bd 6f 16 27 bc b7 01 3c 3e 35 e6 7a 3d
       -0.057621665 -0.01019822 0.18360029 0.0612547

fc.bias f4 [4]
000000 ca e1 1e bf 46 2f 9e bd 5e 71 c8 3e 01 7d 2a 3b
       -0.62063277 -0.077238604 0.39148992 0.002601445
