LSTM/Data_3/LSTM10/model.pth (torch, 804707 bytes, 10 tensors)

lstm.weight_ih_l0 f4 [512, 3]
00000000: 782f eabd c549 fb3e 4b3b 453d a7e0 fcbe
00000010: d4eb 84bf fed1 a1be 2cb0 d8bf 3df2 a7bf
00000020: 4656 05c0 1ceb 4dbf 72a1 92bf 3ff3 ddbe
00000030: f018 81bf de89 b0bf 52fa 0dbf bb6d 98bc
00000040: 3025 d7bf d740 3bbc 401c 37bc f04f 3ebf
00000050: 9ba6 3abd 5f3f a2be 490a 833e 1af1 cebd
00000060: 9e29 3ebf 41ca 633e 4b33 cabe 7f9b 54bf
00000070: 9b8c bebe 4ade 89bf 4887 8a3e ee11 09bf
00000080: a7bf 973e 8cf7 02bf e28b 43bf 8f52 bcbe
00000090: 25c9 123c 2ffc 9abe 0b63 df3d 30d8 c4bf
000000a0: 97d7 bbbf 39bc cebf 57cb 35be 1ec8 67bf
000000b0: 178c 693b 46a7 37bf ff72 88bf ae4b d9be
000000c0: 9e89 aebd bd91 44be 73c2 adbf 815d 51bf
000000d0: b611 96bf 5de9 00bf 332e 44be e725 9bbe
000000e0: c142 acbf 1fbe 62bf 2adb 75bf 9f91 8dbf
000000f0: 2ec0 8c3e dbaa 533e 9247 923e ed49 2dbf
00000100: e193 39bf 2dba fcbe fcc7 e3be 617b a5bf
00000110: f943 a1be c713 dcbe ec83 0abf e10a febe
00000120: 1cdf a4be a109 0c3f e40e 953d 354b 66bf
00000130: 563f 00bf 8dc7 9ebe e79c 25bf 58a3 ebbe
00000140: 6610 cfbe 6d40 24be cbc8 5bbf 46cf bdbe
00000150: a033 fbbe 4aaf 4f3d dede bfbe 247b 1abf
00000160: 0b88 85bf b77c 17bf eb99 08bf 1148 10bf
00000170: c3b7 a6be ed88 50bf a380 8ebf 9b98 3ebf
00000180: 2638 90be 3eb5 ea3e ece4 aebe 751a d53d
00000190: 5426 83be 1d87 b43d 00a6 e4be ce56 92bf
000001a0: 58c6 9dbb 9574 523d 61c3 c03e 0f43 8a3e
000001b0: d575 9bbe 6795 4e3e 9d30 263e 21cb 59bf
000001c0: b082 6dbf 2469 2bbf 3df9 3dbe 28f5 a1be
000001d0: 9715 26be 677a b5be b0af 93be 79e1 813e
000001e0: ee47 9abe b216 fe3e de3e a5bd bbf7 8fbf
000001f0: 0c2a 95bf 1c6e 63bf 08c9 38be ade5 25bf
00000200: 5599 a3bf 2471 0abf 62b0 9fbf 766f 4dbf
00000210: 513e 4b3d b5ab d0bf 926a fd3d b4ce 87be
00000220: dda1 afbe 75ad 613f 7316 24bd ae2b 1ebe
00000230: fa48 a3bf 5873 eabd 93c8 123f 8772 3c3e
00000240: 4a60 d8bf 87a9 e4bf 9dd1 b1bf c395 b13d
00000250: 7974 ddbf 1eab 01be 3736 e6be a814 71bd
00000260: ade0 0dbd 08d4 60be 9d43 b2bd cfa6 34bd
00000270: 1125 e0bd 595f 5cbe 666e b4bf f83c 59bf
00000280: d06c 55be 7e81 36bf 3ce5 21be 74a8 b4be
00000290: ae3f d5bd 421f 74bf cefb 26be bd56 36bf
000002a0: 022f f2bf cfce adbf ae54 9abf e870 10be
000002b0: 611a e13e 88fd c13d 6d18 16bf e3f2 efbf
000002c0: 52f4 71bf bf30 d1be eb53 5bbf befa 5fbf
000002d0: 2ef5 86be 6a51 a7bf ee14 b1bd 20a3 d23e
000002e0: 71fb 143f bf75 b83e a380 8fbf 25ea 36bf
000002f0: 89d1 b8bf 2c4d 5fbf 5f98 5bbf afc0 7bbf
00000300: 4050 d2bd 82bd 45bf 13e4 d1be 1377 4abf
00000310: 8e6b 2dbd 4181 06be 7e4a 69be 1096 40be
00000320: cd55 8b3a 8f26 e6be f286 02bf 1f71 4abe
00000330: 5bc8 18bf f75f 9ebf 742c e8be df5f 57bf
00000340: 4fa5 1cbf 68bf 09bf 7655 0cbf 69c4 89be
00000350: c40e 8dbd 0322 87be 4169 a43c ca38 b53e
00000360: 068a 1ebf f3d1 e63d bff9 b5be 3edb a5be
00000370: 067b 1fbe a9a8 32bf 622d babf d29f 99bf
00000380: ef53 96bf 27ab 9bbe e32d 1abf 4ebf ee3e
00000390: d2bc a1bf cec0 a7bf 5323 56bf 57d1 4fbf
000003a0: 8d97 9bbe ff19 01bf 7b0b 0d3e 378d adbe
000003b0: f896 1f3d 59aa 23bc bc0e 11c0 35ad 32be
000003c0: dcb4 4a3e 687f 8fbd 4cf7 4e3e f192 bcbc
000003d0: 4839 e03e 3ad7 723e 4755 dbbe a9af c83e
000003e0: da77 c4be f84f 503e 6295 cebf 40a0 81bd
000003f0: 5957 25bf 5834 2dbf 1355 e6be 505e c7be
-0.11434835 0.4907972 0.04815225 -0.49390146 -1.0384469 -0.31605524 -1.6928763 -1.31208
-2.0833907 -0.80436873 -1.1455519 -0.43349645 -1.0085735 -1.3792074 -0.55460083 -0.018607011
-1.6808224 -0.011429033 -0.011176169 -0.74340725 -0.045569044 -0.31688973 0.25593784 -0.1010458
-0.7428225 0.22245122 -0.39492258 -0.8304977 -0.37216648 -1.0770962 0.27056336 -0.53542984
0.29638407 -0.51158977 -0.7638532 -0.36781737 0.008959089 -0.30270526 0.10907563 -1.5378475
-1.4675168 -1.6151191 -0.17753349 -0.9053973 0.0035636479 -0.71739614 -1.0660094 -0.42440552
-0.08522342 -0.1919622 -1.3574966 -0.817833 -1.1724155 -0.50356084 -0.19158249 -0.30302355
-1.3457872 -0.8857135 -0.9603754 -1.1060065 0.2749037 0.20670645 0.2857023 -0.67690927
-0.7249127 -0.4936079 -0.44488513 -1.2928277 -0.31497172 -0.4298384 -0.54107547 -0.49617675
-0.3220147 0.5470219 0.07278231 -0.89958507 -0.5009664 -0.3101162 -0.6469254 -0.4602306
-0.404422 -0.16040201 -0.8585326 -0.370722 -0.49062824 0.050704278 -0.37474722 -0.6034415
-1.0432142 -0.59174675 -0.5335986 -0.56359965 -0.32562074 -0.8145893 -1.1133007 -0.7445161
-0.28167838 0.45841402 -0.3415903 0.10405437 -0.2561518 0.08814833 -0.44657898 -1.1432741
-0.004814904 0.051380713 0.37649062 0.27004287 -0.30363336 0.2017418 0.16229482 -0.85075575
-0.9277754 -0.66957307 -0.18552108 -0.31632352 -0.16219173 -0.35444948 -0.28844976 0.25367334
-0.30133003 0.4962669 -0.080686316 -1.1247476 -1.1653457 -0.8883989 -0.18045437 -0.6480358
-1.2781168 -0.5407889 -1.2475703 -0.802482 0.049619976 -1.6302401 0.12373842 -0.2652489
-0.3430318 0.881553 -0.04006047 -0.1544635 -1.2756646 -0.11447781 0.573373 0.18403064
-1.6904385 -1.7864236 -1.3892094 0.08671143 -1.730117 -0.12662932 -0.44963238 -0.05885759
-0.034638096 -0.21955884 -0.087043025 -0.044104394 -0.1094457 -0.21520747 -1.4096191 -0.84858656
-0.2084229 -0.7129134 -0.15810102 -0.3528477 -0.104125366 -0.95360196 -0.16306993 -0.712261
-1.8920596 -1.3578738 -1.2057092 -0.1410557 0.43965438 0.094721854 -0.5863102 -1.8745998
-0.9451343 -0.40857503 -0.85674924 -0.8749198 -0.26358932 -1.3071721 -0.0864657 0.4114008
0.5819617 0.36027333 -1.1211132 -0.71451026 -1.4438945 -0.8722713 -0.85779375 -0.98340887
-0.10269213 -0.7724229 -0.4099432 -0.7908794 -0.0423389 -0.13135244 -0.22782323 -0.18807244
0.0010630429 -0.44951293 -0.5098716 -0.19769715 -0.5968072 -1.2373036 -0.45346415 -0.8413066
-0.6118974 -0.5380769 -0.54817903 -0.26907662 -0.06887582 -0.26393136 0.02006972 0.3539489
-0.6192936 0.112705134 -0.35542104 -0.3239383 -0.15574273 -0.69788605 -1.45451 -1.2001898
-1.1744365 -0.30404016 -0.6022627 0.4663033 -1.2635748 -1.3105714 -0.8364765 -0.811788
-0.30389062 -0.5043029 0.1377391 -0.338968 0.038962334 -0.0099893445 -2.2665243 -0.17448886
0.19795555 -0.07006723 0.20211524 -0.023019286 0.43793702 0.23714915 -0.428385 0.39196518
-0.3837269 0.20343006 -1.6139338 -0.063293934 -0.64586407 -0.67657995 -0.4498678 -0.38939142

lstm.weight_hh_l0 f4 [512, 128]
00000000: d425 b9be f01c 493f 6bef 1abe cc8c 82be
00000010: f51f d5be 4fd2 9e3e 5fb3 0d3f 2ab6 7f3e
00000020: 4ea9 cfbe 4f73 24bf 4494 f63e 880c a73e
00000030: 43b3 d83d 58ca 053e a1d3 28bf 7643 b73e
00000040: 157c c53c 1224 0c3e 6703 8dbe b085 30bf
00000050: d277 6e3e 26fa 8a3e 8eaa 06be f954 babe
00000060: 173a e7be 1c27 a13e a0b2 d33e 01f2 e23d
00000070: aca4 453f 1458 1cbe 0bb0 393e 4e85 5fbe
00000080: c81c 993e f582 c5bc f9c1 6b3e b9ab 4abd
00000090: f30d 243e b5b8 ad3e 71be 6bbf b712 263e
000000a0: 2cf9 b6be 6166 ccbe f0d0 3fbe 688f 01be
000000b0: 661a 3bbf 6661 c93e 999a c53d 8efe 0bbf
000000c0: 3ee4 acbe 008d cdbe 99d7 d53e e81e 0ebe
000000d0: 2dca 5abd 1cea dabe 560d cbbd cb1e 31bd
000000e0: 2733 bcbc 623f 04bf 7756 0f3f 23bf 16bf
000000f0: f81e 253f a7ee 9a3c fac0 21ba 45a6 16be
00000100: 03bb b23e 7c5f c03e a425 93be 46bc 873c
00000110: 2f8a dabd 4506 1e3e bd38 15be 7878 0a3e
00000120: a906 c7bd 5eda 75bf 1561 943e 0d75 d4be
00000130: a716 273f f124 943e b98b e13d 59eb 4d3f
00000140: 0db9 943d efe3 0e3d 9d00 a5be 1e2c 97bd
00000150: e178 7e3e c74d 823d 1749 ff3d 500a a83e
00000160: f81e 20bf 9a23 31bd 23a8 393e eb7e 42bf
00000170: 7492 1b3e ab99 9c3c 0a0f c0bd e651 2c3e
00000180: 57d7 e6bc 7ed2 3bbf 77a7 a6bd 2bff 2dbd
00000190: 38e4 2b3f 68e5 95be a9cb 483e 8575 243e
000001a0: 87dd 923e b45a 523d db4c f73e fb89 70be
000001b0: dcdf 773e 20eb 213f 9a09 84bf 93ee 38bf
000001c0: 5755 c93e 897f d73e 0ec4 9dbe cf4f 5e3e
000001d0: 3ac1 813e f9bc 16bd b074 773e e97e e8bd
000001e0: 8bcf 093f 8c46 0a3f 3ef8 cc3c c6fb 9bbe
000001f0: 9a1b 20bf 3ff0 103f 5d1f e6be 47dd fe3d
00000200: 8bf8 943e 50e7 26be c341 01be a8a8 a8be
00000210: b6c2 ea3e 1ddc c73d 4769 66be 217e 5fbe
00000220: 5cab 483e 5af9 a5be 4e9f e53d d70c 693e
00000230: a9cc 9d3e 6dfa f53e ab41 463e a690 0d3e
00000240: df94 a73c 61be c7be 7398 a7be a498 28bf
00000250: c442 f03d 1d59 74be 9e88 8ebe bd30 80be
00000260: 4348 973e fa62 28be 4d45 fdbd 6bef 893d
00000270: 8e01 563d aa84 b13e 65bb b5be 7d2a a7bc
00000280: c8f3 43be d176 6abd 3383 733e cd38 043f
00000290: 9a74 313e f181 be3e 2e85 81bf 67ff 10be
000002a0: a026 f43c f682 843e abc8 3bbe 256c 57be
000002b0: 4932 f3bd 0468 a3be f9c4 89bb 9939 5b3e
000002c0: 79da 5e3e c8ce 88be b30d 333e 62ac 5c3d
000002d0: fea1 913e a7d2 bc3d 0f64 32bd d61e 72be
000002e0: 4505 013f 3896 c43d 8d28 103d 5bd4 013d
000002f0: f5eb 863e bb2b 09be c810 f2be 5ea6 753e
00000300: 699e 48be 728b 54be 032c 443e 90cc 6b3d
00000310: 1342 81be ad5e 053c 7466 b9be a821 c2be
00000320: 6601 7f3d ec12 9abe efb4 863e e129 803e
00000330: 000e 35be af0c 283f c3b5 46be 867c ec3e
00000340: 98c0 4fbd 048b 03bf e2f1 67bd 5c8c efbd
00000350: 41ad 873b 66f9 1f3e 1a4b 21be d892 b4bc
00000360: f118 3f3e 34cd 173e abb5 173e d783 6e3e
00000370: bc3d 97be 3143 c53e b9b4 833d e7b5 8ab9
00000380: 6a3a 34be 0da0 0ebe 5edd 4b3d ed15 edbd
00000390: af05 aa3d cc76 90bd 4b61 c83d bd1b 6dbd
000003a0: d950 a5be e980 603e c2e5 dabe 4c49 a6be
000003b0: 2cd8 0abe 1cfb 2f3f 20e0 f23d a294 c7be
000003c0: b99a e6bd d6aa da3e 58c4 9abd d565 b7be
000003d0: 524d a83e 08ac bdbe 2ddb b63e 7784 583e
000003e0: dac8 883d b634 693e 85cb bcbd ab1c 3d3e
000003f0: d2d2 a13e a08e 033f 64e4 92bd e8c5 dfbe
-0.36161673 0.7855978 -0.15130393 -0.25498044 -0.41625944 0.31019828 0.55351824 0.24971834
-0.40558857 -0.64238447 0.48159993 0.32626748 0.105810665 0.1306547 -0.6594792 0.35793656
0.024107018 0.13685635 -0.27541658 -0.6895399 0.23287895 0.27143973 -0.13150999 -0.36392954
-0.45161507 0.3147515 0.41347218 0.11081315 0.77204394 -0.15267974 0.18133561 -0.21828195
0.2990477 -0.024110297 0.23023213 -0.049480174 0.16020946 0.33929983 -0.92087466 0.16218077
-0.35736978 -0.3992186 -0.18732047 -0.12652361 -0.73087156 0.39332122 0.09648628 -0.54685295
-0.33767885 -0.40146637 0.4176605 -0.13878977 -0.053415466 -0.42756736 -0.09914653 -0.043242257
-0.02297361 -0.51659214 0.5599131 -0.588854 0.6450038 0.018912626 -0.00061704183 -0.14711864
0.34908304 0.3757285 -0.28739655 0.016569268 -0.10670888 0.15432079 -0.14572425 0.13522518
-0.09718067 -0.96036327 0.28980318 -0.41495553 0.6526894 0.28934434 0.11012978 0.8043724
0.07261858 0.034885343 -0.3222703 -0.073814616 0.24850799 0.06362491 0.12465113 0.32820368
-0.62547255 -0.043246843 0.18130545 -0.7597491 0.15192586 0.019116243 -0.093778685 0.16828117
-0.028178854 -0.7336806 -0.0813741 -0.042479675 0.6714511 -0.29276586 0.1960894 0.16060455
0.28684637 0.051356032 0.48300824 -0.23490135 0.2420649 0.632494 -1.031543 -0.72239035
0.39322922 0.4208949 -0.3081364 0.21710132 0.25342733 -0.036801312 0.24165606 -0.11352331
0.5383231 0.54013896 0.025020715 -0.30465525 -0.62542117 0.56616586 -0.44945803 0.12444549
0.29095873 -0.16299176 -0.12622742 -0.32941175 0.45851678 0.0975878 -0.22501098 -0.21825458
0.19596618 -0.32416803 0.112120256 0.22758804 0.30820206 0.48042622 0.19360988 0.1382471
0.02045673 -0.39012435 -0.32733497 -0.6585791 0.117314845 -0.23862119 -0.27838606 -0.25037184
0.2954732 -0.16444007 -0.12366734 0.067351185 0.052247576 0.34671527 -0.35494533 -0.020406002
-0.19135964 -0.05724222 0.23780517 0.5164917 0.17329636 0.37208512 -1.0118768 -0.14159928
0.029803574 0.25881165 -0.18338268 -0.21037348 -0.118748255 -0.31915295 -0.004204389 0.2140869
0.21763028 -0.26720262 0.17485695 0.053875335 0.28443903 0.09219866 -0.043552455 -0.23644575
0.50398666 0.095989645 0.035194922 0.03169666 0.26351896 -0.13395588 -0.47278428 0.23989245
-0.19591679 -0.20756319 0.19157414 0.057568133 -0.25245723 0.008140248 -0.36210978 -0.37916303
0.062257193 -0.3009256 0.26309916 0.2503195 -0.17681122 0.65644354 -0.19405274 0.46188754
-0.05072078 -0.51383996 -0.05662716 -0.11696693 0.0041405265 0.15622482 -0.15751305 -0.022042677
0.18661858 0.14824373 0.14815395 0.2329248 -0.29539287 0.38527825 0.064309545 -0.0002645694
-0.17600408 -0.13928242 0.04977166 -0.11576448 0.08301865 -0.07053909 0.09784182 -0.05788778
-0.32288244 0.21924175 -0.42753416 -0.32477796 -0.13559026 0.6874254 0.11859155 -0.38980585
-0.1125998 0.42708462 -0.07556981 -0.3581988 0.3287149 -0.37045312 0.35714093 0.21144281
0.066789344 0.22774014 -0.09218506 0.18467967 0.31606156 0.51389503 -0.07172468 -0.43705678

lstm.bias_ih_l0 f4 [512]
00000000: 8b03 dcbd 80f3 f3be f733 cdbf 0763 35bf
00000010: 5462 8bbf 123e 84bd 0634 113d d45e 85be
00000020: a10c 24bf 87a5 44bf 8afd bb3e f323 05bf
00000030: 2539 62bc b0a8 bcbf ade2 83be c70a 39bf
00000040: 0b2e b23c 05bb 5dbf 5679 5abe 49b9 85bf
00000050: a29f a83e 6ab0 1cbf 3bc8 0bbf 5e7f f3be
00000060: 719d 71be 80f7 5fbf 57e3 14bf b8a2 86be
00000070: 91b8 08bf 5305 0fbf 6457 04bf 7e4f 3cbf
00000080: 2c0e 94be 401d cf3d f434 ccbe 2527 023d
00000090: a8f8 87be ce01 71bf 1353 b4bd acb3 82be
000000a0: 9420 a1be 04ed aabf 926b 29be 8b44 00bf
000000b0: a9ca d13b 18f6 86be 260b 6dbd 8e58 60be
000000c0: ccb6 d5bf d4af d93d 1082 10bf ecfa 48be
000000d0: f111 8f3c 1532 5abf d4d4 c5bd a1bc 33bf
000000e0: ed55 f5bf 06f4 95be 2506 ebbe 0a03 febe
000000f0: f6b9 85be 2519 ce3e 1c27 76bf 25c3 3abf
00000100: 8db8 29be 6b28 2dbf 80ef edbd 6d17 c7be
00000110: eb68 15bf ea16 4dbf bbfb d4be b393 b2be
00000120: 1f5a efbe 7ef3 86be 6be3 afbf 626e 92be
00000130: 73ae 9fbf 9a16 1cbf aba2 3f3e ebd2 e0bd
00000140: 8a53 8e3e c8b9 b43b ac58 e7be 5de2 6c3d
00000150: 8214 3ebf 321b a1be 8e78 38be 89b2 bbbe
00000160: 499a f13d 0636 a8bf 6d8d fa3d 8e83 e3be
00000170: 8d89 103f 895f fdbf 8e03 1fbf ac7a 23bf
00000180: 5576 1abf c195 243b 45f1 b33c 22d4 85bf
00000190: 5403 d5be ebd4 88bf ed25 48bf c38e 053d
000001a0: 81ff 2bbf 4b4a e9bf 7a21 79bf 1e3e 5dbf
000001b0: bb19 023e 70f3 78bf 3f66 6bbf e08c 77be
000001c0: 3bb4 a4bf 3aac c6be 6336 08be 5c58 cbbd
000001d0: 1c9c bdbe 2aa7 a1be 61ab 12be bcb6 dcbe
000001e0: 3aa3 29bf d6ea 32bf 88b0 723e 8849 5bbf
000001f0: f036 a6bd b938 59bf ea03 00be d14e 2b3d
00000200: acbe cdbe bb46 a0be b635 89bf d889 2dbf
00000210: 36d4 77bf 5e8d 63be 10d0 7b3e d14c 01bf
00000220: f6ec 08bf e4ab 03bf c1c5 9fbe 48fa 0ebf
00000230: a5b1 9bbe 02a4 9fbf 4e85 5bbe 7289 d4be
00000240: 203b 4ebe 7f8a 69bf 4238 1abe d720 5fbf
00000250: d587 8dbe a7f6 c3be 6e32 35be 7e37 62bf
00000260: 6b45 c5be f7ba acbe cf94 9ebe bdd4 56bf
00000270: e4d2 d7be 6659 3fbf 09f8 34bf f941 08bf
00000280: 2999 c53e 80f4 8dbe 5a8a 4fbf bdd6 a3be
00000290: 4188 12bf fcd4 44bf 3ac5 ae3d 5d60 8fbe
000002a0: e8ce 01bf 255c b2bf 1449 6fbe aa8f d5be
000002b0: fc33 b4be 8ad8 723e 1a7f b1be cf0c 03be
000002c0: 1d32 88bf 6ef8 80bd 326c 71be 450a 08bf
000002d0: bfa8 46be cd88 0fbf f786 b8be 3e27 3cbf
000002e0: 9703 94bf 0fcf 8fbd 1259 e1be 774c 55bf
000002f0: d2c0 1abe 3a62 b5be 49fe 8bbf 7066 5dbf
00000300: cbd3 01be 7fd9 e7be 8af1 edbe 0356 c6be
00000310: fba9 b0be e2c1 88bf d2df 7ebe 6f56 cbbd
00000320: af49 d1be c4f2 58bd 998b 45bf f5c8 80bd
00000330: 7cbd 6cbf 60d2 bdbe 6cee 6bbe 28b6 01be
00000340: e10c 51be 6bd0 59be 91b2 03bf cdda 95be
00000350: efa3 efbe 9ab4 c5be 67d1 35bf 7ec1 9abe
00000360: a360 57be 100c 77bf e7c2 4ebe 4ff4 9dbe
00000370: e3fd 54be 67c0 63bf b15e e1be 8dda e6be
00000380: 3391 23be 1a5f 32be 4b6c 35bf 3fb5 80bf
00000390: 9535 44be d9c1 4abf c09f 9abf e95b dfbe
000003a0: ea11 9cbe 177c 9dbf 7072 12bf befc 7ebf
000003b0: 40ab 003e 5c32 81bf ce5c 1fbf cce1 a53d
000003c0: 5e20 91bf 2266 383d e59f 8dbe 6a49 3fbf
000003d0: 34be 02be b235 1ebc 2736 0ebf fdfa 16bf
000003e0: bd9c f2be d501 27bf d2c2 dbbe 8dc2 9dbf
000003f0: 8cdb 6cbc 92c6 d1be 165a dabe 2db5 d43e
-0.10742863 -0.47646713 -1.6031483 -0.7085423 -1.0889382 -0.064571515 0.035450004 -0.2604891
-0.6408177 -0.76815075 0.36716872 -0.5200798 -0.01380757 -1.4738979 -0.25758877 -0.7228207
0.02175047 -0.86613494 -0.21335348 -1.044717 0.3293429 -0.61206686 -0.546024 -0.4755811
-0.23595215 -0.8748703 -0.58159393 -0.2629602 -0.53406626 -0.558675 -0.5169585 -0.73558795
-0.28917062 0.10113001 -0.3988415 0.031775612 -0.26556897 -0.9414338 -0.08804908 -0.25527704
-0.31470168 -1.3353581 -0.16544941 -0.5010459 0.006402333 -0.2635963 -0.05787196 -0.21908781
-1.669641 0.1062924 -0.5644846 -0.19626969 0.01746461 -0.8523267 -0.09659734 -0.702097
-1.9166847 -0.29287738 -0.45903125 -0.49611694 -0.2611844 0.4025356 -0.96153426 -0.72954017
-0.16574307 -0.676398 -0.116179466 -0.3888506 -0.5836322 -0.8011309 -0.41598305 -0.3487831
-0.46748444 -0.26357645 -1.3741277 -0.2859984 -1.2475113 -0.6097199 0.18714397 -0.109777294
0.2779811 0.005515311 -0.4518484 0.057833064 -0.7425004 -0.3146606 -0.18014738 -0.3665965
0.11797006 -1.3141487 0.12234006 -0.44436306 0.56459886 -1.979478 -0.621148 -0.6385906
-0.6033681 0.0025113674 0.021965632 -1.0455363 -0.41604102 -1.0689977 -0.7818287 0.03260685
-0.67186743 -1.8225797 -0.97316706 -0.8642291 0.12705128 -0.97246456 -0.9195289 -0.24174833
-1.2867502 -0.38803273 -0.13301997 -0.099289626 -0.37033165 -0.3157285 -0.14323188 -0.43108165
-0.6626469 -0.6988958 0.23700154 -0.85659075 -0.08115947 -0.84852177 -0.12501493 0.041823212
-0.40184534 -0.31303963 -1.0719516 -0.6778846 -0.96808183 -0.22221896 0.24591088 -0.5050784
-0.53486574 -0.5143416 -0.31205562 -0.5585065 -0.3040897 -1.2471926 -0.2143757 -0.41511112
-0.20139742 -0.91226953 -0.15060523 -0.87159485 -0.27642694 -0.38274118 -0.17695019 -0.88365924
-0.38529524 -0.33736393 -0.30972907 -0.8391836 -0.42153084 -0.74745786 -0.7069097 -0.53225666
0.38593414 -0.277256 -0.8107048 -0.3199977 -0.57239157 -0.7688749 0.08533712 -0.28003207
-0.5070634 -1.393437 -0.23367721 -0.4171117 -0.3519591 0.23715416 -0.34667283 -0.12797855
-1.0640293 -0.06297384 -0.2357643 -0.5314067 -0.19400309 -0.56068116 -0.3604047 -0.7349738
-1.1563596 -0.07021915 -0.44013268 -0.833198 -0.15112618 -0.35426503 -1.0936977 -0.8648443
-0.12678449 -0.45283124 -0.46473342 -0.38737497 -0.34504685 -1.0684168 -0.24890068 -0.09928595
-0.4087653 -0.052965894 -0.77166134 -0.062883295 -0.9247663 -0.37074566 -0.2304017 -0.12667143
-0.20415069 -0.21270911 -0.51444346 -0.29268494 -0.4680476 -0.3861435 -0.7102265 -0.30225748
-0.21032958 -0.9650278 -0.20191537 -0.30850455 -0.20799975 -0.8896546 -0.44017556 -0.45088616
-0.15973358 -0.17419091 -0.70868367 -1.0055312 -0.19161065 -0.7920204 -1.2080002 -0.4362481
-0.30482417 -1.2303494 -0.5720587 -0.99604404 0.12565327 -1.0093493 -0.62250984 0.08099708
-1.1338003 0.045019276 -0.27661052 -0.74721396 -0.12767869 -0.009656357 -0.5555138 -0.5897673
-0.47385207 -0.6523717 -0.42922074 -1.2324997 -0.014456641 -0.4097181 -0.42646855 0.41544476

lstm.bias_hh_l0 f4 [512]
00000000: 8735 91bd 907b ebbe 6ddd d1bf d1f2 22bf
00000010: ec3a 97bf ad8e ef3c e013 b9bb a4f3 42be
00000020: 23dd 1fbf a6e2 3dbf 40e0 9f3e d58a fbbe
00000030: 1c4f a1bc c86b c1bf 7569 e7bd fab7 3ebf
00000040: a7f3 87bd 45ed 5abf b21c 80bd 327e 82bf
00000050: c53e 853e 10e1 0ebf afaa 1dbf a2dd c8be
00000060: bda6 94be 0d0e 3fbf 886f 33bf 775e 75be
00000070: 478b dbbe daa3 13bf a0b2 06bf 9da8 2bbf
00000080: 49b8 81be 7ba3 7a3e 5707 b0be 9daa 933d
00000090: 84de 7abe 3f00 56bf f29a afbd aa49 a7be
000000a0: ff6d a6be d3ff aabf 19ba 37be 4ca2 14bf
000000b0: a3a3 75bd 930e 22be 1b06 0bbe b60a 24be
000000c0: a82e d1bf 0a8d 4a3d da46 05bf eb23 8dbe
000000d0: d27d e8bd c95b 52bf 5d49 a0bd 0495 46bf
000000e0: 2d2f f9bf f080 a6be 2553 0bbf 79fe eabe
000000f0: 2f06 b5be 8165 9b3e 306c 75bf b81e 63bf
00000100: b571 58be 26db 42bf 5517 8abd 038a e0be
00000110: 0cdf e0be bfe9 6ebf 3f81 09bf 7339 d4be
00000120: b04f cebe c693 bcbe 31b6 b3bf d9f3 bdbe
00000130: 2090 8bbf 2054 08bf f474 603e 2061 5ebe
00000140: 4ab2 853e e966 cfbc 9fbf e1be 9f8c d5bc
00000150: 02ae 40bf 2eae e6be b1d5 f5bd 7a42 b2be
00000160: 5ee3 ce3d 6020 a6bf 381a 633e 6fe5 dcbe
00000170: daf2 043f f813 02c0 3a6f 1fbf 3766 1dbf
00000180: 7697 01bf e3df fe3d da92 223d efdf 65bf
00000190: 376f bfbe f511 82bf dec4 59bf 65dc 3d3d
000001a0: dc21 29bf bd61 ecbf 2557 85bf 7d7d 55bf
000001b0: fa21 e43d fb6a 7ebf 5e6a 4fbf 7087 97be
000001c0: f900 a1bf 9fa3 a4be dc96 2fbe 444e f4bd
000001d0: 690b a4be 0773 afbe 91af 59be a373 13bf
000001e0: 6c60 1dbf 1ad7 25bf 2b8f 8d3e a4ef 5fbf
000001f0: 7449 f7bb 38e8 67bf cb10 04be 780f 02bd
00000200: a4b9 a2be 4db4 86be 1680 8bbf 9d5e 14bf
00000210: 9c97 7abf 1cd7 47be eaf1 9b3e bf7e f0be
00000220: d3dc eabe efe6 f9be bf44 95be 3489 ffbe
00000230: 4559 87be ce19 a3bf 453a 79be 7c4c b2be
00000240: 0413 80be cb9a 80bf d484 4bbe e6f4 5fbf
00000250: 89f4 7dbe a931 b1be d442 aebe 8dcc 43bf
00000260: 6e25 c2be 3f5d a0be a6ed c1be ce3d 43bf
00000270: 3f63 c1be 7225 43bf 3fc6 59bf c3a5 23bf
00000280: 5818 9f3e 772c 9ebe 5122 3ebf af0d bfbe
00000290: 1a97 17bf 99fe 23bf 5d39 83bc 7286 bdbe
000002a0: 25be dabe 9caa a5bf dc4d 99be 1c33 c0be
000002b0: 3f99 9ebe 17d1 663e d638 e3be fff2 33bd
000002c0: 757b 8dbf 9af0 61bd 0c6e 79be ecbe d5be
000002d0: 0f8e ebbd dc3e 12bf c27b 6bbe 2f13 4bbf
000002e0: f19c 91bf 98c3 c0bd b112 e8be 4b43 45bf
000002f0: 8329 6bbe d391 87be fb08 90bf 13a3 39bf
00000300: 9099 43be 7843 f4be eee7 fabe 6175 fbbe
00000310: bb22 cabe 73b9 92bf 77f1 67be 6bb5 0c3b
00000320: fd6a 9ebe b4fb b43d 5f45 3dbf 10f2 863b
00000330: b1a9 7ebf e3d3 ebbe 7505 90be 842e 50be
00000340: 8964 27be 3567 b1be c0f6 04bf a01a 4cbe
00000350: f10b f5be 2dec c1be f488 0fbf 3b71 acbe
00000360: 2260 76be d01e 82bf d11d b0be 2a1f 95be
00000370: df75 02be 9db5 5bbf c215 c6be b074 18bf
00000380: 2bc9 eabc 1219 7fbe 8573 1dbf 860d 87bf
00000390: 16fc 51be 08a1 3bbf 4371 a1bf 558e d9be
000003a0: e6b3 6bbe d119 9abf 82a7 08bf 6a06 8ebf
000003b0: 8ca6 843d 673f 79bf 1377 42bf b936 4bbd
000003c0: df3d 89bf cece 21bd 7a83 cdbe 5ea9 3dbf
000003d0: 2701 bcbd 840e dfbd 8135 e3be 16b9 1dbf
000003e0: f42e f5be ad25 06bf 8360 9fbe 5c3a 9cbf
000003f0: 4b1a 403d a2e3 9cbe f07c d8be dced db3e
-0.07090288 -0.45992708 -1.6395699 -0.6365176 -1.1814857 0.029242838 -0.0056481212 -0.19038254
-0.624468 -0.74173963 0.31225777 -0.49129358 -0.019691043 -1.5111017 -0.11299411 -0.74499476
-0.0663827 -0.85518295 -0.06255473 -1.0194762 0.26024452 -0.5581217 -0.6158857 -0.39231592
-0.2903346 -0.74630815 -0.7009206 -0.23961817 -0.42879698 -0.5767189 -0.5261631 -0.6705416
-0.2533591 0.24476425 -0.343806 0.07210276 -0.24498945 -0.83594126 -0.08574475 -0.3267339
-0.32505795 -1.3359321 -0.17942084 -0.58060145 -0.05997051 -0.15825872 -0.13576548 -0.16019711
-1.6342363 0.04945091 -0.52061236 -0.27566466 -0.11352123 -0.82171303 -0.07826493 -0.7757113
-1.9467522 -0.32520247 -0.54423743 -0.45897272 -0.3535628 0.3035088 -0.95868206 -0.8871875
-0.21137126 -0.76115644 -0.067427315 -0.43855295 -0.4392017 -0.9332542 -0.5371284 -0.4145008
-0.40295172 -0.36831492 -1.4039975 -0.37100103 -1.0903358 -0.53253365 0.21919614 -0.21716738
0.26112586 -0.025317626 -0.44091508 -0.02606803 -0.75265515 -0.45054764 -0.12003649 -0.34816343
0.101019606 -1.297863 0.2217797 -0.43143794 0.5193306 -2.0324688 -0.62279093 -0.6148409
-0.50621736 0.12445047 0.03969083 -0.8979482 -0.37389538 -1.016173 -0.8506602 0.046352763
-0.6606729 -1.8467327 -1.0417219 -0.83394605 0.11139293 -0.9938199 -0.8102168 -0.29595518
-1.2578422 -0.32156083 -0.17147392 -0.119289905 -0.32039955 -0.34267446 -0.2125838 -0.5759832
-0.61475253 -0.64781344 0.2764829 -0.8747504 -0.007546598 -0.9058871 -0.12897031 -0.031753033
-0.31782258 -0.26309434 -1.0898464 -0.5795687 -0.9788759 -0.19515651 0.30458003 -0.469717
-0.458716 -0.48809 -0.29154012 -0.49909365 -0.26435295 -1.274225 -0.24338634 -0.34823978
-0.25014508 -1.0047239 -0.19874889 -0.8748306 -0.24800314 -0.346082 -0.3403536 -0.76483995
-0.37919182 -0.3132114 -0.37876624 -0.7626618 -0.3777103 -0.7622901 -0.85068125 -0.6392481
0.3107326 -0.308933 -0.7427111 -0.37315127 -0.5921494 -0.6406036 -0.016018564 -0.37016636
-0.42723194 -1.2942691 -0.29942214 -0.37538993 -0.30976292 0.22540699 -0.443793 -0.04393291
-1.1053301 -0.055161096 -0.24358386 -0.41747224 -0.11501705 -0.57127166 -0.22996429 -0.79326147
-1.137602 -0.094123065 -0.4532676 -0.77055806 -0.22965054 -0.26478443 -1.1252741 -0.72514457
-0.19101548 -0.47707725 -0.49005073 -0.4911299 -0.39479622 -1.1462845 -0.22650705 0.0021470438
-0.30941 0.08837071 -0.73933977 0.0041182116 -0.9947768 -0.46060094 -0.28129163 -0.20330244
-0.16346945 -0.34649053 -0.5193901 -0.19932032 -0.47860673 -0.378755 -0.5606835 -0.33680138
-0.2406011 -1.0165653 -0.34397748 -0.2912534 -0.12740277 -0.85823995 -0.38688475 -0.5955305
-0.028660377 -0.24911907 -0.61504394 -1.0551002 -0.2050632 -0.7329259 -1.261269 -0.42491403
-0.23017845 -1.2039129 -0.53380597 -1.1095707 0.06477079 -0.9736237 -0.7596294 -0.049612734
-1.0722007 -0.039503865 -0.4013937 -0.7408656 -0.09179907 -0.108914405 -0.44376758 -0.61610544
-0.47887385 -0.5240124 -0.3112832 -1.220531 0.046900075 -0.3064242 -0.4228282 0.4295491

lstm.weight_ih_l1 f4 [512, 128]
00000000: 4d10 bbbe abc6 84be fded 09bf 030a 74bf
00000010: 1ca1 ca3d 6592 fabe 72ea 4c3c f993 373f
00000020: 502f 57be 8224 0a3f 36dc cabe 6d72 4a3f
00000030: de00 fe3e 9257 c3be e9ba 05be 1b4b 98bd
00000040: 2397 70bf 9b2a 67bd 655f 2b3f 7181 513f
00000050: b02d d33e 9f9a 99bb 9f00 eebc 7386 763e
00000060: 4949 9ebf 84a9 203e 8df7 f7be b5ea 153f
00000070: e663 d93e e595 cb3e 2c3c 63bf f806 b53e
00000080: 7ff7 9a3e ce6b c8be 9c50 41bf f47a d8be
00000090: 5199 2e3f 0499 363f d5b6 bd3e 679e 1bbf
000000a0: 8e51 19bf f114 2a3e ff61 663f 0f13 21bf
000000b0: 81f6 743e f766 1dbe caa2 8abf 3724 6ebf
000000c0: 32fc 2abe 4ee8 273e 8d69 493f 9ceb a53f
000000d0: 342f 3dbf 8b40 30be acfa c5be 5ff5 4a3e
000000e0: a810 59bd 7fbb 76bf 4fd0 ddbc 8e56 043e
000000f0: 8af0 22bf 598d 973e 7e3f af3c 7f49 803e
00000100: 8f37 9c3c f068 9e3e 0a78 d7bf f6a5 fd3e
00000110: f9a2 d6bd 5fc5 3e3f 5089 53bf f407 81bd
00000120: 9a7a 283f 5636 35be 086f 2ebf 4648 c23d
00000130: 51c4 953e 5dcf 40be 3992 8f3e e841 98be
00000140: 6302 0c3e f055 7e3f 1284 a7be 14dd 353f
00000150: f262 a4bd afd9 87bf e6f5 dabd 5e44 e23e
00000160: 6b8c ab3f b4a9 fa3d e026 823e f91d c0be
00000170: 1ade 423d d410 b43e bc2a 963e 99e4 9d3f
00000180: 2f79 48bf 22eb ae3e 6dac 57bf 7a9a 28bf
00000190: 69cb d7bd 5a4a d8be 49ef e03e 5bdc 313f
000001a0: 74d5 a13e d147 1d3e 9444 4cbe c111 1d3f
000001b0: 3d34 853f cb5a f7bd 138c abbe 60a8 8abe
000001c0: f83a 91be c0db 873d 3591 c3bf c499 013f
000001d0: d784 1dbf e65b 27bf 1b3b ac3f 2b9c 803e
000001e0: 2df9 4a3e 3bfc c2be 9147 8ebe 5f99 08be
000001f0: 4d92 d63e 9c0a 23bf 0b5c 983d 859d 623f
00000200: fc8c acbd db12 7d3e 3cd6 1d3e 2b31 833d
00000210: 50fc 30be a06c f63e c566 023f 964a c43d
00000220: 7962 62be 6a2d 1dbd e20e 26bf eb1f 103c
00000230: 9459 063e 2cce 8fbd 9ace 8ebd e1ab 083f
00000240: 073a 873c c40f c6be 288e 58bc 10c6 a93e
00000250: 3635 043e ac24 623e ce8d ffbc e7d7 533e
00000260: b036 a8be 01e2 a8be 1a18 c33e 3672 83be
00000270: 34a6 5d3e 45bf b2be 1a5f 1b3e d70c 4f3e
00000280: 2227 ccbe f3f7 4fbe 367c a1be fd4a 77bd
00000290: b012 763e f217 163f ff9a 183f d813 7f3c
000002a0: b731 463d 2588 babe 687a 853c 1cbe 0d3f
000002b0: e8cb 363e 3dbe 593d 4299 903c d313 dbbc
000002c0: 450c cdbe 5ad3 cfbe 8238 233e 66ed b23e
000002d0: 6bf5 8abd 5cb8 1fbf 1379 6d3d f82d c9be
000002e0: 143d 18be 44b7 43be ffa3 1bbd b632 4c3e
000002f0: 736f 583f 201e 12be 65a4 f03d 71b8 c8be
00000300: 4e4e 293e b969 39be 9446 3dbf e0b7 17bd
00000310: 75c7 fe3e 7d56 58bd f7d1 7abc a86f 0fbf
00000320: 432c a03e eae9 8b3e 7ac9 50be e6a9 06be
00000330: 66b2 ce3e e491 183e 3140 023e 20d8 773e
00000340: ec54 ae3d 1851 74be 92f7 82bf 344d 86be
00000350: 406b a7be cb11 e2be 6ec1 c13c 2bd5 efbe
00000360: fc7d 9c3f 2a2a 54be 4866 a53e 101b 013e
00000370: 029d db3e 7415 0dbe bb4f ba3e 7fea db3e
00000380: 2587 883c 93ea 0d3f 7a7d 36be fe7c 71be
00000390: 58f0 393f e380 0ebf e2cd dc3d 740d b23e
000003a0: b03a e53d ae96 183e dde4 bc3d e3ed a83d
000003b0: c1ef f33e 6753 0dbe b449 febe 8ade 82bf
000003c0: a301 8f3e d1ca 5a3e 9b82 60bf 9bbe 6cbc
000003d0: 4f10 fabe b2ca 3fbe 0ed3 123f 9473 173e
000003e0: 9429 22be 6205 c5be f6bd 723e 83d0 613e
000003f0: 8039 86be 68c7 17bf 38ba a0be 90f2 8e3e
-0.36535874 -0.25932822 -0.53878766 -0.95327777 0.098940104 -0.48939815 0.012507068 0.71710163
-0.21014142 0.53961957 -0.39621133 0.7908085 0.49610037 -0.38152748 -0.13059582 -0.074362
-0.93980616 -0.056437116 0.66942436 0.81838137 0.41245794 -0.0046876217 -0.02905303 0.24074726
-1.2366115 0.15689665 -0.48431054 0.5856126 0.4245903 0.39762798 -0.8876369 0.3535688
0.3026695 -0.39144748 -0.75513625 -0.42281306 0.6820269 0.71327233 0.37053552 -0.6078858
-0.5989007 0.16609551 0.8999328 -0.62919706 0.23922159 -0.15371309 -1.0830929 -0.9302401
-0.16697767 0.16397211 0.7867668 1.2962527 -0.7390015 -0.17212121 -0.3866781 0.19820164
-0.0529944 -0.96379846 -0.027076868 0.12923643 -0.63648283 0.29600027 0.02139258 0.25056073
0.019069461 0.30939436 -1.6833508 0.4954068 -0.10480303 0.74519914 -0.826314 -0.06300345
0.65812075 -0.17696509 -0.6813817 0.09486441 0.2925134 -0.18829103 0.28041247 -0.29737782
0.13672785 0.9934988 -0.3271795 0.71040463 -0.08026685 -1.0613307 -0.10691433 0.44192785
1.3402227 0.122393996 0.25420284 -0.37522867 0.047575094 0.3516909 0.2932948 1.2335387
-0.7830991 0.34163767 -0.84247476 -0.6586071 -0.10536844 -0.42244226 0.4393256 0.6947686
0.31608164 0.15359427 -0.19948035 0.61355215 1.0406567 -0.12077864 -0.33505306 -0.27081585
-0.28365302 0.06633711 -1.5278689 0.5062525 -0.6153082 -0.653746 1.3455538 0.25119147
0.19821616 -0.38083062 -0.27788976 -0.13339756 0.41908494 -0.63688064 0.07439431 0.88521606
-0.08425328 0.24714224 0.15413755 0.064058624 -0.1728375 0.4812975 0.50938064 0.09584539
-0.22107877 -0.03837339 -0.6486646 0.008796672 0.13120109 -0.07021746 -0.06973 0.53387266
0.016507162 -0.38683903 -0.013217486 0.33158922 0.12910923 0.22084302 -0.031195547 0.20687829
-0.32854223 -0.32984927 0.38104326 -0.25673074 0.21645433 -0.34911552 0.15172997 0.20219742
-0.39873606 -0.20309429 -0.31540078 -0.06037425 0.24030566 0.5863029 0.59611505 0.015568696
0.048387256 -0.36431995 0.01629372 0.5536821 0.17851222 0.05315994 0.017651204 -0.026742851
-0.40048423 -0.40590936 0.15939525 0.34946746 -0.06785091 -0.62390685 0.057976793 -0.39292884
-0.1486705 -0.19112879 -0.037998196 0.1994122 0.8454506 -0.14269304 0.11750106 -0.39203218
0.16533777 -0.18106736 -0.7393582 -0.03704059 0.4976155 -0.052816857 -0.015308849 -0.5602975
0.3128377 0.273269 -0.20389357 -0.13150749 0.40370482 0.14899403 0.127198 0.24203539
0.08512291 -0.2385906 -1.0231802 -0.26230776 -0.32699013 -0.441542 0.023651805 -0.46842322
1.2225947 -0.2071921 0.32304597 0.1260798 0.42893225 -0.13777715 0.36388955 0.42952344
0.016666004 0.55436057 -0.17821303 -0.23582837 0.7263236 -0.55665416 0.107814565 0.3477589
0.111928344 0.1490123 0.0922334 0.08248498 0.47643855 -0.13801347 -0.49665606 -1.0224164
0.27930936 0.21366431 -0.8769929 -0.014449741 -0.48840567 -0.18729666 0.57353294 0.14790183
-0.15836173 -0.3848067 0.23705277 0.22052197 -0.26215744 -0.59288645 -0.31392074 0.27919436

lstm.weight_hh_l1 f4 [512, 128]
00000000: 100c 05be 1f8c 06bf c794 debd 8713 12bf
00000010: a679 893e dede 423e ddd7 8abe 430b 17be
00000020: 54ab 54bd 72ef a63d e829 3dbe aba3 08bf
00000030: 9aac 8abe 59a9 553d 2f76 01bf 2c96 333b
00000040: 852d 77bf a1c6 023e e50e d03d db47 9e3f
00000050: 71f4 a4bd 8ef4 babd f3de acbb 52c5 bdbe
00000060: 4afa 133f 626e 3d3d c301 75bd 11ba ca3d
00000070: ff29 093f f1c3 8c3e 7409 ca3e ecd5 49bf
00000080: 398e 2bbe b353 a53d d0b4 fe3d a7c5 0fbd
00000090: 4ce7 803f 8812 6c3f bdc3 413e d15d 8dbe
000000a0: c262 d1bc 10e4 d0be 7071 6f3d eb08 773e
000000b0: 7a39 633f 26bf c4bd 5496 db3e d892 083e
000000c0: 8a5e 02bd bcbe cbbe 95c9 463f d217 833e
000000d0: 16cf 53bc 48f7 3dbe 138a babe 2dd3 283f
000000e0: 42c8 b53c ad6d 283e 1759 acbe 0187 0abe
000000f0: 0c05 8cbd a645 223e e708 50bf 43fa 0c3e
00000100: c9d3 ad3d b18e ddbd 3153 c4be 061a 0f3d
00000110: 4a81 c83e 08ad 2cbe acf1 053e eef6 163f
00000120: c6c1 8a3e 21b9 d4bd 4ef3 e73d 1a06 2dbe
00000130: 99a0 503e a419 003e cbaa 483e e952 a2be
00000140: 51b7 313f 3e39 42be ad1d a8bd 93da cabd
00000150: 6a87 163f 7c2a 0dbf c2fb a93d ee03 4d3f
00000160: 8ef4 9b3d 3cb8 2ebf fab5 23bf 932d f23e
00000170: 72fe 80be a55b 2a3e de31 13be 6c6b af3e
00000180: a8d4 c7be 81a8 883e 9879 af3e eff5 34be
00000190: 39cf 193f 25ca 5e3e 5bda d3bd ba00 e03d
000001a0: 29d4 17bb 4fd1 343f 0041 22bf d8f2 893c
000001b0: e9f5 383e 3e98 1abe 4005 aebe 4ccf a83e
000001c0: 902d dabd e7dd d23e 54e9 d7be be07 94be
000001d0: d688 113f 26c2 0fbf 1864 7f3e b270 b73e
000001e0: cee5 913d bd00 2a3e 5a49 cfbe 95ef 27be
000001f0: d40d 703d 25e4 8d3e 1356 e63d a1a8 5a3d
00000200: 9ddf 36bf 9bb7 07be 7cf6 8ebe 67fd cabe
00000210: e7ad b2be f80f 0a3e f4ff 9bbe 5756 963f
00000220: edcb a23e 7241 4b3e 834b 86be 03cf 43bd
00000230: 2881 abbe 734d a03e d28b 373e 1c16 2bbe
00000240: c6a8 22bf 0187 3abe f7b3 2c3e ce39 1e3e
00000250: fa79 833f 10ef 9d3d b80e 863e 8c28 93bb
00000260: 7832 92bd 7058 f6bd e27d 773d cf04 bdbd
00000270: bcf1 fd3d dfb8 793e 91ad 963e f623 bb3e
00000280: 0afc de3e e645 523e 6f64 b63a 48df 913e
00000290: e839 0bbf a163 0cbe ecbf bfbd 47d3 da3e
000002a0: 420d e1bd bf63 953e 4d4e 083f f814 46be
000002b0: 642f 303e c98a 06bf 9a3e d2be 06e2 323c
000002c0: 90b1 3f3e cc89 d4be 3851 063e 0394 a8be
000002d0: 27cd a8be 83cd de3e 66d3 803e f345 3f3e
000002e0: d092 8bbe 9828 e4bd 5398 653e 5fad a63e
000002f0: 7a89 6d3e d4f0 4fbe 4e80 843e ae48 943e
00000300: fe20 ce3e e261 babe c8be 003f 6846 b13e
00000310: 34a2 1f3e 7498 8ebe 03b8 bd3b a254 f93e
00000320: 1f23 453e 5539 35be b082 b93e 19ff 3bbe
00000330: 5e13 4a3f 6b30 a43e 032c 8fbe 5a1b d1bc
00000340: 3cd1 e63e ce5b b0be e9ac 88be 442b 41be
00000350: 5084 9ebd d636 82bf d450 083e 2d38 d93c
00000360: bfe6 8f3e 418e 1ebf 414f 8b3d 8da9 c3bd
00000370: 11ae 90be 7848 333d 5dfe dabd 515b 53be
00000380: 9939 563e 2e81 653e 57ec 0b3f 883f c9be
00000390: a7e8 363d 5916 9c3d f807 84ba f69b 33be
000003a0: 4cf2 7e3b bfa8 0a3f 6032 1dbf a227 a43e
000003b0: 84f4 e1bd 13a8 8f3e 4b15 8c3e 27e5 f4be
000003c0: 1bb7 f7be dd5a aabd 3c28 62be b23b 00bf
000003d0: cef7 e23e 4d06 dfbd e1eb aa3e 062e 163e
000003e0: 6d68 75be 22db 853e 311a 573e d1bb 88bd
000003f0: 5330 e1be 6eb2 083e b1cb babe 5468 173f
-0.12992883 -0.5255756 -0.10868221 -0.57061046 0.26850623 0.1903033 -0.27117816 -0.1475039
-0.051921204 0.08151139 -0.18473017 -0.5337474 -0.2708481 0.052163456 -0.5057096 0.0027402742
-0.9655383 0.12771083 0.10159091 1.2365679 -0.08054436 -0.09128676 -0.005275601 -0.37064606
0.57803786 0.046247847 -0.059816133 0.098987706 0.53579706 0.2749324 0.39460337 -0.78842044
-0.16753472 0.08072605 0.12436831 -0.035100605 1.0070586 0.92215776 0.18922324 -0.2761064
-0.025559787 -0.40798998 0.05845779 0.24124496 0.8875958 -0.09606771 0.4288813 0.13337266
-0.03182844 -0.39793956 0.7765134 0.2560411 -0.012927791 -0.18551362 -0.36433467 0.6594723
0.022190217 0.16448088 -0.3366172 -0.13528062 -0.068369 0.15846881 -0.81263584 0.13767342
0.084876604 -0.10818232 -0.3834472 0.034936927 0.3916114 -0.16862881 0.13080472 0.58970535
0.27100962 -0.10386873 0.113257036 -0.16896859 0.20373763 0.12509781 0.19596402 -0.3170388
0.69420344 -0.18967149 -0.08208785 -0.09904971 0.58800375 -0.5514295 0.08299972 0.8008412
0.076150045 -0.6824987 -0.6394955 0.47300395 -0.25194126 0.16636522 -0.14374492 0.34261644
-0.3902943 0.26691058 0.34272456 -0.17671941 0.6008182 0.217568 -0.103443824 0.109376386
-0.0023167229 0.7063188 -0.6338043 0.01683943 0.18062557 -0.15097138 -0.3398838 0.32970655
-0.106532216 0.41184923 -0.42170203 -0.28912157 0.5684942 -0.5615562 0.24940526 0.35828167
0.0712391 0.16601844 -0.4048565 -0.16399987 0.058606938 0.27713123 0.11246886 0.053383473
-0.71434957 -0.13253634 -0.27922428 -0.39646456 -0.34898302 0.13482654 -0.30468714 1.1745099
0.31796208 0.19849184 -0.26229486 -0.047804844 -0.33496976 0.3130909 0.17924431 -0.16707653
-0.6353878 -0.18215562 0.16865526 0.15451738 1.0271599 0.07711613 0.26183105 -0.0044909175
-0.071385324 -0.12028587 0.060422786 -0.09229433 0.12399623 0.24386929 0.29429296 0.36550874
0.43551666 0.20534477 0.001391543 0.28490663 -0.5438523 -0.1370988 -0.09362778 0.42739317
-0.10988857 0.29177663 0.5324448 -0.19343936 0.17205578 -0.5255552 -0.41063386 0.010918146
0.18720078 -0.4151138 0.1311692 -0.32925424 -0.3296902 0.43516168 0.25161284 0.18679027
-0.27260447 -0.11140555 0.22421388 0.32554147 0.23196974 -0.20306712 0.2587914 0.289617
0.40259546 -0.36402804 0.5029111 0.34624028 0.1558922 -0.27850688 0.005789758 0.48697382
0.19251679 -0.17697652 0.3623252 -0.18359031 0.789358 0.3206819 -0.27963266 -0.025525738
0.45081508 -0.3444504 -0.2669442 -0.18864161 -0.0774008 -1.0172985 0.13312083 0.026516045
0.28105733 -0.6193581 0.06802226 -0.095538236 -0.28257802 0.043770283 -0.10693047 -0.20640303
0.2092041 0.2241256 0.546575 -0.39306283 0.04465547 0.0762145 -0.0010073176 -0.17539963
0.0038901744 0.54163736 -0.6140499 0.32061487 -0.11032966 0.28057918 0.27359995 -0.4783108
-0.48381886 -0.08318112 -0.2208566 -0.5009109 0.44329685 -0.10889874 0.33383086 0.14665994
-0.23965617 0.26143748 0.21006085 -0.06676448 -0.4398218 0.13349316 -0.3648353 0.5914357

lstm.bias_ih_l1 f4 [512]
00000000: cbdf db3d 6ef7 8abe 7fdb 52be ab94 653d
00000010: 19d8 dcbe e63b 06bd bcec dabd 03af d5be
00000020: 1f76 ebbd d56c 6fbe 4e8b 04bf 7efe 91be
00000030: 0910 acbe 417a 2fbe 5080 a8be f35e 8abe
00000040: 841c 803e 8364 2e3e 2295 87be 637e 03bd
00000050: 44a8 28bf 83d7 01be 0bc9 283d db85 70be
00000060: aa6d 8fbe d324 9abe 0156 d9be 285a aa3e
00000070: aef9 d4be c757 55be 0206 cbbd 623b 83be
00000080: c41b 24be 2ddb 44be b604 5bbe 6c9a c0bd
00000090: 263c ccbe fd2a 68bf 764f f0bd 2e82 f2be
000000a0: fb8d d2be d241 a43d f81f 6bbe 53b0 e8be
000000b0: aba0 88be 89ad b4be e460 26bf 67d4 52bf
000000c0: e6f4 05bf 431d babe 0bdd 353f b1c5 1fbd
000000d0: 571d cd3e f002 20be 9be4 27bf 7eb4 27bb
000000e0: cf18 aabe 58fb 17bf e6ee c8bd 195c cfbe
000000f0: da31 f53d 50f5 853b 9661 25bf 4ab8 8abc
00000100: 5790 d6be a2f5 a4be 6346 303e 87a3 7ebf
00000110: fc9e 97be a808 2bbf 387f 7cbe 89d9 e23d
00000120: b561 f4bd 7fe3 d0bd 63e1 1ebf f04f c1be
00000130: 89e3 d5be c9d4 e5be 8db6 58bd 17ff d7be
00000140: 2633 18be d142 febd da76 9abd aa75 ccbd
00000150: ec57 663d df9c 8e3d feeb d0bc 6192 13be
00000160: 18a1 9abd e458 0738 37fc efbe bbcb 22bf
00000170: 026b 08be 7152 a5bd aa2e afbe e701 64bf
00000180: cc27 6ebe 485f 94be 037f bb3d a661 22bc
00000190: d5f5 e9be 0808 0e3e 521d 30be 83ee dbbd
000001a0: a93d e1bd dc39 343e 8b5d 6ebe d3d2 66be
000001b0: e391 9dbe f253 09bf d8a4 3ebf 923f 14be
000001c0: 7e17 84be 8cee bfbd 7025 ebbe e3db d1bd
000001d0: 8ba6 413e 05cc c5bd 8087 893e 17ce 063e
000001e0: c948 cdbe da56 7bbe 8842 b0bd d464 57be
000001f0: c522 a3bd f464 64bf 3e55 c4be 6376 f3bc
00000200: f8fc 18bf bde3 d8be b0c0 ddbd 3e82 41be
00000210: 5031 7fbf a0dc ab3e f41d 55bf badd 98be
00000220: c529 b9bd 87ca 9fbe a3da 083d e9e2 40be
00000230: 28de f9bd 81ce d83e 6da0 19bf 2b9b 143f
00000240: 633e 2abe c37b c8be 2555 a13d 71cd 15bf
00000250: 45f2 bebe 8b73 903e 5fe1 553e 5756 e6bd
00000260: 19da 2dbf 7850 4abe e477 d13e 5b2a 0a3f
00000270: 1e80 93be 4f06 043f 53b5 c93e 4774 edbd
00000280: 3a9c 5bbe 8917 563d d21a 3dbe 705e 063c
00000290: 501a e0be 6a3a 99be 3d74 adbe 9973 9ebe
000002a0: 032f 18be ac95 e0bd c049 453d 2ac4 ebbe
000002b0: bcf3 19bf ec16 99be 5a2c 73bd 66d7 bfbe
000002c0: 7aac 8fbe d97b c1bd 5a7a d7be 5d80 adbe
000002d0: 0b6f 0a3e 60da a5be 5c10 0cbf 26a2 cbbd
000002e0: 6109 a2be 4eaa 70bc d772 373d bc35 1abf
000002f0: 9614 0f3f 4673 2dbf 0f67 aebe c06d f73e
00000300: 19f1 f8be b06e 0b3e f922 c5bd ca0d 0ebf
00000310: 43b4 aebe 17de 7cbc e29c c8be 730c 27be
00000320: fb77 65be 06e9 edbe 6442 05bf 0478 5e3e
00000330: 8923 82bd 7d9e e63d b3b3 aa3d 5729 e83d
00000340: 44ba bbbc 5bbf e2be a700 94be abd2 a03e
00000350: 0ea4 6dbe 7577 06bc ce98 64bc 8cf0 4ebc
00000360: 6d79 dfbd 8819 54bf 05ad 1ebd 315a e1be
00000370: 76f1 efbe f39d 9c3b 33ee 5cbe abeb 67bf
00000380: 2f14 f6be ef67 833e da3d 3d3c 88c5 963e
00000390: 8a47 68be 30b2 53be 12f6 1e3e 2a37 efbb
000003a0: 6093 ab3d 2624 23bf 34c9 3c3e 2d3f 09bf
000003b0: b2a8 25be 1e53 9abe 5a14 59bf 65e5 36be
000003c0: 78dc 863c 3d3b cfbe d4cf 3fbd d28a 6fbe
000003d0: 4a17 1b3e 0c6e 21bd 3e8d 7a3d 0cee 043f
000003e0: ba23 9cbe 3b02 06bd 38d8 98be 68fb e1be
000003f0: 9c24 48bc 2284 05be 4137 94bd b079 453d
0.107360445 -0.271419 -0.20591544 0.056049984 -0.4313362 -0.032771967 -0.10689685 -0.41735086
-0.11497139 -0.2338136 -0.5177506 -0.28514475 -0.33605984 -0.1713648 -0.32910395 -0.27025566
0.25021756 0.1703053 -0.26480967 -0.032102954 -0.6588175 -0.12679867 0.041207355 -0.23488562
-0.28013355 -0.3010622 -0.42448428 0.3327191 -0.4159674 -0.20834266 -0.09913255 -0.25631243
-0.16026217 -0.19224234 -0.21388516 -0.09404454 -0.3988964 -0.90690595 -0.11733906 -0.47364944
-0.41123948 0.08020367 -0.22961414 -0.45447025 -0.2668508 -0.35288647 -0.64991593 -0.8235535
-0.5232681 -0.3635045 0.7104041 -0.039006893 0.40061447 -0.1562612 -0.655832 -0.002558976
-0.33222052 -0.59367895 -0.09811191 -0.40499952 0.11972399 0.0040880814 -0.6460203 -0.016933579
-0.41906998 -0.32218653 0.1721435 -0.9946827 -0.29613483 -0.66810083 -0.24657905 0.11076648
-0.11932699 -0.101996414 -0.6206266 -0.377563 -0.41775158 -0.44888905 -0.05290847 -0.42186806
-0.14863262 -0.12415088 -0.075422004 -0.0998338 0.056236193 0.069635145 -0.025503155 -0.14411308
-0.075502574 3.2269294e-05 -0.46872112 -0.6359212 -0.1332207 -0.08072365 -0.3421529 -0.890654
-0.23257369 -0.28978944 0.09155085 -0.0099109765 -0.45695367 0.13870251 -0.17198685 -0.10738852
-0.10998089 0.17600197 -0.23277871 -0.2254136 -0.30775365 -0.53643715 -0.7447028 -0.14477375
-0.25799173 -0.09371671 -0.45927 -0.10247018 0.18911187 -0.09658054 0.2686119 0.13164555
-0.40094593 -0.2454485 -0.0860644 -0.21034557 -0.07965616 -0.8921654 -0.38346285 -0.029719537
-0.59761 -0.4236125 -0.10827768 -0.1889734 -0.9968462 0.3356676 -0.8324883 -0.29856664
-0.0904117 -0.31209204 0.033411633 -0.1883656 -0.12200576 0.4234505 -0.60010415 0.5804927
-0.16625361 -0.39156923 0.07877568 -0.58516604 -0.37294212 0.28213152 0.20886753 -0.11246937
-0.67910916 -0.19757259 0.40911782 0.5397088 -0.28808683 0.51572126 0.39396152 -0.11594444
-0.21446314 0.05226854 -0.18467262 0.008201227 -0.43770075 -0.2992738 -0.33877745 -0.3094757
-0.14861684 -0.10966048 0.048166037 -0.460481 -0.60137534 -0.299003 -0.05936847 -0.37469023
-0.28061277 -0.0944745 -0.42085534 -0.33886996 0.13518922 -0.3239317 -0.5471246 -0.09943037
-0.3164778 -0.014689041 0.044787254 -0.6023824 0.55890787 -0.6775402 -0.34063002 0.4832592
-0.48621443 0.13616443 -0.09625811 -0.5548979 -0.34121904 -0.01543381 -0.39182192 -0.16313343
-0.2240905 -0.46466845 -0.5205443 0.2172547 -0.06354434 0.11260698 0.08335056 0.1133601
-0.022915967 -0.44286618 -0.28906748 0.31410727 -0.23207113 -0.008207192 -0.013952447 -0.012630593
-0.10911832 -0.8285146 -0.038739223 -0.44014123 -0.46863908 0.004779571 -0.21575241 -0.90593976
-0.48062274 0.25665233 0.011550391 0.2944758 -0.2268354 -0.20673442 0.15523556 -0.0073002772
0.08377719 -0.63727033 0.18436128 -0.53612024 -0.16177633 -0.30141538 -0.8479668 -0.17860945
0.01646255 -0.40474883 -0.04682906 -0.233928 0.15145603 -0.03941159 0.061169855 0.5192573
-0.30496007 -0.03271697 -0.29852462 -0.4413712 -0.01221576 -0.13038686 -0.07237101 0.048211753

lstm.bias_hh_l1 f4 [512]
00000000: 1912 173e c766 88be 91ae a6be a8a3 143e
00000010: c1e3 cfbe e385 d33d 19f5 e23c ae4e f0be
00000020: 27c6 51bd d33c 81be ca39 04bf ab76 8bbe
00000030: dc0b 83be c0ac e7bd 928a bcbe 47c3 06be
00000040: 514f 7e3e 3a90 593e bcd1 40be 697e 4c3d
00000050: 3aef 13bf 1191 4ebe 45c3 3a3c 99f2 5dbe
00000060: ddd1 2dbe 864f 64be 3851 acbe c3c0 c43e
00000070: a987 b4be f86f 4abe 42e3 10be 7b66 b8be
00000080: 3561 61be d57d 50be 48a8 6bbe 5740 fcbd
00000090: 694c 94be b70a 3dbf 19f5 58bd 7314 fcbe
000000a0: d3db 93be 48bd b23d e693 ecbd 5f8c 13bf
000000b0: c491 d2be 0301 a6be 7654 27bf f365 49bf
000000c0: 6390 28bf 2092 b7be 4371 213f f8ee 883c
000000d0: 5301 f53e 61fc 2dbe 4184 04bf af27 52bb
000000e0: 55d3 9dbe 0807 edbe b1e1 bbbd 9fe5 b6be
000000f0: a22d 073e 4ddd c13c 6d3a 2fbf 69ce d83b
00000100: 246e 99be 8951 9dbe 54b4 993e 4fe2 7abf
00000110: cec1 49be 118f 16bf c5a5 c5be c652 293e
00000120: dded debd 9a5b 2fbe f0bd 29bf 70e3 b4be
00000130: dd41 c2be f169 eebe 52ec dabd b90a babe
00000140: 79ed 43be 1c79 61bd af26 22be a0dd 97bd
00000150: 0982 713d 1ba0 c9bc 86df 283d 09f4 3ebe
00000160: 1b07 5fbc fa2f 01bd 49b9 c0be b8a0 21bf
00000170: b166 44be f7e3 97bc 9a8a dcbe 0dd1 65bf
00000180: b23b 3ebe 4c3c 6dbe 7b32 343e 4abf 4d3c
00000190: c006 fcbe a079 623c f1b4 bdbd 3e13 e7bd
000001a0: 6a14 20be 242e 233e 5677 d5bd 104c 14be
000001b0: 9ee3 91be b4c8 15bf 85b9 36bf d84b 98be
000001c0: d4cb acbe c1f8 fabd 96df bdbe 9ea4 d1bd
000001d0: 1ff6 a03d bb15 56be 2b48 023e cb6f ed3b
000001e0: 5e2e 07bf dfaf f2bd fadd 673d e9fb 74be
000001f0: c882 b7bd bcf6 45bf fb98 b0be 76c1 77bd
00000200: 75e1 0dbf d100 ccbe 111a 9cbd ca0c 6bbe
00000210: 8eef 90bf b177 8e3e d6ec 62bf f6c0 6dbe
00000220: e0d3 f4bd f0e1 6bbe dccd 003d 2032 5dbe
00000230: 0a12 84be ce8f fc3e cf3d 0fbf 5cb6 143f
00000240: 432a 74be 8ba6 e1be 7552 eb3b d8e9 11bf
00000250: 1476 b4be bed9 8f3e a561 973e 1441 dabd
00000260: d9e2 14bf 7f51 13be 3ef6 ae3e 8837 fa3e
00000270: 962c 87be 2029 183f d9cb e93e 4144 44bb
00000280: 8f03 62be 0cc3 2a3e 8cda 7bbe 01b6 99bd
00000290: 9e7e c4be aa69 a4be 3568 a9be 8416 afbe
000002a0: d2a0 18be 5bbe b7bd 46b0 fb3d da4d efbe
000002b0: 6168 11bf 261a c5be 67c0 0bbd f30c 93be
000002c0: 71a9 8ebe 847b 0fbd eb56 93be e090 c1be
000002d0: c8a8 703d 70cf 92be 2fea 02bf be88 24be
000002e0: 9641 acbe 15a9 cabb 8b57 e73c d714 26bf
000002f0: 686b ff3e 8cd6 17bf 99a7 c3be 7957 fc3e
00000300: bffa f5be 4746 723d 9095 43be 6a8a 1bbf
00000310: 0c19 e2be f540 d0bc ecec bebe 6c45 18be
00000320: c356 aabe 15e4 d9be ba90 1bbf 82c6 4d3e
00000330: fc02 a1bd f97e 273e 1122 9c3d f0e0 b03d
00000340: a6bb f13d 3fe5 cebe 7989 bbbe 18cd 873e
00000350: bde6 9fbe cef1 bb3c 38e6 6cbd 6dd4 673d
00000360: 221d 14bd 021b 3fbf d1c3 27bb 9e47 edbe
00000370: b673 f9be a192 bb3d 3c63 83be 5623 74bf
00000380: 6b9e e8be 9efd d13e 6f90 9c3c 6437 d93e
00000390: c747 8dbe c214 01be 032b 153e 2b54 37bd
000003a0: 44e0 983c 4cb5 f6be 8e9b 003e 694e dfbe
000003b0: 4d0f 7fbe 5b86 9ebe 8f06 3fbf aef4 33be
000003c0: 3a49 ea3d b0e3 99be f5c9 a73c 7c50 c5be
000003d0: cdc6 0e3e 331d 43bd fe32 79bd de55 043f
000003e0: 8e25 84be 57f0 0fbb ecdb 02be 06a2 d2be
000003f0: 3410 ea3c 2baa 29be d5d5 4ebd 2636 e63d
0.14752997 -0.26640913 -0.3255506 0.14515555 -0.4060345 0.10328271 0.027704762 -0.46935028
-0.051214363 -0.25241718 -0.5165068 -0.27238974 -0.25594985 -0.11312246 -0.3682447 -0.1316043
0.24834944 0.21246424 -0.18830007 0.04992524 -0.57786906 -0.20172526 0.011399095 -0.21674575
-0.16974588 -0.22295961 -0.33655715 0.38428316 -0.3525975 -0.19769275 -0.14149192 -0.36015686
-0.22009738 -0.20360501 -0.23013413 -0.12316959 -0.28964546 -0.73844475 -0.05296812 -0.49234352
-0.2887865 0.08727509 -0.11551647 -0.57636064 -0.41126835 -0.32422647 -0.6536325 -0.7867119
-0.65845317 -0.35853672 0.6306345 0.016715512 0.47852573 -0.16990806 -0.51764303 -0.003206711
-0.30825296 -0.46294427 -0.091739066 -0.35722062 0.13201001 0.023665095 -0.68448526 0.006616403
-0.29966843 -0.3072627 0.30020392 -0.9800157 -0.19702837 -0.5881205 -0.38603035 0.16535482
-0.108852126 -0.17124787 -0.66305447 -0.3532977 -0.37940875 -0.46565202 -0.10689606 -0.36336306
-0.19133557 -0.05504714 -0.15835069 -0.074153185 0.0589619 -0.024612477 0.041228794 -0.1864778
-0.013612534 -0.031539895 -0.3764136 -0.6313586 -0.19179799 -0.01854132 -0.43074495 -0.8977211
-0.1857746 -0.23167533 0.17597382 0.012557814 -0.492239 0.013822943 -0.092630275 -0.11282967
-0.15632787 0.1593557 -0.10423152 -0.1448214 -0.2849397 -0.58509374 -0.7137683 -0.29745364
-0.3374926 -0.12254477 -0.37084645 -0.10236476 0.07859444 -0.20906727 0.12722842 0.007245993
-0.52805126 -0.11849951 0.056608178 -0.23924221 -0.089604914 -0.7732961 -0.34491715 -0.060487233
-0.55422145 -0.39844373 -0.07622159 -0.22954097 -1.1323106 0.27825692 -0.8864263 -0.2321814
-0.119544744 -0.23035407 0.031446323 -0.21601152 -0.25795013 0.49328464 -0.5595369 0.5809076
-0.23844247 -0.44072375 0.0071814605 -0.5699744 -0.35246336 0.28095812 0.29566684 -0.10656944
-0.5815864 -0.14386557 0.34172243 0.48870492 -0.26401204 0.5943775 0.45663336 -0.002994791
-0.2207167 0.16675967 -0.24595088 -0.075054176 -0.3837785 -0.32111865 -0.33087316 -0.34196866
-0.14905098 -0.08971854 0.12289481 -0.46739084 -0.56799895 -0.38496512 -0.034119036 -0.28720817
-0.2786365 -0.035029903 -0.2877725 -0.37805843 0.058754712 -0.28673887 -0.51138586 -0.16067788
-0.33643788 -0.006184707 0.028239986 -0.6487555 0.49886632 -0.5931175 -0.38213804 0.49285486
-0.48042867 0.059149053 -0.19100022 -0.6075808 -0.44159734 -0.025421599 -0.37290132 -0.14870232
-0.3326932 -0.42556825 -0.6076771 0.20095256 -0.07861897 0.1635703 0.07623685 0.086366534
0.11803369 -0.40409276 -0.3662832 0.26523662 -0.31230727 0.02294245 -0.05783674 0.05659907
-0.036160596 -0.74650586 -0.0025598893 -0.46343702 -0.48721093 0.091588266 -0.25661647 -0.9536642
-0.45433363 0.41013807 0.01911184 0.42425072 -0.27593824 -0.12605575 0.14567189 -0.044758003
0.018661626 -0.48185194 0.1255934 -0.4361451 -0.2490818 -0.3096188 -0.7461938 -0.17573807
0.11439748 -0.30056524 0.020482043 -0.38537967 0.13943024 -0.04763527 -0.060839646 0.5169352
-0.25809902 -0.0021963322 -0.12779206 -0.4113924 0.02857218 -0.1656882 -0.050496895 0.11240797
