CNN/CNN7/model.pth (torch, 51471 bytes, 8 tensors)

conv1.weight f4 [16, 3, 3]
0	0xbf09d262	-0.53836644
1	0xbed3e533	-0.41385803
2	0xbe80b97f	-0.25141522
3	0x3c9e6b3b	0.01933824
4	0xbdf4bf6f	-0.119505756
5	0xbebc2809	-0.36749294
6	0xbcf568c7	-0.029957188
7	0x3f015c6c	0.5053165
8	0x3eb46922	0.3523646
9	0xbe41a85f	-0.18911885
10	0xbf0bf2ee	-0.54667556
11	0xbe8100b4	-0.2519585
12	0xbeaafb83	-0.33395013
13	0xbdcefebd	-0.10107181
14	0xbe0eccf4	-0.13945371
15	0x3f1cbe0c	0.6122749
16	0x3f134271	0.57523257
17	0x3e8d1a5f	0.27559182
18	0x3de3153c	0.110880345
19	0x3d7b76cc	0.06139259
20	0x3ed53c09	0.41647366
21	0xbe284d6f	-0.16435789
22	0x3ea9c518	0.33158183
23	0xbe44a3d1	-0.19203116
24	0xbf014caf	-0.50507635
25	0xbf99bd1e	-1.2010839
26	0xbf6e5b0e	-0.9310769
27	0xbe22bc47	-0.15892135
28	0x3e029901	0.12753679
29	0x3df9db34	0.12200013
30	0xbe2a4bac	-0.16630429
31	0x3d0cb254	0.034349754
32	0xbe56a330	-0.20960689
33	0xbe41e544	-0.18935114
34	0xbede8ee7	-0.434684
35	0x3ccfc592	0.025362764
36	0x3e15bf05	0.1462365
37	0x3e6fe137	0.23425756
38	0x3e878cd4	0.2647463
39	0x3ea920e1	0.33032897
40	0x3e98160f	0.2970433
41	0x3d964ea4	0.07339218
42	0xbeaebb02	-0.3412705
43	0xbf1abf6b	-0.6044833
44	0xbee743e0	-0.45168972
45	0x3eb01bb8	0.34396148
46	0x3f092514	0.535722
47	0x3f484fb5	0.78246623
48	0xbfb1de14	-1.3895898
49	0xbffdd803	-1.9831547
50	0xbff63237	-1.9234074
51	0xbf0ef13e	-0.55836856
52	0xbe4d8fa9	-0.20074333
53	0x3c9cc5cf	0.019137291
54	0x3eff3f99	0.4985321
55	0x3e632570	0.2218225
56	0x3cf0bc1d	0.029386574
57	0x3d9f99e3	0.077930234
58	0xbbeb438a	-0.007179682
59	0xbd0989c8	-0.033578664
60	0xbeddd0c8	-0.4332335
61	0xbf1469d2	-0.5797397
62	0xbe673045	-0.22577007
63	0xbe3ac3b7	-0.18238722
64	0xbf139be6	-0.5765976
65	0xbdb56992	-0.088580266
66	0x3f2e0c2c	0.6798732
67	0x3f298c9a	0.66230166
68	0xbd09f351	-0.03367931
69	0x3dcae0bf	0.09906148
70	0x3dc2d9eb	0.09514221
71	0xbc48b508	-0.012250192
72	0xbe2c8a2f	-0.16849588
73	0x3e7ebe5a	0.24877301
74	0x3e9d686b	0.30743727
75	0xbb195c61	-0.002340101
76	0xbf097ca8	-0.53705835
77	0xbf134008	-0.5751958
78	0x3e5394af	0.20662187
79	0x3e96bf3b	0.29442772
80	0x3f1c65bc	0.61092734
81	0xbf8f6e38	-1.1205511
82	0xbf43062d	-0.761813
83	0xbf5cbc65	-0.8622497
84	0x3f12ee5f	0.57394975
85	0x3ee74c24	0.45175278
86	0xbec2ab11	-0.38021138
87	0x3dd2a2b2	0.10284938
88	0xbc09fd3a	-0.00842219
89	0x3d6c6899	0.05771694
90	0xbe8e8f8c	-0.27843893
91	0xbc86c59f	-0.016451655
92	0xbd98bcf7	-0.07457917
93	0xbe8bf9c7	-0.27339002
94	0x3d6be336	0.057589732
95	0xbeccd1fd	-0.40003958
96	0x3e8118bb	0.2521418
97	0x3ef5fa81	0.48042682
98	0x3f1c0370	0.60942745
99	0x3e4e7383	0.20161252
100	0xbe198c7c	-0.14994997
101	0x3e59f663	0.21285395
102	0xbf61587d	-0.8802565
103	0xbf804215	-1.0020167
104	0xbefdd55a	-0.49576837
105	0x3dc598b2	0.09648265
106	0x3ef627c8	0.48077226
107	0x3f0d312c	0.55153155
108	0x3ed55dd7	0.41673157
109	0x3ee45008	0.4459231
110	0x3ee4d53a	0.4469393
111	0xbeb2e434	-0.3493973
112	0xbf16938a	-0.58818877
113	0xbf31d05b	-0.6945855
114	0xbea60dfe	-0.3243255
115	0xbe6782c3	-0.22608475
116	0x3b32ff31	0.002731275
117	0x3eee5453	0.4654871
118	0x3efb6df5	0.49107328
119	0xbc8707f4	-0.016483285
120	0xbf2f6a99	-0.6852203
121	0xbf927e48	-1.1444788
122	0xbf328c88	-0.69745684
123	0xbe83f902	-0.25775915
124	0x3e0fbe34	0.140374
125	0xbd237b43	-0.039912473
126	0xbd60631d	-0.05478202
127	0xbf18eebb	-0.59739274
128	0xbe939176	-0.28821915
129	0x3f368ee7	0.713118
130	0x3f187b4c	0.59563136
131	0x3ef23a59	0.4731014
132	0xbd7d021e	-0.061769597
133	0xbd495171	-0.049149934
134	0xbe723d43	-0.23656182
135	0xbdcbf85c	-0.0995948
136	0x3e7bd344	0.2459231
137	0x3e73f0e6	0.23822364
138	0xbd6df9c7	-0.058099534
139	0xbe8d3b3c	-0.27584255
140	0xbee70771	-0.45122865
141	0x3f06d828	0.5267358
142	0x3ee9c051	0.45654538
143	0x3dc5d250	0.096592546

conv1.bias f4 [16]
0	0x3e9276d1	0.28606275
1	0xbe496a85	-0.1966954
2	0x3ea1a1c1	0.3156872
3	0xbdacb720	-0.08433366
4	0x3ea7d7e8	0.3278191
5	0xbececfc6	-0.40392894
6	0x3edf13da	0.43569833
7	0xbef2af75	-0.47399488
8	0xb8d70bd7	-0.00010254204
9	0x3e17cb21	0.14823581
10	0x3df225a6	0.11823587
11	0xbe2e7fb7	-0.17040907
12	0x3e8c7302	0.27431494
13	0x3e8521da	0.2600239
14	0xbe9efc12	-0.3105169
15	0xbe0f0a92	-0.13968876

conv2.weight f4 [32, 16, 3]
0	0x3e4b891d	0.19876523
1	0x3e51a3ed	0.20472689
2	0xbd06d6cd	-0.032919694
3	0x3f583875	0.84461147
4	0x3f14fbaa	0.5819651
5	0x3f5139ff	0.8172912
6	0xbedd7f9a	-0.43261415
7	0xbeeaff6a	-0.4589799
8	0xbdb9105d	-0.09036324
9	0x3db9bbab	0.09068998
10	0x3d87d69e	0.06632732
11	0xbce86b57	-0.028371496
12	0xbf8b6930	-1.0891476
13	0xbf9a96fd	-1.2077328
14	0xbf4741ba	-0.77834666
15	0xbf03d930	-0.51503277
16	0x3f9907f1	1.1955549
17	0xbed4c2ca	-0.41554862
18	0xbf2b5f40	-0.66942215
19	0xbf47a6b7	-0.7798876
20	0xbf56734d	-0.83769685
21	0x3f1414f9	0.578445
22	0x3ed59050	0.41711664
23	0x3eb6e6b1	0.3572288
24	0x3e8db2f5	0.27675596
25	0x3e896994	0.26838362
26	0x3e12be75	0.14330466
27	0x3e3c4fa2	0.18389753
28	0x3e616b54	0.22013599
29	0x3ebcfa32	0.36909634
30	0x3e38ca62	0.18045953
31	0x3e008254	0.12549716
32	0x3e7dfaf9	0.2480277
33	0x3dd52dff	0.10409164
34	0x3e52c399	0.20582427
35	0x3e2d9fbf	0.1695547
36	0xbf52a518	-0.82283163
37	0xbf114da5	-0.567591
38	0xbf1014e6	-0.5628189
39	0xbe68c716	-0.22732195
40	0xbea85d34	-0.32883608
41	0xbe4a279d	-0.19741674
42	0x3e174832	0.14773634
43	0x3db9e850	0.09077513
44	0x3f0d9bea	0.5531603
45	0x3e2e0dd7	0.16997467
46	0x3e478777	0.1948527
47	0x3dd2cb53	0.10292687
48	0xbdc19bc3	-0.09453537
49	0x3e2ed52f	0.1707351
50	0xbdc83afc	-0.097768754
51	0xbeaa28ab	-0.33234152
52	0xbe06d0f3	-0.13165645
53	0x3dcdce01	0.10049058
54	0xbde2e82c	-0.110794395
55	0xbf1086bf	-0.56455606
56	0x3e3b65ce	0.18300554
57	0x3d59632e	0.0530731
58	0x3cb6fcc1	0.02233732
59	0xbdff7573	-0.124735735
60	0xbdd26c4b	-0.102745615
61	0xbe8548f2	-0.26032215
62	0xbea4d010	-0.3218999
63	0x3fec6e08	1.8471079
64	0x4040672e	3.0062976
65	0x40291b0a	2.6422753
66	0xbd8e2742	-0.069410816
67	0xbd8739c0	-0.06602812
68	0xbe657830	-0.22409129
69	0x3e3ad6bf	0.18245982
70	0x3f13d600	0.57748413
71	0x3fa4dde8	1.288022
72	0xbe185547	-0.1487628
73	0xbcaf7362	-0.021417323
74	0xbcb45da0	-0.0220173
75	0x410dd0b5	8.863454
76	0x403136da	2.7689729
77	0x3fa13ab3	1.2596039
78	0xbd9157d0	-0.07096827
79	0x3e3fa38c	0.18714732
80	0xbe7a7dbb	-0.24462025
81	0x3e2493ce	0.16072008
82	0xbdce6319	-0.10077495
83	0x3e5c9830	0.2154243
84	0x3f287645	0.65805465
85	0x3f9087a4	1.1291394
86	0x3feb1c6d	1.836805
87	0x3eb76143	0.35816392
88	0x3eae570d	0.3405079
89	0x3f9ab9a2	1.2087901
90	0x3d0dc63f	0.03461289
91	0x3ebbe075	0.36694685
92	0x3f0d3984	0.55165887
93	0x3c74d671	0.014943705
94	0xbd381f50	-0.044951737
95	0x3d007f74	0.03137155
96	0xbe02d56e	-0.1277673
97	0x3c96bb48	0.01839985
98	0x3d987104	0.07443431
99	0xbb48b1ca	-0.0030623549
100	0xbdf5eb50	-0.12007773
101	0xbe5467d8	-0.20742738
102	0x3aad727b	0.001323297
103	0xbdddd147	-0.10830932
104	0xbce3ac30	-0.027792066
105	0xbd821b67	-0.06352883
106	0xbd5d9025	-0.054092545
107	0xbd652d92	-0.055951662
108	0x3bd548c5	0.006508919
109	0x3da9f0ae	0.08297859
110	0x3d1ee80b	0.038795512
111	0x3dabe25b	0.08392783
112	0x3d9dbc79	0.07701964
113	0xbc2ecdde	-0.0106692
114	0xbcbda065	-0.023147771
115	0xbd7a6dcb	-0.061139863
116	0xbdf4f9e0	-0.119617224
117	0xbdb14187	-0.086550765
118	0xbd2e25bc	-0.042516455
119	0xbd82fefc	-0.06396291
120	0xbd4eef85	-0.050521392
121	0x3c60a123	0.013710293
122	0xbd382383	-0.04495574
123	0xbe32a8b0	-0.17447162
124	0xbd8cc536	-0.068735525
125	0xbd3e15dc	-0.046407565
126	0xbdda5dad	-0.106623985
127	0xbdfd4da5	-0.12368325
128	0xbdf7a9e6	-0.120929524
129	0xbdaa59fa	-0.08317943
130	0xbe49f59a	-0.19722596
131	0x3a612e35	0.0008589954
132	0xbce35f5b	-0.02775543
133	0xbdf42a07	-0.119220786
134	0xbc6383bf	-0.013886391
135	0xbb2de9d0	-0.0026537068
136	0xbddac6d0	-0.10682452
137	0x3db49509	0.08817489
138	0x3ae681ce	0.0017586292
139	0xbe428ad6	-0.18998274
140	0xbd25837c	-0.040408596
141	0x3dd1c3ee	0.10242449
142	0xbe320a57	-0.17386757
143	0xbdddcd7f	-0.10830211
144	0x3d8809ce	0.06642495
145	0xbe21471f	-0.15749787
146	0xbd1ad8d3	-0.037804436
147	0x3d523a83	0.051325332
148	0xbdc4ee3c	-0.09615752
149	0x3d52eefa	0.051497437
150	0x3dafee88	0.08590418
151	0x3dc7ed6a	0.0976208
152	0xbdf6762c	-0.12034258
153	0xbe1ced1d	-0.15324827
154	0xbe30f946	-0.1728259
155	0x3ab01d2b	0.0013436427
156	0x3c71eaaf	0.014765426
157	0x3cc36ec6	0.023856532
158	0xbde3b550	-0.11118567
159	0xbdeb07d3	-0.11476102
160	0xbded0730	-0.115736365
161	0xbb44a80a	-0.0030007386
162	0xbd4271ea	-0.04747192
163	0xbdaa898f	-0.083270185
164	0x3dbbe157	0.091738395
165	0xbdc09c9f	-0.09404873
166	0xbdc30b4c	-0.09523639
167	0xbd464e5c	-0.048414573
168	0x3d2c1d83	0.042020332
169	0x3d9dd3d1	0.077064164
170	0xbd42bbda	-0.04754243
171	0x3d5e7b0e	0.054316573
172	0xbe0554ed	-0.13020678
173	0x3cb169b2	0.021656845
174	0x3dbf7e8b	0.09350308
175	0xbd346157	-0.044038143
176	0x3d56524d	0.052324582
177	0xbe0370d5	-0.12836011
178	0xbcad898e	-0.021183755
179	0x3d7e3f2a	0.062071957
180	0xbd9391d3	-0.07205548
181	0xbd72cd92	-0.05927808
182	0x3dbf2533	0.09333267
183	0x3d499c2f	0.049221214
184	0xbd86b3b1	-0.06577242
185	0xbdaa21dc	-0.083072394
186	0xbd93310b	-0.071870886
187	0xbd2a4b2d	-0.0415756
188	0x3dbb4b9f	0.09145283
189	0xbe139db6	-0.1441563
190	0xbb9c6508	-0.004772786
191	0xbe351bed	-0.17686434
192	0x3d417dda	0.047239162
193	0x3e02bff8	0.12768543
194	0xbdf9a24d	-0.121891595
195	0xbebacbd7	-0.36483642
196	0xbf5cb30a	-0.8621069
197	0xbf6fa65b	-0.93613213
198	0xbf4b884d	-0.79504853
199	0xbf605ce7	-0.8764176
200	0xbf4a3d77	-0.7900004
201	0x3e18d8e0	0.14926481
202	0x3e06da22	0.13169149
203	0x3e1ce37d	0.15321155
204	0xbd1461a9	-0.03622595
205	0x3e2a07dd	0.16604562
206	0x3e4b301b	0.1984257
207	0x3f76f49c	0.96466994
208	0x3feab12a	1.8335316
209	0x3e900922	0.28131968
210	0x3e6a5965	0.22885664
211	0x3e74239f	0.23841713
212	0x3e1e8984	0.15482146
213	0xbe988590	-0.297894
214	0xbece0364	-0.40236962
215	0xbe10dd7e	-0.14146993
216	0xbe48053c	-0.19533247
217	0xbda69212	-0.081333295
218	0x3d46b6cc	0.048514172
219	0xbfb4de72	-1.4130385
220	0xbffc0aa2	-1.9690745
221	0x3e49b665	0.19698484
222	0xbd609f27	-0.05483928
223	0x3dc2c2ee	0.09509836
224	0xbe1fd6bf	-0.15609263
225	0x3e296232	0.16541365
226	0xbe91228f	-0.2834668
227	0xbf85d96e	-1.0456979
228	0xbe46ae2a	-0.19402376
229	0x3cd41e29	0.025893288
230	0xbdb10029	-0.08642609
231	0x3e9d414b	0.30713877
232	0x3e0c8f6d	0.13726588
233	0xbe08f636	-0.13375172
234	0x3c9bf39f	0.019037066
235	0xbda937c4	-0.082625896
236	0xbd1ed3ee	-0.03877633
237	0x3e03352e	0.12813255
238	0xbdcb72e9	-0.09934027
239	0xbe210a40	-0.15726566
240	0xbdb95444	-0.090492755
241	0xbdf8e3c9	-0.121528216
242	0xbd0f1923	-0.03493608
243	0x3e063786	0.13107118
244	0x3be54920	0.0069972426
245	0x3d1b2130	0.037873447
246	0xbe00d908	-0.12582791
247	0x3b3143d2	0.002704848
248	0xbdff98a4	-0.12480286
249	0xbc564100	-0.013077021
250	0x3d9b16a0	0.07572675
251	0x3dfa34fc	0.12217137
252	0xbe0daaa6	-0.13834628
253	0x3cfa9a7c	0.030591242
254	0xbdb0784c	-0.08616695
255	0x3c1ad760	0.009450763

conv2.bias f4 [32]
0	0xbe3804f8	-0.17970645
1	0x3e65731f	0.22407196
2	0xbde64555	-0.11243693
3	0xbd95f174	-0.07321444
4	0x3eb7ac30	0.35873556
5	0xbdd0188a	-0.101609305
6	0x3daae6bc	0.0834479
7	0xbea87e5b	-0.32908902
8	0xbe3d1838	-0.1846627
9	0xba98bc5b	-0.0011652814
10	0xbe481c48	-0.19542038
11	0xbd95a2b8	-0.07306427
12	0xbdac0b73	-0.08400621
13	0xbebf2a54	-0.3733698
14	0x3e9944c1	0.29935268
15	0xbe07b91b	-0.13254206
16	0x3ed3f48e	0.41397518
17	0xbd694090	-0.056946337
18	0xbf0d5fba	-0.5522419
19	0xbef8bf97	-0.4858367
20	0xbea35133	-0.31897888
21	0x3d302d11	0.04301173
22	0xbf094912	-0.5362712
23	0xbd7cec5f	-0.06174886
24	0xbca27b2a	-0.01983412
25	0x3e2bd8ff	0.16781996
26	0xbd8a1714	-0.06742683
27	0xbe16d01e	-0.14727828
28	0xbe403695	-0.18770821
29	0xbee481b7	-0.44630215
30	0xbf0016e1	-0.5003491
31	0xbd87c4b8	-0.06629318

fc1.weight f4 [64, 160]
0	0xbd0d4200	-0.03448677
1	0xbd8fb17c	-0.07016274
2	0xbd262d87	-0.040570762
3	0xbdce7893	-0.100815915
4	0x3d29c443	0.041446935
5	0xbd9a28be	-0.07527302
6	0x3cc60bc2	0.024175528
7	0x3bd64418	0.006538879
8	0xbdc48e1d	-0.095974185
9	0x3d1248f2	0.035714097
10	0x3d6c456e	0.0576834
11	0xbd0b942d	-0.03407686
12	0xbd9d761d	-0.07688544
13	0xbd5336a4	-0.05156578
14	0xbd28325a	-0.041063644
15	0xbd092f93	-0.033492636
16	0x3ca31cd0	0.0199112
17	0xbd469fc8	-0.048492223
18	0x3d4a7646	0.0494292
19	0x3c054518	0.008134149
20	0x3ceac994	0.028660573
21	0x3c713ab1	0.014723466
22	0xbda4993e	-0.08037041
23	0xbdaf97be	-0.085738644
24	0xbde6a81c	-0.11262533
25	0xbd850cd0	-0.064965844
26	0x3d5207fe	0.051277153
27	0xbd41321c	-0.04716693
28	0xbd198a5c	-0.037485465
29	0xbd182dc0	-0.037153006
30	0xbd83a6cc	-0.06428298
31	0x3d8625c8	0.06550175
32	0x3c70fd49	0.014708825
33	0x3d449268	0.047991186
34	0xbd2c0f48	-0.04200676
35	0x3d36bf82	0.04461623
36	0x3ca844cc	0.020540617
37	0x3d21b912	0.039483137
38	0x3d0b60ce	0.034027867
39	0x3d25289a	0.040321924
40	0x3c826c29	0.015920715
41	0x3cb9ec05	0.02269555
42	0xbd637e4d	-0.05554037
43	0xbd9520cb	-0.072816454
44	0xbd99faed	-0.075185634
45	0x3c03cfc0	0.008045137
46	0xbd4f2738	-0.05057451
47	0x3a656900	0.0008751303
48	0xbc72cc80	-0.014819264
49	0x3d1eaf02	0.03874112
50	0x3d3fd985	0.046838302
51	0x3dab55b9	0.0836596
52	0xbd76942a	-0.060199894
53	0xbd83b5c9	-0.06431157
54	0xbcca4fe6	-0.024696302
55	0xbd85f80c	-0.06541452
56	0x3d18ea94	0.037333086
57	0xbdc1b8bd	-0.09459064
58	0xbdbd650d	-0.092477895
59	0xbd65dcda	-0.056118824
60	0xbd81ec67	-0.06343918
61	0x3d4d39d9	0.050103996
62	0xbcfcacaa	-0.030844051
63	0xbc44ace5	-0.012004112
64	0xbc787207	-0.015163905
65	0x3c9216ef	0.017833201
66	0x3cabaf31	0.020957561
67	0xbc8c20b4	-0.017105438
68	0x3c21763b	0.0098548485
69	0xbcc3b4ee	-0.023889985
70	0x3cda8c69	0.02667828
71	0xbdf03b8a	-0.11730106
72	0xbde15907	-0.11003309
73	0xbd730a82	-0.059336193
74	0x3b50e5f0	0.0031875335
75	0x3d91d5a9	0.071208306
76	0xbd856484	-0.065133125
77	0xbd654f7e	-0.055984013
78	0xbd1caa89	-0.038248572
79	0xbd37012a	-0.044678845
80	0xbda8476a	-0.08216746
81	0xbd5df707	-0.05419066
82	0x3c31b3e5	0.010846113
83	0xbd65bbdc	-0.05608736
84	0xb98249a5	-0.00024850402
85	0x3d8953a5	0.06705407
86	0xbd8e5f78	-0.06951803
87	0xbca79566	-0.02045698
88	0xbd19b8f7	-0.03752991
89	0xbd85f47f	-0.065407746
90	0x3d7b62c3	0.061373483
91	0xbcdb6b7d	-0.026784653
92	0xbda889e3	-0.08229425
93	0xbdae8574	-0.08521548
94	0xbd8f7b06	-0.07005887
95	0xbd468513	-0.048466753
96	0x3d8c1b2b	0.068411194
97	0x3cda631b	0.026658585
98	0xbc91b970	-0.017788619
99	0xbdbe118d	-0.09280691
100	0x3d39d9f1	0.04537386
101	0x3c77d9a7	0.015127576
102	0xbc8f609c	-0.017502122
103	0xbd9b3d40	-0.07580042
104	0xbd9d5a15	-0.076831974
105	0xbd9e825f	-0.0773971
106	0xbd9e28d6	-0.077226326
107	0x3d0646c4	0.03278233
108	0xbdb8b9f2	-0.09019841
109	0x3d237e68	0.039915472
110	0xbdabd056	-0.08389346
111	0x3d44708e	0.047958903
112	0xbd8471f0	-0.06467044
113	0xbd7df2e9	-0.061999235
114	0xbde21aca	-0.11040266
115	0xbd941e62	-0.072323576
116	0xbc584338	-0.01319962
117	0x3c03a108	0.008033998
118	0x3d84e089	0.06488139
119	0x3cca28a1	0.024677576
120	0x3cf48980	0.029850721
121	0xbd8c323b	-0.06845518
122	0xbd12de7c	-0.03585671
123	0x3d6cd2eb	0.057818335
124	0x3cfc017f	0.030762432
125	0xbcc38251	-0.02386585
126	0xbcd7ad57	-0.026327772
127	0xbd88d33e	-0.06680916
128	0xbda41fd3	-0.080138825
129	0x3c5fe36a	0.01366506
130	0x3d5cec0a	0.053936042
131	0x3d95caf8	0.07314104
132	0xbd37603d	-0.044769514
133	0xbde79086	-0.113068625
134	0x3c821f7e	0.015884157
135	0xbd42aa1b	-0.047525506
136	0x3b66e92e	0.00352342
137	0xbd121fc0	-0.03567481
138	0x3d3b19b1	0.045678798
139	0x3b2ffb76	0.0026852763
140	0x3d22ca62	0.03974379
141	0x3d6b8956	0.05750402
142	0x3ce43990	0.02785948
143	0xbd9bb757	-0.07603329
144	0x3d54390a	0.05181221
145	0x3d5512ff	0.05202007
146	0xbd2d3eb0	-0.04229611
147	0x3cd1fec2	0.025634173
148	0x3d84784f	0.064682595
149	0xbdc59171	-0.09646881
150	0x3d952154	0.072817475
151	0xbd8b0b10	-0.067892194
152	0xbd506838	-0.05088064
153	0xbd960007	-0.07324224
154	0xbccfb74e	-0.025355961
155	0x3c4d3cc6	0.012526697
156	0xbb9d3059	-0.0047970233
157	0xbd2041ff	-0.03912544
158	0xbd4d1017	-0.050064173
159	0x3c5d4ed4	0.013507564
160	0x3ced7065	0.028984258
161	0xbac99690	-0.0015379954
162	0xbd432ed6	-0.047652088
163	0xbcee2974	-0.0290725
164	0xbcb221d5	-0.021744648
165	0x3ca1c12c	0.019745432
166	0xbdea8a6a	-0.11452182
167	0x3cdca588	0.0269344
168	0xbdcac4c6	-0.09900813
169	0xbc8b5d9e	-0.017012414
170	0xbc123f1e	-0.008926181
171	0x3d2f0e71	0.04273838
172	0x3d2ffbec	0.04296486
173	0xbdbd0da5	-0.09231118
174	0x3ce4d394	0.02793292
175	0xbcd04dda	-0.025427748
176	0x3d7cdb32	0.06173248
177	0x3b9f1000	0.0048542023
178	0xbd9a7f1e	-0.07543777
179	0xbd07c6a1	-0.03314841
180	0xbc870feb	-0.016487082
181	0x3cfbf8dd	0.030758316
182	0x3b387488	0.002814563
183	0x3d1960b4	0.03744574
184	0xbda78035	-0.081787504
185	0x3d215b92	0.03939397
186	0xbc5cc110	-0.013473764
187	0x3ce217cc	0.027599238
188	0xbc3269f0	-0.010889515
189	0x3d9056e9	0.07047827
190	0xbb8feacc	-0.0043920036
191	0xbbab796c	-0.0052329805
192	0xbc99a3cc	-0.018754862
193	0xbd8c295f	-0.068438284
194	0xbdbfa6ed	-0.093580104
195	0xbdb64fd9	-0.089019485
196	0xbd79aaf9	-0.060954068
197	0xbcc98e9c	-0.024604134
198	0x3caf554b	0.021402976
199	0xbd275d5c	-0.04086052
200	0xbd1c3e0c	-0.03814511
201	0x3d32fa3e	0.04369568
202	0xbc951fbb	-0.018203607
203	0x3cbf7968	0.02337332
204	0xbd2b3d0c	-0.041806266
205	0xbcc566fa	-0.024096955
206	0xbd696c9a	-0.056988336
207	0x3d17e294	0.037081316
208	0x3d42b272	0.04753346
209	0xbd64675d	-0.055762637
210	0xbcb8d3b6	-0.02256189
211	0xbd3de31c	-0.046359167
212	0x3c9d9aca	0.019238848
213	0x3c88abdf	0.016683517
214	0xbd9928c9	-0.07478482
215	0xbd4911b8	-0.049089164
216	0x3d2dd429	0.04243866
217	0xbda5d884	-0.08097938
218	0xbcedf596	-0.029047769
219	0xbda580da	-0.08081217
220	0xbda7d564	-0.08194998
221	0x3d14efa6	0.03636136
222	0x3cff8803	0.031192785
223	0xbdbbb5f2	-0.09165563
224	0xbc6eb8c2	-0.014570417
225	0xbd60b939	-0.054864142
226	0xbd7ed255	-0.062212307
227	0xbd89624e	-0.06708203
228	0x3c55395d	0.013014165
229	0xbcb8fd58	-0.022581741
230	0xbc3dd6f7	-0.011586896
231	0xbb763351	-0.0037567208
232	0xbda84298	-0.08215827
233	0xbd9d7682	-0.07688619
234	0xbd9d12af	-0.07669579
235	0xbd157d8c	-0.036496684
236	0x3d58cb8e	0.0529285
237	0x3d94bd93	0.07262721
238	0x3c18d310	0.009327665
239	0x3b8abbf0	0.0042338297
240	0x3d34af9b	0.044112783
241	0xbcf310dc	-0.029671125
242	0xbc4f8e50	-0.012668207
243	0xbdbc8b86	-0.092062995
244	0xbc3fe799	-0.011712932
245	0xbc234788	-0.009965785
246	0x3d4f1a32	0.05056209
247	0xbd2d6b53	-0.04233868
248	0x3cd4557c	0.025919668
249	0x3bd1f1c0	0.0064069927
250	0xbd183b44	-0.037165895
251	0x3d2df0a5	0.042465825
252	0xbda4227f	-0.08014392
253	0xbda8479f	-0.08216786
254	0xbbd234fd	-0.006415008
255	0x3c8a905e	0.016914543

fc1.bias f4 [64]
0	0x3cf7d6d9	0.030253815
1	0xbdaf9f0b	-0.08575257
2	0x3d638f46	0.055556558
3	0xbcb3c0ed	-0.02194258
4	0xbdac2185	-0.08404831
5	0xbd49effc	-0.049301133
6	0x3c4e91d2	0.012608008
7	0x3e2a5a19	0.16635932
8	0xbeb4d75a	-0.3532055
9	0x3d1ca218	0.038240522
10	0xbd76b636	-0.060232364
11	0xbe01e54f	-0.1268513
12	0xbe38d3b5	-0.1804951
13	0xbd8c8e83	-0.068631195
14	0xb95b1c59	-0.00020896028
15	0x3ea4c800	0.32183838
16	0xbd824893	-0.06361499
17	0xbf21dc6c	-0.6322696
18	0xbe8a7091	-0.27039006
19	0x3c8b670b	0.017016908
20	0xbd7e4c55	-0.062084515
21	0xbe20c892	-0.15701512
22	0xbed2c285	-0.41164032
23	0xbdcf6574	-0.101267725
24	0xbcddb593	-0.02706412
25	0xbd861170	-0.06546295
26	0x3e214995	0.15750726
27	0xbdadb668	-0.08482057
28	0x3b97f0f6	0.004636879
29	0xbda7ac5b	-0.08187171
30	0x3d85a172	0.06524934
31	0x3d2481ab	0.040162724
32	0xbd69633e	-0.05697941
33	0xbc104db6	-0.00880759
34	0x3eb04cf9	0.34433725
35	0xbe04c598	-0.12966001
36	0xbe8cea04	-0.2752229
37	0xbd7a27a2	-0.061072953
38	0xbed7920e	-0.42103618
39	0x3cf09067	0.029365731
40	0xbec4b469	-0.38418892
41	0xbe8192f2	-0.25307423
42	0xbd555ec7	-0.05209234
43	0xbe3781f7	-0.17920671
44	0xbc3bbb93	-0.011458295
45	0xbd9872b8	-0.07443756
46	0xbdbef806	-0.093246505
47	0xbe4f0760	-0.20217657
48	0xbcb2b86a	-0.021816451
49	0xbefc7da5	-0.4931461
50	0x3e28f057	0.16497932
51	0xbebab417	-0.36465523
52	0x3ba43dd9	0.0050122556
53	0xbd8b632c	-0.06806025
54	0x3c4565d3	0.012048203
55	0x3e83fad0	0.25777292
56	0xbcae1e9f	-0.021254836
57	0xbe25d708	-0.16195309
58	0xbd584dc2	-0.05280853
59	0xbd7c5173	-0.061601114
60	0xbb1d21be	-0.002397641
61	0xbc80c7be	-0.015720244
62	0xbe19628f	-0.14979003
63	0xbe834379	-0.25637415

fc.weight f4 [4, 64]
0	0xbd17d830	-0.037071407
1	0x3c63cd4b	0.013903926
2	0x3ef72777	0.48272297
3	0x3d39e6d6	0.045386158
4	0x3ce5df6e	0.028060641
5	0x3d807b58	0.06273526
6	0x3dd42fc8	0.10360676
7	0x3eb5db64	0.35518944
8	0xbf60aeaa	-0.87766516
9	0x3d4e88eb	0.050423544
10	0xbe150171	-0.14551331
11	0xbfa8239c	-1.3135867
12	0xbe1532c2	-0.14570144
13	0x3d09bd28	0.03362766
14	0xbd363298	-0.044481844
15	0xc0198950	-2.399006
16	0xbcf69859	-0.030101942
17	0xc0ac67a4	-5.3876514
18	0xbfe97e94	-1.8241754
19	0xbb3ec993	-0.0029111847
20	0x3ede9a1d	0.43476954
21	0xbe5bb2e6	-0.21454963
22	0xc013a0fd	-2.306701
23	0xbcfb5237	-0.030678852
24	0xbcb8bfd8	-0.022552416
25	0x3c89ce26	0.016821932
26	0x3f35d7fa	0.7103268
27	0x3d2e11c5	0.042497415
28	0x3d92f2d4	0.07175222
29	0xbab304bb	-0.0013658026
30	0xc02ba561	-2.681969
31	0x3e0a8a61	0.1352935
32	0xbdf19257	-0.1179549
33	0xbd8511e1	-0.06497551
34	0xc0340fa7	-2.8134553
35	0xc02f3f70	-2.738247
36	0xbfc64085	-1.548844
37	0x3d319d0f	0.043362673
38	0xbf76e277	-0.9643931
39	0x3d9d1bd5	0.07671324
40	0xc0008c40	-2.0085602
41	0xbed8ee8e	-0.42369503
42	0xbc4a3740	-0.012342274
43	0xc000f26e	-2.0147967
44	0x3d8f6cd8	0.07003182
45	0x3d0c395d	0.034234393
46	0x3dcadb0f	0.09905063
47	0xc00ffd74	-2.2498446
48	0x3d635c9c	0.05550824
49	0xc0984e23	-4.759538
50	0x3f0e54fd	0.5559843
51	0xc0233c79	-2.550566
52	0x3c4ad597	0.012380025
53	0x3d9d5787	0.0768271
54	0x3de4cbaf	0.11171662
55	0x3f885213	1.0650047
56	0x3c9be47f	0.019029854
57	0xbfe6e012	-1.8037131
58	0xbe0106da	-0.1260027
59	0x3de52222	0.11188151
60	0x3d20404c	0.03912382
61	0xbc11f818	-0.008909248
62	0xbffef0c6	-1.9917228
63	0xc0206d46	-2.5066695
64	0xbb841dcd	-0.004031873
65	0xbcf09d88	-0.029371992
66	0xbf05b0f7	-0.5222315
67	0xbdc42975	-0.0957822
68	0x3c803a0f	0.015652684
69	0xbd7d2740	-0.06180501
70	0xbdc6c58e	-0.09705649
71	0xbd183b07	-0.037165668
72	0x3e1f48cc	0.15555114
73	0xbcca4650	-0.02469173
74	0xbda5fdea	-0.08105071
75	0xbdd1fb34	-0.10252991
76	0xc01fe26f	-2.4981954
77	0xbd7747c9	-0.060371194
78	0x3c89e950	0.016834885
79	0x3e84d000	0.2593994
80	0xbd10e7a7	-0.03537717
81	0x3d98e5bf	0.074656956
82	0x3de9283d	0.11384628
83	0x3d1bf67c	0.038076863
84	0xbebcb7b3	-0.368589
85	0x3b3674f8	0.0027840715
86	0xbe681b44	-0.22666651
87	0xbd1bbb33	-0.038020324
88	0xbd227aff	-0.03966808
89	0xbd373859	-0.04473147
90	0xbecbb143	-0.39783677
91	0xbdfa7733	-0.12229767
92	0x3d817e36	0.06322901
93	0x3e8b9d0c	0.27268255
94	0xbf896ccf	-1.0736331
95	0x3c5ac061	0.013351531
96	0x3d6c927b	0.057756882
97	0xbd61ccb0	-0.055126846
98	0x3e6d246d	0.23158427
99	0x3c89346f	0.016748635
100	0x3ecd4c89	0.40097454
101	0xbd67460f	-0.056463297
102	0x3e9cab0c	0.30599248
103	0xbda335c7	-0.079692416
104	0x3e54aff4	0.20770246
105	0x3ecfb7dc	0.4056996
106	0x3da8eb20	0.082479715
107	0x3cbcfbe6	0.023069333
108	0xbd0ec107	-0.034852054
109	0x3d86a475	0.065743364
110	0x3c5be899	0.013422155
111	0xbe8ba8a7	-0.2727711
112	0xbdb39a87	-0.08769708
113	0x3d5ff89e	0.05468046
114	0x3e7a4b27	0.24442731
115	0x3ef74d07	0.48300955
116	0xbc99dcd7	-0.018782062
117	0xbc80e547	-0.015734328
118	0xbda4ea47	-0.08052497
119	0xbe71da9f	-0.23618554
120	0xbc843f64	-0.016143508
121	0x3e90ca4d	0.28279343
122	0xbd9088c2	-0.070573345
123	0x3d1a640a	0.03769306
124	0x3c98dfb0	0.01866135
125	0xbd49690e	-0.049172454
126	0x3e5f81ba	0.2182683
127	0x3e3ffa26	0.18747768
128	0x3c3ed236	0.011646798
129	0xbd181e75	-0.03713842
130	0x3e008ab7	0.12552916
131	0xbd9cf810	-0.07664502
132	0x3c809ff4	0.015701272
133	0xbd98fd1d	-0.074701525
134	0xbda7e69d	-0.08198283
135	0x3cf71c52	0.030164871
136	0x3c93ba12	0.018033061
137	0x3c98e11c	0.018662028
138	0x3d1e097f	0.038583275
139	0x3ea2c95c	0.3179425
140	0x3f5499b2	0.8304702
141	0xbdc29190	-0.0950042
142	0xbc51b842	-0.012800278
143	0xbe0e7121	-0.13910343
144	0x3cfa273c	0.030536287
145	0x3d1fb54d	0.03899126
146	0x3db5d74b	0.088789545
147	0x3d05d85c	0.03267704
148	0x3df016be	0.11723088
149	0xbc814662	-0.015780631
150	0x3ef250b4	0.47327197
151	0x3bb481a5	0.005508619
152	0x3d63a5b7	0.05557796
153	0x3c85bb68	0.016324714
154	0xbeebe766	-0.4607498
155	0xbd87be66	-0.066281125
156	0x3d2cfbb2	0.042232223
157	0xbf05b72b	-0.5223262
158	0x3f5a5570	0.8528662
159	0xbd2f280f	-0.042762812
160	0x3d02234a	0.031771936
161	0xbd841c65	-0.06450728
162	0x3d7f56ca	0.062338628
163	0xbc1a80e1	-0.009430141
164	0xbe576719	-0.21035422
165	0x3c2b160e	0.01044227
166	0xbdd777d0	-0.10520899
167	0x3bdb4079	0.0066910353
168	0x3d2182b7	0.0394313
169	0xbdbcf854	-0.09227052
170	0x3bbcbb21	0.005759612
171	0x3e96fec3	0.29491243
172	0x3d260c1c	0.040538892
173	0xbc328e32	-0.01089816
174	0x3cb2ab28	0.02181013
175	0x3f12d8ba	0.5736195
176	0xbe01e67e	-0.12685582
177	0x3e2b8294	0.1674903
178	0xbe9bf68e	-0.30461544
179	0xbe8adc12	-0.27121025
180	0x3aa78e54	0.0012783506
181	0x3de35404	0.11100009
182	0x3b59bd49	0.0033224395
183	0xbe859d01	-0.26096347
184	0x3d23985a	0.039940216
185	0xbe136582	-0.14394191
186	0xbce112eb	-0.027474841
187	0xbb908725	-0.0044106417
188	0xbcfef144	-0.031120904
189	0x3ddb01b9	0.10693688
190	0xbe18db41	-0.14927389
191	0xbd0fce67	-0.03510895
192	0xbda63473	-0.08115473
193	0x3db20574	0.08692446
194	0x3e361ece	0.17785189
195	0x3bc44ef7	0.0059908587
196	0x3df0759c	0.11741182
197	0x3cca5770	0.024699897
198	0x3d176ed8	0.036970943
199	0xbe80985c	-0.2511624
200	0xbf2dd072	-0.6789619
201	0x3dad2592	0.084544316
202	0xbd23e114	-0.040009573
203	0xc0043561	-2.065758
204	0x3f5660b5	0.83741313
205	0xbd9b6d5c	-0.07589218
206	0xbc063c92	-0.008193152
207	0xc0c9b435	-6.303248
208	0x3d8040b4	0.06262341
209	0x3fabc710	1.3420124
210	0xc08be651	-4.371865
211	0xbea06d7f	-0.3133354
212	0x3ed39668	0.41325688
213	0xbe1b4618	-0.15163457
214	0xc004f7db	-2.077628
215	0x3d4456ee	0.047934465
216	0xbd6fb775	-0.058524568
217	0xbda4f2a2	-0.08054091
218	0x3f12e4f6	0.57380617
219	0xbdc7db7e	-0.09758662
220	0x3de4ef67	0.11178475
221	0xbf1549a7	-0.5831551
222	0x40538a97	3.3053339
223	0xbd98989c	-0.07450983
224	0x3df5eff6	0.120086595
225	0xbd994c85	-0.07485298
226	0x3f8be084	1.0927892
227	0xc0e2e1cc	-7.090063
228	0xbed022fd	-0.40651694
229	0x3d93acdd	0.072107054
230	0xbf96ddcf	-1.1786441
231	0xbd35600c	-0.04428105
232	0xc0dcb1ef	-6.8967204
233	0xc0340fa3	-2.8134544
234	0x3c788c58	0.015170179
235	0xc07fb221	-3.9952471
236	0x3c631d63	0.013861987
237	0x3df33ef6	0.11877243
238	0xbe1def9c	-0.15423435
239	0x3e6e535a	0.23273984
240	0xbd3d6dc4	-0.04624726
241	0x3fda6d34	1.7064576
242	0x3e9a5870	0.30145597
243	0xc002dbbf	-2.0446622
244	0x3e7f4f38	0.24932563
245	0x3c4646da	0.012101853
246	0x3dc8ab0f	0.09798252
247	0xbcd90d80	-0.026495695
248	0x3d503654	0.05083306
249	0xbfe0611f	-1.7529639
250	0xbd778f85	-0.060439605
251	0x3d8cd3c8	0.068763316
252	0xbc120774	-0.00891291
253	0x3a619066	0.0008604586
254	0xc06c62e0	-3.6935349
255	0xbe2bfa58	-0.16794717

fc.bias f4 [4]
0	0x3e1ef01e	0.15521285
1	0x3dd00e67	0.10158997
2	0xbc608dd1	-0.013705687
3	0xbe306c97	-0.17228924
