LSTM/Data_3/LSTM11/model.pth (torch, 804707 bytes, 10 tensors)

lstm.weight_ih_l0 f4 [512, 3]
000000 98 b7 32 bf dd 28 2c bf 46 9b a6 bf 69 70 15 bf
       -0.6981139 -0.6724985 -1.3016136 -0.5837465
000010 56 32 47 bf 3e 41 23 bf 72 2b 6a bf 45 aa 77 bf
       -0.7781118 -0.63771427 -0.9147254 -0.96744186
000020 25 6e 90 bf 54 5b 2f 3e 37 b2 95 3e 41 6b b5 bd
       -1.1283613 0.17124683 0.2923753 -0.08858348
000030 fa 32 53 bf 3d 4e 66 bf e3 f4 30 bf b6 aa d3 bf
       -0.8249966 -0.8996313 -0.6912367 -1.6536472
000040 e7 98 fa bf ce 3a ab bf e3 9f b4 be 09 47 8d be
       -1.9577912 -1.3377321 -0.35278234 -0.27593258
000050 7d 42 b5 be 5d 87 75 bf 39 12 a0 bf a5 ee 31 bf
       -0.3540229 -0.9590967 -1.2505561 -0.6950477
000060 a4 fb 20 bf 16 6a 50 bf c9 ea 37 bf 08 c9 b1 3e
       -0.62883973 -0.81411874 -0.7184263 0.34723687
000070 24 d5 b5 3e 7b c3 af 3e 6b a1 75 bd 4f e4 8f bc
       0.35514176 0.34328827 -0.059968393 -0.01756492
000080 63 02 fd bc 55 5a 85 3e 14 ae 0e 3f b5 34 d0 3d
       -0.030884927 0.2604548 0.5573437 0.10166303
000090 9a bd 25 be 63 f8 5c 3e 82 3f e1 be 97 64 7d bf
       -0.16185609 0.21579127 -0.43993765 -0.9898161
0000a0 cc a6 bf bf ed 8b 47 bf 71 ec b8 bd af b4 0a bb
       -1.4972777 -0.77947885 -0.090294726 -0.0021164825
0000b0 49 b5 42 be 02 77 5b bf 81 cc 97 bf 7e b4 21 bf
       -0.19014467 -0.85728467 -1.1859285 -0.63166034
0000c0 cb a0 d2 3d e0 f9 6b 3e a3 ea 3e 3e e9 d2 27 bf
       0.10284575 0.23044538 0.18644194 -0.655562
0000d0 fa 88 cb bd d6 30 09 bf 6e 11 80 bb 1d ea 0d 3f
       -0.099382356 -0.5359014 -0.003908328 0.55435354
0000e0 b8 15 eb bd 61 12 8d 3d cb 69 5d bd 5b 0b ea bc
       -0.11478752 0.06888271 -0.05405597 -0.028569868
0000f0 8d f0 cc bf d6 30 18 c0 25 03 85 bf 1c 92 88 bf
       -1.601091 -2.3779807 -1.0391585 -1.0669589
000100 b2 0f 97 bf bf a6 46 bf 7f e4 20 3d d6 77 40 bf
       -1.1801665 -0.77598184 0.03928041 -0.75182855
000110 27 6c 23 be 79 98 56 bf ed 6e ab bf 81 96 79 bf
       -0.15959226 -0.83826405 -1.3393227 -0.97495276
000120 b6 86 07 bf 73 69 90 bb 92 0b 1b bf 84 fd 4a bf
       -0.5293993 -0.004407102 -0.6056453 -0.79293084
000130 81 a8 99 bf 58 f1 79 bf 3e ae ff be 4e c3 d0 be
       -1.2004548 -0.97633886 -0.49937624 -0.40774006
000140 1e b4 65 be e4 23 18 3f 0b c3 f2 3e b8 b9 28 3f
       -0.2243199 0.59429765 0.4741443 0.65908384
000150 c6 14 23 bf 0e d3 3d bf 1c 9b 35 bf 1d 4c 39 bf
       -0.6370357 -0.7415017 -0.70939803 -0.72381765
000160 40 1d 5f bf f2 f7 46 bf ee ca c8 3c 21 7c 93 be
       -0.87154007 -0.77722085 0.024510827 -0.2880564
000170 fe 2a 56 bf 26 91 7f bf 4b 8b b3 bf 74 a2 00 bf
       -0.8365935 -0.99830854 -1.4026884 -0.50247884
000180 e9 28 b1 be a6 40 ed bc b7 e2 54 bf 22 b8 a4 be
       -0.34601524 -0.02896149 -0.8315844 -0.32171732
000190 bd 2a fb be b0 6b 83 be ff 6e 18 3e 63 d7 9e be
       -0.49056044 -0.25668097 0.14886092 -0.31023702
0001a0 0d 67 96 3e 47 e6 88 bf 25 50 ab bf a1 49 8d bf
       0.29375497 -1.0695275 -1.3383833 -1.1038095
0001b0 0f df dd 3e e6 7c 9a bd ab 55 28 3f d5 b0 37 be
       0.43334243 -0.07543354 0.6575572 -0.1793855
0001c0 68 d4 84 3c fc ac 5c be d7 1a 5a bf 59 57 7c bf
       0.016214564 -0.21550363 -0.85197204 -0.9857078
0001d0 93 7b 71 bf 35 87 74 bf 3c 20 87 bf c1 38 5e bf
       -0.94329184 -0.9551881 -1.0556712 -0.8680535
0001e0 58 c6 e3 be 43 16 22 bf e5 01 bd be 84 e1 79 bf
       -0.44487262 -0.6331522 -0.36915508 -0.97609735
0001f0 0b e2 a8 bf ef 4f 09 bf e8 17 18 be 7b d1 84 be
       -1.3193983 -0.53637594 -0.1485287 -0.2594107
000200 2e dd 81 bf 95 bc 07 be 04 c2 ae bd ba 64 86 bf
       -1.0145624 -0.13255532 -0.08533099 -1.0499489
000210 20 b2 e3 be 57 5e cf be df b4 5c bf 3f 7a 46 bf
       -0.44471836 -0.40501663 -0.8621349 -0.7753028
000220 dc 2a c6 bf 31 27 1f bf d1 9d 00 bf 01 4d 9f be
       -1.548183 -0.62169176 -0.5024081 -0.31113437
000230 22 ea 77 bf 5a c1 34 bf 82 1e 53 bf 45 b1 d1 be
       -0.96841633 -0.7060753 -0.82468426 -0.40955558
000240 12 d5 ca bf d9 18 dd bf 4a 10 9c bf 2c 8f 9c bf
       -1.5846274 -1.7273208 -1.2192471 -1.2231193
000250 a4 80 db bf 53 ba 17 bf ac 58 b3 3d 09 20 87 bf
       -1.7148633 -0.59268683 0.08757147 -1.0556651
000260 0b 3d 03 3e 9a f6 8c bf bd 5b a7 bf ba 4c 5a bf
       0.12816255 -1.1012757 -1.3074871 -0.85273325
000270 c9 3d 6c bf bb 81 68 bf 9b 90 12 bf 85 1e 2b be
       -0.92281777 -0.90822953 -0.572519 -0.16710861
000280 68 9d 9f be 2b 90 a2 bf c2 7c c6 bd 96 52 8c bf
       -0.3117478 -1.2700247 -0.096917644 -1.0962703
000290 ce 48 91 be cd 9e 72 bf 27 96 58 bf 20 f8 c5 be
       -0.28375858 -0.9477356 -0.84604114 -0.38665867
0002a0 33 4a a3 bf f7 57 a3 bf 82 75 ea bf c2 05 20 bf
       -1.2757019 -1.276122 -1.831711 -0.62508786
0002b0 ff 27 a9 bf 93 da 1b bf be e0 8f bf 5c 91 c0 bf
       -1.3215331 -0.6088039 -1.1240461 -1.504436
0002c0 18 68 81 bf 80 6a 69 bd 51 21 01 be 5f f2 b0 bf
       -1.0109892 -0.056986332 -0.12610365 -1.3823966
0002d0 7f c9 8d bf 76 65 bb bf 82 78 bd bf ad 8d df be
       -1.1077117 -1.4640338 -1.4802401 -0.43662778
0002e0 d4 20 e5 be 55 ec bb be 37 9c a2 be 67 bc ca 3e
       -0.44751608 -0.36703745 -0.31759807 0.39596865
0002f0 88 86 ff be 51 37 c9 3e d8 e7 24 3f 6d 86 a3 3e
       -0.49907327 0.39300016 0.64416265 0.31938496
000300 9a 5d 2b be 7a 07 2b be 58 62 8d bf b9 69 1a 3f
       -0.16734925 -0.16702071 -1.1045637 0.6031757
000310 15 ad 4b 3f a6 0d 36 3f 6d 85 af be 14 74 cc 3e
       0.7956098 0.71114576 -0.34281483 0.3993231
000320 84 f4 07 bf 64 6c cd bf da 53 da bf 1c 17 95 bf
       -0.53107476 -1.6048703 -1.705684 -1.1647677
000330 b2 f5 ad be 9a 16 82 bf f4 5c da be 6e d5 a0 bf
       -0.33976513 -1.0163147 -0.42649043 -1.2565134
000340 49 6a b5 bf fb 9a 6f bf f5 67 9b 3d 83 44 0d 3f
       -1.4173061 -0.93595856 0.075881876 0.55182666
000350 41 18 63 be 65 7f 6d be 21 e1 c7 3e bb 01 75 be
       -0.22177221 -0.23193128 0.39038947 -0.23926441
000360 c6 40 ab 3e aa c7 0f 3f c7 23 10 3f d3 da 02 3e
       0.33447856 0.5616404 0.5630459 0.12778787
000370 6a 88 89 bf ae 8c 31 3e 11 c1 a9 3d b8 23 a6 be
       -1.0744755 0.17338821 0.082887776 -0.32449126
000380 4d d6 d9 3d 15 19 70 bf e5 a3 b0 bf f4 fe 10 bf
       0.10636578 -0.9378827 -1.3800017 -0.5663903
000390 c8 89 3e be a1 b3 ba be a7 c3 7a be 36 0d ca be
       -0.18607247 -0.3646517 -0.24488698 -0.39463204
0003a0 7a bc 64 bf 55 8a 35 be d2 93 87 be f6 ee 9c 3e
       -0.8935009 -0.1772855 -0.26479965 0.30651063
0003b0 ff dd c4 bd 58 6c 42 bf eb bc 51 bf 48 4d e0 be
       -0.09612655 -0.7594657 -0.8192889 -0.4380896
0003c0 8d 5f b5 bc 15 cc 17 3f 9a 65 33 be 80 bd 6d 3e
       -0.022140289 0.5929578 -0.17519227 0.2321682
0003d0 43 3f 93 3e fc 5b de 3e 3d bf 46 bf dc 2e 55 bf
       0.28759202 0.43429554 -0.77635556 -0.83274627
0003e0 cc 56 6b bf 39 41 5f bf fd 31 35 bf 2e 43 92 be
       -0.91929317 -0.87208897 -0.707794 -0.2856688
0003f0 29 1a 11 bf 48 29 47 bf f4 48 01 bf 94 ed b2 bf
       -0.5668054 -0.77797365 -0.5050194 -1.3978753

lstm.weight_hh_l0 f4 [512, 128]
000000 01 e3 b2 3e ee 2f f1 bd 90 8e 86 3d e7 c8 81 bd
       0.34938815 -0.1177672 0.065701604 -0.06337147
000010 56 85 b0 3e c7 3d 1b be 43 90 c7 3d 6e d8 0b 3f
       0.34476727 -0.15160285 0.097443126 0.5462712
000020 46 71 68 be af 14 09 3e a0 46 55 bd ba 5f 11 be
       -0.2269946 0.13386796 -0.052069306 -0.14196673
000030 49 d7 a5 be f8 7f c4 be 5f 03 0b bd 7c af ec be
       -0.32390812 -0.38378882 -0.03393876 -0.46227634
000040 69 08 f9 bd 60 01 6b 3e a6 a3 e4 be a1 37 29 3e
       -0.12159807 0.22949743 -0.44656104 0.16525127
000050 7e 3c c4 bd 49 cd 6f 3e 8f 1a 2f 3c 8d 29 39 3a
       -0.095818505 0.23418154 0.010687484 0.00070633815
000060 67 47 64 be 74 da 05 3e 96 3a 1d bf 23 6d 09 3d
       -0.22292863 0.13071615 -0.6141752 0.033551347
000070 bf 46 29 be ac a3 91 3d b2 9c 81 bd db 6e ad 3e
       -0.16530894 0.07111296 -0.063287154 0.3387364
000080 2b d4 72 bc f6 bd 8a 3e c2 c8 3e bf 5c 60 da 3e
       -0.014821093 0.27098054 -0.7452508 0.4265164
000090 67 50 e5 be 39 77 8b bc cd 78 ed be 3d f7 ca bd
       -0.44787905 -0.017024623 -0.46381226 -0.09910438
0000a0 d5 c4 e0 3e d4 29 71 be 71 b1 2b be 22 f7 68 3d
       0.4390017 -0.23551112 -0.16766907 0.05687631
0000b0 07 5d c5 3d 02 85 01 bf 8e 17 32 be 5b dd 02 3e
       0.09636884 -0.5059358 -0.17391798 0.12779753
0000c0 2a 57 ce 3d 3c c0 b0 3d 9c 64 48 3c 83 84 1f 3e
       0.10075219 0.08630416 0.012231018 0.15577893
0000d0 9e c5 b6 be 47 cb 8a bd 1f 9e bb be ea 1f 53 bd
       -0.35697645 -0.06777053 -0.36644074 -0.051544107
0000e0 5d 7b d3 3d 23 83 5d 3f b9 74 04 be a1 a0 2c be
       0.10326264 0.86528224 -0.12935151 -0.1685815
0000f0 a9 c3 aa 3d 23 e5 cd 3e a6 4c 95 3e 83 0b b9 bd
       0.083381005 0.4021388 0.2916004 -0.09035399
000100 68 40 f4 bc 6b f4 62 3d 1c e8 9f be 88 e4 91 3e
       -0.029815868 0.055408876 -0.31231773 0.28494668
000110 f5 0a 30 3b 33 f8 7a be 5c 90 7b 3e ac e9 9b 3e
       0.0026862 -0.24508743 0.24566787 0.30451715
000120 73 c5 75 3b 1b dc 0a 3f 48 fe 36 3f 9c 79 20 3e
       0.0037501722 0.54242104 0.7148175 0.1567139
000130 1a e4 22 be ea f1 ac bd dc b9 61 3e 78 76 49 ba
       -0.15907326 -0.08444579 0.22043556 -0.0007685195
000140 79 36 2e 3e 76 ba a8 3e 42 c6 8f bd ae 50 35 3e
       0.17012967 0.32954758 -0.070202366 0.17706558
000150 19 d2 b7 be 53 e1 32 be 2f d7 94 3d d9 13 cd 3e
       -0.3590248 -0.17468767 0.072676055 0.40054205
000160 71 bd 52 bf 7b 17 90 be 7e 86 38 3e 11 55 dc 3d
       -0.82320315 -0.28142914 0.18020055 0.10758413
000170 77 18 05 3e 37 3b 47 be 8f ab fb be b3 fd f4 be
       0.12997614 -0.19456182 -0.49154326 -0.47849807
000180 43 82 d2 3d e4 0e 45 3f b7 b1 36 bf 6c 12 df be
       0.10278752 0.76975846 -0.7136492 -0.43568742
000190 a6 39 e3 be 2b e3 a5 3d 8a ce 6d bd 5c 37 47 3e
       -0.4437992 0.080999695 -0.0580583 0.19454712
0001a0 d9 92 a8 3e f7 43 01 bd 91 85 cc bc 86 2f b1 3e
       0.32924536 -0.031558957 -0.024966033 0.3460657
0001b0 ac e3 e6 3e e7 61 a2 3d ed f9 44 3e 6e 31 11 bf
       0.45095575 0.0792883 0.19235964 -0.5671605
0001c0 a8 a8 7e 3d 01 ad 7c 3e 26 81 55 bf 09 59 c4 be
       0.062172562 0.24675371 -0.8340019 -0.38349178
0001d0 a1 c1 c9 3e af 1e 61 3e 30 7b b8 bd 89 6f 73 be
       0.3940554 0.21984361 -0.09007871 -0.23773016
0001e0 a7 99 0a 3e 71 70 18 3f b8 ab 02 3d 2c a3 69 3e
       0.13535176 0.5954657 0.031902045 0.22816151
0001f0 8e 40 84 be f0 e0 9a bc 47 53 7e 3e 53 73 18 3d
       -0.258305 -0.018906087 0.24836455 0.037219357
000200 c7 31 f8 3d b6 5f b6 3d f5 e0 be be 03 63 d7 be
       0.12118869 0.08904974 -0.37281004 -0.42067727
000210 33 dd 0f 3e 2e 49 21 be 58 61 55 3e 35 f6 75 bd
       0.14049225 -0.15750572 0.20837915 -0.060049254
000220 54 75 4a be 99 71 c9 3e 9c 8a da bd 2e 91 fe 3e
       -0.1977132 0.3934448 -0.10670969 0.49720138
000230 cb 7b 64 be 7e 43 28 be 9e 4e 93 3e 73 49 3f be
       -0.22312848 -0.16431996 0.28770918 -0.18680362
000240 01 29 a2 3e ca 3e d7 3e 0a a7 a0 be 13 5d 5b be
       0.31671908 0.42040092 -0.3137744 -0.21422224
000250 5d b9 4b be 15 c3 f4 bc 51 6e d5 3e 65 be fd bd
       -0.19894929 -0.029878179 0.41685727 -0.123898305
000260 3c 3b db be 84 d1 18 be b0 a5 d6 be f7 4f ef be
       -0.4281863 -0.14923674 -0.41923285 -0.46740696
000270 ec 1f 68 bd 91 5c 48 be d1 b9 b0 be 95 ee a1 3c
       -0.056671068 -0.19566561 -0.34516767 0.019767085
000280 16 63 ad bc b3 40 ac 3d e4 5b 20 bd 89 73 55 3e
       -0.021165412 0.08410778 -0.039150134 0.20844854
000290 ef 79 e2 3d e7 8d b1 be 5a 56 23 3d a7 6b 76 3e
       0.11058413 -0.34678575 0.039877273 0.24064504
0002a0 0e 73 83 3e aa 9c 2b bd b0 06 4a be 30 47 ed 3e
       0.25673717 -0.041897453 -0.19729114 0.46343374
0002b0 fe be 2e 3d d9 80 f5 bd dd 29 50 be c8 44 36 bd
       0.042662613 -0.11987466 -0.2032847 -0.04449919
0002c0 84 e1 3d be a9 98 98 3c 6d dc da be ee d6 86 3e
       -0.18543059 0.018627482 -0.42746297 0.26335853
0002d0 98 ff c5 bd 2e 75 d2 be 32 aa 20 bf bd d2 1f 3e
       -0.09667891 -0.41105026 -0.627597 0.15607734
0002e0 a6 e2 05 bd f9 45 78 3e 23 79 51 be 4c c1 ea be
       -0.032686852 0.24245442 -0.20456366 -0.458506
0002f0 2b 91 45 bd 3b 16 20 be 42 85 94 3e d3 ea 18 bf
       -0.048234146 -0.1563348 0.29007918 -0.59733313
000300 59 3c ee 3d f7 15 43 bf 98 22 7d be d8 9c 82 be
       0.11632604 -0.7620539 -0.24720228 -0.25510287
000310 31 70 af 3d d4 66 f1 bd d3 6e a3 3e 83 90 12 3e
       0.08566321 -0.11787191 0.3192049 0.1431294
000320 6a 80 f6 be c2 80 77 3d cb 52 15 3e 4a 86 3e 3e
       -0.48144847 0.060425527 0.14582364 0.18605915
000330 8f 9a af 3e ac 50 e8 bd 6a 0c d5 be 9e 9b 1c 3e
       0.34297606 -0.11343512 -0.41611034 0.15293738
000340 4e 5c 4b 3e b6 20 75 be 73 d4 ac 3e e5 8e 88 bd
       0.1985943 -0.2393826 0.33755836 -0.0666788
000350 1c 56 f8 bd 6f b4 d4 3c cf d6 c8 3d 27 f2 8c bc
       -0.12125799 0.025964944 0.098065965 -0.017205311
000360 57 03 7f bd 0a 92 3c bc 2d 74 83 3e 14 25 e8 be
       -0.062259044 -0.011509428 0.25674573 -0.45340788
000370 29 07 8e 3e d8 9a cf be 61 f8 a1 bd fa 9a 73 3d
       0.27739838 -0.40547824 -0.07908703 0.05947397
000380 d6 7c 5f 3e dd bc 03 3f 8d 5e 86 be 4c a5 80 be
       0.21824965 0.5146006 -0.26244012 -0.25126112
000390 93 75 70 bd 94 0c 32 3e 4a 7d 41 3f cd 45 36 3d
       -0.058705878 0.1738761 0.755818 0.04450016
0003a0 ff a9 6e 3c 53 00 e5 bc 43 8f 60 be 4e b3 2f 3e
       0.014566897 -0.027954256 -0.2192965 0.17158243
0003b0 c0 8b 4f be 8c c0 76 be 26 da db 3e 24 c8 56 be
       -0.20268154 -0.24096888 0.42939872 -0.20974785
0003c0 0e 01 58 be 11 11 0a bd 03 2e ef be 95 36 1d bf
       -0.21094152 -0.033707682 -0.46714792 -0.6141141
0003d0 dd 3c 3b 3e d9 0a d3 be 4a a6 9a be 76 a3 00 be
       0.18284936 -0.41219214 -0.30204993 -0.12562355
0003e0 bb 40 78 bd 9a 7f c9 3c 20 a1 a4 be 08 d0 36 be
       -0.060608607 0.024596978 -0.3215418 -0.17852795
0003f0 b1 d5 aa 3e e8 6b 6e be 2d 56 a0 be e8 c5 d5 3d
       0.3336616 -0.2328335 -0.31315747 0.10438138

lstm.bias_ih_l0 f4 [512]
000000 f5 3f 44 bf 9f d7 08 bf 21 24 86 bf 06 18 1f 3e
       -0.7666009 -0.5345401 -1.0479776 0.15536508
000010 19 96 48 bf 5a ff e5 bf c6 ca 93 be c3 4c 7e bf
       -0.7835403 -1.7968552 -0.2886564 -0.9933588
000020 c3 bb 12 bf 7d 36 b2 3e c2 0c 8b bd 87 c4 68 3e
       -0.5731775 0.34807196 -0.06789543 0.22731219
000030 b6 89 f5 bd fb 4e 7c bf f6 af 50 3d 01 9c 4b bf
       -0.11989157 -0.98558015 0.05094906 -0.7953492
000040 0e 65 13 3e a9 37 27 bf 82 62 9e bd 9b 76 bc bd
       0.14394018 -0.65319306 -0.077336326 -0.0920231
000050 e3 ff d8 bf 3e 54 95 bf ca a7 91 bd fa 26 6f bf
       -1.695309 -1.1666334 -0.07112081 -0.9341885
000060 5c 1a 0b bf e7 2b 34 bf 4e 4a d9 be b5 d2 fd 3e
       -0.54337096 -0.7037949 -0.42439502 0.4957482
000070 2b cc 13 bf 1f 9c 3f bf a3 61 d3 bd be 43 85 bf
       -0.5773341 -0.74847597 -0.10321357 -1.0411298
000080 92 f1 b7 be 95 40 92 be e3 d0 35 3e 7a 37 83 bf
       -0.3592649 -0.28564897 0.17755465 -1.0251305
000090 2c bb f5 3e 57 fe d3 bd a0 13 3f bf 9c 47 70 bf
       0.47994363 -0.10351246 -0.7463932 -0.9385927
0000a0 72 6f 08 bf 2d de 89 bf d6 86 9e bd cc 41 d8 bd
       -0.5329505 -1.0770928 -0.07740562 -0.10559425
0000b0 92 4a df be 10 0e 32 bf 03 d7 0e bf d6 28 15 bf
       -0.4361158 -0.6955271 -0.5579683 -0.58265436
0000c0 19 84 ba bf c5 95 8e bf 65 15 43 3e af 12 8d bf
       -1.4571563 -1.1139456 0.1905113 -1.1021327
0000d0 89 9c 50 bf ab cc 0b be 89 92 31 be bf b3 7f bf
       -0.81488854 -0.13652293 -0.17341055 -0.99883646
0000e0 87 39 a0 bf 87 fa 28 bf 0f f2 8e bf b9 dc 8e bd
       -1.2517556 -0.66007274 -1.116762 -0.06975693
0000f0 a5 0e 8a bf 7e 17 09 bf 20 3c a9 be cb bc 05 3f
       -1.0785719 -0.5355147 -0.33053684 0.522412
000100 f6 ca 31 be 56 28 0b 3f a0 36 b5 be c4 bf c8 bf
       -0.1736258 0.5435842 -0.35393238 -1.5683522
000110 7e b3 c3 be b4 08 ad bf 92 c6 53 3c f9 b2 8f be
       -0.3822288 -1.3518281 0.012925761 -0.28066233
000120 5c 35 b8 3e b9 13 38 3e 80 e5 4a bd 63 44 72 bf
       0.3597821 0.17976274 -0.049535275 -0.946356
000130 64 d4 82 be 0c 47 c7 be 96 69 0a be 2d 5a 66 bf
       -0.25552666 -0.38921392 -0.1351684 -0.8998135
000140 f2 01 93 3d 8e f1 b0 3e f0 59 4d bf 19 86 5c bf
       0.071781054 0.34559292 -0.8021536 -0.86142117
000150 db 47 10 bf 88 c8 b6 bf 47 30 cd be 72 c8 82 bf
       -0.5635964 -1.4279947 -0.40075895 -1.0217421
000160 17 13 ea be 27 11 48 bf a7 0d 37 bf 1e 3f 89 be
       -0.4571769 -0.7815117 -0.71505207 -0.26805967
000170 df da 24 be 4f 02 39 be bc 05 cb be d4 99 77 bf
       -0.16099118 -0.18067287 -0.39652812 -0.967191
000180 e7 c4 2e bf 90 91 fa bd de 97 bf be 1e bc ae be
       -0.682692 -0.12234795 -0.37420553 -0.34127897
000190 33 ae eb be 3e 24 a4 bf 28 13 1e 3f 23 14 dd be
       -0.4603134 -1.282356 0.6174798 -0.43179426
0001a0 7e ae 4e bf 51 bb 9d bf 71 53 a1 bf ea 08 50 bf
       -0.80735004 -1.232279 -1.2603589 -0.812636
0001b0 df 1f 61 bf 69 89 22 3d 8c ae 1d be 98 b4 1b 3d
       -0.87939256 0.039681826 -0.15398616 0.038014024
0001c0 ee 69 66 bf 57 3a 7a bf 33 b4 a1 be f6 38 90 3b
       -0.90005386 -0.9774527 -0.31582794 0.0044013215
0001d0 b3 0b 77 bd 9a 9c bd be da 84 a0 3e 77 b4 6e bf
       -0.06031389 -0.3703354 0.31351358 -0.9324412
0001e0 6f 92 5b bf 16 74 5b be 13 50 66 be fc 71 86 bf
       -0.85770315 -0.21431002 -0.22491483 -1.0503535
0001f0 e5 78 3d bf e9 c9 32 3f 32 bf 30 bf 16 b7 d8 bf
       -0.74012595 0.6983934 -0.6904174 -1.6930873
000200 ea ba b3 be 9f 29 10 bf 9d 3d 9b bf a5 fd 8f be
       -0.35103542 -0.5631351 -1.2128178 -0.28123203
000210 87 58 86 bf 24 22 96 bf 55 14 43 bf f3 81 63 bf
       -1.0495766 -1.1729169 -0.762029 -0.8887016
000220 8d 71 9d bf 02 37 4a bf 1a d5 16 bf a5 e7 ce be
       -1.2300278 -0.78990185 -0.5891892 -0.40411106
000230 f1 85 ea be 7a 43 9b bf 3c 0a e7 be 4d c9 a6 bf
       -0.45805314 -1.2129967 -0.45124996 -1.3030182
000240 09 16 85 be 47 1e 15 bf 29 89 c2 3d e7 a5 5d bf
       -0.25993374 -0.58249325 0.094988175 -0.8658127
000250 46 5f 89 bf 58 2e 4e bf 55 4d fd 3c c5 e4 a8 bf
       -1.07322 -0.80539465 0.030920664 -1.3194815
000260 fc ce ac be fe eb 65 bf 86 ad 01 bf d1 d7 d3 be
       -0.33751667 -0.8981322 -0.506554 -0.41375592
000270 73 db 5b bf a7 00 47 bf 44 51 c5 3e f7 22 76 bf
       -0.8588173 -0.7773537 0.38538563 -0.961471
000280 33 f7 86 bf 47 b0 d3 3d 8b 6a 42 bf 5e d4 2e bf
       -1.0544189 0.103363566 -0.7594382 -0.68292797
000290 29 d7 a0 be 9c 6c f1 be 21 d0 8a bf 1c cd a3 bf
       -0.31414154 -0.47153175 -1.0844766 -1.279697
0002a0 26 5e 41 bf ba b3 4c bf 30 5b ed bb 60 ac 3d 3e
       -0.75534284 -0.7996174 -0.0072435364 0.18522787
0002b0 2f a0 7d be f8 ea 8a bf 59 f4 6c be f1 ce df be
       -0.24768136 -1.0852957 -0.23140086 -0.4371257
0002c0 47 de bc bf 56 3b ac bf af 48 17 3e b1 50 65 bf
       -1.4755334 -1.3455608 0.1477382 -0.8957625
0002d0 1a ff 3c bf 93 6d 0e bd fb 90 34 be ee 2f d2 be
       -0.73826754 -0.034772467 -0.1763343 -0.41052192
0002e0 75 b0 cf bf 12 25 64 bf 0c 2b 74 bf ed a3 16 3e
       -1.6225725 -0.89119065 -0.95378184 0.1471097
0002f0 df 78 d2 bf 27 81 c9 bf bc b7 40 be fd f0 ec be
       -1.6443137 -1.5742539 -0.18820089 -0.4627761
000300 e6 3e 3e be a8 74 c2 be 62 4a 6e be 30 ba c4 bf
       -0.18578681 -0.37979627 -0.23270562 -1.536932
000310 f4 de 57 bf 0e ab e0 bf 8b bb 34 bf 24 39 2d bf
       -0.84324574 -1.7552202 -0.7059867 -0.67665315
000320 a4 a9 89 be e0 0d 43 bd 01 0e 4c bf 7a 01 87 bf
       -0.26887238 -0.047620654 -0.7970887 -1.0547326
000330 e3 96 17 bf b5 dd 96 3d a5 fd af be 8f c2 28 bf
       -0.5921461 0.07366506 -0.34373203 -0.6592187
000340 5a bb 9b be 28 3e 48 bf 46 44 91 bf af a4 b9 be
       -0.30416375 -0.7821984 -1.134896 -0.36258456
000350 07 66 4b bf d2 fd cd bf ae 9a 70 3d 85 db a6 bf
       -0.79452556 -1.6093085 0.058741264 -1.3035742
000360 2a ce 4f bf 31 d5 84 bf d8 b2 38 bf eb 84 fc be
       -0.81173956 -1.0377561 -0.72147894 -0.49320158
000370 aa 74 e7 3d 39 89 04 be 8c ad 4e bf 04 4d f3 bf
       0.11301549 -0.12942971 -0.8073356 -1.9007878
000380 dd ea 86 bf 6f 32 1b be 79 da 5b bf 35 83 63 bf
       -1.0540425 -0.15155958 -0.8588024 -0.8887208
000390 42 57 06 be 34 7f 9d bf 76 70 18 bf dd c3 0a be
       -0.13119224 -1.2304444 -0.595466 -0.13551278
0003a0 a8 07 68 bf 73 97 a9 bf 35 89 b3 bf b5 e3 57 bf
       -0.9063668 -1.3249344 -1.4026247 -0.8433183
0003b0 e1 57 9f bf 3c 9c c7 be a7 c0 7f be 36 94 07 bf
       -1.2448694 -0.38986385 -0.24975835 -0.52960527
0003c0 ac df 8f bf 1e 9a 85 bf e3 b1 dd bd 68 25 f7 be
       -1.1240134 -1.0437658 -0.10824945 -0.48270726
0003d0 44 11 8c be 1c ba bc bf cf db b1 be 8d 5f 64 bf
       -0.27356923 -1.4744296 -0.34738013 -0.892083
0003e0 71 32 9a bf 90 22 36 3e 14 da 32 bf 76 6e 75 bf
       -1.2046643 0.17786622 -0.6986401 -0.95871675
0003f0 4b 09 2c bf dc ba f1 be 87 f6 26 bf 94 f3 99 bf
       -0.6720168 -0.47212875 -0.6521992 -1.2027459

lstm.bias_hh_l0 f4 [512]
000000 b4 df 20 bf ab 47 1e bf 82 09 8a bf 80 e9 43 3e
       -0.62841344 -0.61828107 -1.0784152 0.19132042
000010 1d f2 41 bf e1 d5 df bf 85 4f b5 be d9 46 73 bf
       -0.7576006 -1.7487146 -0.3541223 -0.9502998
000020 4f 9b 1f bf 2d c6 bb 3e 3b 73 b7 bd 42 6c 7a 3e
       -0.6234636 0.36674634 -0.08957525 0.2445536
000030 7f 4f fd bd aa 25 6c bf 76 3f 48 bb 7b d4 69 bf
       -0.12368678 -0.9224497 -0.0030555404 -0.91339844
000040 d9 84 5d 3e 27 6c 21 bf 09 49 cf bc 0e 59 9a bc
       0.21632709 -0.6305565 -0.02530338 -0.018841293
000050 f6 4e c9 bf d4 9d 85 bf 7c 19 ac 3d 82 72 65 bf
       -1.5727222 -1.043879 0.08403298 -0.8962785
000060 55 fd 13 bf 50 bc 43 bf 16 86 f1 be 65 09 19 3f
       -0.5780843 -0.7645922 -0.47172612 0.5977996
000070 91 58 25 bf 54 42 2f bf 15 a6 8a bc e6 e4 92 bf
       -0.64588267 -0.68460584 -0.016924897 -1.1476104
000080 19 9b b5 be 79 4a ae be ff 88 24 3e b6 32 61 bf
       -0.35469893 -0.34041193 0.16067885 -0.87968004
000090 d0 5e ef 3e 78 e0 b8 bd 77 fb 57 bf 8f 14 76 bf
       0.46752024 -0.09027189 -0.8436808 -0.9612512
0000a0 8c 3c d3 be b6 5b 8a bf 76 d7 0d be 82 92 46 bc
       -0.4125713 -1.0809238 -0.13851723 -0.012119891
0000b0 a1 ae c2 be 27 aa 4f bf 10 39 19 bf f7 e8 1b bf
       -0.38023856 -0.81119007 -0.59852695 -0.6090235
0000c0 3d dc c3 bf 98 40 95 bf 94 e2 27 3d 8d 25 94 bf
       -1.5301586 -1.1660337 0.040987566 -1.157396
0000d0 f1 0b 56 bf a2 9a 09 be 7f d3 30 be 61 e6 87 bf
       -0.8361197 -0.13437894 -0.1726818 -1.0617181
0000e0 a4 83 a0 bf f1 5a 39 bf 04 af 94 bf 03 52 bb bd
       -1.2540174 -0.7240439 -1.161591 -0.09146502
0000f0 78 86 89 bf b7 71 0a bf 05 c1 a0 be 27 90 07 3f
       -1.0744162 -0.54079765 -0.31397262 0.52954334
000100 a4 1d 8a be f0 59 0d 3f 6d f6 98 be 8c c6 cd bf
       -0.2697574 0.5521536 -0.29875508 -1.6076217
000110 9c d9 aa be ce 9e a2 bf b6 a0 78 3d af 27 5e be
       -0.33369148 -1.2704713 0.06070014 -0.21694826
000120 7c ef fd 3e ea 66 08 3e e1 b8 70 3d ae b2 80 bf
       0.49596775 0.13320509 0.058770064 -1.0054529
000130 fd 09 11 be 45 9e c7 be 49 50 8f be dc 66 63 bf
       -0.14163966 -0.38987938 -0.2799094 -0.88828826
000140 ca 94 92 3d 8c 59 cf 3e ed 1f 45 bf 1f 8f 5c bf
       0.071572855 0.40498006 -0.7700184 -0.86155885
000150 36 8d 11 bf 3b f7 c3 bf 7c 00 93 be ba 00 73 bf
       -0.56856096 -1.5309824 -0.28711307 -0.94922984
000160 69 ff d9 be 35 49 29 bf a0 a6 29 bf 02 e4 8e be
       -0.42577675 -0.6612733 -0.66269875 -0.2790833
000170 b1 3f 74 be 59 62 45 be 5b 52 b4 be 47 65 6d bf
       -0.23852421 -0.19275798 -0.35219082 -0.9273266
000180 a2 be 16 bf cf 48 e8 bd 31 2f 9c be 23 0b be be
       -0.5888463 -0.11342012 -0.30504754 -0.37117872
000190 97 1e ef be 81 e3 b4 bf e6 96 3c 3f 9d ce b9 be
       -0.46703026 -1.4131929 0.7366775 -0.36290446
0001a0 55 63 65 bf f4 5b a5 bf ad ff 9f bf ce cf 56 bf
       -0.89604694 -1.2918687 -1.2499901 -0.83910835
0001b0 d2 93 72 bf cc 8a 07 3e f7 64 48 be 76 12 7b 3c
       -0.94756806 0.1323654 -0.19569765 0.015324226
0001c0 77 d1 7d bf 0e 48 7c bf 2f ab c3 be 0b 29 19 3e
       -0.99147743 -0.98547447 -0.3821654 0.14957063
0001d0 2a 0b 34 be 61 ab c7 be 58 c3 dd 3e 8e e0 5a bf
       -0.17582384 -0.3899794 0.43313098 -0.85498893
0001e0 26 67 51 bf d3 b8 39 be b2 7e 89 be 70 b8 8d bf
       -0.8179802 -0.18136911 -0.26854473 -1.1071911
0001f0 98 5c 1b bf a1 d6 34 3f 77 e6 37 bf 72 f9 d5 bf
       -0.6068816 0.7064 -0.71836036 -1.671675
000200 62 33 c8 be 3c 9f 16 bf ee 52 97 bf 5e 75 74 be
       -0.39101702 -0.5883672 -1.1822183 -0.23872897
000210 61 c6 6b bf 3d 8b a2 bf 88 14 55 bf b2 53 79 bf
       -0.9209958 -1.2698742 -0.83234453 -0.97393334
000220 f4 10 94 bf e8 c5 4c bf 0a 61 e0 be 21 49 00 bf
       -1.1567674 -0.7998948 -0.43824035 -0.50111586
000230 96 cd ed be cd 4d 9e bf 25 62 f2 be 36 bb a4 bf
       -0.46445912 -1.2367493 -0.47340503 -1.2869632
000240 44 f9 a4 be 26 3f 29 bf c9 86 e7 3c 45 24 46 bf
       -0.32221425 -0.6611198 0.028262513 -0.7739909
000250 d8 81 8a bf a0 46 57 bf de 2b d4 3d 78 17 ae bf
       -1.0820875 -0.8409214 0.103599295 -1.3600912
000260 f5 aa 88 be d6 b6 61 bf 42 f5 f7 be e1 5c 05 bf
       -0.2669293 -0.8816961 -0.48429304 -0.52094847
000270 29 98 5d bf a4 ca 3a bf 05 d5 01 3f 2d b3 6d bf
       -0.865603 -0.72965455 0.50715667 -0.92851526
000280 eb 89 8a bf 45 05 61 3d 00 3d 3c bf a4 7a 1e bf
       -1.0823339 0.054936666 -0.7353058 -0.61905885
000290 d8 d4 bb be 74 b7 12 bf 6e 21 82 bf e0 9b a8 bf
       -0.36685824 -0.5731118 -1.0166452 -1.3172569
0002a0 43 49 4a bf ef 9b 55 bf 89 90 0f 3c 43 0e 60 3e
       -0.7901804 -0.8344106 0.008762487 0.2188044
0002b0 8f be 25 be 9e 41 8f bf 56 9b a1 be f5 3c e1 be
       -0.16185974 -1.11919 -0.31563824 -0.4399182
0002c0 c7 ce af bf f3 4f 9b bf 2e 45 88 3d 06 d6 7f bf
       -1.3734978 -1.2133774 0.0665382 -0.9993595
0002d0 fc 88 4f bf 31 f5 a9 bc 35 35 88 bd f0 71 10 bf
       -0.81068397 -0.0207468 -0.066507734 -0.56423855
0002e0 01 03 cf bf e3 0c 60 bf e9 39 8d bf b2 83 0e 3e
       -1.6172792 -0.87519664 -1.1033298 0.13917425
0002f0 b6 cd cf bf 0d 74 b4 bf 84 08 24 be 7d 2c cc be
       -1.6234653 -1.4097916 -0.16018873 -0.39877692
000300 69 88 a4 be ac 02 bb be 18 ae bc be 8b d1 bc bf
       -0.32135323 -0.36525476 -0.36851573 -1.4751447
000310 0a 9b 58 bf a4 5d d9 bf b0 f5 18 bf df 98 35 bf
       -0.8461157 -1.6981702 -0.5974989 -0.7093639
000320 54 c5 a6 be 73 ed 68 bd a7 f9 52 bf 2d ba 88 bf
       -0.32572424 -0.056867074 -0.8241219 -1.0681816
000330 09 36 14 bf 5c 54 83 3d 19 6d 86 be 20 10 30 bf
       -0.5789495 0.06412575 -0.2625511 -0.68774605
000340 b8 9c d5 be 47 0a 39 bf 67 7c 93 bf f5 6b 02 bf
       -0.4172113 -0.72281307 -1.152234 -0.5094598
000350 22 9a 26 bf cb aa c9 bf d8 c4 dc 3d 40 2c ad bf
       -0.6507894 -1.5755247 0.107797325 -1.3529129
000360 0b 05 3a bf fd 43 89 bf 56 9c 37 bf d3 1d 04 bf
       -0.72663945 -1.0723873 -0.71722925 -0.5160801
000370 ba 81 8b 3e 31 5a c9 bd 98 f0 45 bf 4b 86 ee bf
       0.2724741 -0.09831656 -0.7732024 -1.8634733
000380 e2 cb 7d bf 2a 19 ae bd 71 10 3e bf d0 61 69 bf
       -0.99139225 -0.085008934 -0.7424384 -0.91164875
000390 cb 25 e0 bd e1 0d ac bf dd 6d 17 bf bd 17 f1 bd
       -0.109447084 -1.3441736 -0.59152013 -0.11772106
0003a0 59 06 62 bf 07 b6 b8 bf 29 7c ae bf ae 11 50 bf
       -0.88290936 -1.443055 -1.3631641 -0.8127698
0003b0 b3 f9 96 bf 6b 8c b3 be 6c 3a 8e be 17 ed 1a bf
       -1.1794952 -0.35068068 -0.27778947 -0.6051802
0003c0 dd 57 86 bf 95 e1 72 bf 4d 03 c4 bd dc 34 0d bf
       -1.0495564 -0.9487546 -0.09570942 -0.5515878
0003d0 fb b2 9f be 83 f8 b6 bf 2f 62 6f be 48 4b 6c bf
       -0.3119124 -1.429459 -0.23377298 -0.9230237
0003e0 ee 51 94 bf bb 40 c4 3d 08 06 10 bf 8d 82 84 bf
       -1.1587503 0.09582659 -0.562592 -1.0352341
0003f0 93 98 16 bf 8a d0 07 bf ee 97 20 bf b0 ff 92 bf
       -0.5882656 -0.5305258 -0.62731826 -1.148428

lstm.weight_ih_l1 f4 [512, 128]
000000 4a ba 82 be 2d 27 56 be c1 f3 a2 be ff ee f9 be
       -0.25532752 -0.20913382 -0.31826594 -0.48815152
000010 6c a6 8b 3e 36 a8 23 3e f2 14 b1 3e f4 a1 f5 3d
       0.27275407 0.15982136 0.34586293 0.11993781
000020 9e 4d 12 bf bb ba 29 3e f5 ab 4f 3e 85 33 82 bc
       -0.57149684 0.16575138 0.2028044 -0.015893707
000030 8e a8 a1 3e b7 4e 20 3f 42 fa 62 3e 31 03 f3 be
       0.3157391 0.6262011 0.22165778 -0.47463372
000040 20 14 9a ba 3f 0c 14 bc 77 9c 0b 3e 86 e1 05 bf
       -0.0011755265 -0.009036123 0.13633905 -0.52297246
000050 a9 84 9e be 82 14 0e 3e ab c8 f7 3e c7 eb 92 be
       -0.30960587 0.1387501 0.48395285 -0.2869551
000060 4b a6 c1 be 2c a0 44 3e 36 be 1c be bf a5 9a 3e
       -0.37822184 0.19201726 -0.15306935 0.3020458
000070 f0 8a 03 bf fc 98 ff 3e c0 8c 72 3e 59 64 b4 bd
       -0.51383877 0.49921405 0.23686504 -0.08808202
000080 92 14 85 3e 78 dc 0c be e4 ee 0e bf d5 25 5b be
       0.25992256 -0.13755977 -0.5583327 -0.2140115
000090 d6 83 7d be f4 05 ac be df da 18 be b7 d4 fe bb
       -0.24757323 -0.33598292 -0.14927243 -0.0077768224
0000a0 2d 97 25 3f e9 4b ff be 52 2e b9 3e b4 99 cd bd
       0.646838 -0.49862602 0.36168152 -0.10039082
0000b0 6b c3 b7 be c7 0c 37 bc 18 f9 04 3f 2d 4e 21 3e
       -0.3589128 -0.01117248 0.51942587 0.15752478
0000c0 5f c7 9d be 85 7e e9 bd 27 0b c9 be 2a b2 86 be
       -0.3081617 -0.11401085 -0.3926632 -0.26307803
0000d0 79 ce ac be e2 cb bf 3e 02 10 05 bf 2a 03 82 be
       -0.33751276 0.37460238 -0.5197755 -0.2539304
0000e0 b6 ed 62 be 46 51 ee 3e f7 88 e6 bd ba 22 f2 3d
       -0.22160992 0.46546382 -0.11256593 0.1182303
0000f0 84 47 a6 be 97 9b 3e be ae 21 14 be 0e df 1d be
       -0.32476437 -0.1861404 -0.14465973 -0.1541712
000100 06 97 be 3e 96 85 f8 bd dc ba 4a 3e cb 75 8f be
       0.37224597 -0.121348545 0.19797844 -0.28019556
000110 3d 26 34 be 36 ff ab 3d 34 4a ef be e3 b2 89 be
       -0.17592712 0.08398287 -0.467363 -0.26894292
000120 dd 16 50 3e eb 81 88 be 60 a8 2e 3f 12 1c 09 3f
       0.20321222 -0.2666162 0.6822567 0.53558457
000130 df c2 9f 3d 5e 78 b1 be 88 28 1f be 02 6e f0 3d
       0.078008406 -0.34662145 -0.15542805 0.11739732
000140 2c de ba be 4a 8e 7c 3d 30 5f 8f 3e f6 34 61 3e
       -0.3649763 0.061659135 0.2800231 0.21992859
000150 84 b2 14 bf c0 4d f8 bb 49 37 b7 3e 21 fe f0 3e
       -0.58084893 -0.007577628 0.35784367 0.47068885
000160 78 55 9d be f9 01 5c 3e a4 97 50 3f e8 19 9b be
       -0.3072927 0.21485128 0.81481385 -0.30293202
000170 56 55 ff 3e e6 fe 15 bf e6 9d 0e bf 91 c0 fe 3e
       0.49869794 -0.5859207 -0.55709684 0.49756292
000180 30 06 9d be 9b 93 f9 3e 47 c6 c3 be 47 66 c4 bd
       -0.30668783 0.48745427 -0.3823721 -0.0958982
000190 83 23 8a bc 4b 82 13 be 11 a3 cd 3d 26 7d f7 3c
       -0.016862636 -0.14405172 0.10040868 0.030211043
0001a0 ee ad fa 3e 73 a5 64 3e 10 1e 2f be f0 84 f0 3e
       0.48960823 0.22328739 -0.17101312 0.46976423
0001b0 e7 8b 76 3d b7 64 9a 3e ec 3a 7b be 16 92 e7 bd
       0.060192015 0.30154964 -0.24534196 -0.113071606
0001c0 fc 28 af be b9 90 7a be ef 01 91 be 09 24 35 3e
       -0.34210956 -0.2446927 -0.28321788 0.17689528
0001d0 3c cf 46 3f af 81 56 3e f3 3b b0 3d 92 31 68 be
       0.77659965 0.20947908 0.086051844 -0.2267516
0001e0 8a 6e 11 3e 36 e1 fc 3e 73 25 50 be 19 cb 9b 3e
       0.14202324 0.49390572 -0.20326786 0.3042839
0001f0 53 66 d4 3e 78 f5 0c bf 5d 7e 4b bd be d0 08 bd
       0.41484317 -0.55062056 -0.049681056 -0.033402197
000200 f6 34 2c 3e 0b 29 f1 be 60 0e d7 bd 55 35 9c 3c
       0.16817078 -0.47101626 -0.10500789 0.0190684
000210 14 be 2b 3e 31 9f 2e bd 41 a6 c2 bd f1 9e 2a 3f
       0.16771728 -0.042632286 -0.09504367 0.66648775
000220 9c 98 88 bd b5 9f 9e be 08 53 fc 3e ab 22 1f bf
       -0.06669733 -0.30981222 0.49282098 -0.62162274
000230 8d e0 f5 bd 6e 31 00 bf 36 39 8a 3e 18 eb 1d bf
       -0.1200572 -0.50075424 0.26996773 -0.6168685
000240 fa 29 aa be 37 22 86 be 16 45 01 bf 87 b4 e4 3e
       -0.3323515 -0.2619798 -0.5049604 0.4466898
000250 c6 3e 9e be 8c ee ac 3d 9d da 75 be d3 4e 0f 3f
       -0.30907267 0.08443937 -0.24009176 0.5597965
000260 0b db 54 be 76 49 9b 3e 2a e9 77 3c e5 97 41 3f
       -0.20786683 0.30329484 0.015131274 0.756224
000270 c6 52 b3 bb 7a 97 02 3f 25 44 05 be 3b 1a b9 3d
       -0.005472514 0.51012385 -0.13014276 0.09038206
000280 08 3e 10 3f a5 9d ca be 79 78 98 bf 33 d3 68 3b
       0.5634465 -0.39573398 -1.1911765 0.0035526275
000290 10 12 80 bf 6d 80 07 3e d4 30 95 be 41 12 ad be
       -1.0005512 0.13232584 -0.29138815 -0.3380299
0002a0 15 ba de 3e 48 2e df bd 1b 03 98 be 8a e2 38 3e
       0.43501344 -0.10897499 -0.2968987 0.18055168
0002b0 f9 83 99 3e c4 dd 75 bf cb 3b ad bd fb 31 d0 bd
       0.299835 -0.9604151 -0.0845867 -0.10165783
0002c0 ce ef 4e be 43 01 95 3d 3c 79 b0 3c 1a e5 2c be
       -0.20208666 0.07275631 0.021542184 -0.1688427
0002d0 02 67 2c bf 87 b1 e6 be a7 8f 9f be de ab 11 bf
       -0.6734468 -0.45057318 -0.31164286 -0.56902874
0002e0 db 92 00 3f d4 b4 52 3f 10 50 e7 3d 53 53 0a bf
       0.50224084 0.8230717 0.112945676 -0.5403339
0002f0 d5 64 3c bf 03 c4 dc 3e 84 8c d4 bc d4 e4 90 3e
       -0.7359136 0.43118295 -0.02594591 0.28299582
000300 b7 9a d8 bd 48 67 12 3f 68 56 e4 3d ea 57 47 3e
       -0.105763845 0.57188845 0.11149293 0.1946713
000310 e8 ec 48 bd 47 01 f5 be d4 99 29 bf 45 d8 ff bd
       -0.049054056 -0.47852537 -0.6625035 -0.12492422
000320 38 ad 21 3e d1 e8 3c 3e 49 6a 75 3f a5 29 ed 3e
       0.15788734 0.18448187 0.95865303 0.46320835
000330 92 0f a1 be c5 f6 3e be 5e 96 4e 3e 02 ca 79 bd
       -0.31457192 -0.18648823 0.20174548 -0.060983665
000340 cd 27 17 be 7e 42 4c 3f 7f ff 98 be 13 e9 37 3f
       -0.14761277 0.7978896 -0.29882428 0.7184002
000350 88 74 9d be a4 e5 3c bf 5c d6 5c 3f 9a f4 38 3d
       -0.3075297 -0.73787904 0.86264586 0.045155145
000360 e1 6b 8e bf b7 4c b1 be 2e ad 01 3f 09 4f c4 3d
       -1.1126672 -0.3462884 0.50654876 0.09585387
000370 1b 75 6c 3f 1e 8d 90 be d8 85 32 bf 0e 5a 7e bf
       0.9236619 -0.28232664 -0.6973548 -0.9935616
000380 81 84 b0 3d f9 b1 86 3f e4 dd 8d bf 48 ca 3c be
       0.08619023 1.0523063 -1.1083341 -0.18436539
000390 07 a0 f9 be 26 1e a1 bd a3 85 e4 be e4 3c b5 3d
       -0.48754904 -0.078670785 -0.44633207 0.088495046
0003a0 3b bd 31 3f cf b2 9e be 3d bc bb 3e c6 a7 4f 3f
       0.6942937 -0.30995795 0.36667052 0.81115377
0003b0 24 cb cf 3e ec ea fd 3d 64 2b 81 3e 79 ba 8b bf
       0.40584671 0.123983234 0.25228417 -1.0916282
0003c0 ae d9 81 3e d5 b6 e4 be a2 80 3e bf 54 9d 79 3e
       0.2536139 -0.4467074 -0.7441503 0.24376422
0003d0 2c be 7a 3f 02 b6 d7 3d 21 e6 a5 3e f3 81 f1 be
       0.9794643 0.10532762 0.32402137 -0.47169456
0003e0 91 63 2c 3e f4 74 82 3f 92 37 20 3d df b3 cf 3e
       0.16834857 1.0191941 0.039115496 0.40566918
0003f0 ca 37 1c 3e a6 20 e1 3e 29 36 bc 3e 4f 6a 85 be
       0.15255657 0.4397022 0.3676007 -0.2605767

lstm.weight_hh_l1 f4 [512, 128]
000000 4c 55 e5 bd 2e db 44 bd 39 e9 b4 bd 67 eb 8d bd
       -0.1119791 -0.04806059 -0.08833546 -0.06929665
000010 b7 54 f6 3e 1a 13 47 be 0e f6 1f 3d cd 85 95 3d
       0.48111507 -0.1944088 0.039053015 0.07300911
000020 84 60 52 be e8 37 68 3c c5 ed 96 bd 36 b4 7b 3d
       -0.2054463 0.014173485 -0.0736957 0.06145116
000030 69 1c 14 bf c2 26 d3 3e 9b fc 2b 3f c8 dc bf 3d
       -0.5785585 0.41240507 0.6718232 0.093682826
000040 61 84 4a 3e 59 86 20 bd 2d ad 50 be d6 e7 35 3f
       0.19777061 -0.039190624 -0.20378561 0.7105688
000050 4b 3b 9e 3d 52 51 14 3e 84 9b b1 be 88 fa 14 3f
       0.07726153 0.14484146 -0.34688962 0.5819478
000060 6e 9c c3 be b7 1d d3 bd 84 59 b0 be 8f f3 1d bf
       -0.38205284 -0.10308402 -0.34443295 -0.61699766
000070 e2 34 5f 3e 02 58 7f be 89 56 f8 be 28 74 ce bd
       0.21797517 -0.24935916 -0.4850352 -0.10080749
000080 68 a5 b8 3e 86 a0 e3 be 61 2f 2f 3d 06 ec b4 3e
       0.36063695 -0.44458407 0.042769793 0.35336322
000090 88 10 67 3e f4 86 eb 3d 0a 99 d2 be 1a 5f da 3e
       0.225649 0.1150035 -0.41132385 0.42650682
0000a0 c4 78 a0 be eb ce 3a 3e 09 4f 5a be 0a f1 f1 be
       -0.31342137 0.18242995 -0.21319212 -0.4725421
0000b0 17 19 f8 3b 44 20 c3 be bf 85 45 be 91 f0 75 be
       0.0075713503 -0.38110554 -0.19289301 -0.2401755
0000c0 93 ef b2 3e 64 12 8c be 90 98 cb be 35 52 f9 be
       0.34948406 -0.2735778 -0.39764833 -0.4869553
0000d0 0e 2e 2e 3e b3 7e 57 be 14 9d 19 3f 48 68 e6 bd
       0.17009756 -0.21044426 0.6000531 -0.11250359
0000e0 85 f9 e6 3d 36 a0 2d bf 43 fd 38 be 64 51 3e 3e
       0.11278061 -0.6782259 -0.18065362 0.18585736
0000f0 4d 70 72 3e ae 32 d8 3e 48 a5 2b 3e 64 53 87 be
       0.23675652 0.42226166 0.16762269 -0.2643081
000100 4f a3 f4 3c 4b a6 18 3e ac cc 15 bf 1e ba 3f be
       0.029863028 0.14907186 -0.5851543 -0.18723342
000110 b5 7e e9 be 9c 4f 55 be db 6e e2 3e 77 b4 85 be
       -0.45604482 -0.2083115 0.442252 -0.26114246
000120 31 35 c6 3e a0 88 83 be d7 bf ab 3d b0 f4 05 bd
       0.38712457 -0.25690174 0.083862 -0.032704055
000130 ef 2e cf 3c 6c ae 00 3d 33 4e cb bd bd b4 83 be
       0.025290934 0.03141634 -0.09927025 -0.2572383
000140 22 44 54 3c d4 6b 5c 3d 21 0d af be 54 43 34 be
       0.012955697 0.05381377 -0.34189704 -0.17603809
000150 23 d2 1e bd 19 43 9d be 14 ab 4a be 0c a0 2f 3e
       -0.03877462 -0.30715254 -0.19791824 0.17150897
000160 b9 c0 9d 3e b5 c6 a8 3e 77 47 df 3e 94 48 c0 bc
       0.30811098 0.329641 0.4360921 -0.023472108
000170 74 69 b0 bd 0f 05 9a bc d2 40 27 bf 40 3f 8a 3d
       -0.086138636 -0.01880124 -0.6533328 0.06750345
000180 a4 5a 5c be f6 bb 2c 3d 78 18 36 be 24 4d 08 3e
       -0.21518952 0.04217144 -0.17782772 0.13310677
000190 22 c8 26 3e d1 4c 6c 3e 40 f9 0c be 28 81 a8 3e
       0.16287282 0.23076178 -0.13766956 0.32911038
0001a0 65 02 21 3d 6c 24 69 be 27 5a c9 3e 24 61 50 3e
       0.039308924 -0.227678 0.39326593 0.20349556
0001b0 b0 93 40 3e c2 35 51 3e 53 ec 11 bf 17 f5 08 be
       0.18806338 0.20430663 -0.5700123 -0.13374744
0001c0 17 ed bd 3e 18 fe 00 3e 72 f3 b5 3e 00 9c 4c 3d
       0.37094948 0.12596929 0.35537297 0.04995346
0001d0 e6 fa ea be 54 36 a0 3e 8d 7e 52 be 11 05 04 bf
       -0.45894545 0.3129145 -0.20556088 -0.5157023
0001e0 44 f9 f3 3d 3f 83 91 be cd 3f 89 be 1f 9c f7 3e
       0.11912778 -0.28420445 -0.2680649 0.48361298
0001f0 26 ce 29 be 62 42 9f b8 f8 16 20 be c4 15 e7 bd
       -0.16582546 -7.5940756e-05 -0.15633762 -0.11283448
000200 94 90 b6 3e f2 ab 09 be 84 d3 af bd e1 ee 52 3e
       0.3565718 -0.13444498 -0.08585265 0.20598938
000210 f7 aa f6 3d 89 04 4d 3e 7c 17 ba 3e 1a 65 79 3e
       0.12044328 0.20021261 0.36346042 0.24354973
000220 82 47 ab bd 5f e7 30 3e 67 01 6a 3c 23 66 89 3e
       -0.083632484 0.17275761 0.014282561 0.26835737
000230 f5 dd 59 3d c0 ce ca 3a 33 45 07 3f 5b 46 e9 bd
       0.05319019 0.0015472993 0.52839965 -0.11390372
000240 b0 d3 bd bc e2 19 a2 3e 40 b6 5c be 7e a2 da 3e
       -0.02317223 0.31660372 -0.21553898 0.42702097
000250 7a a7 ad 3c ce b4 7c be 04 dc 61 bd 7d 9c f3 be
       0.021198023 -0.24678347 -0.055141464 -0.4758033
000260 77 04 7c ba ec 1a 25 be fa 9d 30 3d d1 f4 be bd
       -0.00096137024 -0.16123551 0.04311941 -0.09324039
000270 98 67 d4 3e bc ba 0d bf b8 5e 6e be 7e 8c a0 3d
       0.41485286 -0.5536306 -0.2327832 0.07839297
000280 45 6b bd 3e d6 0f e4 3d 24 63 8c bd 5c b9 c4 3e
       0.36995903 0.11135833 -0.06854847 0.38422668
000290 a5 13 7f be aa 46 68 3e 6e c5 83 bc b9 31 10 3f
       -0.24909838 0.22683206 -0.016085353 0.5632587
0002a0 b5 13 29 be f9 d1 d7 bc 95 1b b6 bb e8 a0 c8 be
       -0.16511424 -0.02634524 -0.0055574873 -0.39185262
0002b0 60 35 f5 be 01 f2 06 3f 18 7b 9a 3d bc 71 ec be
       -0.47892284 0.5271302 0.075430095 -0.46180522
0002c0 47 75 3e 3e 16 d3 18 be b6 74 78 3e 69 e8 b1 be
       0.18599425 -0.14924273 0.24263272 -0.34747627
0002d0 c0 27 b8 be 14 7f 75 bd 54 ec 43 3e fa 76 04 3d
       -0.35967827 -0.059935644 0.19133121 0.032340027
0002e0 4d ed 51 3e e1 73 b7 be b5 25 2c be e1 c3 eb 3d
       0.2050068 -0.35830596 -0.16811259 0.1151197
0002f0 e5 47 24 be 43 17 7b be 9f d0 7a be d6 5f e8 3d
       -0.1604305 -0.24520592 -0.24493645 0.11346404
000300 30 79 99 3d 4b 33 ac bc a2 5e 05 be 39 9d a7 3e
       0.07493818 -0.021020552 -0.13024381 0.3273714
000310 07 c2 6e 3b 43 20 2c be c7 01 04 3f 6f 8e cb bd
       0.0036431567 -0.16809182 0.5156521 -0.099392764
000320 f2 b2 07 3f 5a 91 d3 bd 24 a1 43 3e 6d f7 25 be
       0.53007424 -0.10330458 0.19104439 -0.16207667
000330 65 08 88 3d b1 d8 8c bc 36 80 a6 bc 22 3f 1b 3f
       0.06642226 -0.01719317 -0.020324808 0.6064321
000340 a9 6f fe 3b 49 25 16 bf a3 30 81 be bd 17 a0 be
       0.007764776 -0.5865064 -0.2523242 -0.3126811
000350 bc 2b e9 bc 26 e3 b2 be d3 9d 85 3c b2 4e 30 3e
       -0.028463237 -0.34938926 0.016310608 0.1721752
000360 2e 27 47 bf 7d bb cf 3e ba 11 0d be 54 6e 4a 3e
       -0.7779416 0.4057273 -0.13776293 0.1976865
000370 d5 c4 ef be c8 1e 97 3e bb c4 2d bf 54 37 e4 3e
       -0.46829858 0.29515672 -0.6787831 0.44573462
000380 f6 63 2b bf 4a dd 7c bd 6b 64 e3 bc 9c 0e 0c be
       -0.66949403 -0.061734475 -0.027757844 -0.13677448
000390 3a e4 df 3e e7 c6 83 3e 80 cc 69 3e 30 3c 70 3e
       0.4372881 0.25737688 0.22831917 0.2346046
0003a0 06 55 8c 3d 92 90 b6 3d 9e a1 d8 3d 26 b1 b3 bc
       0.068521544 0.08914293 0.10577701 -0.021935057
0003b0 ee ac c7 be 82 16 4e 3e 23 59 1b 3e 93 da b2 be
       -0.38999122 0.20125774 0.15170722 -0.34932384
0003c0 f3 f5 23 3c b9 c9 18 bf 47 d0 c0 be e3 29 6b 3c
       0.010007369 -0.59682804 -0.37658903 0.014353248
0003d0 ae 05 94 be 9d 5e 17 3f 7f a3 7b bd 7a ca 66 3e
       -0.28910583 0.59128743 -0.06143522 0.22538176
0003e0 9e 1d 7f be 93 b1 33 3e 56 61 76 3d 2b 3c 95 be
       -0.24913642 0.17548208 0.06015142 -0.29147467
0003f0 96 ba 8b 3d 53 2d 2f be 5c 9f 9b be f6 94 52 be
       0.06822698 -0.17107134 -0.3039502 -0.20564637

lstm.bias_ih_l1 f4 [512]
000000 16 a8 d6 bd 3e f3 ae be 08 07 82 be 1f 8e ce 3b
       -0.104812786 -0.34169954 -0.2539599 0.0063035632
000010 8e 66 38 be e9 4a 88 be 7b cd 6c be 67 47 e2 be
       -0.18007872 -0.26619652 -0.2312526 -0.441951
000020 60 c4 3a bc fd 4d 39 3d 3d 32 ac be 66 27 98 bc
       -0.0113993585 0.04524039 -0.3363208 -0.018573474
000030 f1 73 ff be 65 5b 27 bf e6 85 5f bd 2e 9b 26 3e
       -0.49893144 -0.6537383 -0.054571055 0.16270134
000040 bd a6 31 bf ef 8b ba be 74 d6 d7 be 45 6f 6a be
       -0.6939505 -0.36434886 -0.42155802 -0.22894008
000050 79 5c be bc ca f0 5d be bd 07 a9 be 5a 42 da bd
       -0.023237454 -0.21673885 -0.33013716 -0.10657187
000060 5c 7e 3f bf e0 b2 3a 3e ff a6 05 bd b6 db ab bd
       -0.74802184 0.18232298 -0.032629963 -0.08391516
000070 23 59 65 3d e0 3f 92 bd 09 56 0c bf 05 28 9c be
       0.05599321 -0.071410894 -0.5481878 -0.30499282
000080 03 20 b4 be a3 9d b2 be 3e de 55 be 58 02 c2 bc
       -0.35180673 -0.34885892 -0.2088556 -0.023682758
000090 6c b5 24 bf e9 43 af bd 1f 8d 00 3e 93 31 53 be
       -0.6433933 -0.08557875 0.12553833 -0.2062438
0000a0 5c 2c f2 bd 12 07 cc 3d 27 49 c9 be fd 55 31 be
       -0.11824867 0.09962286 -0.39313623 -0.17317958
0000b0 0a 5e 76 be ff 83 5b bd b0 32 f0 be 30 7d ca bd
       -0.2405931 -0.05359268 -0.46913671 -0.09887159
0000c0 a1 07 8a bd 30 84 ee bd 67 02 e2 be 4c f2 18 be
       -0.06739736 -0.116463065 -0.44142458 -0.14936179
0000d0 d9 f5 cc be bd d3 3c bf 81 d6 cc be de 7f 1a bd
       -0.40031317 -0.73760587 -0.40007403 -0.0377196
0000e0 72 cf ec bc 99 b3 b2 be 47 89 92 be 51 e1 91 be
       -0.028907511 -0.34902647 -0.2862036 -0.28492215
0000f0 9d f3 83 be e1 fe 15 3e 6f e3 9f 3d 78 9e ea be
       -0.257718 0.1464801 0.078070514 -0.45824027
000100 2b 91 9d be b0 d8 b6 be 57 e0 8b be 9c 41 97 be
       -0.30774817 -0.35712194 -0.27319595 -0.29542243
000110 27 6f 5a be 98 e4 cf be a0 19 f7 be 74 cb 9d bd
       -0.21331464 -0.4060409 -0.48261738 -0.07704821
000120 f7 d0 95 be b2 c1 83 be 30 58 cb be 52 66 39 3e
       -0.2926099 -0.25733715 -0.3971572 0.18105438
000130 fe c4 a6 bd 99 d1 08 be 96 c6 90 be 8d 54 0e 3e
       -0.08143042 -0.13361205 -0.2827651 0.13899441
000140 c0 dd 17 bf 2a cb e2 3c 2a b1 72 be 1a 28 b0 bd
       -0.5932274 0.027684767 -0.23700395 -0.08601399
000150 ef e1 10 bf a7 75 9c bd 99 07 05 be ce ea 3b 3e
       -0.5659475 -0.07639628 -0.1299118 0.1835129
000160 3f 4e 70 be f1 96 a0 be fc 54 2e bd aa ec 7b be
       -0.23467349 -0.3136516 -0.042561516 -0.24601999
000170 01 24 7b be 10 91 a5 be 16 84 94 be 18 84 ec bd
       -0.24525453 -0.32337236 -0.29007024 -0.115486324
000180 b2 29 4b bf 5b 40 32 bf 65 3d 7c ba f8 d4 ab bd
       -0.79360497 -0.6962945 -0.00096221856 -0.0839023
000190 a5 55 2e 3d 4e 52 12 be eb 91 c7 be b1 9f de be
       0.042562146 -0.14289209 -0.38978514 -0.4348121
0001a0 14 aa 9c be e1 3d e0 bd 0d 92 0f 3d d2 89 dd be
       -0.3059851 -0.109493025 0.035051394 -0.4326921
0001b0 12 9c 18 bf 1d 31 00 bb 22 5e 36 3e 78 75 b8 3e
       -0.59613144 -0.0019560524 0.17809346 0.36027122
0001c0 cb 09 74 bd 6a e0 f3 bd 26 e7 15 be eb 8e 64 be
       -0.05957965 -0.11908038 -0.14638957 -0.22320144
0001d0 7f 56 9c be fa 61 81 be a7 ae 84 be aa 1a 39 bf
       -0.3053474 -0.25270063 -0.259145 -0.7230631
0001e0 a8 3b ca 3d 88 b3 09 bf 52 f5 b0 bb e1 bf 75 be
       0.0987466 -0.5378957 -0.005400338 -0.23998977
0001f0 e9 23 10 bf ad be 6d be 33 70 cf be 27 df bd be
       -0.56304795 -0.23217268 -0.4051529 -0.37084314
000200 d2 f7 55 be 4c 9b 24 3e 3f 0e 0d 3e b7 81 66 ba
       -0.20895317 0.16074866 0.13774966 -0.0008793133
000210 80 9f d5 be 4e b3 56 3d 13 b4 52 3e ff 33 90 be
       -0.4172325 0.052417092 0.20576505 -0.2816467
000220 73 ac f9 bd 07 99 cb 3e 67 de f1 be 33 ee 8f 3e
       -0.12191095 0.39765188 -0.47239992 0.2811142
000230 a1 0b b7 be 54 17 6d bd d8 16 e8 bd e0 1d ec 3e
       -0.3575106 -0.057883576 -0.11332482 0.46116543
000240 f3 92 8f be 21 0a cc be 9c 40 b6 3e 98 59 e8 3e
       -0.280418 -0.39851478 0.35596168 0.45380855
000250 44 c0 78 3f 64 19 fb 3d 7f a7 e1 bc df 71 1a bf
       0.97168374 0.12260702 -0.027545689 -0.60330003
000260 e6 f2 b7 be 45 14 f1 bd 2b 69 37 3f 6f c0 4c bf
       -0.35927504 -0.11771444 0.7164485 -0.7998113
000270 1e c8 9b be 0c 13 bd 3e 4f 3a ca be 78 f6 e8 be
       -0.30426115 0.36928594 -0.3949761 -0.4550054
000280 51 bf d3 3e f7 de 8d be 23 d5 7a bf c1 94 7c 3e
       0.413569 -0.2770917 -0.9798147 0.2466612
000290 68 a7 2e be ea b3 fe bd 8f 22 df be 93 03 f1 be
       -0.17056048 -0.1243666 -0.43581054 -0.4707304
0002a0 b7 6b 08 be 44 43 84 3e bb 97 7c be 4f df 97 be
       -0.1332234 0.2583257 -0.24667256 -0.29662558
0002b0 fc ea 7b 3e 7d 04 0d bf 28 03 a8 be 9c 25 7d 3d
       0.24601358 -0.55084974 -0.32814908 0.061803445
0002c0 b6 68 8d 3d 23 0e f2 3e 8f 13 6b be 9a c6 b6 3e
       0.06904738 0.4727641 -0.2295668 0.35698396
0002d0 71 88 af 3b 26 8b a7 be 61 39 9c be c0 24 16 bf
       0.0053568413 -0.3272335 -0.30512527 -0.58649826
0002e0 53 5d 7e bc 5b 99 72 be 02 34 78 be e0 f5 07 be
       -0.01552518 -0.23691313 -0.2423859 -0.13277388
0002f0 00 90 b8 3e b5 16 0a 3f bd 51 ac 3e 5a 2b 3c bf
       0.36047363 0.539409 0.3365611 -0.7350365
000300 20 8c 09 be 07 ce 13 be 1a d4 78 3e a1 c0 1b bf
       -0.1343236 -0.14434062 0.2429966 -0.60840803
000310 99 56 07 3d 24 62 23 be 66 8d b7 3d 48 18 62 3d
       0.03304157 -0.15955406 0.089625165 0.055198938
000320 af 9b 17 be 46 de 07 bf 6e c2 55 bc 31 fa 69 bf
       -0.14805482 -0.5307354 -0.013046844 -0.91397387
000330 e8 00 a7 3b c5 81 11 be a2 e6 99 be 0e 57 c1 be
       0.0050965436 -0.1420966 -0.3005877 -0.3776173
000340 51 1a 6c be 11 84 ff 3e 1b 74 10 3d 01 f1 8a be
       -0.23056914 0.49905446 0.035266977 -0.27136996
000350 b2 2f 34 bf b7 7d d8 3e c7 3c 46 be 3c d7 a2 bd
       -0.7038528 0.42283413 -0.19359122 -0.07951209
000360 6b 9f b4 bd 2e f3 0b bb 58 ff 41 be bf 91 1d 3d
       -0.08819469 -0.0021354663 -0.18945062 0.038469072
000370 22 fe 1a bf d5 66 ff bc 70 ab 62 3e fd 7a a7 3d
       -0.60544026 -0.031176964 0.2213571 0.08177755
000380 3c 83 1a bf 21 41 0d bf 02 da 55 bf d0 69 07 3f
       -0.603565 -0.55177504 -0.8353578 0.5289583
000390 4a 0c 20 be 00 75 a9 3d 22 1d b7 be e3 de 85 3d
       -0.15629688 0.08274269 -0.35764414 0.06536653
0003a0 46 14 0a be 57 92 d1 bd 6b 9b 5e be 7f 76 a3 3e
       -0.13484296 -0.1023299 -0.21738975 0.31926343
0003b0 eb b4 05 bf 7c 72 8e be 0c 99 db be 12 55 45 3f
       -0.52229184 -0.2782172 -0.42890203 0.7708293
0003c0 3e 0b 86 3e 03 ef 8f 3e f0 16 6b bd 9b 2b 27 bf
       0.26180452 0.2811204 -0.05739492 -0.6530091
0003d0 5e b8 fb 3c 4e 59 ff 3d 01 d3 c1 be ef 6b 02 bf
       0.030727562 0.124682054 -0.37856296 -0.50945944
0003e0 d8 e6 37 3d 12 78 a7 be 5f 82 07 3d c4 38 03 bc
       0.044897884 -0.32708794 0.033083316 -0.008009139
0003f0 73 60 81 be 9a c1 02 bf 39 3c 0b 3e f1 3c ca be
       -0.25268897 -0.5107666 0.13597192 -0.3949962
