LSTM/Data_2/LSTM13/model.pth (torch, 275939 bytes, 6 tensors)

lstm.weight_ih_l0 f4 [512, 3]
-0.050531086 -0.007329354 0.06388541 0.6581594 0.14838853 -0.020333776 -0.61521316 0.08970699
0.34569043 -0.34261352 -0.019039696 0.24690136 0.46666875 0.17899844 0.48486465 0.20104946
0.14599104 -0.21809478 -0.18107857 0.3164752 0.36834514 0.0139032705 -0.19939855 -0.18397109
0.0019079131 0.16972594 0.033942662 0.24306788 -0.23636575 -0.89069706 0.531888 0.3188747
0.32009917 0.024051555 0.043935526 0.26566598 0.08400348 0.43325123 0.25493482 0.53386045
-0.40601462 -0.41799268 -0.124394186 -0.024448115 0.30647817 0.109266706 0.1019746 -0.22532466
0.3493981 -0.20578997 -0.36530635 0.19229282 0.21494414 -0.093656935 0.17319548 0.09068523
-0.1452709 -0.44752464 -0.09040834 -0.045125213 -0.107682146 0.44673803 0.1033741 0.053133406
-0.048388258 0.28831658 -0.12981142 0.024491413 0.05304312 -0.25809973 0.5633836 0.30880618
0.12209602 -0.15190823 -0.48223898 -0.14955173 -0.48862222 -0.57316303 -0.38147599 -0.10641385
-0.06460174 0.1759442 0.0913459 0.33815765 0.18810691 0.11047829 -0.24203148 0.28631294
0.18984878 0.31136143 -0.09076765 0.21346575 0.06973553 0.24890018 0.29507574 0.25286648
0.017883085 -0.0110155605 0.40696198 -0.13904932 -0.16473605 -0.15472724 -0.10677022 -0.021267677
-0.30490625 -0.08078146 -0.04282803 -0.23981628 -0.12804477 -0.08118505 -0.03415077 -0.118637666
-0.05595823 -0.0888207 0.047377527 0.10519866 -0.11219789 0.1614498 -0.15590201 0.12445992
0.108959 0.010085747 0.0461538 -0.043839183 -0.031184183 0.11028414 -0.09426728 0.058018196
-0.044232894 0.26423138 0.57016045 0.42137656 0.038366064 0.22031006 -0.060349315 -0.24522048
0.203484 0.28949267 0.3753738 0.5969399 0.18098165 0.012713167 -0.062016867 0.28317
0.19457935 0.0025000894 0.29441687 0.19710724 0.17642348 0.17643794 0.111913286 0.20199919
0.020013915 -0.056815054 0.099462 -0.0126836235 -0.16586024 0.085038155 -0.18589075 -0.14004922
-0.07672763 0.0069783176 0.8066461 0.106067225 -0.23911859 0.17278703 0.055461667 -0.30327478
0.025887994 -0.118460685 0.036785234 0.4599753 0.21031637 -0.11512004 0.38659388 -0.24044436
-0.4219805 -0.00524761 0.05670788 -0.09939171 0.18734634 -0.081595026 0.0013948209 -0.13545892
0.1374082 -0.19808617 0.11790476 -0.060207468 -0.37506792 0.34580958 0.5816057 0.05431514
0.39307243 -0.21081549 -1.0046525 0.23095557 -0.07980457 -0.3836084 -0.807788 -0.20263174
-0.10675887 0.3181606 0.98010117 0.4439352 0.27823624 0.029679399 0.1903076 -0.00225614
-0.03373687 0.08132448 -0.27155524 0.36009908 0.36780402 0.07464678 0.0041715116 0.17008698
-0.16115873 0.3154505 0.16845886 0.5391907 0.27906653 0.15373415 0.09458979 0.088556774
0.32477704 0.28959045 0.34263352 0.25611532 -0.049953964 -0.024762217 0.17232928 0.013848899
-0.01407778 -0.26266646 0.034256976 0.03647415 -0.15275365 0.28345126 -0.14515199 -0.2893657
0.20632073 0.28602782 0.12757273 0.04317862 0.2826191 0.05643917 -0.18627112 -0.067263946
0.14017396 0.09631362 -0.20321724 -0.074193425 0.53098434 -0.081714876 -0.31871858 0.06564584
00000000: aff9 4ebd 142b f0bb 5bd6 823d 227d 283f
00000010: 2af3 173e 0593 a6bc 9c7e 1dbf 4cb8 b73d
00000020: 56fe b03e 0a6b afbe 23f9 9bbc b6d3 7c3e
00000030: 35ef ee3e 5e4b 373e 2e40 f83e e9df 4d3e
00000040: ad7e 153e 3d54 5fbe a96c 39be 0a09 a23e
00000050: bc97 bc3e 8bca 633c 222f 4cbe eb62 3cbe
00000060: f112 fa3a a3cc 2d3e 7607 0b3d c9e6 783e
00000070: dd09 72be b904 64bf d029 083f 8b43 a33e
00000080: 0ae4 a33e c407 c53c bdf5 333d 5f05 883e
00000090: 040a ac3d 1bd3 dd3e d186 823e 14ab 083f
000000a0: 26e1 cfbe 2303 d6be 61c2 febd 6a47 c8bc
000000b0: b5ea 9c3e 39c7 df3d 0fd8 d03d 82bb 66be
000000c0: 4fe4 b23e 9bba 52be 6f09 bbbe 69e8 443e
000000d0: 511a 5c3e 35cf bfbd 285a 313e 2eb9 b93d
000000e0: e5c1 14be f321 e5be 0228 b9bd 37d5 38bd
000000f0: 7588 dcbd d9ba e43e cdb5 d33d 6aa2 593d
00000100: c432 46bd 3b9e 933e 49ed 04be 37a2 c83c
00000110: be43 593d a625 84be e839 103f d81b 9e3e
00000120: 7a0d fa3d d58d 1bbe 07e8 f6be 1724 19be
00000130: b12c fabe d0ba 12bf d250 c3be 81ef d9bd
00000140: eb4d 84bd b72a 343e 8f13 bb3d 0023 ad3e
00000150: 199f 403e 7142 e23d 1ad7 77be 9c97 923e
00000160: b867 423e c46a 9f3e 64e4 b9bd c496 5a3e
00000170: 80d1 8e3d b0df 7e3e 2b14 973e b777 813e
00000180: 8c7f 923c 9c7a 34bc 525d d03e f262 0ebe
00000190: 91b0 28be d170 1ebe 58aa dabd 8d39 aebc
000001a0: ac1c 9cbe c070 a5bd 726c 2fbd 6692 75be
000001b0: 2b1e 03be 5944 a6bd aee1 0bbd 4ef8 f2bd
000001c0: 7534 65bd a1e7 b5bd f00e 423d 6572 d73d
000001d0: 02c8 e5bd 1953 253e c7a4 1fbe d8e4 fe3d
000001e0: e525 df3d b03e 253c c40b 3d3d b790 33bd
000001f0: f975 ffbc a7dc e13d 340f c1bd 7da4 6d3d
00000200: 8d2d 35bd 5649 873e 09f6 113f abbe d73e
00000210: bc25 1d3d f698 613e d830 77bd 141b 7bbe
00000220: 1c5e 503e 6238 943e ff30 c03e 0ed1 183f
00000230: 4153 393e e34a 503c 6605 7ebd a9fb 903e
00000240: cf3f 473e 8ad8 233b cfbd 963e 7bd6 493e
00000250: 5ba8 343e 26ac 343e cb32 e53d e0d8 4e3e
00000260: 39f4 a33c e7b6 68bd bcb2 cb3d f9ce 4fbc
00000270: 44d7 29be 7c28 ae3d 255a 3ebe 1069 0fbe
00000280: 6023 9dbd 5faa e43b 5c80 4e3f c639 d93d
00000290: 81db 74be 15ef 303e c62b 633d d546 9bbe
000002a0: 0f13 d43c 849b f2bd 1dac 163d e281 eb3e
000002b0: 2d5d 573e 0ec4 ebbd a2ef c53e 0c37 76be
000002c0: d40d d8be 25f4 abbb 8646 683d e18d cbbd
000002d0: b8d7 3f3e 4b1b a7bd 6cd2 b63a beb5 0abe
000002e0: bcb4 0c3e 1ad7 4abe 0d78 f13d 1b9c 76bd
000002f0: e708 c0be f40d b13e 1ce4 143f 8d79 5e3d
00000300: ca40 c93e 04e0 57be 7498 80bf 9e7f 6c3e
00000310: 9470 a3bd 5268 c4be 32cb 4ebf b27e 4fbe
00000320: 65a4 dabd f2e5 a23e e9e7 7a3f 794b e33e
00000330: fb74 8e3e 3622 f33c ffdf 423e c0db 13bb
00000340: ac2f 0abd 738d a63d 4a09 8bbe e85e b83e
00000350: cf50 bc3e 69e0 983d 2db1 883b 482b 2e3e
00000360: cb06 25be ba82 a13e 7b80 2c3e 6708 0a3f
00000370: cfe1 8e3e 7c6c 1d3e 4bb8 c13d 415d b53d
00000380: 2d49 a63e 3345 943e a96d af3e 8c21 833e
00000390: 879c 4cbd 22da cabc 1677 303e 7ee6 623c
000003a0: 7da6 66bc 387c 86be 0b51 0c3d eb65 153d
000003b0: 746b 1cbe 8620 913e b9a2 14be be27 94be
000003c0: be45 533e 3d72 923e 6da2 023e 11dc 303d
000003d0: 73b3 903e c22c 673d dbbd 3ebe aec1 89bd
000003e0: c389 0f3e 1340 c53d 2e18 50be b9f2 97bd
000003f0: 97ee 073f 215a a7bd 152f a3be 5371 863d

lstm.weight_hh_l0 f4 [512, 128]
0.04230604 0.18530029 -0.053320423 -0.07063441 0.27646765 0.17388967 -0.11776838 0.00024142273
0.077514865 0.30211243 -0.0830128 -0.03212398 0.01540145 -0.07035548 -0.11885664 -0.1564676
0.20081016 0.15703335 -0.22024854 -0.18091464 0.104423895 0.025023015 -0.05372253 -0.0019835932
0.19181992 0.1019546 -0.077678256 -0.024379266 -0.1508955 0.23868053 -0.22604905 -0.12424369
-0.05801674 0.13402395 0.25961247 0.15582703 0.12125516 0.1948008 -0.1401834 -0.099798605
0.03982903 0.07459024 -0.20473182 0.12633738 -0.16702239 0.07852287 0.02960307 0.11905407
-0.06558618 -0.025789777 0.27597922 -0.0066164182 -0.051084876 -0.020645296 -0.1522734 0.08768621
0.026129318 -0.057513386 -0.18696775 0.20159821 -0.15623586 -0.26796088 -0.21044563 0.24120227
-0.26720744 0.0493726 0.014408534 -0.15961406 0.09427549 0.115033254 0.23078722 0.07208318
-0.18141828 -0.039502237 0.11380667 0.14088815 0.04464501 0.04796778 0.24687535 -0.20723714
0.061502174 -0.30851606 0.004785348 -0.12625408 -0.18022753 0.13724539 0.1787976 0.31288102
0.029492985 -0.23853058 -0.08282407 -0.014820669 0.06701987 0.13926302 -0.055399176 -0.1963453
0.18430902 0.01920395 0.077959575 0.06265883 -0.14366698 0.08768401 0.2729678 -0.00509697
0.079178505 -0.21248649 0.07815137 0.031562775 0.1757492 0.2443428 -0.10268307 -0.07580222
-0.26037 0.05007895 -0.22822732 -0.13209857 0.08129693 -0.20183268 -0.0100826435 -0.12622114
-0.10281962 0.19435501 -0.12675592 -0.14200778 0.23916973 -0.1837666 0.17872387 0.1206134
0.11332917 0.10290438 0.25032154 -0.023175973 -0.5002891 0.1891275 -0.0022567452 -0.21014255
0.15725473 0.19554217 -0.07229565 -0.14061967 0.18014582 0.23291501 0.16402161 -0.053607166
0.018516075 0.1951337 -0.13807748 0.0071925777 0.27311498 -0.2018892 -0.15655781 0.19910245
-0.08840382 0.3426028 -0.061198182 0.19571117 -0.008580018 -0.24364482 -0.07441086 -0.109208055
-0.25011575 0.1888784 -0.14644425 0.16411424 -0.056883305 0.2176004 -0.19853505 -0.31123897
0.21703553 -0.3404853 -0.20114054 -0.22207294 -0.05743255 -0.08673289 -0.048473354 0.1623734
0.09742786 -0.07726227 0.174848 -0.16309577 0.07433931 -0.16566257 0.035054345 -0.013182489
0.23583701 -0.2777543 -0.18206352 -0.035362385 -0.23857158 -0.111497805 -0.21372752 -0.00091748865
-0.24184081 -0.024317052 -0.10664262 0.13567023 -0.15987587 0.050876245 0.41509387 0.025768686
0.05139934 0.1705044 0.15423034 0.14014831 -0.14026745 0.14473733 0.051206697 -0.32924277
0.12761375 -0.17335236 -0.23809487 -0.25512087 0.029102752 0.11651692 -0.3595565 0.07257092
0.14041907 -0.2818882 0.041064642 0.17722714 0.06512312 0.2423892 -0.19625092 -0.15360995
0.15438688 -0.2111199 0.08326769 0.07493235 -0.23247163 0.49647874 0.004249959 0.18004799
0.1750246 -0.29555175 0.17614187 0.017300704 0.08891402 -0.118425556 -0.30179766 0.14189637
-0.13174449 -0.14930865 -0.15683371 -0.099382736 0.08976946 -0.074126855 -0.12953772 0.17642
-0.16979472 0.13672066 0.20912738 -0.0041472423 0.09859755 -0.28541628 0.18728638 -0.1563791
00000000: 1949 2d3d 5cbf 3d3e 8466 5abd c6a8 90bd
00000010: 2b8d 8d3e 2210 323e 8c30 f1bd 6c26 7d39
00000020: 1dc0 9e3d 7bae 9a3e 9d02 aabd 6f94 03bd
00000030: 5d56 7c3c 8916 90bd 1c6b f3bd 0b39 20be
00000040: 2ea1 4d3e 5acd 203e d588 61be b041 39be
00000050: 32dc d53d 11fd cc3c 280c 5cbd 2cff 01bb
00000060: 716c 443e 93cd d03d c715 9fbd 07b7 c7bc
00000070: 5a84 1abe ab68 743e 6779 67be 7a73 febd
00000080: f6a2 6dbd 933d 093e edeb 843e 1f91 1f3e
00000090: a054 f83d dc79 473e 3d8c 0fbe 3663 ccbd
000000a0: c423 233d c5c2 983d 38a5 51be 965e 013e
000000b0: eb07 2bbe 99d0 a03d 2382 f23c 9fd2 f33d
000000c0: 0c52 86bd 1545 d3bc 264d 8d3e 8ace d8bb
000000d0: 603e 51bd 5320 a9bc 8fed 1bbe d494 b33d
000000e0: 270d d63c 2893 6bbd 7974 3fbe c36f 4e3e
000000f0: 4bfc 1fbe 2b32 89be 0f7f 57be bafd 763e
00000100: 6acf 88be ec3a 4a3d c611 6c3c de71 23be
00000110: 8213 c13d 8e96 eb3d 7c53 6c3e 59a0 933d
00000120: b7c5 39be 19cd 21bd 7913 e93d fc44 103e
00000130: b0dd 363d dd79 443d e4cc 7c3e f935 54be
00000140: b4e9 7b3d d1f5 9dbe 69ce 9c3b c048 01be
00000150: 918d 38be 0e8a 0c3e b816 373e f131 a03e
00000160: 469b f13c 5c41 74be aa9f a9bd 64d2 72bc
00000170: b741 893d f79a 0e3e 3fea 62bd be0e 49be
00000180: 81bb 3c3e 9a51 9d3c 45a9 9f3d 4653 803d
00000190: 701d 13be ad93 b33d 6fc2 8b3e 7c04 a7bb
000001a0: 5728 a23d 0f96 59be d30d a03d f847 013d
000001b0: 99f7 333e 0035 7a3e 804b d2bd 323e 9bbd
000001c0: 374f 85be 961f 4d3d 6cb4 69be d944 07be
000001d0: 017f a63d 3aad 4ebe ac31 25bc 1d40 01be
000001e0: 1893 d2bd 0005 473e 4ecc 01be 7d6a 11be
000001f0: e9e8 743e 502d 3cbe 6403 373e 2904 f73d
00000200: 2019 e83d 88bf d23d 252a 803e 8adb bdbc
00000210: f212 00bf a4aa 413e e7e5 13bb 9c2f 57be
00000220: 6207 213e 353c 483e be0f 94bd 9afe 0fbe
00000230: 2578 383e 4681 6e3e 48f5 273e 3093 5bbd
00000240: 06af 973c 21d1 473e 2f64 0dbe b7af eb3b
00000250: bad5 8b3e 0bbc 4ebe b150 20be 83e1 4b3e
00000260: 100d b5bd a269 af3e f2aa 7abd 8268 483e
00000270: 3493 0cbc 077e 79be b964 98bd 79a8 dfbd
00000280: 2c0f 80be 5769 413e 7bf5 15be 900d 283e
00000290: 78fe 68bd a4d2 5e3e c64c 4bbe b75a 9fbe
000002a0: 903e 5e3e 1754 aebe c9f7 4dbe 1767 63be
000002b0: 653e 6bbd 03a1 b1bd ff8b 46bd 3645 263e
000002c0: 4288 c73d ae3b 9ebd 5b0b 333e 9402 27be
000002d0: 353f 983d 73a3 29be 2595 0f3d 5efb 57bc
000002e0: 427f 713e d035 8ebe dc6e 3abe 26d8 10bd
000002f0: 1c4c 74be f658 e4bd 63db 5abe 9f83 70ba
00000300: 1ea5 77be 8e34 c7bc 7267 dabd 23ed 0a3e
00000310: 80b6 23be 9c63 503d 2f87 d43e da18 d33c
00000320: 1d88 523d b598 2e3e 8fee 1d3e 0a83 0f3e
00000330: 45a2 0fbe 0636 143e 1dbe 513d 8292 a8be
00000340: 2ead 023e 4883 31be 24cf 73be 349f 82be
00000350: e568 ee3c 6ca0 ee3d ca17 b8be 10a0 943d
00000360: 04ca 0f3e a653 90be 6633 283d 087b 353e
00000370: 455f 853d e034 783e 00f6 48be ed4b 1dbe
00000380: 9817 1e3e d12f 58be 4088 aa3d 2276 993d
00000390: 0b0d 6ebe 7632 fe3e 3d43 8b3b 805e 383e
000003a0: a639 333e 8f52 97be 895e 343e 35ba 8d3c
000003b0: 8e18 b63d 1989 f2bd 3985 9abe 484d 113e
000003c0: 07e8 06be 5ee4 18be 0499 20be 2d89 cbbd
000003d0: 0dd9 b73d d2cf 97bd 89a5 04be 72a7 343e
000003e0: abde 2dbe 8000 0c3e 7d25 563e 97e5 87bb
000003f0: 83ed c93d 1522 92be 00c8 3f3e d821 20be

lstm.bias_ih_l0 f4 [512]
-0.11220951 0.20354915 -0.023588046 -0.13293879 0.46687683 0.11989809 0.14211774 -0.0010863664
-0.012552101 0.036042284 0.20359689 0.06703821 0.18540734 -0.14585361 0.09629701 -0.044442385
0.08060956 -0.052270014 0.026404336 -0.15100212 0.24652351 0.10994418 0.049259726 0.23371454
0.13289765 -0.19899535 -0.084007666 0.10959252 0.17715064 0.25936502 -0.024757918 0.23642948
0.076343775 -0.100375146 -0.1537155 0.07428924 -0.13172096 -0.021023529 0.20187595 0.054688144
0.10385964 -0.1256217 -0.023857897 0.52857715 0.064384334 0.1157467 0.41598487 0.07219982
0.07511297 0.0974483 0.14492989 -0.054328598 0.07032694 -0.07259505 0.3084327 0.24787265
-0.1359439 0.2512798 -0.096998416 0.1405921 0.10854968 -0.11942228 -0.013167535 0.49048582
0.0825089 0.15858781 -0.18689331 0.7304735 0.17615604 -0.13588586 0.12711257 0.04038026
0.016334191 0.17033203 0.1650375 0.19409518 0.12566766 -0.075080186 -0.016209051 0.052743275
0.17561223 0.17169507 -0.1321366 -0.050656103 0.18792678 -0.048772026 0.04396796 0.07999291
-0.07382938 -0.070825785 0.65618175 -0.037552178 -0.19468004 0.29665023 0.024205064 0.3100154
-0.061432112 -0.05594188 -0.06088436 0.15514717 0.13295397 0.7338555 0.12542935 0.17453511
-0.06963903 0.0644082 0.06342908 -0.1695963 0.3512867 0.073038295 0.26817688 0.16685808
0.0688874 -0.00035474275 -0.009715747 -0.07728581 -0.07652338 0.0689842 -0.041568004 -0.031075636
0.0069969054 0.0039590183 -0.011430188 0.03137059 0.08888603 -0.012160355 0.061991 -0.05765019
0.12442392 0.47017178 0.010445825 0.031525668 0.38679308 0.012822104 -0.0021358288 0.08258729
0.18948111 0.010942559 0.058622744 0.090642005 0.07040918 -0.016991239 0.043773543 0.094058625
-0.0203621 0.17165294 0.21359544 -0.033067085 0.19348721 0.109965846 0.20790146 0.060246684
0.05251513 -0.16473287 -0.024511436 0.062161744 0.06374039 0.31306064 0.115493655 0.08590474
0.14983317 0.007261914 -0.18156625 0.04167734 -0.044555765 0.020498125 0.22457461 0.034749154
0.11727559 -0.058602452 -0.03794396 0.555802 0.016794415 0.26175654 0.23167726 0.11109086
0.023017688 0.15977722 0.07201804 0.006343596 0.1234437 -0.12970738 0.24381618 0.11806183
-0.05415657 0.10585254 -0.08308805 0.048964024 -0.03735663 -0.15858866 0.091829546 0.36693048
0.0089177685 0.119353324 -0.0649444 0.44531852 0.09387582 0.10793886 -0.01571568 -0.10322665
-0.04555857 0.076025866 0.18891121 0.085004926 -0.10076379 -0.0007975227 -0.034614265 0.08439956
0.121291585 0.08938797 0.0016878416 -0.13544536 -0.07736422 0.036291525 0.03529202 0.15248893
0.025310736 -0.09890536 0.21370044 0.09850424 -0.050707653 0.14242218 0.057606168 0.108926795
0.0676097 0.0030197925 0.055883776 0.010172617 0.11032568 0.3450737 0.21149674 0.12106922
0.06497435 0.02940114 0.07016136 0.01657735 0.22736724 -0.02961061 0.59654593 0.07799536
0.07445225 0.078148164 -0.07125824 0.015861224 -0.09644914 0.05224849 -0.02865941 -0.07859131
-0.08799288 0.13674673 0.036488008 -0.043764703 0.042601403 0.17653477 0.14025179 -0.12557329
00000000: 19ce e5bd 306f 503e b83b c1bc 1b21 08be
00000010: 7b0a ef3e 218d f53d 5087 113e 6864 8eba
00000020: 54a7 4dbc 13a1 133d b47b 503e 544b 893d
00000030: 6cdb 3d3e a65a 15be 5e37 c53d 3809 36bd
00000040: a016 a53d 1519 56bd e84d d83c 4da0 1abe
00000050: a970 7c3e 6a2a e13d 91c4 493d dd52 6f3e
00000060: 5216 083e 70c5 4bbe 360c acbd 0b72 e03d
00000070: fa66 353e 7ecb 843e 1ed1 cabc 921a 723e
00000080: 205a 9c3d 7c91 cdbd 9967 1dbe f524 983d
00000090: dce1 06be 8939 acbc 92b8 4e3e ad00 603d
000000a0: 5db4 d43d faa2 00be a371 c3bc d550 073f
000000b0: efdb 833d 9b0c ed3d f8fb d43e 80dd 933d
000000c0: d4d4 993d f992 c73d 8068 143e aa87 5ebd
000000d0: 9207 903d b7ac 94bd e4ea 9d3e 54d2 7d3e
000000e0: e134 0bbe bfa7 803e 1ba7 c6bd 60f7 0f3e
000000f0: 4b4f de3d ab93 f4bd a5bc 57bc f520 fb3e
00000100: 6dfa a83d d864 223e f660 3fbe 5000 3b3f
00000110: 4062 343e aa25 0bbe cc29 023e c665 253d
00000120: 48cf 853c 856b 2e3e 97ff 283e e3c0 463e
00000130: 06af 003e a4c3 99bd d8c8 84bc 5509 583d
00000140: b1d3 333e d5d0 2f3e d14e 07be c67c 4fbd
00000150: e16f 403e 2dc5 47bd bf17 343d 53d3 a33d
00000160: dc33 97bd 1c0d 91bd 87fb 273f 50d0 19bd
00000170: 345a 47be 8ae2 973e b349 c63c 57ba 9e3e
00000180: 3da0 7bbd 5023 65bd e161 79bd e6de 1e3e
00000190: 1625 083e f4dd 3b3f 8d70 003e 55b9 323e
000001a0: e89e 8ebd 72e8 833d 1be7 813d a7aa 2dbe
000001b0: dadb b33e 1a95 953d 7b4e 893e d8dc 2a3e
000001c0: d614 8d3d c4fc b9b9 cc2e 1fbc 0648 9ebd
000001d0: 4ab8 9cbd 9747 8d3d 3643 2abd 5592 febc
000001e0: 4c46 e53b a7ba 813b af45 3bbc 737e 003d
000001f0: e109 b63d 3a3c 47bc 46ea 7d3d 9b22 6cbd
00000200: f8d1 fe3d 5bba f03e f724 2b3c 0f21 013d
00000210: be09 c63e cd13 523c 43f9 0bbb 8623 a93d
00000220: 5607 423e 6b48 333c 671e 703d 84a2 b93d
00000230: b032 903d 3631 8bbc e34b 333d cfa1 c03d
00000240: 6bce a6bc cac5 2f3e c3b8 5a3e 5a71 07bd
00000250: 8321 463e c635 e13d 1fe4 543e 3ac5 763d
00000260: 1b1a 573d bcaf 28be 35cc c8bc 509d 7e3d
00000270: 528a 823d 7c49 a03e f087 ec3d d3ee af3d
00000280: de6d 193e 5af5 ed3b 81ec 39be dcb5 2a3d
00000290: 1b80 36bd afeb a73c e3f6 653e 2155 0e3d
000002a0: 2f2e f03d 2009 70bd 206b 1bbd 0a49 0e3f
000002b0: 7194 893c f404 863e ce3c 6d3e 9b83 e33d
000002c0: 978f bc3c a49c 233e 327e 933d f1dd cf3b
000002d0: 0dd0 fc3d 03d2 04be f3aa 793e 67ca f13d
000002e0: 48d3 5dbd 37c9 d83d 112a aabd 808e 483d
000002f0: 4403 19bd 1165 22be 2111 bc3d 50de bb3e
00000300: d51b 123c 846f f43d 9201 85bd ca00 e43e
00000310: f741 c03d 0d0f dd3d 2bbe 80bc 7e68 d3bd
00000320: a09b 3abd 73b3 9b3d f171 413e 1017 ae3d
00000330: 3f5d cebd d810 51ba b0c7 0dbd add9 ac3d
00000340: b967 f83d 0a11 b73d 913a dd3a 30b2 0abe
00000350: 2271 9ebd 6ca6 143d 5d8e 103d 0f26 1c3e
00000360: 7658 cf3c e58e cabd 4ad4 5a3e 97bc c93d
00000370: d4b2 4fbd 1fd7 113e 72f4 6b3d 0315 df3d
00000380: f476 8a3d b6e7 453b 63e6 643d 0cab 263c
00000390: 6ef2 e13d 80ad b03e 9a92 583e 24f3 f73d
000003a0: 4611 853d a9da f03c c2b0 8f3d 39cd 873c
000003b0: f5d2 683e f391 f2bc 3cb7 183f 08bc 9f3d
000003c0: 6c7a 983d 250c a03d d7ef 91bd 66ef 813c
000003d0: 2087 c5bd 8302 563d 24c7 eabc 7bf4 a0bd
000003e0: 9c35 b4bd 5607 0c3e 7374 153d 9e42 33bd
000003f0: cf7e 2e3d 88c5 343e 2a9e 0f3e 4996 00be

lstm.bias_hh_l0 f4 [512]
0.013870493 0.23429985 -0.117968604 -0.05052368 0.30689645 0.14342766 0.13128394 -0.006930991
0.052443273 -0.04493122 0.29337034 0.15746452 0.3095244 -0.121456794 -0.050419763 0.08063655
-0.04518513 0.06940518 0.011457929 -0.20659469 0.14880122 0.095860794 -0.03979574 0.20928763
0.049262747 -0.35750327 -0.025752742 0.25338277 0.067234755 0.32933888 0.043743026 0.28168643
0.16765277 -0.1647009 -0.042234648 -0.03924751 -0.069022425 -0.048479304 0.16104403 0.031557698
0.015042088 -0.060595773 0.05286805 0.5182417 0.09320805 0.23449631 0.56134933 -0.08182871
-0.028405424 0.07289549 0.050474588 -0.10329112 0.10200924 -0.13713534 0.34353098 0.16327594
-0.058614843 0.27283803 -0.051186632 0.09353291 0.040420577 -0.014046249 -0.103741035 0.47350603
-0.06081022 0.14826177 -0.17983219 0.6606025 0.30739447 -0.067815 0.10322374 0.1588996
0.05059597 0.13740873 0.23015788 0.1660178 0.17830141 -0.19804236 -0.05319665 0.05621337
0.121374756 0.16462839 -0.16105074 -0.06449852 0.13460362 -0.063809134 0.17071189 0.07800947
-0.091924936 -0.17288461 0.53075945 -0.03475109 -0.29020026 0.27547765 -0.009114107 0.33837384
-0.11745315 -0.033647507 -0.14649561 0.09463157 0.2222746 0.7179341 0.21610662 0.17754397
-0.10905174 0.012221459 0.054522224 -0.19946808 0.25333986 0.08393509 0.27511364 0.11084762
0.14741763 -0.04847528 -0.13044177 -0.095681615 -0.10538186 0.10335089 -0.09298229 -0.097973675
0.089652 0.04882488 0.016385898 -0.015712995 -0.016859643 -0.03727886 0.1409479 -0.061818987
0.1158371 0.37666294 0.020233968 -0.05712808 0.2984125 0.13346614 0.059925307 0.044067085
0.15055333 -0.026384188 0.094506174 -0.03193338 0.14568998 -0.1095364 0.12719278 0.13980912
-0.05203404 0.12996423 0.19089808 -0.08999971 0.14395665 0.06849843 0.20321976 0.00042506278
0.052277688 -0.03239704 -0.067693 0.10092254 0.12529975 0.21209782 0.17939661 0.10053434
0.12389313 -0.054236237 -0.16875075 -0.04376435 -0.12748395 0.039764434 0.07695481 0.0013809303
0.09777892 -0.0964087 0.12697943 0.584777 0.015227368 0.2715565 0.30500594 -0.0287682
-0.02848894 0.11446667 0.12758729 -0.0704974 0.029764606 -0.091113456 0.32524723 0.17043094
-0.009571816 0.0561666 -0.055367753 0.14613752 0.045890003 -0.0137869 -0.0006885894 0.19743328
-0.05835627 0.2100984 -0.09230243 0.5261603 0.12244624 -0.03937008 0.022796266 -0.123485886
0.09614351 0.10681947 0.21780565 0.03189766 -0.24197362 0.03745876 0.052444402 0.11649712
-0.008442434 0.067998774 -0.12149185 -0.123677604 0.036548655 0.04790919 0.1930587 0.09765499
0.07519244 -0.17353636 0.32338777 0.016211774 0.02809227 0.13965972 -0.019218791 0.104817815
0.084378436 -0.038542897 -0.011224135 0.139429 0.10896791 0.24711026 0.16916399 0.02725228
0.087873355 0.047411192 0.035049945 0.0114808725 0.107531205 -0.082836345 0.6291552 -0.007122503
0.04770173 0.011857286 -0.026318286 0.08027596 -0.0025617806 0.1425744 0.047620546 -0.12218391
0.013144995 0.2810819 0.10909596 0.08370192 0.15265709 0.25472033 0.054304793 -0.1741111
00000000: 1041 633c 4dec 6f3e 8699 f1bd ebf1 4ebd
00000010: 8821 9d3e b3de 123e 4c6f 063e 5e1d e3bb
00000020: c2ce 563d cd09 38bd a334 963e 613e 213e
00000030: fb79 9e3e 57be f8bd f484 4ebd c724 a53d
00000040: 0b14 39bd 4e24 8e3d 0aba 3b3c 8f8d 53be
00000050: 595f 183e aa52 c43d dc00 23bd 7f4f 563e
00000060: bcc7 493d ab0a b7be 6af7 d2bc 63bb 813e
00000070: 60b2 893d 1b9f a83e e32b 333d 3439 903e
00000080: 2bad 2b3e 5aa7 28be 3dfe 2cbd ffc1 20bd
00000090: a15b 8dbd 3c92 46bd bae8 243e a542 013d
000000a0: 1773 763c 4633 78bd 2b8c 583d 7dab 043f
000000b0: dde3 be3d cd1f 703e 97b4 0f3f d095 a7bd
000000c0: 7eb2 e8bc 3b4a 953d 71be 4e3d 4b8a d3bd
000000d0: 38ea d03d 356d 0cbe 4be3 af3e cf31 273e
000000e0: 1e16 70bd 6db1 8b3e 13a9 51bd 2f8e bf3d
000000f0: 0c90 253d 3d22 66bc 2e76 d4bd 626f f23e
00000100: 2314 79bd efd1 173e ee25 38be 3f1d 293f
00000110: cf62 9d3e 97e2 8abd f866 d33d 94b6 223e
00000120: b83d 4f3d e0b4 0c3e 82ae 6b3e 9200 2a3e
00000130: a594 363e 9ecb 4abe bbe4 59bd fe3f 663d
00000140: 5493 f83d 5894 283e 7cea 24be cd17 84bd
00000150: 88d5 093e 5dae 82bd 19cf 2e3e 6ec3 9f3d
00000160: 2443 bcbd aa08 31be dadf 073f 2957 0ebd
00000170: 2195 94be 680b 8d3e 5653 15bc 563f ad3e
00000180: 478b f0bd f8d1 09bd f202 16be 32ce c13d
00000190: f49b 633e 87ca 373f 0e4b 5d3e 16ce 353e
000001a0: 8556 dfbd 843c 483c b252 5f3d 5c41 4cbe
000001b0: c3b5 813e 29e6 ab3d b2db 8c3e 1404 e33d
000001c0: a6f4 163e 048e 46bd 8792 05be b9f4 c3bd
000001d0: 72d2 d7bd a2a9 d33d 806d bebd 6ca6 c8bd
000001e0: 789b b73d 99fc 473d b83b 863c 8ab8 80bc
000001f0: 3c1d 8abc b8b1 18bd a554 103e e835 7dbd
00000200: 003c ed3d f7d9 c03e b5c1 a53c 22ff 69bd
00000210: 86c9 983e 59ab 083e 3d74 753d b07f 343d
00000220: a72a 1a3e a723 d8bc 748c c13d 93cc 02bd
00000230: c12f 153e 9f54 e0bd d33e 023e 1f2a 0f3e
00000240: a521 55bd 5815 053e c97a 433e c551 b8bd
00000250: 5f69 133e e848 8c3d d718 503e f6da de39
00000260: 2121 563d c2b2 04bd a1a2 8abd 7ab0 ce3d
00000270: 944e 003e 2c30 593e bfb3 373e f3e4 cd3d
00000280: aebb fd3d d126 5ebd ffcc 2cbe 3f42 33bd
00000290: 278b 02be 08e0 223d 7c9a 9d3d 5500 b53a
000002a0: 5040 c83d ed71 c5bd e506 023e f2b3 153f
000002b0: 367c 793c 7409 8b3e bd29 9c3e 4aab ebbc
000002c0: a361 e9bc 806d ea3d 3ea6 023e f160 90bd
000002d0: e7d4 f33c b199 babd ce86 a63e 7385 2e3e
000002e0: 1bd3 1cbc f30e 663d 4cc9 62bd 13a5 153e
000002f0: 28f7 3b3d 73e2 61bc 7482 34ba f32b 4a3e
00000300: fc06 6fbd 0924 573e 0e09 bdbd 71b2 063f
00000310: 18c5 fa3d 8542 21bd 3cbf ba3c 2be6 fcbd
00000320: e3e6 c43d 2bc4 da3d 7208 5f3e 1fa7 023d
00000330: efc7 77be 5b6e 193d f1cf 563d 0b96 ee3d
00000340: 2252 0abc f142 8b3d b8d0 f8bd af4a fdbd
00000350: 0bb4 153d 6d3c 443d 2eb1 453e 57ff c73d
00000360: 7efe 993d 84b3 31be 1593 a53e 8ece 843c
00000370: c321 e63c f502 0f3e ba70 9dbc b9aa d63d
00000380: 9ace ac3d 28df 1dbd 6fe5 37bc 7ac6 0e3e
00000390: 912a df3d 790a 7d3e 5339 2d3e 2c40 df3c
000003a0: f2f6 b33d 3d32 423d 8890 0f3d 451a 3c3c
000003b0: 5239 dc3d 1aa6 a9bd 5110 213f e363 e9bb
000003c0: e462 433d 1045 423c 7299 d7bc b967 a43d
000003d0: 8ce3 27bb 06ff 113e c30d 433d 8f3b fabd
000003e0: 1b5e 573c f7e9 8f3e b46d df3d ea6b ab3d
000003f0: 2452 1c3e b46a 823e b46e 5e3d 2e4a 32be

fc.weight f4 [4, 128]
-0.28099784 -0.110242106 0.024758043 -0.022270584 0.15655285 -0.09043601 -0.01703772 0.21836954
-0.16795853 0.13695484 1.2813021 0.17174192 -0.10983708 -0.61058336 -0.23438013 0.34413525
0.016423563 -0.13402162 0.08196617 -0.017449081 0.24725299 0.20117493 0.18737331 0.5324439
-0.1931807 0.033989258 0.16014631 -0.23929028 0.09346641 0.12658946 0.2918678 -0.18733904
0.102098435 -1.2532781 -0.15075299 -0.04817888 0.3140289 -0.13730097 -0.11747216 0.008426468
-0.14885837 -0.03629907 -0.073113784 0.052405115 0.23584644 -0.37515488 -0.051952165 -0.09793051
-0.27659953 -0.16174152 -0.16340163 0.13488169 0.27747524 0.13491574 0.109859556 -0.006678827
-0.2740925 0.03435043 -0.011042206 -0.27012226 -0.015975809 0.029188523 0.46919233 -0.2660626
-0.17686906 -0.10196029 0.1256193 0.15192862 -0.23881032 0.11305234 0.3125551 0.32496485
0.062682115 -0.42148814 -0.64525723 -0.35416928 0.19101126 -0.12241098 -0.42981425 0.6424503
-0.14396915 0.35981503 0.27849415 -0.048894983 -0.011086903 -0.04593935 0.06285588 -0.27531472
-0.24646544 0.019694166 0.08517939 -0.5763572 -0.7983773 -0.09512747 0.21523394 0.04700413
-0.5100748 0.137683 -0.494678 0.096581064 0.29700452 -0.3911514 -0.42154783 0.031185737
-0.66184634 0.28427687 -0.3774238 -0.77745384 -0.42082825 0.019623158 0.19917634 0.35565948
0.0876483 0.08331156 0.04392934 0.085887246 0.17690505 1.9665946 -0.19171669 -0.08326122
0.097790614 -0.39317155 0.21257405 0.27516112 -0.29766965 2.67116 -0.117498316 -0.18464234
0.07894167 -0.015452156 -0.19969867 -0.009258468 -0.114137106 0.052027013 0.21103905 0.124718264
0.002328888 0.31835434 -0.7672049 0.0026709547 0.2848678 0.90383065 -0.020729026 -0.04396128
-0.62606233 0.14744885 0.025960315 0.004922945 -0.086348735 -0.0637137 -0.07554488 -0.41904578
0.15375131 -0.11975154 0.3972762 0.11434543 -0.106169775 0.03212928 -0.43945828 -0.18874593
0.033228315 -0.059600517 0.1721613 0.14119811 -0.21235618 0.08093475 0.1871738 -0.20321889
0.035026953 -0.017354487 0.2378166 -0.08388709 -0.049563248 0.008688381 0.40893427 0.019565364
0.04059184 0.048638742 0.19921716 -0.09658175 -0.11992991 -0.45063505 -0.16083977 0.30776995
0.30161235 0.086859144 -0.074645445 0.041489538 -0.036802698 -0.098179564 0.027543256 0.1094916
-0.2574958 0.21289651 0.7356594 -0.5383735 0.100064024 -0.18345678 -0.4617876 -0.14295182
0.13437909 0.58397126 0.6632272 0.17495246 -0.3092155 0.07369648 0.026149621 0.0489383
0.19013329 -0.07092594 -0.28676322 -0.03969747 0.16743375 0.055807937 0.096341185 0.010923361
0.15302102 0.0044709314 -0.16577095 0.38950232 -0.196574 0.22176842 0.06430537 0.15546696
0.19476794 -0.027666973 0.08996659 0.15209773 0.14691326 0.48249796 0.21019125 0.1515157
0.028083695 0.057238597 -0.002991093 -0.04803825 0.67848426 0.053142283 -0.08214036 -0.13193691
0.07225541 -0.21975428 -0.3451509 0.06673507 -0.12933132 -0.08005053 -0.21984276 0.004362413
0.10828174 0.39767048 -0.114699446 -0.07200343 0.17664446 0.032419104 -0.06246825 0.11223832
00000000: f3de 8fbe 9dc6 e1bd 61d1 ca3c cd70 b6bc
00000010: 644f 203e 8436 b9bd b092 8bbc 449c 5f3e
00000020: 52fd 2bbe e43d 0c3e b501 a43f 1ddd 2f3e
00000030: 43f2 e0bd 314f 1cbf 5801 70be 7f32 b03e
00000040: b58a 863c f73c 09be e1dd a73d 60f1 8ebc
00000050: e32f 7d3e cd00 4e3e cade 3f3e 3e4e 083f
00000060: 29d1 45be 5238 0b3d 65fd 233e 8308 75be
00000070: 516b bf3d aba0 013e b26f 953e ced5 3fbe
00000080: fc18 d13d 6b6b a0bf fe5e 1abe 3857 45bd
00000090: 65c8 a03e a098 0cbe 3e95 f0bd 2b0f 0a3c
000000a0: 546e 18be 55ae 14bd aebc 95bd bfa6 563d
000000b0: bb81 713e 4d14 c0be cbcb 54bd cb8f c8bd
000000c0: 749e 8dbe 929f 25be c252 27be 6d1e 0a3e
000000d0: 3c11 8e3e 5a27 0a3e 0cfe e03d 10da dabb
000000e0: da55 8cbe 09b3 0c3d 5eea 34bc 774d 8abe
000000f0: b3df 82bc c51c ef3c fa39 f03e 5b39 88be
00000100: 2a1d 35be 8ed0 d0bd 59a2 003e 2d93 1b3e
00000110: b18a 74be fc87 e73d 3907 a03e cb61 a63e
00000120: 7b5f 803d 4bcd d7be 942f 25bf ad55 b5be
00000130: 7598 433e 9cb2 fabd 9d10 dcbe 9f77 243f
00000140: a66c 13be ad39 b83e c996 8e3e 1b46 48bd
00000150: d7a5 35bc e62a 3cbd 95ba 803d 0df6 8cbe
00000160: 7061 7cbe a955 a13c 8872 ae3d 258c 13bf
00000170: 7462 4cbf 31d2 c2bd 4966 5c3e 6787 403d
00000180: 4394 02bf c6fc 0c3e 6f46 fdbe 4bcc c53d
00000190: fa10 983e ff44 c8be 1ed5 d7be 3b79 ff3c
000001a0: c36e 29bf bd8c 913e b13d c1be 3707 47bf
000001b0: cd76 d7be bfc0 a03c e2f4 4b3e 0019 b63e
000001c0: f480 b33d 409f aa3d 40ef 333d a7e5 af3d
000001d0: 9926 353e 5fb9 fb3f 6151 44be dc84 aabd
000001e0: 7246 c83d c84d c9be 03ad 593e ebe1 8c3e
000001f0: 2868 98be 49f4 2a40 f5a2 f0bd e212 3dbe
00000200: 2cac a13d 0a2b 7dbc cf7d 4cbe d4b0 17bc
00000210: b7c0 e9bd 471a 553d 9f1a 583e 4a6c ff3d
00000220: 42a0 183b 57ff a23e 8a67 44bf 2f0b 2f3b
00000230: 31da 913e 7261 673f ebcf a9bc be10 34bd
00000240: 9f45 20bf d5fc 163e baaa d43c a850 a13b
00000250: 9bd7 b0bd 547c 82bd 46b7 9abd 2b8d d6be
00000260: fc70 1d3e 4c40 f5bd c967 cb3e f02d ea3d
00000270: 8a6f d9bd fe99 033d ad00 e1be 9d46 41be
00000280: 6a1a 083d ac1f 74bd 0d4b 303e 3d96 103e
00000290: e673 59be 1ec1 a53d 7daa 3f3e 9d18 50be
000002a0: 6c78 0f3d ff2a 8ebc 3286 733e ffcc abbd
000002b0: d502 4bbd b659 0e3c d55f d13e 8b47 a03c
000002c0: a143 263d 6b39 473d 95ff 4b3e a7cc c5bd
000002d0: d09d f5bd a3b9 e6be 2eb3 24be 0694 9d3e
000002e0: ef6c 9a3e 35e3 b13d b6df 98bd eff0 293d
000002f0: 6dbe 16bd 5e12 c9bd 65a2 e13c 223d e03d
00000300: 7dd6 83be 8b01 5a3e 2d54 3c3f d8d2 09bf
00000310: 5eee cc3d 18dc 3bbe 6d6f ecbe f661 12be
00000320: ac9a 093e 247f 153f 42c9 293f bd26 333e
00000330: 7e51 9ebe 2eee 963d bb37 d63c 8773 483d
00000340: 4db2 423e 9f41 91bd a1d2 92be d099 22bd
00000350: c173 2b3e dd96 643d 874e c53d e6f7 323c
00000360: 8bb1 1c3e e480 923b dcbf 29be d96c c73e
00000370: b24a 49be 4317 633e 89b2 833d bb32 1f3e
00000380: 3f71 473e d9a5 e2bc 6740 b83d 82bf 1b3e
00000390: 6e70 163e f909 f73e 603c 573e ef26 1b3e
000003a0: c70f e63c 0573 6a3d 3706 44bb c2c3 44bd
000003b0: 25b1 2d3f b9ab 593d 3439 a8bd 781a 07be
000003c0: a5fa 933d 4407 61be 9eb7 b0be 65ac 883d
000003d0: 6e6f 04be 88f1 a3bd 761e 61be 93f2 8e3b
000003e0: d1c2 dd3d 779b cb3e 8be7 eabd 8976 93bd
000003f0: 49e2 343e e5c9 043d b5de 7fbd 34dd e53d

fc.bias f4 [4]
-0.2742375 -0.08823124 0.19892843 -0.14126253
00000000: dc68 8cbe 95b2 b4bd e5b3 4b3e 20a7 10be
