CNN/CNN4/model.pth (torch, 92431 bytes, 8 tensors)

conv1.weight f4 [16, 3, 3]
0.10832223 0.42495108 0.58631957 -0.98429656 -1.4196125 -0.7228178 -0.15677682 -0.036973264
0.17661536 0.49605033 0.51760733 -0.034187004 -0.25864342 -0.1868828 -0.033505976 -1.0251124
-0.94696754 -0.6070294 -0.17745125 -0.41303805 -0.2447287 0.5135607 0.39378276 0.3383125
0.091486104 0.30279297 0.2648978 0.50295156 0.41276705 0.33693817 -0.45706496 -1.2179847
-1.2788737 0.07347109 -0.3502797 -0.44157282 0.076956324 -0.291772 -0.23944348 -0.22469045
-0.55448467 -0.23703133 0.5363145 0.5369373 0.5630275 -0.18211344 -0.4939237 -0.67137307
0.38816324 0.7019695 0.6337069 0.103591844 -0.4153584 -0.60883754 1.1752204 0.8920772
0.103144534 -2.812796 -2.0900347 -0.23616847 -0.2052438 -0.21569157 -0.12464545 -2.566804
-1.3844455 -1.1615185 -0.054184962 0.7215084 0.33230612 0.49447453 0.0033876093 0.25565928
0.035040263 -0.2655929 -0.30444613 -0.3215869 -0.75411785 -0.9013433 0.5783144 0.28184205
0.44634488 -0.13088559 -0.11082121 -0.31600696 0.028888801 -0.105183065 -0.11913566 0.28211388
0.18767174 -0.19130835 0.8463588 0.54664624 0.5659523 -0.7466143 -0.5840765 -0.4583675
-0.41387984 -0.44363648 -0.114845075 -0.46754414 -0.55526656 -1.8274482 -0.0839048 0.37424996
0.20700717 0.18882659 0.28266987 -0.112345316 -0.46727356 -0.66128254 -0.13593782 -0.8899615
-1.0132498 -1.4406254 0.49288425 -0.018485026 0.49011028 0.13570638 0.23197113 -0.47751865
0.34018067 0.1819096 0.118609674 -0.5936487 -1.6944685 -0.6671893 -0.64940363 0.37167293
0.19831319 -0.67117894 0.5324903 0.16416268 -0.51624423 -0.118196614 0.16607903 -0.4417565
-0.83460116 -0.34790093 0.48110655 0.5973119 0.54785925 -1.0826436 -0.855496 -0.5096751
00000000: 0cd8 dd3d 3093 d93e 0a19 163f dcfa 7bbf
00000010: ddb5 b5bf 960a 39bf 1a8a 20be 4771 17bd
00000020: a8da 343e 4ffa fd3e ea81 043f ac07 0cbd
00000030: e96c 84be 345e 3fbe 903d 09bd e236 83bf
00000040: 776c 72bf 4766 1bbf c8b5 35be b979 d3be
00000050: 299a 7abe b778 033f e59d c93e 4c37 ad3e
00000060: 115d bb3d ae07 9b3e afa0 873e 6fc1 003f
00000070: 3456 d33e 2983 ac3e 6b04 eabe ece6 9bbf
00000080: 22b2 a3bf 0378 963d dc57 b3be d515 e2be
00000090: 479b 9d3d 2463 95be ac30 75be 4115 66be
000000a0: b5f2 0dbf 57b8 72be e84b 093f b974 093f
000000b0: 9222 103f f27b 3abe 91e3 fcbe 1bdf 2bbf
000000c0: 55bd c63e 46b4 333f 9e3a 223f f627 d43d
000000d0: dba9 d4be c7dc 1bbf 9f6d 963f 2c5f 643f
000000e0: 713d d33d da04 34c0 21c3 05c0 26d6 71be
000000f0: 6e2b 52be 40de 5cbe 1d46 ffbd 8446 24c0
00000100: 8335 b1bf a3ac 94bf 0df1 5dbd c6b4 383f
00000110: 0724 aa3e c42b fd3e a702 5e3b c6e5 823e
00000120: 6186 0f3d cbfb 87be 5de0 9bbe 0aa7 a4be
00000130: de0d 41bf 6fbe 66bf 6a0c 143f 9a4d 903e
00000140: 5187 e43e df06 06be 3bf6 e2bd aacb a1be
00000150: 35a8 ec3c 386a d7bd 66fd f3bd 3b71 903e
00000160: 052d 403e 56e6 43be f8aa 583f 02f1 0b3f
00000170: 40e2 103f 1d22 3fbf 0a86 15bf 25af eabe
00000180: 0fe8 d3be 5224 e3be e533 ebbd f261 efbe
00000190: f325 0ebf d3e9 e9bf 48d6 abbd b19d bf3e
000001a0: b0f9 533e c25b 413e 1bba 903e 4d15 e6bd
000001b0: 7b3e efbe d049 29bf 4933 0bbe 84d4 63bf
000001c0: 2bb2 81bf 6a66 b8bf 535b fc3e e96d 97bc
000001d0: bcef fa3e 9df6 0a3e d789 6d3e 537d f4be
000001e0: 292c ae3e 8346 3a3e a1e9 f23d 5cf9 17bf
000001f0: 58e4 d8bf ebcc 2abf 513f 26bf ea4b be3e
00000200: 9d12 4b3e 62d2 2bbf 4951 083f 431a 283e
00000210: 9528 04bf 1111 f2bd 9f10 2a3e e82d e2be
00000220: 6ca8 55bf 1220 b2be 9953 f63e 6fe9 183f
00000230: 8140 0c3f 1194 8abf c901 5bbf 117a 02bf

conv1.bias f4 [16]
0.074362494 0.28931436 -0.40585345 0.49036115 0.2759495 -0.40260687 0.17213264 0.49559805
-0.23805599 -0.35220313 0.077503555 0.36258355 0.37373278 -0.11062531 -0.1826606 -0.41937417
00000000: 5d4b 983d 0321 943e 06cc cfbe 9e10 fb3e
00000010: 4149 8d3e 7d22 cebe 8a43 303e 07bf fd3e
00000020: f3c4 73be f853 b4be 2fba 9e3d 8da4 b93e
00000030: e759 bf3e 868f e2bd 610b 3bbe 36b8 d6be

conv2.weight f4 [32, 16, 3]
-0.16852741 -0.11139057 0.028072795 0.97307926 0.79029125 0.627706 0.08633547 -0.065679684
0.22808073 -1.728155 -2.0548396 -1.4699659 -0.11233854 -0.7914529 0.1399166 -0.5857286
-0.14724375 -0.20936403 0.3239963 -0.7272228 -2.402288 -0.22968549 -1.5977815 -4.149282
0.6388693 0.05636343 0.29792455 0.1334449 -0.06862449 -0.11347589 0.087150045 0.24181806
-0.42653722 -1.704113 0.79652464 -1.3606651 0.05683618 0.08660866 0.0016480003 -0.14027719
0.13329136 0.2678322 0.5155593 0.13580664 0.0014964578 -0.1987668 0.42790332 -0.12738934
0.20298372 -0.16019581 -0.12242511 0.4145451 0.83344823 1.0523354 -0.36149827 -0.2549
0.056286924 -0.75159127 -0.5384185 -0.3295825 -0.022696609 0.0999793 0.2115626 0.39204603
-0.09312291 -0.25940567 -0.058583267 0.033266928 -0.51563257 -2.6963696 -0.44021976 -2.4752426
-0.16493514 0.047895946 0.054433234 0.08779195 0.042164266 -0.024606172 0.14672232 -0.017024655
-0.2401753 -1.2575761 -1.8893877 -0.47476998 0.044553682 -0.1281338 0.1389777 -0.27774534
0.0015813727 0.2932685 -0.9695975 0.013034821 -0.19907665 1.1944271 0.54565686 0.3035737
-0.17629737 -0.00034434997 0.017109841 0.0039077993 0.043553635 -0.115782864 -0.09908299 -0.02488692
-0.041443054 -0.02160797 0.02575795 -0.114216186 0.015477646 -0.12705092 -0.21744247 -0.22633588
-0.04947686 0.0011693786 0.027420675 0.0016729495 -0.17491162 -0.08759483 -0.06894324 -0.011067435
-0.06998949 0.08667672 -0.012301803 0.092882305 -0.056140162 -0.0066153556 -0.13442309 -0.015504602
-0.0047498066 -0.058758415 -0.12520567 0.11295414 0.009536537 -0.19708773 -0.20171635 -0.24968806
0.06763657 0.10740047 -0.049512956 -0.0073535847 -0.13958998 -0.20720935 0.08708769 -0.086540096
0.19357152 0.24288797 0.23067646 -0.040795073 -0.04919946 -0.25434083 -0.084046766 -0.60259926
-0.58323854 -0.1844448 -0.22570322 0.18583046 -0.05415498 -0.117951825 0.10234827 -0.56740713
-0.20566577 -0.10215506 0.33972523 -0.126001 0.0722862 -0.015446221 -0.26497152 0.53241354
0.16261947 0.19212717 0.44386858 0.0009840429 -0.058530197 -0.073444135 -1.2036201 -1.2861046
-1.5002105 -0.02777646 -0.18016031 0.29328817 1.1406478 1.0591956 1.1664675 0.065176874
0.029759226 -0.080114074 0.050257128 -1.6400417 -0.05668336 -0.032836247 0.114976026 0.12067564
-1.409236 -0.2498507 0.009434269 0.5666357 0.50339794 0.1446179 0.4227713 -0.037634782
-0.09477615 -0.5868225 -0.24598017 -0.5868134 -1.0244371 -1.5032401 -0.03812682 0.10730417
-0.092236124 0.35795385 -0.96203774 0.19503835 -1.7016621 -0.41801775 -3.4770596 -1.960407
-0.23103483 -0.12772617 -0.15554486 -0.09882714 0.104109176 0.025743399 0.020927638 -0.1830279
-0.14972599 -3.4619582 -0.18823364 -1.0275257 -0.21065806 -0.10206329 -0.17250063 -0.11114071
0.27652082 -0.16272782 -0.10773309 -0.7481136 -0.19511908 0.36642492 -0.19614354 -0.20706788
-0.11953071 -0.13647825 0.012089532 0.049410686 -0.010221129 0.09737345 -0.084421076 -0.1478234
-0.14690219 0.024553623 -0.1841425 -0.03217264 -0.0069350014 0.037749503 -0.06864094 -0.06281741
00000000: 7392 2cbe bd20 e4bd ebf8 e53c b91b 793f
00000010: 8750 4a3f 57b1 203f a7d0 b03d 1283 86bd
00000020: ff8d 693e 2f34 ddbf 7e82 03c0 d827 bcbf
00000030: c011 e6bd a89c 4abf 4c46 0f3e 4ff2 15bf
00000040: 11c7 16be 8663 56be d8e2 a53e 462b 3abf
00000050: 16bf 19c0 ac32 6bbe 1b84 ccbf ebc6 84c0
00000060: f08c 233f 57dd 663d 9189 983e c8a5 083e
00000070: ff8a 8cbd 0c66 e8bd b97b b23d 279f 773e
00000080: 1663 dabe 6020 dabf 0ae9 4b3f 462a aebf
00000090: 0ecd 683d e25f b13d b701 d83a d3a4 0fbe
000000a0: 887d 083e 4d21 893e b2fb 033f e510 0b3e
000000b0: cb24 c43a 8689 4bbe 2516 db3e 5a72 02be
000000c0: f7da 4f3e 5f0a 24be 04ba fabd 413f d43e
000000d0: dd5c 553f edb2 863f 4d16 b9be 4182 82be
000000e0: 1e8d 663d 4968 40bf cbd5 09bf 0abf a8be
000000f0: 3dee b9bc f2c1 cc3d dea3 583e 42ba c83e
00000100: 39b7 bebd d2d0 84be 02f5 6fbd e742 083d
00000110: 7f00 04bf 5291 2cc0 7c64 e1be 606a 1ec0
00000120: c2e4 28be 8a2e 443d 62f5 5e3d 44cc b33d
00000130: 70b4 2c3d e292 c9bc 603e 163e 4a77 8bbc
00000140: 84f0 75be 41f8 a0bf 75d7 f1bf 0d15 f3be
00000150: ec7d 363d 8235 03be 2c50 0e3e a334 8ebe
00000160: 1046 cf3a 4a27 963e 8b37 78bf 0090 553c
00000170: c0da 4bbe fde2 983f 2bb0 0b3f 036e 9b3e
00000180: 4c87 34be df89 b4b9 f029 8c3c ff0c 803b
00000190: 4c65 323d 911f edbd 06ec cabd a7df cbbc
000001a0: 31c0 29bd 3303 b1bc 5602 d33c 2dea e9bd
000001b0: f495 7d3c a319 02be 3da9 5ebe 98c4 67be
000001c0: 3fa8 4abd d645 993a 53a1 e03c df46 db3a
000001d0: 081c 33be eb64 b3bd 1d32 8dbd 3054 35bc
000001e0: a656 8fbd 9083 b13d 808d 49bc 1439 be3d
000001f0: 3af3 65bd a0c5 d8bb 35a6 09be 0407 7ebc
00000200: 44a4 9bbb aaac 70bd ea35 00be 8054 e73d
00000210: 233f 1c3c 5ed1 49be bb8e 4ebe 3aae 7fbe
00000220: 0b85 8a3d c7f4 db3d 19ce 4abd 57f6 f0bb
00000230: adf0 0ebe b02e 54be 085b b23d ef3b b1bd
00000240: 9d37 463e a0b7 783e 7336 6c3e bc18 27bd
00000250: 5f85 49bd f638 82be b620 acbd f243 1abf
00000260: 1f4f 15bf 19df 3cbe bf1e 67be 574a 3e3e
00000270: 9dd1 5dbd ba90 f1bd f89b d13d 9841 11bf
00000280: 0c9a 52be ac36 d1bd 77f0 ad3e 6806 01be
00000290: ca0a 943d 2612 7dbc 59aa 87be 414c 083f
000002a0: b885 263e fcbc 443e be42 e33e 00fb 803a
000002b0: 5cbd 6fbd e169 96bd 3910 9abf 139f a4bf
000002c0: e606 c0bf 758b e3bc f27b 38be de29 963e
000002d0: bf00 923f b993 873f cf4e 953f 747b 853d
000002e0: 9fc9 f33c d912 a4bd 6bda 4d3d e3ec d1bf
000002f0: d02c 68bd 4d7f 06bd 8d78 eb3d ca24 f73d
00000300: d861 b4bf ddd8 7fbe 3192 1a3c 0a0f 113f
00000310: b0de 003f b716 143e 7b75 d83e ee26 1abd
00000320: 001a c2bd 003a 16bf 3ae2 7bbe 6739 16bf
00000330: c120 83bf 2c6a c0bf de2a 1cbd 4ac2 db3d
00000340: 4be6 bcbd ba45 b73e 1b48 76bf 22b8 473e
00000350: 10d0 d9bf 6c06 d6be 2588 5ec0 9eee fabf
00000360: 6594 6cbe a6ca 02be 2747 1fbe e265 cabd
00000370: 3137 d53d d2e3 d23c 7070 ab3c aa6b 3bbe
00000380: c551 19be b990 5dc0 52c0 40be f685 83bf
00000390: bfb6 57be 8f06 d1bd 01a4 30be be9d e3bd
000003a0: 2394 8d3e 1fa2 26be 2ba3 dcbd 5f84 3fbf
000003b0: 4ccd 47be 0c9c bb3e dad9 48be 9a09 54be
000003c0: 84cc f4bd f4c0 0bbe 2c13 463c dc62 4a3d
000003d0: 8676 27bc bb6b c73d f5e4 acbd 045f 17be
000003e0: 876d 16be ae24 c93c da8f 3cbe 75c7 03bd
000003f0: 023f e3bb 399f 1a3d 9f93 8cbd 6aa6 80bd

conv2.bias f4 [32]
0.053615354 -0.14061265 -0.15233722 -0.18038695 0.09648989 -0.116999365 -0.3871958 0.17529194
-0.06399514 -0.121965945 -0.08538411 -0.4051174 0.039529752 -0.1844268 -0.7346312 -0.008855926
-0.15890777 0.08503842 -0.098734654 0.04696376 0.24327387 -0.007639084 -0.15876257 0.16791336
-0.30472884 -0.28793114 -0.8344302 -0.4708569 0.08491269 -0.11170795 0.05125754 -0.1449243
00000000: c69b 5b3d c3fc 0fbe 4afe 1bbe 5bb7 38be
00000010: 7e9c c53d 5d9d efbd 873e c6be bb7f 333e
00000020: e20f 83bd 48c9 f9bd dddd aebd 8c6b cfbe
00000030: f3e9 213d 61da 3cbe ca10 3cbf 7218 11bc
00000040: b8b8 22be a028 ae3d 6535 cabd 125d 403d
00000050: c91c 793e 4851 fabb a892 22be 7bf1 2b3e
00000060: 6b05 9cbe b66b 93be 389d 55bf 2814 f1be
00000070: b4e6 ad3d 23c7 e4bd 6df3 513d 0967 14be

fc1.weight f4 [64, 320]
-0.001712291 -0.015853962 -0.048414107 0.019457368 0.017079612 -0.08896418 0.03402267 0.0006088326
-0.13117963 -0.0888304 -0.14662936 -0.1372654 -0.12490277 -0.076277144 -0.13124403 -0.14110741
-0.09534372 -0.08753486 -0.10572873 -0.07138975 -0.03251338 -0.044263452 0.020312212 -0.021074131
0.05571168 -0.04522762 0.026332565 0.02132845 -0.035757728 0.01530917 -0.26841068 -0.18469752
-0.10915033 -0.15468733 -0.08405889 -0.059306007 -0.120756865 -0.076019764 -0.04288085 -0.010260972
0.005502784 -0.032839246 -0.08236041 -0.025237875 -0.023245648 -0.107622884 0.025579767 0.11609542
-0.018949144 -0.13370629 -0.024153374 -0.014865417 -0.055814054 0.046708167 0.05428402 0.0028738715
0.049086288 0.0035189055 0.03429108 0.007957533 0.0072003375 0.018018125 -0.09106065 -0.022284206
-0.070292525 -0.1121759 0.024635054 0.038820606 0.025425686 -0.099593215 -0.04717888 -0.014942612
-0.06412981 -0.038687285 -0.10234129 -0.0947708 0.11834111 0.006352322 -0.15335721 -0.04554494
-0.01666466 0.037805695 -0.01872992 -0.04855865 -0.10933352 -0.1314338 -0.0784008 -0.057980306
-0.09070458 -0.12457 0.018207222 0.035635784 -0.002385471 0.02362185 0.022320606 -0.043341093
0.0337385 0.032265738 0.031130888 -0.011615414 -0.16572434 -0.1393206 -0.15881868 -0.050122175
-0.0918942 -0.05056181 -0.0061018146 -0.081870355 -0.06675101 -0.10768033 -0.005700855 -0.003626363
-0.12387486 -0.093136415 -0.073726736 -0.09094086 -0.04351978 0.004614659 -0.032041717 -0.06091111
-0.05444464 -0.065122955 -0.024311488 -0.01783466 -0.06342209 -0.025023768 0.056174584 -0.09391268
-0.07864571 -0.11252311 0.0063698404 0.0350629 0.01712156 0.024577588 -0.053867012 0.0092405975
-0.006594695 0.015977599 -0.04488833 -0.033169523 0.008545797 0.025949197 -0.12425775 -0.027046658
-0.07174765 -0.04244456 -0.017528854 0.014049764 -0.055974294 0.018523848 -0.049723104 -0.04006708
-0.09604414 -0.041384928 -0.04420733 -0.016570626 -0.0553408 0.040834296 -0.09085781 -0.10707894
-0.078758985 0.031578273 -0.026337216 -0.05895018 0.08523602 0.107342765 -0.005788527 0.0014636677
0.031128963 -0.037182905 -0.05617015 0.017664932 -0.05650458 0.0023410916 -0.069409154 0.0052667125
0.07008919 0.029318519 -0.14060825 -0.10255296 -0.23968874 -0.09330718 -0.111814365 -0.07514702
-0.042046834 0.018400624 0.00083700084 0.016764969 -0.07570385 -0.0021518336 0.020936353 -0.018815268
0.013158914 -0.07492019 -0.11126998 -0.080226 0.048951507 0.0192363 -0.040751554 -0.13194673
-0.098931886 -0.14628468 -0.08843308 -0.14007193 -0.14413291 -0.078005075 -0.1283516 -0.07932334
-0.13476016 -0.09730222 0.0023422337 -0.034308072 -0.08671938 -0.0052383193 -0.07081293 -0.044861544
0.11865456 0.031845845 -0.118232675 -0.043292273 -0.1635866 -0.12926537 -0.15125637 -0.091626726
-0.037625514 -0.026080808 0.037357025 -0.0015932914 -0.05268597 -0.1117037 -0.07223719 -0.06814889
-0.05924545 0.00829177 -0.031172134 -0.06939636 -0.056146223 0.037568506 -0.056315534 -0.11604747
-0.19500881 -0.12111178 -0.055651337 -0.10888997 -0.059580076 -0.076177076 -0.109915495 -0.09998914
-0.11270867 -0.10635521 0.059798386 -0.080097005 -0.06871559 -0.06362878 -0.06331528 -0.033381555
00000000: f46e e0ba 2be0 81bc df4d 46bd 0f65 9f3c
00000010: 8bea 8b3c da32 b6bd 5b5b 0b3d 109a 1f3a
00000020: f453 06be b6ec b5bd 0226 16be 4d8f 0cbe
00000030: 06cd ffbd 3137 9cbd d664 06be 767e 10be
00000040: 9143 c3bd 7a45 b3bd 4e88 d8bd ca34 92bd
00000050: c02c 05bd 984d 35bd cc65 a63c a8a3 acbc
00000060: ee31 643d 9940 39bd 64b7 d73c 00b9 ae3c
00000070: b276 12bd 50d3 7a3c 206d 89be 5921 3dbe
00000080: 358a dfbd 5b66 1ebe 1127 acbd dbea 72bd
00000090: 604f f7bd 40b0 9bbd d5a3 2fbd a31d 28bc
000000a0: b350 b43b 7282 06bd 93ac a8bd a9bf cebc
000000b0: a86d bebc 6369 dcbd a98c d13c 70c3 ed3d
000000c0: 3c3b 9bbc 4dea 08be 4cdd c5bc 148e 73bc
000000d0: 479d 64bd 1051 3f3d ec58 5e3d 9057 3c3b
000000e0: b40e 493d 709d 663b ce74 0c3d 5060 023c
000000f0: cff0 eb3b bf9a 933c 027e babd 5e8d b6bc
00000100: 87f5 8fbd 7abc e5bd 74cf c93c 5b02 1f3d
00000110: 8749 d03c 87f7 cbbd a43e 41bd dbd1 74bc
00000120: 7d56 83bd 8f76 1ebd 4f98 d1bd 3117 c2bd
00000130: d35c f23d 2427 d03b ac09 1dbe 558d 3abd
00000140: 5384 88bc 25da 1a3d 7d6f 99bc 6fe5 46bd
00000150: 41ea dfbd 9596 06be 9990 a0bd c27c 6dbd
00000160: 53c3 b9bd 8e1e ffbd 5027 953c d4f6 113d
00000170: 9055 1cbb 9c82 c13c b4d9 b63c 6e86 31bd
00000180: 6231 0a3d 1429 043d 3406 ff3c 944e 3ebc
00000190: a4b3 29be 0faa 0ebe 5da1 22be e94c 4dbd
000001a0: 0733 bcbd e719 4fbd bbf1 c7bb a5ab a7bd
000001b0: c1b4 88bd 8187 dcbd 3dce babb 46a8 6dbb
000001c0: 1ab2 fdbd 4ebe bebd 0bfe 96bd 343f babd
000001d0: cc41 32bd 9136 973b 2d3e 03bd ee7d 79bd
000001e0: 5801 5fbd 2f5f 85bd e328 c7bc fe19 92bc
000001f0: 71e3 81bd a5fe ccbc 5217 663d 4b55 c0bd
00000200: 0111 a1bd 8472 e6bd 18ba d03b 1e9e 0f3d
00000210: 8442 8c3c f056 c93c a8a3 5cbd e065 173c
00000220: 5018 d8bb 74e3 823c d3dc 37bd c4dc 07bd
00000230: ac03 0c3c 6993 d43c d97a febd f490 ddbc
00000240: 6ff0 92bd 59da 2dbd ac98 8fbc fb30 663c
00000250: 4d45 65bd 53bf 973c 74aa 4bbd 611d 24bd
00000260: cab2 c4bd 3e83 29bd bf12 35bd 1fbf 87bc
00000270: 09ad 62bd dd41 273d a913 babd 344c dbbd
00000280: 644c a1bd 3858 013d 25c1 d7bc be75 71bd
00000290: 3990 ae3d 86d6 db3d afad bdbb 8ad8 bf3a
000002a0: 2b02 ff3c 1a4d 18bd ac12 66bd 0cb6 903c
000002b0: 5971 67bd 006d 193b 6326 8ebd 6394 ac3b
000002c0: ec8a 8f3d 642d f03c 9cfb 0fbe 4907 d2bd
000002d0: f770 75be d617 bfbd eefe e4bd aee6 99bd
000002e0: 4d39 2cbd e8bc 963c 2d6a 5b3a b056 893c
000002f0: 9f0a 9bbd c705 0dbb b782 ab3c 7a22 9abc
00000300: 7c98 573c c26f 99bd 84e1 e3bd 874d a4bd
00000310: 6081 483d 7295 9d3c 1aeb 26bd 0b1d 07be
00000320: cd9c cabd a7cb 15be 671c b5bd 046f 0fbe
00000330: 9497 13be 20c1 9fbd 9a6e 03be 4674 a2bd
00000340: 91fe 09be 6346 c7bd 2980 193b 9f86 0cbd
00000350: ee99 b1bd 35a6 abbb 5f06 91bd bdc0 37bd
00000360: 2901 f33d ca70 023d f923 f2bd 3d53 31bd
00000370: 3f83 27be 245e 04be f3e2 1abe cba6 bbbd
00000380: 361d 1abd 6ba7 d5bc ae03 193d fdd5 d0ba
00000390: 3ecd 57bd e9c4 e4bd 18f1 93bd a591 8bbd
000003a0: 5bab 72bd 34da 073c b45c ffbc ae1f 8ebd
000003b0: 95f9 65bd 6fe1 193d 1eab 66bd 4caa edbd
000003c0: 64b0 47be 7409 f8bd a8f2 63bd b401 dfbd
000003d0: 3d0a 74bd ba02 9cbd 601b e1bd 1bc7 ccbd
000003e0: ced3 e6bd c3d0 d9bd 27ef 743d e609 a4bd
000003f0: c2ba 8cbd ce4f 82bd 71ab 81bd 19bb 08bd

fc1.bias f4 [64]
-0.098098144 -0.08633308 -0.64360553 -0.07446775 -0.03399694 -0.37515137 -0.018105851 -0.09805546
-0.048528384 0.19888918 -0.29757413 -0.019283203 -0.008649013 -0.06575763 0.5660412 -0.11200458
-0.028295211 -0.014703793 -0.06507948 -0.10709467 0.21041073 -0.0058455947 -0.084697366 0.01601615
0.016532954 -0.073344685 0.08260871 -0.032579765 -0.01069443 -0.34753087 -0.03231403 -0.054673757
-0.008548165 0.28301954 -0.006473893 -0.037520554 -0.0007422918 -0.68047285 0.20288971 -0.25101227
-0.061537303 0.41993272 -0.26638788 -0.0700933 0.03079152 -0.03604899 -0.52580565 -0.064554036
0.008386283 -0.034088697 -0.92468345 0.29938176 -0.09257186 -0.041435238 -0.07701313 0.3609352
-0.028510278 -0.009465289 0.0048150835 -0.01085535 0.0025716133 -0.0199141 0.011099987 -0.07883781
00000000: aee7 c8bd 66cf b0bd 55c3 24bf 8c82 98bd
00000010: 6040 0bbd d713 c0be b952 94bc 4dd1 c8bd
00000020: b3c5 46bd 9ba9 4b3e a35b 98be cff7 9dbc
00000030: 97b4 0dbc f0ab 86bd 13e8 103f a862 e5bd
00000040: 5ccb e7bc 2ee8 70bc 6448 85bd 7354 dbbd
00000050: e975 573e 678c bfbb d075 adbd 4d34 833c
00000060: 1e70 873c bd35 96bd c12e a93d 5c72 05bd
00000070: b137 2fbc 91ef b1be b75b 04bd 97f1 5fbd
00000080: 9a0d 0cbc f0e7 903e f322 d4bb 27af 19bd
00000090: 5c96 42ba 7833 2ebf 52c2 4f3e ae84 80be
000000a0: 8a0e 7cbd 6c01 d73e fe63 88be 138d 8fbd
000000b0: 7f3e fc3c 1ba8 13bd 339b 06bf e834 84bd
000000c0: 9f66 093c 97a0 0bbd 0eb8 6cbf 9148 993e
000000d0: 5196 bdbd ffb7 29bd 0fb9 9dbd 80cc b83e
000000e0: 638e e9bc 4d14 1bbc d9c7 9d3b a3da 31bc
000000f0: 8388 283b e522 a3bc b8dc 353c b875 a1bd

fc.weight f4 [4, 64]
-0.006772167 0.036063965 -1.7709218 -0.14288574 -0.075500995 -2.3979197 0.005413779 -0.0645321
-5.2571373 -9.363596 -5.830546 0.05637879 0.14699802 0.07490375 1.5591618 0.21921204
0.17487976 -0.07791209 0.056189597 -0.0030902454 -12.327162 -0.06506375 0.09591095 -0.03660376
-5.086326 0.10699145 0.94264066 -0.06769711 0.0059033437 -1.3970622 0.038022622 0.06652164
-0.13014486 1.4164226 0.11455916 0.0720909 0.05044761 -7.5049486 1.1401331 -5.775556
0.011675953 -5.9305844 -1.5875267 0.14375322 -0.039546005 0.11288871 -1.0026855 -0.10231797
-0.021070784 0.019219998 -0.49468017 -6.4019475 0.071118414 0.1076529 0.109318495 1.062955
-0.047189627 0.036372177 0.112851895 -0.007884164 0.11257098 0.10705801 0.050078265 -0.09659823
-0.121352874 -0.027343404 -1.3763309 0.015328502 0.08284631 0.35854015 -0.018101998 -0.030870972
0.5133224 -0.47684854 0.18010251 0.039168745 0.033233337 -0.015461373 -0.4428552 0.124079496
-0.041041676 -0.015695462 0.012543875 -0.032466993 0.010923046 -0.044199843 -0.07617735 0.0768696
0.11740575 0.0026859494 0.18991725 -0.024968578 -0.08227401 -0.2857099 0.017964108 -0.016283104
-0.048478484 -0.66374594 0.077867866 -0.07052891 0.020957746 -0.022342984 0.0243752 0.45554203
-0.09034588 0.20130032 -0.20319246 0.010196159 -0.064404264 0.040961694 -0.964243 -0.04761634
0.009634466 -0.08101926 0.72106975 -0.35238218 -0.14638317 -0.053513955 -0.09907878 0.2263695
0.010530171 -0.010946123 -0.10497034 -0.075860396 -0.005605687 -0.002034646 -0.024588998 0.10176965
-0.109375924 -0.032447353 1.5260427 0.06628982 0.07530068 -0.31447992 -0.0651318 -0.029885782
-0.2184123 0.6860811 0.04089283 0.017810112 0.005004022 -0.01736833 -0.26793587 0.07896953
-0.046218894 -0.059081674 0.018129861 0.07726554 0.3367996 -0.07392702 0.06377653 0.06854323
0.1199441 0.0139473025 -0.572363 -0.019805975 -0.06508312 0.48166868 0.05984389 0.018788682
-0.05117448 -0.01725487 0.111655384 0.0067245807 -0.011829099 0.28896868 -0.29908064 -0.13617897
-0.059721503 0.29336157 0.5120051 -0.0039368127 -0.040864248 -0.09840216 1.3225713 0.0788564
-0.0881416 0.048246145 -0.60545474 0.65696925 0.2100762 -0.08473359 -0.0948201 -0.39744332
0.003708591 0.039214198 -0.011643476 0.039593007 -0.06860646 0.050413013 0.07211419 0.05240114
-0.16085945 0.41531235 -2.5005338 -0.15179126 -0.10652155 0.49079067 -0.04480815 0.024599118
0.72358173 -9.763488 1.4201783 0.034461986 -0.1003017 0.11080666 0.6629759 -0.0789527
-0.13937156 0.097835615 0.08850269 0.071105 -9.792649 0.09285779 0.14555247 -0.074231565
-9.207842 0.004908864 -0.45712999 -0.019190663 -0.092816964 -0.50095916 0.124080665 0.026992472
-0.039613456 0.49445534 0.08282487 -0.07781596 -0.112977795 1.0141673 0.35229194 -0.7551013
0.08594086 3.8070095 0.025490437 0.0031811781 -0.10609645 -0.09653408 -0.7815172 0.11904881
-0.055005703 0.03827896 -0.59905875 -16.467323 0.0447883 0.051539443 -0.22215037 0.04972842
-0.060396723 -0.024658 -0.035025883 0.04987317 0.051305525 0.0888037 0.08905891 0.103126824
00000000: 0ee9 ddbb cfb7 133d 91ad e2bf a450 12be
00000010: 44a0 9abd 8477 19c0 1266 b13b 6829 84bd
00000020: 783a a8c0 4ad1 15c1 d593 bac0 72ed 663d
00000030: a686 163e 2367 993d 9d92 c73f 1f79 603e
00000040: ae13 333e 6090 9fbd 1027 663d b785 4abb
00000050: 0e3c 45c1 2540 85bd f66c c43d d3ed 15bd
00000060: 2fc3 a2c0 551e db3d e650 713f c8a4 8abd
00000070: d670 c13b efd2 b2bf 9cbd 1b3d 7f3c 883d
00000080: b244 05be 564d b53f fe9d ea3d 65a4 933d
00000090: 27a2 4e3d 8a28 f0c0 e2ef 913f 5bd1 b8c0
000000a0: 7f4c 3f3c 59c7 bdc0 1334 cbbf 0b34 133e
000000b0: fefa 21bd 3232 e73d 0058 80bf 158c d1bd
000000c0: a39c acbc 4273 9d3c b846 fdbe c1dc ccc0
000000d0: 88a6 913d 2079 dc3d 60e2 df3d e90e 883f
000000e0: e949 41bd fefa 143d e51e e73d 952c 01bc
000000f0: 9d8b e63d 3b41 db3d de1e 4d3d 4bd5 c5bd
00000100: db87 f8bd 46ff dfbc 9c2b b0bf 6624 7b3c
00000110: 54ab a93d 9392 b73e a44a 94bc 1fe5 fcbc
00000120: 1969 033f 7e25 f4be cb6c 383e 686f 203d
00000130: ae1f 083d b351 7dbc ebbd e2be 641d fe3d
00000140: 511b 28bd c593 80bc d384 4d3c 1cfc 04bd
00000150: 93f6 323c e50a 35bd df02 9cbd cf6d 9d3d
00000160: 6d72 f03d c106 303b ab79 423e e78a ccbc
00000170: 477f a8bd 9148 92be 7729 933c 2564 85bc
00000180: 6091 46bd 41eb 29bf 3079 9f3d 7671 90bd
00000190: 94af ab3c a208 b7bc 80ae c73c ce3c e93e
000001a0: 4307 b9bd ac21 4e3e af11 50be ca0d 273c
000001b0: 62e6 83bd 73c7 273d a1d8 76bf 5a09 43bd
000001c0: e1d9 1d3c 6ded a5bd 0798 383f 706b b4be
000001d0: 78e5 15be 7331 5bbd d1e9 cabd 68cd 673e
000001e0: bd86 2c3c 5e57 33bc b1fa d6bd b25c 9bbd
000001f0: e9af b7bb b257 05bb de6e c9bc 9b6c d03d
00000200: 7c00 e0bd 84e7 04bd 5e55 c33f f5c2 873d
00000210: 3e37 9a3d 8303 a1be d263 85bd 07d3 f4bc
00000220: 79a7 5fbe 03a3 2f3f 3d7f 273d 83e6 913c
00000230: c7f8 a33b 0748 8ebc e42e 89be c7ba a13d
00000240: 0650 3dbd a0ff 71bd 1385 943c 653d 9e3d
00000250: ff70 ac3e 0d67 97bd 459d 823d 6560 8c3d
00000260: 41a5 f53d 3a83 643c 6286 12bf 2440 a2bc
00000270: 4c4a 85bd 479d f63e de1e 753d b9ea 993c
00000280: 559c 51bd 165a 8dbc 94ab e43d df59 dc3b
00000290: d6ce 41bc b4f3 933e 1921 99be 8072 0bbe
000002a0: 899e 74bd 7d33 963e c412 033f 6100 81bb
000002b0: 4561 27bd 1287 c9bd 044a a93f 777f a13d
000002c0: 9583 b4bd c09d 453d 15ff 1abf 232f 283f
000002d0: 371e 573e ce88 adbd 0a31 c2bd b17d cbbe
000002e0: d50b 733b 119f 203d 47c4 3ebc 472c 223d
000002f0: 8b81 8cbd e07d 4e3d 9bb0 933d 94a2 563d
00000300: 57b8 24be d2a3 d43e bf08 20c0 2b6f 1bbe
00000310: f827 dabd ea48 fb3e c088 37bd 1784 c93c
00000320: a73c 393f 3f37 1cc1 67c8 b53f 0328 0d3d
00000330: fa6a cdbd 9aee e23d cab8 293f f4b1 a1bd
00000340: 6bb7 0ebe 0a5e c83d e640 b53d 809f 913d
00000350: b1ae 1cc1 3a2c be3d b50b 153e b806 98bd
00000360: 5253 13c1 89da a03b f10c eabe bd35 9dbc
00000370: d216 bebd dc3e 00bf 011e fe3d 511f dd3c
00000380: b841 22bd 4029 fd3e 16a0 a93d f95d 9fbd
00000390: e760 e7bd 3cd0 813f 9c5f b43e 524e 41bf
000003a0: c301 b03d 0ba6 7340 52d1 d03c 507b 503b
000003b0: 1849 d9bd a9b3 c5bd 8311 48bf ddcf f33d
000003c0: a94d 61bd 66ca 1c3d ea5b 19bf 14bd 83c1
000003d0: f073 373d 061b 533d 637b 63be 07b0 4b3d
000003e0: 8e62 77bd 93ff c9bc 4d77 0fbd cf47 4c3d
000003f0: be25 523d b7de b53d 8564 b63d 2834 d33d

fc.bias f4 [4]
1.7890167 0.25982928 -0.38385263 -0.3331725
00000000: 80fe e43f 5808 853e 5588 c4be 9695 aabe
