CNNV2/CNNV23/model.pth (torch, 67919 bytes, 8 tensors)

conv1.weight f4 [16, 3, 3]
0	0x3e663612	0.22481564
1	0xbd965871	-0.073410876
2	0x3da6ff37	0.08154147
3	0xbf106985	-0.5641101
4	0xbf6383bd	-0.8887289
5	0xbf17cfa2	-0.593012
6	0x3ec2241c	0.37918174
7	0x3eaa5682	0.33269125
8	0x3ee082e9	0.43849877
9	0xbdf53a5d	-0.119740225
10	0xbf25c67d	-0.64755994
11	0xbf2ac94f	-0.6671342
12	0x3ca3e2b3	0.02000556
13	0x3f4cdbdc	0.8002298
14	0x3f4a9258	0.7912955
15	0xbd9ce3a3	-0.07660606
16	0xbdc4959c	-0.09598848
17	0x3ef7b5f8	0.4838102
18	0x3e01c984	0.12674528
19	0x3ee52ae9	0.447593
20	0x3d1fa9ed	0.038980413
21	0xbf19bd36	-0.6005434
22	0xbf0990bf	-0.5373649
23	0x3d99156d	0.0747479
24	0x3f23e1bb	0.6401631
25	0xbf776f79	-0.9665447
26	0xbf529516	-0.8225874
27	0x3e7760ce	0.24158022
28	0x3aed4e76	0.0018105048
29	0xbea0a23a	-0.3137377
30	0x3e25723e	0.16156861
31	0xbede10f2	-0.43372303
32	0xbed18c24	-0.4092723
33	0x3d930227	0.07178145
34	0x3e0ce576	0.13759407
35	0x3ea7c90d	0.32770577
36	0x3e3faed3	0.18719034
37	0x3c8dcaf5	0.017308692
38	0x3ef6f354	0.4823252
39	0xbf870e31	-1.0551206
40	0xbf7495c2	-0.9554101
41	0xbf24afd4	-0.6433079
42	0x3df87730	0.12132108
43	0x3f114ee9	0.5676103
44	0x3f1dbf2b	0.61619824
45	0xbe3bed4f	-0.18352245
46	0xbd395f00	-0.045256615
47	0xbea9a66a	-0.33134776
48	0x3f22b17c	0.6355207
49	0x3f000ebe	0.50022495
50	0xbd89e05f	-0.067322485
51	0xbda857be	-0.082198605
52	0xbedf58ac	-0.4362234
53	0x3d99a0e4	0.075013906
54	0xbed11c33	-0.40841827
55	0xbf410580	-0.7539902
56	0xbf06490f	-0.5245523
57	0x3f011a7c	0.50431037
58	0x3f2f70d4	0.6853154
59	0x3e0881fe	0.13330838
60	0xbe4f3267	-0.2023407
61	0xbde3e16c	-0.1112698
62	0x3eb21f45	0.34789482
63	0xbf56e6d9	-0.83945996
64	0xbeaec2aa	-0.34132892
65	0xbf3b145a	-0.7307793
66	0x3f568a72	0.83805
67	0x3ea4de33	0.32200775
68	0x3e46a3a7	0.19398366
69	0xbcb5100c	-0.022102378
70	0x3e7e3397	0.24824367
71	0xbe836824	-0.2566539
72	0xbec9e91f	-0.3943567
73	0xbdcc4e42	-0.09975864
74	0xbe65ba07	-0.22434245
75	0x3db75a61	0.08952785
76	0x3f5d3504	0.8640902
77	0xbeb23e1f	-0.3481302
78	0xbe5365df	-0.2064433
79	0x3e84070e	0.25786632
80	0x3eb74a7c	0.35799015
81	0xbed21e18	-0.41038585
82	0xbec84362	-0.3911391
83	0xbf143330	-0.57890606
84	0x3e8dea9d	0.27718058
85	0x3f278277	0.6543345
86	0x3f2d2aa0	0.67643166
87	0x3bceb76b	0.006308486
88	0xbe2934ff	-0.16524123
89	0x3d624ad6	0.05524715
90	0x3f103ad4	0.56339765
91	0x3e5ad2f3	0.21369533
92	0xbd34e7fe	-0.044166557
93	0xbf887c80	-1.0662994
94	0xbf84138a	-1.0318463
95	0xbf3798b0	-0.7171736
96	0x3dc14e4d	0.09438763
97	0xbe8fa120	-0.28052616
98	0xbf07bf81	-0.53026587
99	0x3eccb49d	0.39981547
100	0x3ea96bfa	0.33090192
101	0x3e48e347	0.1961795
102	0xbe67d023	-0.22637992
103	0xbdfb325e	-0.12265466
104	0x3e985793	0.29754314
105	0xbf298ff8	-0.66235304
106	0xbf584dba	-0.844936
107	0xbec8c117	-0.39209816
108	0xbedd8fb5	-0.43273702
109	0xbe3d13be	-0.18464562
110	0x3d7855a6	0.060628556
111	0x3efd9004	0.49523938
112	0x3ece7de4	0.40330422
113	0x3e063efb	0.13109963
114	0x3d0cff94	0.034423426
115	0x3e5706fb	0.20998757
116	0x3e4eba46	0.20188245
117	0x3f00db19	0.50334316
118	0x3e63af32	0.222348
119	0x3ed792ae	0.42104095
120	0xbf7a5b64	-0.977957
121	0xbfcf90e9	-1.6216098
122	0xbf8c95da	-1.0983231
123	0xbe1a3254	-0.15058261
124	0xbe1312ed	-0.14362688
125	0x3e9119e6	0.2834007
126	0x3f08440f	0.5322885
127	0x3ec834f4	0.391029
128	0x3f3a8aeb	0.7286822
129	0xbf21804b	-0.63086385
130	0xbf54ac1f	-0.83075136
131	0xbf02b438	-0.5105624
132	0xbe190224	-0.14942223
133	0x3e88466d	0.2661623
134	0xbd92de43	-0.07171299
135	0xbe579aed	-0.21055193
136	0x3e106f79	0.14105023
137	0x3f00b5f5	0.50277644
138	0xbfea9118	-1.8325529
139	0xbfb6cb9c	-1.4280887
140	0x3e3898a7	0.18026982
141	0xbed4adc8	-0.41538835
142	0x3e6ba471	0.23011948
143	0x3ec95229	0.39320496

conv1.bias f4 [16]
0	0x3eb0c8be	0.34528154
1	0xbeca3398	-0.39492488
2	0x3e9522c4	0.29128087
3	0x3ea28e82	0.3174935
4	0xbdec3308	-0.11533171
5	0xbe749238	-0.23883903
6	0xbdb5a6e1	-0.0886972
7	0xbd793720	-0.060843587
8	0xbed8e455	-0.42361704
9	0xbcbf3606	-0.02334119
10	0x3e9a1cba	0.30100042
11	0xbd873af8	-0.06603044
12	0xbe6680c0	-0.22510052
13	0x3ef60b8a	0.4805568
14	0x3d781aa7	0.060572293
15	0x3a52d17d	0.00080420804

conv2.weight f4 [32, 16, 3]
0	0xbd61fe46	-0.055174135
1	0xbd688eb2	-0.05677671
2	0xbe13c2c4	-0.14429766
3	0xbdc8bd06	-0.09801678
4	0xbcd54c87	-0.026037468
5	0xbdf98a38	-0.12184566
6	0x3ddc15df	0.10746359
7	0x3d13c1b7	0.036073413
8	0xbcc90431	-0.024538131
9	0x3b980c19	0.004640114
10	0x3d220b70	0.03956169
11	0xbdb777d1	-0.089584
12	0xbdf67386	-0.12033753
13	0x3ddaec76	0.106896326
14	0x3dc77ef7	0.097410135
15	0x3d236bdd	0.03989779
16	0xbe1add9b	-0.15123598
17	0xbe0d65af	-0.1380832
18	0xbdf96470	-0.1217736
19	0xbcdc876f	-0.026920049
20	0x3d84510a	0.064607695
21	0xbe116ad5	-0.1420091
22	0x3da88600	0.082286835
23	0x3da8746b	0.0822533
24	0xbe10d735	-0.14144595
25	0xbe08a465	-0.13343962
26	0xbc6d4864	-0.014482591
27	0xbe044cfd	-0.12919994
28	0x3d550e3e	0.052015536
29	0xbe293911	-0.16525675
30	0x3d9511f8	0.07278818
31	0xbe412d53	-0.18864946
32	0x3d96ecdb	0.07369395
33	0xbd345bf0	-0.04403299
34	0xbe2b0acf	-0.16703342
35	0xbdcb5a33	-0.099293135
36	0x3d09079e	0.03345453
37	0xbda6254e	-0.08112584
38	0xbdb34565	-0.0875347
39	0x3b87290f	0.0041247676
40	0xbdd1495a	-0.10219069
41	0x3d2f7778	0.042838544
42	0x3d48ca99	0.049021337
43	0xbe541ee6	-0.20714912
44	0xbcb60ddd	-0.022223407
45	0xbdb56988	-0.08858019
46	0xbd29ea73	-0.041483354
47	0x3cf24c30	0.029577345
48	0xbea7453a	-0.32670003
49	0xbea1bcfb	-0.31589493
50	0xbe520852	-0.20510986
51	0x3f13c82c	0.57727313
52	0x3f95bb09	1.1697704
53	0x3fd26217	1.6436185
54	0xbed250c9	-0.4107726
55	0xbddc9dcb	-0.10772284
56	0x3bf7558a	0.007548039
57	0xbf201662	-0.62534153
58	0xbf5b745e	-0.8572444
59	0xbf0b99be	-0.54531467
60	0xbe74067b	-0.23830597
61	0xbd1383be	-0.03601431
62	0x3f0cc37b	0.5498578
63	0x3a71615d	0.00092079287
64	0x3e3befbd	0.18353172
65	0x3f12b3a8	0.57305384
66	0xbf1e37ed	-0.61804086
67	0x3e3018ed	0.17197008
68	0x3f6f0494	0.9336636
69	0xbedccee5	-0.43126598
70	0x3fa9a6bf	1.3254012
71	0x3f403b1b	0.7509019
72	0xbeb6aba2	-0.3567782
73	0xbec6ce8a	-0.38829452
74	0x3f7fcbca	0.9992033
75	0x3da0ab77	0.07845204
76	0x3e408127	0.18799268
77	0x3ef3b9ff	0.4760284
78	0x3ebfbc71	0.37448457
79	0x3fa9be28	1.3261156
80	0x3f96242b	1.1729788
81	0xbe0a59a5	-0.13510759
82	0xbe17585d	-0.14779802
83	0xbe30e398	-0.1727432
84	0xbe835b8b	-0.2565578
85	0xbdf700c6	-0.120606944
86	0xba868a03	-0.0010264519
87	0xbd7ad372	-0.061236806
88	0x3fb58755	1.4181925
89	0x3fa76ad1	1.3079473
90	0x3ee5ffc2	0.4492169
91	0x3f819e67	1.0126466
92	0x3f80315b	1.0015062
93	0x3db1f655	0.08689562
94	0xbe1523ba	-0.1456441
95	0xbf62d74a	-0.88609755
96	0xbd147672	-0.03624577
97	0x3dc56ca0	0.09639859
98	0xbdfcc134	-0.12341538
99	0xbc13feb0	-0.00903289
100	0xbd31cbb2	-0.04340715
101	0xbe104469	-0.14088596
102	0xbdf1344a	-0.117775515
103	0x3e133334	0.14375001
104	0x3ddc7058	0.10763615
105	0x3e0343da	0.12818852
106	0xbc48d2e0	-0.012257308
107	0xbded168f	-0.11576568
108	0x3c1dc860	0.009630293
109	0x3c1127e0	0.008859605
110	0x3ce85158	0.0283591
111	0xbb6a31c0	-0.003573522
112	0x3e01e212	0.12683895
113	0xbd706a7a	-0.058695294
114	0x3db3fd3c	0.08788535
115	0xbb772a80	-0.003771454
116	0xbde6eea8	-0.11275989
117	0x3c870138	0.016480073
118	0x3dfecbc4	0.12441209
119	0x3d90c846	0.07069449
120	0x3db3a2c4	0.087712795
121	0xbd3bbb56	-0.045832954
122	0x3ddfbff8	0.10925287
123	0x3d3556ac	0.04427211
124	0xbdd228fd	-0.10261724
125	0xbbce2880	-0.006291449
126	0xbc559c70	-0.013037786
127	0xbdbcca43	-0.09218266
128	0xbdbc6ad6	-0.09200065
129	0xbc533cb0	-0.012892887
130	0xbdfb452e	-0.12269054
131	0x3d7dd4d0	0.061970532
132	0xbdd2e627	-0.10297804
133	0xbd4c5434	-0.04988499
134	0xbd910296	-0.07080571
135	0xbd54e8a0	-0.05197966
136	0xbdb7f390	-0.08982003
137	0xbd9279a8	-0.0715211
138	0x3d76fce0	0.060299754
139	0xbd9e1f53	-0.07720818
140	0xbe0c0f7d	-0.13677783
141	0x3e0ae3c2	0.13563445
142	0xbc6601b0	-0.014038488
143	0xbe0c62a8	-0.1370951
144	0x3dc5ec3e	0.096642
145	0x3e8b4b97	0.27206108
146	0x3f2ad0eb	0.66725034
147	0x3ebfe613	0.3748022
148	0x3d7a8e32	0.061170764
149	0xbf2552ef	-0.6457967
150	0x3efce472	0.4939304
151	0xbf2bc00e	-0.6708993
152	0xc014521e	-2.317512
153	0x3df73e1b	0.120723926
154	0xbe304792	-0.17214802
155	0xbd4792ba	-0.048723914
156	0xbecfd7f2	-0.4059444
157	0xbf081fe3	-0.53173655
158	0x3ee0482a	0.43805057
159	0x3ec66259	0.38746908
160	0xbeb419f7	-0.3517606
161	0xbf0a5aa8	-0.5404458
162	0x3eec45cd	0.46147004
163	0x3ea37b76	0.3193013
164	0xbf264ac9	-0.64957863
165	0xbf6b8448	-0.9199872
166	0xbf98a170	-1.1924267
167	0x3f52c0d7	0.823255
168	0x3e356b2e	0.17716667
169	0xbdfa04ba	-0.12207933
170	0x3c6c9f22	0.014442237
171	0xbb9ce3c7	-0.0047878954
172	0xbd805112	-0.06265463
173	0xbea25466	-0.31705016
174	0xbd8d77d3	-0.0690762
175	0x3ddf8bb9	0.10915322
176	0xbc2ab237	-0.010418466
177	0xbf848e6c	-1.0355964
178	0xbf1d706e	-0.6149968
179	0xbf9b7905	-1.2146307
180	0x3d4476c6	0.047964834
181	0xbe6d384d	-0.23166008
182	0x3c028ad7	0.007967672
183	0xbfc3170c	-1.5241408
184	0xc030ed99	-2.7645018
185	0xc039e24f	-2.9044378
186	0xbf39da81	-0.72599036
187	0x3e46943d	0.19392486
188	0x3d4b6909	0.049660716
189	0x3e9a19f4	0.30097926
190	0xbfadd819	-1.3581573
191	0xbb8add60	-0.0042378157
192	0xbc9ec5dc	-0.019381456
193	0xbcb407d8	-0.021976396
194	0x3818d000	3.643334e-05
195	0x3d8d5fca	0.06903036
196	0xbe06c24d	-0.13160057
197	0xbdc4b614	-0.09605041
198	0x3d9e89ee	0.07741152
199	0xbd42e7f2	-0.04758448
200	0x3dcdef94	0.100554615
201	0x3c8ff660	0.017573535
202	0xbe063abe	-0.13108346
203	0x3b69e640	0.0035690218
204	0x3d28022c	0.041017696
205	0x3d683b1c	0.056696996
206	0xbd4ebef2	-0.05047507
207	0x3c880928	0.016605929
208	0xbd7c913e	-0.06166195
209	0xbda5ea20	-0.081012964
210	0xbdf0a032	-0.11749305
211	0xbdff3736	-0.124617025
212	0xbdf3c851	-0.11903442
213	0x3d8e96f6	0.06962387
214	0xbdeee9ae	-0.116656646
215	0x3e0b2f68	0.13592303
216	0xbdcd4a28	-0.1002391
217	0xbda0bda1	-0.07848669
218	0x3dd6c5a6	0.10486917
219	0x3d5617e0	0.052268863
220	0x3dfbc8e4	0.12294176
221	0xbe0b169a	-0.1358284
222	0x3ddfaea4	0.10921982
223	0x3d66f8dc	0.056389675
224	0x3e0b590a	0.13608184
225	0x3dc2fcbc	0.095208615
226	0x3d86463e	0.065563664
227	0xbda5bad6	-0.08092277
228	0xbd8d3c6d	-0.06896291
229	0x3e082162	0.13293985
230	0x3d77f7e8	0.060539156
231	0x3d053530	0.032521427
232	0xbd216e14	-0.03941162
233	0x3da0172a	0.07816918
234	0xbdd7500e	-0.10513316
235	0xbd166b70	-0.036723554
236	0xbdc4ab74	-0.096030146
237	0xbd79c1e6	-0.06097593
238	0x3d3f5174	0.04670854
239	0xbddb8502	-0.107187286
240	0x3d9cb6af	0.07652032
241	0x3f0456c9	0.51694924
242	0x3f2e8fea	0.68188345
243	0xbfc36179	-1.5264121
244	0xbf93b384	-1.1539159
245	0xbf1c936b	-0.6116244
246	0x3e846c51	0.2586389
247	0x3ec22859	0.37921408
248	0x3e94bbc8	0.29049516
249	0xbdcdcf70	-0.10049331
250	0x3da8fd10	0.08251393
251	0x3d69ab68	0.05704823
252	0xbe36bb31	-0.17844845
253	0xbe71778f	-0.23580764
254	0x3da71048	0.08157402
255	0xbc763c7a	-0.015029067

conv2.bias f4 [32]
0	0xbe1640cb	-0.14673154
1	0xbf84140f	-1.0318621
2	0xbdcfb6f8	-0.101423204
3	0x3e822f66	0.25426787
4	0xbe102a24	-0.14078575
5	0xbc5e532a	-0.013569633
6	0x3eba7759	0.3641918
7	0x3e04cd9f	0.12969063
8	0xbe12ac64	-0.14323574
9	0xbf4dfd8d	-0.8046501
10	0xbf431044	-0.76196694
11	0xbee0d435	-0.439119
12	0xbe2392d4	-0.15973979
13	0x3e80a23d	0.25123778
14	0xbdbbbb8c	-0.09166631
15	0x3ea763e4	0.32693398
16	0xbec7936d	-0.38979664
17	0xbf71b784	-0.9442065
18	0x3d5b272c	0.053504154
19	0x3eae5d35	0.34055486
20	0xbe313c1d	-0.17308088
21	0xbe1b5de4	-0.15172535
22	0xbf3c9659	-0.7366691
23	0xbf6ef8d6	-0.93348444
24	0xbe7d5597	-0.24739681
25	0xbdd71693	-0.105023526
26	0xbf402638	-0.7505832
27	0xbec8a09c	-0.39185035
28	0xbdc4e684	-0.0961428
29	0xbf128e09	-0.5724798
30	0xbe3c4bc0	-0.18388271
31	0x3e632f5d	0.22186036

fc1.weight f4 [64, 224]
0	0xbd4773e0	-0.04869449
1	0xbd847a8a	-0.06468685
2	0x3bf91bc0	0.007602185
3	0xbd4c059c	-0.049810037
4	0x3b3e8a80	0.0029074252
5	0xbc7c29f0	-0.015390858
6	0x3a365880	0.00069559366
7	0x3ee56c53	0.44809207
8	0x3f1da13b	0.61574143
9	0x3e740a5e	0.2383208
10	0xbe1c373e	-0.15255448
11	0xbf138ca6	-0.5763649
12	0xbf1e5380	-0.6184616
13	0x3e8b6795	0.27227464
14	0xbcd376cc	-0.025813483
15	0x3a29d980	0.00064792484
16	0xbc668838	-0.014070563
17	0x3d77156e	0.06032317
18	0xbc7eb1a8	-0.015545286
19	0x3d46068c	0.048346087
20	0xbd54929b	-0.051897626
21	0x3db414bc	0.08793017
22	0x3dbc6deb	0.09200653
23	0x3e94095e	0.28913397
24	0x3e847be6	0.25875777
25	0x3e25f042	0.16204932
26	0x3e8a5b19	0.27022627
27	0x3da121ff	0.07867812
28	0xbd249d1e	-0.0401889
29	0x3bbe0eb0	0.0058000907
30	0x3c685b50	0.014181927
31	0x3c44adb0	0.012004301
32	0x3d621846	0.05519893
33	0xbd56e6ca	-0.05246619
34	0x3d1bacde	0.038006656
35	0xbc19b5c9	-0.00938172
36	0xbeaaf84f	-0.3339257
37	0x3ca39c9d	0.01997214
38	0x3e279d6a	0.16368642
39	0xbdc6db93	-0.09709849
40	0xbdd2a906	-0.10286145
41	0x3b356a34	0.002768171
42	0x3e3ef761	0.18649055
43	0x3e828f38	0.25499892
44	0x3c0abc97	0.008467815
45	0x3ec0d474	0.3766209
46	0x3e877049	0.26452854
47	0x3e3cd5e2	0.18440965
48	0x3d77373d	0.060355414
49	0x3ee97c66	0.4560272
50	0x3f03191c	0.5121019
51	0x3ebdf9e1	0.37104705
52	0x3ea4bfa8	0.32177472
53	0x3ead0214	0.33790648
54	0x3e7921c4	0.24329287
55	0x3efa2795	0.48858324
56	0xbe66336b	-0.22480552
57	0xbfc72c85	-1.5560461
58	0xbf8b1394	-1.086535
59	0xbfa7b186	-1.3101051
60	0xbfd1be6b	-1.6386236
61	0xbf8a695f	-1.0813407
62	0xbf9d3585	-1.2281958
63	0x3f1457e1	0.5794659
64	0x3e2c44d2	0.16823128
65	0x3e6ecd0a	0.23320404
66	0xbe580c0c	-0.21098346
67	0xbf0e9efc	-0.5571134
68	0xbf524d00	-0.8214874
69	0x3e6cf504	0.23140341
70	0xbeb571a8	-0.35438275
71	0xbe9ff6f1	-0.3124309
72	0x3e949505	0.29019943
73	0x3d9d1113	0.07669272
74	0xbe3792e0	-0.17927122
75	0xbe6b0fcc	-0.22955245
76	0x3f22a6fe	0.6353606
77	0x3ee037de	0.43792623
78	0x3de4e659	0.11176748
79	0x3d98cbd2	0.07460751
80	0x3da69c3f	0.0813527
81	0x3dee44f7	0.11634248
82	0xbe1b35e9	-0.15157284
83	0xbd8b9300	-0.068151474
84	0xbd03c215	-0.032167513
85	0x3c999720	0.01874882
86	0x3c89b888	0.016811624
87	0x3c0f09a0	0.008730322
88	0xbd22e514	-0.039769247
89	0xbd09b267	-0.033617403
90	0x3d33d33e	0.043902628
91	0x3ec0b088	0.37634683
92	0x3f26511a	0.649675
93	0x3f3c92c9	0.73661476
94	0x3f9b0915	1.2112147
95	0x3f636340	0.8882332
96	0x3f34282d	0.70373803
97	0x3f36fb68	0.71477365
98	0x3dc343fd	0.09534452
99	0xbf00420c	-0.5010078
100	0xbe114822	-0.14187673
101	0xbf069d14	-0.5258343
102	0xbee0df79	-0.43920496
103	0xbed57ea1	-0.41698173
104	0xbd40fa07	-0.047113445
105	0x3e46dcf5	0.19420226
106	0xbd3f4ee8	-0.04670611
107	0x3efa3aaf	0.48872897
108	0x3e05d2fd	0.13068767
109	0x3e33ca75	0.175577
110	0x3e751d5c	0.23936981
111	0x3e7e7167	0.24847947
112	0xbed9a4ff	-0.42508695
113	0x3ec720d2	0.38892227
114	0x3f074284	0.5283587
115	0xbe0e7a88	-0.1391393
116	0xbd8b477e	-0.068007454
117	0xbe1b93e5	-0.15193136
118	0xbe82e8f4	-0.25568354
119	0xbea74a4f	-0.3267388
120	0xbe85f034	-0.26159823
121	0x3e33e720	0.17568636
122	0xbea17cb0	-0.31540442
123	0xbd9c15ff	-0.07621383
124	0xbec9b78a	-0.39397842
125	0x3e813011	0.25231984
126	0xbfb6575a	-1.4245408
127	0xbfd4a3c7	-1.6612481
128	0xbfc99e9d	-1.575153
129	0xbf30b59b	-0.6902711
130	0xbf29f2ee	-0.66386306
131	0xbf7e3f9c	-0.9931581
132	0xbe9982eb	-0.29982695
133	0x3d13da4a	0.03609685
134	0x3ef72ba0	0.4827547
135	0x3e3b55c3	0.18294434
136	0xbc02d487	-0.007985241
137	0x3da8b424	0.08237484
138	0x3ee50448	0.4472983
139	0x3f03f396	0.5154356
140	0xbda2a9b4	-0.079425246
141	0xbddc00a0	-0.10742307
142	0x3eaa10ea	0.3321603
143	0xbe4fe790	-0.20303178
144	0xbe9d0a7e	-0.30672067
145	0xbe4c6077	-0.19958673
146	0xbe8ec320	-0.27883244
147	0xbfd75c64	-1.682507
148	0xbef943bd	-0.48684493
149	0xbef3a432	-0.4758621
150	0xbfa7b942	-1.3103411
151	0xbf84ba2c	-1.0369315
152	0xbf6135f5	-0.87972957
153	0xbf7a2852	-0.97717774
154	0xbf08c14a	-0.53419936
155	0x3e82cf48	0.25548768
156	0xbe483fc1	-0.1955557
157	0xbf16d573	-0.5891945
158	0xbf059b4c	-0.5219009
159	0xbec45a1a	-0.38349992
160	0x3e648ae1	0.22318603
161	0x3e4bad9e	0.19890448
162	0x3de2999c	0.11064455
163	0x3e1a7b8c	0.15086192
164	0xbd68e154	-0.056855515
165	0xbe081917	-0.13290821
166	0xbe5cfd55	-0.21581014
167	0x3e090343	0.1338015
168	0xbe5b29c4	-0.21402651
169	0xbdb33a29	-0.087513275
170	0xbf05be23	-0.5224325
171	0xbe96eb8d	-0.29476586
172	0xbe892514	-0.267861
173	0xbf31525f	-0.69266313
174	0xbeb9b31e	-0.36269468
175	0xbd835b39	-0.06413884
176	0xbd027ce2	-0.03185738
177	0xbd299d12	-0.04140956
178	0xbceed64e	-0.029154923
179	0xbd056fc9	-0.03257731
180	0x3d70bfde	0.05877673
181	0x3d009388	0.031390697
182	0x3e64ce0f	0.2234423
183	0xbe050080	-0.12988472
184	0x3db385a5	0.08765725
185	0x3df25f83	0.11834624
186	0x3d1e81b0	0.0386979
187	0xbc776d6f	-0.015101775
188	0xbcd4b122	-0.02596337
189	0xbe1d2eee	-0.15349934
190	0x3e6974f1	0.22798516
191	0x3d634174	0.055482343
192	0xbf2ddbdb	-0.679136
193	0xbf3a1a4e	-0.7269639
194	0xbf31dc57	-0.69476837
195	0xbf5993df	-0.8499126
196	0xbfa74939	-1.3069221
197	0xbf817fdf	-1.0117148
198	0xbf7bf2ca	-0.9841734
199	0xbfae6a90	-1.362627
200	0xbf9f74db	-1.2457536
201	0xbf7608be	-0.9610709
202	0xbf0b3505	-0.54377776
203	0xbe862223	-0.2619792
204	0x3ed74c0e	0.42050213
205	0xbe6b54cc	-0.22981566
206	0xbe818214	-0.25294554
207	0xbda4146b	-0.08011707
208	0x3dabc8b1	0.08387888
209	0xbdc59526	-0.096475884
210	0xbe3402c8	-0.17579186
211	0xbeb4fa1b	-0.35347065
212	0xbedd521b	-0.43226704
213	0xbf8bd62c	-1.0924735
214	0xbfa0ed21	-1.2572366
215	0xbf8d9899	-1.1062194
216	0xbfa8c9e2	-1.318661
217	0x3df5d9b1	0.12004412
218	0x3e1f851d	0.15578122
219	0x3f219624	0.6311972
220	0x3f212682	0.62949383
221	0x3e6d2d7d	0.23161884
222	0x3e5c0854	0.21487552
223	0x3f18e407	0.5972294
224	0x3d86deaf	0.06585442
225	0xbd8260c0	-0.0636611
226	0xbb903878	-0.004401263
227	0xbd83c456	-0.064339325
228	0x3d766202	0.06015206
229	0x3d783b5e	0.060603492
230	0xbc60b2e0	-0.013714522
231	0x3eb57d96	0.35447377
232	0x3f0f212b	0.55909985
233	0x3e4fe3e8	0.20301783
234	0x3ef358e8	0.47528768
235	0x3efcbb9c	0.49361885
236	0x3ee720ad	0.45142117
237	0xbe4a3b6d	-0.19749232
238	0xbcadeefa	-0.021232117
239	0x3c8e6b40	0.017385125
240	0x3c23a0d8	0.009987079
241	0xba063a80	-0.00051204115
242	0xbcbfaaec	-0.023396932
243	0x3cf23340	0.029565454
244	0xbd1a4734	-0.03766556
245	0x3db10bc9	0.08644826
246	0x3da3d5e5	0.079997815
247	0x3deed601	0.11661912
248	0x3ec811b7	0.39076015
249	0x3e6bff1b	0.23046534
250	0x3e536306	0.20643243
251	0x3daf9c0c	0.085746855
252	0x3d69d26a	0.057085432
253	0x3bd11010	0.0063800886
254	0xbc3d7ba4	-0.011565123
255	0x3c5c41b0	0.0134433955

fc1.bias f4 [64]
0	0x3e82e6ce	0.25566715
1	0x3f13c116	0.577165
2	0x3efbd00a	0.4918216
3	0xbd9e9af8	-0.07744402
4	0x3f6d14c3	0.92609805
5	0xbefe1f01	-0.4963303
6	0x3e22a7e8	0.15884364
7	0x3ee395a8	0.44450116
8	0xbf8f69a8	-1.1204119
9	0xbea423ba	-0.32058507
10	0x3d24f5a0	0.04027331
11	0x3f388e47	0.720921
12	0xbf3b8bd9	-0.73260266
13	0xbf8a5e00	-1.0809937
14	0xbd58a090	-0.0528875
15	0xbe17657a	-0.14784804
16	0xbf876472	-1.0577528
17	0x3f029324	0.5100577
18	0xbd1b5830	-0.0379259
19	0x3da95602	0.08268358
20	0xbe4d3ff5	-0.20043929
21	0x3d67bdb7	0.05657741
22	0xbd982953	-0.07429757
23	0x3c827e14	0.01592926
24	0x3eb3b791	0.35100988
25	0x3cd2f25b	0.02575033
26	0x3e09ba77	0.13450037
27	0x3ee7d6fe	0.45281214
28	0xbdb190a1	-0.08670164
29	0x3eb84a3f	0.35994145
30	0xbd689aa7	-0.056788113
31	0xbfb49ab0	-1.4109707
32	0x3e57172d	0.21004935
33	0xbe121341	-0.14265157
34	0xbfb039d4	-1.3767648
35	0x3dd0c81e	0.10194419
36	0xbf6de3f7	-0.9292597
37	0x3f689c2c	0.908633
38	0xbf7691f5	-0.9631646
39	0xbddb0828	-0.10694915
40	0xbefc987f	-0.49335095
41	0xbdb6d69c	-0.08927652
42	0x3f28dce1	0.65962034
43	0xbdd96e1c	-0.10616705
44	0x3c9cfe7a	0.019164313
45	0xbf6930fc	-0.9109037
46	0xbee59bb7	-0.44845363
47	0x3d3721c7	0.044709947
48	0xbf624ef3	-0.88401717
49	0x3d2fdf19	0.042937372
50	0x3cda9270	0.026681155
51	0x3e2e5572	0.17024782
52	0x3ec2c0fe	0.38037866
53	0xbe84a7ab	-0.2590917
54	0xbdbd8b29	-0.09255058
55	0x3d277c25	0.040889878
56	0x3ead8336	0.33889169
57	0xbc85ea99	-0.016347216
58	0xbec568b6	-0.3855645
59	0x3e93de8d	0.2888073
60	0x3de9e69a	0.11420937
61	0x3f22f625	0.63656837
62	0x3e5961c8	0.21228707
63	0xbeaca865	-0.33722225

fc.weight f4 [4, 64]
0	0x3df03441	0.11728717
1	0x3fd477d2	1.6599066
2	0x3dde0337	0.10840457
3	0xbf9274f0	-1.1441936
4	0xbcf56d6c	-0.029959403
5	0xc05dfa70	-3.4684105
6	0x3f05005d	0.5195368
7	0x3e9dea9f	0.30843064
8	0xbeec5b73	-0.4616352
9	0xbff84d67	-1.9398621
10	0xbf86f14d	-1.0542389
11	0x3dd0e233	0.10199394
12	0x3d766db2	0.060163207
13	0xbef39ebb	-0.4758204
14	0xc00b9f16	-2.1815848
15	0xbe7cf18d	-0.2470152
16	0xbf620c6b	-0.883002
17	0x3ee35529	0.4440091
18	0xbfeb3723	-1.8376201
19	0x3c623f49	0.013809034
20	0xc09b44c6	-4.852145
21	0xc034bd86	-2.8240676
22	0x3d5adbe0	0.053432345
23	0xbe9727b3	-0.29522476
24	0x3e2914e6	0.16511878
25	0xc0323257	-2.7843225
26	0xc08a9aa5	-4.3313775
27	0xbcb5919a	-0.022164155
28	0xbf4b2fb5	-0.7936967
29	0x3e1ce658	0.15322244
30	0xbfe6dd66	-1.8036315
31	0xbe955c47	-0.29171965
32	0x3e0f2936	0.13980564
33	0xc0d9bc84	-6.804262
34	0x3ef990ec	0.4874338
35	0xbf3c573f	-0.73570627
36	0xbf075686	-0.528664
37	0x3dab082b	0.08351167
38	0x3e4a35d9	0.19747104
39	0x3de85f83	0.113463424
40	0xbea17629	-0.31535462
41	0xbe5e56d3	-0.21712808
42	0x3eb1d293	0.34730968
43	0xbd4bc75a	-0.049750663
44	0xc006a629	-2.1038916
45	0x3e5c8005	0.2153321
46	0xbf97decf	-1.1864871
47	0xbfdeac13	-1.7396263
48	0x3de1dd24	0.11028507
49	0xc002631d	-2.0372994
50	0xbfa5b766	-1.2946594
51	0xc03b802e	-2.9296985
52	0xc00bcd1b	-2.1843936
53	0xbf9cf8ea	-1.2263463
54	0xc057ffb9	-3.374983
55	0xbfe01232	-1.7505553
56	0xc00049e1	-2.0045092
57	0xbf4d87be	-0.8028525
58	0xbfb3f928	-1.4060411
59	0xbf8a2278	-1.0791769
60	0xbff22243	-1.8916706
61	0x3e5513ae	0.20808288
62	0xc00d23c8	-2.205309
63	0xbdd8538b	-0.105628096
64	0xbf199b32	-0.60002434
65	0x3f8c56b7	1.0963963
66	0x3e8b15ce	0.27165073
67	0xbed3e69f	-0.41386887
68	0xbf17d7a0	-0.5931339
69	0xbe8e972a	-0.27849704
70	0x3f3db8cf	0.7411012
71	0xbd8e9b81	-0.06963254
72	0x3ee6ca22	0.4507609
73	0xbf05d68a	-0.52280486
74	0xc109de43	-8.616763
75	0xbe3eadc5	-0.18620975
76	0xbf9adf76	-1.2099445
77	0xbf4e7967	-0.80653995
78	0xc04aaa9c	-3.1666632
79	0xbf2af4f8	-0.6678004
80	0xbf11c7bf	-0.56945413
81	0xbe15195a	-0.14560452
82	0x3f2c7c07	0.6737675
83	0xbe3c48a8	-0.18387091
84	0x3e49b27a	0.1969699
85	0x3e47d105	0.19513328
86	0x3d58f645	0.052969236
87	0xbea9fe28	-0.33201718
88	0xbf81d1a1	-1.0142099
89	0x3e969d3d	0.29416838
90	0x3e0b697b	0.13614456
91	0x3e5f7698	0.21822584
92	0xbe6716f8	-0.22567356
93	0xbc70e216	-0.014702341
94	0xc06a789e	-3.663612
95	0xbf461104	-0.77369714
96	0x3eb80fd0	0.35949564
97	0x3d263b1d	0.04058372
98	0xbfa17506	-1.2613838
99	0xbe991192	-0.29896218
100	0xbf099801	-0.53747565
101	0xbdb37411	-0.08762372
102	0xbf8cb4d3	-1.0992683
103	0x3c9357c0	0.017986178
104	0xbf8d6937	-1.1047734
105	0xc002d499	-2.044226
106	0xbfbc782a	-1.4724171
107	0xbfca0a38	-1.5784369
108	0xbc509ad9	-0.012732231
109	0xbf2f3960	-0.6844692
110	0xbec22cdf	-0.3792486
111	0xc08e0e5b	-4.4392524
112	0xbf433e49	-0.76266915
113	0xc0860734	-4.1883793
114	0xc092a446	-4.582553
115	0x3e1e523c	0.15461057
116	0x3e52a7d4	0.20571834
117	0x3e95eead	0.29283658
118	0x3e37dc3b	0.17955105
119	0xc07e3847	-3.972185
120	0x3d8db7da	0.069198325
121	0x3d049ac3	0.032374155
122	0xbe8178ae	-0.25287384
123	0xbdb032ce	-0.0860344
124	0x3e578b1f	0.21049164
125	0xbee56f3a	-0.44811422
126	0x3d148023	0.036255013
127	0xbd98770c	-0.074445814
128	0x3f1664c4	0.58747506
129	0x3e9e5e10	0.3093114
130	0xbefaebbb	-0.49007973
131	0x3f0e00ef	0.55470175
132	0xbd2292ea	-0.03969089
133	0x3e1b6243	0.15174203
134	0xbf4e2737	-0.8052859
135	0xbe759da5	-0.23985918
136	0xbefc9b64	-0.49337304
137	0x3f405ba6	0.75139844
138	0x3fc698e5	1.551541
139	0xbe96cea2	-0.29454523
140	0x3f842c8f	1.0326098
141	0x3eb45763	0.3522292
142	0x3fc32fbe	1.5248945
143	0x3f456279	0.7710338
144	0x3f36e703	0.71446246
145	0xbef6a944	-0.48176014
146	0xbd8a8cf9	-0.0676517
147	0xbe47cdfd	-0.19512172
148	0x3e3092eb	0.17243545
149	0x3e22d267	0.15900575
150	0x3d5ff039	0.054672454
151	0x3e9164d1	0.2839723
152	0x3ea06641	0.31328014
153	0x3dc74970	0.09730804
154	0x3d5bbc75	0.053646524
155	0x3eb6f154	0.35730994
156	0x3e74ef4e	0.23919412
157	0xbe8869f6	-0.26643342
158	0x3f6a74d0	0.9158449
159	0x3f4c7a6d	0.79874307
160	0xbf0d439b	-0.5518128
161	0x3d56f7b8	0.052482337
162	0x3fbdb817	1.4821805
163	0xbe0072d1	-0.12543799
164	0x3f5d9269	0.8655153
165	0xbeb1ad45	-0.34702507
166	0x3f84c564	1.0372739
167	0x3d125cfa	0.0357332
168	0x3c5d9be4	0.013525937
169	0xbbdc6a86	-0.006726566
170	0xbf1932b1	-0.59842974
171	0xbd684ba0	-0.056712747
172	0x3e6c2b9f	0.23063515
173	0x3e87e24c	0.26539838
174	0x3f0a94d8	0.5413337
175	0x3fb90cb3	1.4457
176	0x3f2c7c83	0.6737749
177	0x3fc43a2f	1.5330256
178	0x3f4c6d52	0.7985431
179	0x3e32c354	0.17457324
180	0x3e3379fd	0.17527004
181	0xbd457a9c	-0.048212633
182	0x3d78f5bd	0.06078123
183	0x3f975f42	1.1825945
184	0x3e0b75af	0.13619111
185	0x3e4bb947	0.19894896
186	0x3f4b0849	0.7930952
187	0x3e69d61d	0.22835584
188	0x3e0c1dcb	0.1368324
189	0xbeb93c35	-0.36178747
190	0x3d1d790b	0.038445514
191	0x3f2c84fe	0.6739043
192	0xbf31de95	-0.6948026
193	0xc04c23b1	-3.1896784
194	0xbcd98db6	-0.02655683
195	0xbebca03e	-0.36841005
196	0x3e97f90d	0.29682198
197	0x3e92e999	0.28693846
198	0xbf60167f	-0.87534326
199	0x3ede6b2b	0.43441138
200	0xbfff72bf	-1.9956893
201	0xc0331a76	-2.79849
202	0xbf83e98f	-1.0305651
203	0x3eb2ce1f	0.34922883
204	0xbf0cd7c0	-0.5501671
205	0x3f2d0fc6	0.67602193
206	0xbf5e483d	-0.86828977
207	0xc070f0ac	-3.7646894
208	0x3e2e9a96	0.17051157
209	0x3eea8059	0.45801046
210	0xbd83d140	-0.06436396
211	0x3f1d229f	0.6138095
212	0xbe199cc9	-0.15001215
213	0xc022c4cb	-2.5432613
214	0xbccddbb8	-0.025129184
215	0xbf8210fd	-1.0161434
216	0x3d90ebd2	0.07076229
217	0xc035a1fb	-2.8380115
218	0xc0770018	-3.8593807
219	0xbfe25956	-1.7683513
220	0xbfdec900	-1.740509
221	0x3e9ef5a3	0.3104678
222	0xbf1b5ab8	-0.606853
223	0xbeca05eb	-0.3945764
224	0x3e58e03c	0.21179289
225	0x3d0fb177	0.035081353
226	0x3f5cec40	0.8629799
227	0x3f356d68	0.70870066
228	0xbef70a8b	-0.4825023
229	0x3ea9ba5b	0.3314999
230	0xbff43e2c	-1.9081473
231	0x3d346999	0.04404602
232	0x3e8e286c	0.27765214
233	0xbd1661a7	-0.036714222
234	0x3ebac043	0.3647481
235	0xbd56ee8d	-0.052473594
236	0x3dad0cca	0.08449705
237	0xbddeba9a	-0.10875435
238	0xbf9201bf	-1.1406783
239	0xbf65ad99	-0.89718014
240	0x3e8ffaab	0.28120932
241	0xbf4ba14d	-0.79543
242	0xbe32cc0c	-0.1746065
243	0xc04af0d9	-3.1709502
244	0x3e912b5f	0.28353402
245	0xbfb106b0	-1.3830166
246	0x3eecc5b8	0.46244597
247	0xbf069f64	-0.5258696
248	0xc023c34e	-2.5587955
249	0x3e4cfcc8	0.20018303
250	0xbf8ae95b	-1.0852464
251	0xbf82d82a	-1.0222218
252	0xc015aa62	-2.3385243
253	0x3eeec414	0.4663397
254	0x3eb319a9	0.34980515
255	0xbf52210e	-0.8208169

fc.bias f4 [4]
0	0x3e8e6be1	0.2781668
1	0x3ec760ff	0.3894119
2	0xbebd1af3	-0.36934623
3	0x3e971601	0.29508975
