LSTM/Data_3/LSTM7/model.pth (torch, 275939 bytes, 6 tensors)

lstm.weight_ih_l0 f4 [512, 3]
0.005314624 0.37816373 0.7162751 -0.02045502 -0.033948135 -0.0011995308 -0.26037475 0.46393457
-0.012304602 -0.31061754 -0.2494412 -0.13251053 -0.035118774 -0.8515491 -0.14842539 -0.2860182
-0.6641425 -0.3083691 0.057277326 -0.5240135 -0.563778 -0.30470905 -0.33086655 -0.10607975
-0.21438669 -0.30543554 -0.50483257 -0.21076217 -0.4029207 -0.0810127 -0.45631427 -0.5865068
-0.5369335 -0.0021137085 -0.4330085 -0.037666835 -0.2408765 -0.21456446 -0.6499788 -0.008326208
0.5419467 -0.011965422 0.086443625 0.8413376 0.11365946 -0.25370818 -0.32730472 -0.11549281
-0.09361382 0.14539176 -0.40231428 -0.10006469 -1.1870697 -0.17749217 0.09136691 0.14853609
0.27886173 -0.11137226 -0.570906 0.005163227 0.10065783 -0.2335868 -0.42294553 -0.2025885
-0.6564828 -0.17803551 -0.108027376 -0.9246495 -0.36235633 0.15229647 -0.55609596 0.07011041
-0.19586529 -0.40152207 -0.024246287 -0.31901443 -0.54739505 -0.10303994 -0.1834516 0.032153122
0.16008253 -0.0014043044 -0.65928155 -0.012879851 -0.2242615 -0.6841457 -0.38137406 -0.11129106
-1.0608455 -0.24661422 0.103868484 -1.3362832 -0.38181674 0.10542082 0.11713769 -0.14943925
-0.20354302 -0.34347036 0.019741558 -0.031135397 -0.6290064 -0.3268534 -0.022721905 -0.28737935
-0.19408546 0.04003449 0.2756793 0.015895454 -0.21461847 -0.38225308 0.0141968345 -0.03973251
-0.44251156 -0.1365707 0.049411226 -0.026958259 -0.45875475 0.057175376 -0.14575478 -0.013403215
-0.46421722 0.066109166 0.17107813 -0.1990182 0.023844982 0.22610168 -0.39266202 -0.04004147
-0.00014864342 -0.08839075 -0.3497902 -0.15884787 0.012355824 -0.05610498 -0.21826959 -0.27388027
-0.6087778 -0.4372718 -0.18871257 -0.32672757 -0.2973589 -0.6463877 -0.28020054 -0.79741335
0.008321682 0.2288824 0.5086507 -0.14228463 -0.3237327 -0.14578149 0.03793446 -0.8465965
-0.013347892 -0.39325657 0.48545277 -0.103567176 -0.13439542 -0.95194924 -0.23387276 -0.32754108
-0.49918067 -0.14873938 0.18743086 0.55053943 0.0033837745 -0.16751166 -0.4070125 -0.059632342
-0.1464146 -0.41987562 -0.03873264 0.112370476 0.5630285 0.09942239 -0.31339315 0.0033705202
0.19352731 0.158653 -1.3314732 -0.16928728 -0.08628327 0.81378686 0.05527117 0.16668266
-0.7998532 -0.010092589 -0.14043763 -0.3689338 -0.25111032 -0.21669668 -0.24762328 0.1083412
-0.15915205 -0.60617375 -0.37876096 -0.040073194 0.4228593 0.07346858 0.30765623 0.35670027
0.21929693 -0.117303245 -1.004375 -0.6617005 -0.18588975 -0.064547226 -0.18721516 0.25002724
-0.7461276 -0.26942703 -0.02310874 -0.18979995 -0.4026338 -0.3186309 0.30320057 0.060913753
-0.40385413 -0.28799772 -0.1479011 -0.44133842 -0.72403514 -0.51023763 -0.0588698 0.63034594
0.16609077 -0.21397726 0.009671158 -0.20624347 -0.38629037 -0.46918574 -0.09368429 0.1714968
-0.3091943 0.0519347 -0.11774331 -0.4681264 -0.39229944 -0.095743045 0.14725171 -0.17461945
0.005732651 0.23879866 -0.05169149 -0.14158076 0.0275898 -0.033662684 -0.21057324 -0.65192217
-0.5111595 -0.025242662 -0.15005256 -0.31535906 -0.18782623 -0.6447951 -0.090127125 -0.23649777
00000000: 4c26 ae3b ad9e c13e ce5d 373f 4991 a7bc
00000010: 330d 0bbd 9339 9dba d74f 85be d588 ed3e
00000020: 3e99 49bc 4309 9fbe 846d 7fbe d7b0 07be
00000030: b4d8 0fbd 1fff 59bf d3fc 17be fa70 92be
00000040: 3e05 2abf 8ee2 9dbe a19b 6a3d c025 06bf
00000050: c153 10bf d302 9cbe 5767 a9be 5740 d9bd
00000060: 2f88 5bbe 0c62 9cbe b53c 01bf 0ad2 57be
00000070: 9f4b cebe fde9 a5bd 06a2 e9be 4f25 16bf
00000080: 7974 09bf 2586 0abb 4ab3 ddbe 8a48 1abd
00000090: 54a8 76be c9b6 5bbe 0365 26bf a66a 08bc
000000a0: 05bd 0a3f 9e0a 44bc 5b09 b13d e761 573f
000000b0: 4ac6 e83d 0ae6 81be 7c94 a7be 7f87 ecbd
000000c0: 9ab8 bfbd 94e1 143e 23fc cdbe b7ee ccbd
000000d0: e6f1 97bf 82c0 35be 931e bb3d d819 183e
000000e0: f7c6 8e3e 2417 e4bd e526 12bf 4a30 a93b
000000f0: b125 ce3d 6131 6fbe 518c d8be 5c73 4fbe
00000100: 420f 28bf f14e 36be 753d ddbd d4b5 6cbf
00000110: c586 b9be 9bf3 1b3e 4e5c 0ebf 0c96 8f3d
00000120: e990 48be 4d94 cdbe 26a0 c6bc dc55 a3be
00000130: 1522 0cbf 9b06 d3bd bcda 3bbe feb2 033d
00000140: adec 233e a310 b8ba adc6 28bf 0306 53bc
00000150: cfa4 65be 2c24 2fbf 7643 c3be 91ec e3bd
00000160: c9c9 87bf 7088 7cbe 00b9 d43d 540b abbf
00000170: 7c7d c3be dfe6 d73d e3e5 ef3d 9a06 19be
00000180: 956d 50be 59db afbe 0cb9 a13c a90f ffbc
00000190: 9006 21bf 5459 a7be 4a23 babc 6323 93be
000001a0: 57be 46be 35fb 233d d625 8d3e 2f37 823c
000001b0: f2c4 5bbe adb6 c3be d799 683c 8ebe 22bd
000001c0: e090 e2be 31d9 0bbe 6d63 4a3d 91d7 dcbc
000001d0: e7e1 eabe ba30 6a3d be40 15be 2999 5bbc
000001e0: e1ad edbe 3e64 873d 1b2f 2f3e 6dcb 4bbe
000001f0: 8d56 c33c 3387 673e ff0a c9be 8602 24bd
00000200: 2add 1bb9 3606 b5bd b317 b3be 04a9 22be
00000210: 1570 4a3c 56ce 65bd 1082 5fbe 093a 8cbe
00000220: ddd8 1bbf 17e2 dfbe de3d 41be d648 a7be
00000230: 6d3f 98be aa79 25bf 7276 8fbe 4823 4cbf
00000240: aa57 083c 2660 6a3e ef36 023f 10b3 11be
00000250: 4bc0 a5be be47 15be 2a61 1b3d 8cba 58bf
00000260: 1eb1 5abc ed58 c9be 448d f83e 071b d4bd
00000270: f49e 09be f2b2 73bf 577c 6fbe 77b3 a7be
00000280: 9c94 ffbe 234f 18be e0ed 3f3e 27f0 0c3f
00000290: 51c2 5d3b 2d88 2bbe f163 d0be 0b41 74bd
000002a0: b5ed 15be f0f9 d6be 1ea6 1ebd 7e22 e63d
000002b0: a322 103f f79d cb3d 1175 a0be f2e3 5c3b
000002c0: 062c 463e ef75 223e b76d aabf a559 2dbe
000002d0: 48b5 b0bd 5654 503f 0664 623d dcae 2a3e
000002e0: 2ec3 4cbf 635b 25bc e2ce 0fbe e4e4 bcbe
000002f0: 8891 80be bce5 5dbe f590 7dbe fee1 dd3d
00000300: c1f8 22be 342e 1bbf f5ec c1be ca23 24bd
00000310: 0481 d83e b276 963d 1e85 9d3e 6ba1 b63e
00000320: 608f 603e af3c f0bd 5c8f 80bf 3465 29bf
00000330: e259 3ebe 5631 84bd 55b5 3fbe 9203 803e
00000340: 3802 3fbf 57f2 89be 8a4e bdbc eb5a 42be
00000350: 0426 cebe 9723 a3be 1b3d 9b3e b380 793d
00000360: f8c5 cebe 7074 93be 6373 17be 1cf7 e1be
00000370: 5e5a 39bf ef9e 02bf 7621 71bd 5a5e 213f
00000380: b313 2a3e db1c 5bbe c773 1e3c 7d31 53be
00000390: dac7 c5be 1d39 f0be 8ddd bfbd db9c 2f3e
000003a0: b74e 9ebe 7bb9 543d 6823 f1bd 43ae efbe
000003b0: 79db c8be ee14 c4bd 27c9 163e 71cf 32be
000003c0: f6d8 bb3b a387 743e 75ba 53bd 8cfa 10be
000003d0: 0104 e23c e2e1 09bd 83a0 57be 5fe4 26bf
000003e0: 59db 02bf b3c9 cebc 61a7 19be be76 a1be
000003f0: 8555 40be 4b11 25bf 9294 b8bd 792c 72be

lstm.weight_hh_l0 f4 [512, 128]
-0.06965353 0.22706778 -0.24362557 0.3418901 0.48553705 0.20758948 0.28462595 -0.14455406
-0.17569073 0.14164814 -0.14900519 0.19231993 -0.018449133 -0.54251486 -0.30614397 -0.26376873
0.48051566 -0.21338008 -0.016111357 -0.2011786 0.40139872 0.03684511 -0.04531757 0.13914973
-0.027717728 -0.06455245 -0.1928578 0.17333262 -0.010693818 0.32801247 -0.14341952 -0.4992396
-0.14963783 -0.037598487 -0.03660001 -0.6843968 0.20270227 0.027682893 0.5469057 0.19210574
-0.15086913 -0.59306115 0.38717148 0.08615471 0.061429296 0.09831788 0.12535897 0.14639835
-0.10028648 -0.24995467 0.059658878 0.2608771 0.31575596 -0.25976822 -0.015117111 0.047396533
-0.14134182 -0.34736854 -0.21763194 -0.2019047 -0.37206182 0.21039744 0.18082339 0.077869736
-0.370137 -0.053932887 -0.17426969 0.14321552 -0.18404253 -0.10309515 0.29392815 0.068318516
-0.2797551 0.26915127 0.22611025 0.009763571 -0.13216144 0.17785423 0.18634418 0.17702985
0.3872025 0.083019994 -0.019689124 -0.018473774 0.029028444 0.25662065 -0.07062 -0.3232669
-0.039627016 -0.09276784 0.07374436 -0.10492967 -0.10507105 -0.09179682 -0.071581416 -0.34673506
-0.12966293 -0.088350385 0.20539016 -0.008109271 -0.50076735 0.07064028 0.022635452 0.33071706
0.10695169 -0.030179532 0.024094878 0.353728 -0.15391879 -0.2963879 -0.23054509 0.09696726
-0.36619288 -0.43278673 0.14472261 0.6228632 -0.19201218 0.2988852 0.3524432 -0.19642858
0.3276913 -0.02592642 -0.43974623 -0.06263187 0.180733 0.23603882 0.09798133 -0.026500836
-0.22557503 -0.12963675 -0.6090344 -0.17695042 -0.07127026 -0.13070224 -0.21807322 0.019757047
-0.27968562 0.046788182 -0.07390405 -0.13250138 0.31539157 0.1586661 0.037869226 -0.12851113
-0.2904782 0.39892152 0.2592833 0.47467837 0.36967587 -0.15974359 -0.14049876 0.10501607
0.11710339 0.17708384 0.18250357 -0.10267031 0.24388437 0.1746282 0.10420415 -0.020603718
-0.021311313 -0.36365634 -0.09057006 -0.012891661 -0.2646821 -0.25865906 -0.034086727 -0.10839076
0.041611075 0.14887884 0.21583599 0.11869769 -0.06029818 -0.012808964 0.110149086 -0.08108709
0.26564306 0.03489489 -0.078039765 0.7541529 -0.2758102 -0.06929049 -0.09997505 -0.5285003
-0.14068197 -0.24130997 -0.12622707 0.17535952 -0.5612454 0.01912932 0.08590837 0.08946395
0.16834672 0.4758714 0.66274 -0.33420265 -0.29430687 -0.017626276 -0.065432765 -0.008405416
0.0080988975 -0.33488795 0.11726851 -0.20504536 -0.05657627 0.18919471 -0.31233117 -0.06903211
0.6206191 -0.2637471 -0.035844736 -0.3616099 0.08035961 0.41032124 -0.298638 -0.16232257
-0.25357625 0.5271639 -0.011401389 0.09432845 0.009236582 0.4592521 0.7743241 0.17839323
0.035435744 -0.16766903 -0.06037814 -0.15294652 0.06569546 0.14498061 -0.11263293 -0.034845352
0.049069762 0.38078937 0.030712264 -0.08142115 -0.30672708 -0.095243864 0.5554836 -0.026578974
-0.059330095 0.0050112405 -0.018096674 -0.14182894 -0.11508677 0.016049964 0.2800966 -0.15829155
0.32673088 -0.23660174 -0.26427758 0.074678525 -0.09981246 -0.036089297 -0.10169052 0.32220456
00000000: 83a6 8ebd 7584 683e fb78 79be 380c af3e
00000010: 5098 f83e 5692 543e 7eba 913e fb05 14be
00000020: 45e8 33be 360c 113e d194 18be 84ef 443e
00000030: a322 97bc 41e2 0abf e7be 9cbe b20c 87be
00000040: 2606 f63e 4f80 5abe f7fb 83bc c301 4ebe
00000050: 2284 cd3e e6ea 163d eb9e 39bd 447d 0e3e
00000060: 4a10 e3bc 1334 84bd 847c 45be 1b7e 313e
00000070: 2035 2fbc 40f1 a73e 91dc 12be 559c ffbe
00000080: a93a 19be df00 1abd e4e9 15bd a134 2fbf
00000090: 2f91 4f3e 3cc7 e23c 0302 0c3f 5eb7 443e
000000a0: 707d 1abe dbd2 17bf 573b c63e e171 b03d
000000b0: 499d 7b3d e25a c93d 1a5e 003e 73e9 153e
000000c0: ff62 cdbd 1ef4 7fbe de5c 743d af91 853e
000000d0: c4aa a13e 5700 85be c2ad 77bc de22 423d
000000e0: e9bb 10be 4ada b1be e8da 5ebe 1bc0 4ebe
000000f0: e37e bebe 6d72 573e c429 393e 2b7a 9f3d
00000100: 9982 bdbe bbe8 5cbd c173 32be 17a7 123e
00000110: a575 3cbe 8d23 d3bd c07d 963e 94ea 8b3d
00000120: 0f3c 8fbe 32ce 893e 7289 673e 63f7 1f3c
00000130: 5455 07be 6b1f 363e 02d1 3e3e 5047 353e
00000140: 683f c63e 6306 aa3d 164b a1bc 5056 97bc
00000150: 0fcd ed3c c863 833e 38a1 90bd 3d83 a5be
00000160: f04f 22bd 11fd bdbd 4807 973d 5ee5 d6bd
00000170: 7e2f d7bd f9ff bbbd 4799 92bd 4287 b1be
00000180: 5cc6 04be 0cf1 b4bd cc51 523e bfdc 04bc
00000190: 4a32 00bf daab 903d fc6d b93c bf53 a93e
000001a0: 7d09 db3d 113b f7bc 9f62 c53c d61b b53e
000001b0: e39c 1dbe 28c0 97be 0314 6cbe c596 c63d
000001c0: a27d bbbe 3996 ddbe 2a32 143e f673 1f3f
000001d0: d79e 44be 7b07 993e 6f73 b43e 9324 49be
000001e0: 27c7 a73e a563 d4bc 6b26 e1be 2345 80bd
000001f0: 1212 393e 29b4 713e 6faa c83d 4818 d9bc
00000200: 24fd 66be 7fbf 04be aee9 1bbf 7e32 35be
00000210: 24f6 91bd cfd6 05be 964e 5fbe 88d9 a13c
00000220: f432 8fbe f7a4 3f3d 025b 97bd 71ae 07be
00000230: 017b a13e 5e79 223e c31c 1b3d 6c98 03be
00000240: 8fb9 94be 713f cc3e c8c0 843e 0b09 f33e
00000250: 2846 bd3e d393 23be e8de 0fbe aa12 d73d
00000260: e7d3 ef3d 7755 353e 37e2 3a3e d044 d2bd
00000270: d3bc 793e bcd1 323e fc68 d53d 21c9 a8bc
00000280: 1095 aebc 2a31 babe cc7c b9bd 8c37 53bc
00000290: 6a84 87be f66e 84be 869e 0bbd fafb ddbd
000002a0: 6070 2a3d b273 183e 1c04 5d3e c617 f33d
000002b0: 39fb 76bd b0dc 51bc d895 e13d fd10 a6bd
000002c0: 5e02 883e f2ed 0e3d 50d3 9fbd 2a10 413f
000002d0: ff36 8dbe 2ce8 8dbd b8bf ccbd cc4b 07bf
000002e0: ef0e 10be f619 77be ab41 01be 7291 333e
000002f0: c7ad 0fbf 17b5 9c3c baf0 af3d e038 b73d
00000300: 1563 2c3e 6ba5 f33e 54a9 293f 9c1c abbe
00000310: 64af 96be fb64 90bc 9d01 86bd dfb6 09bc
00000320: 3db1 043c 6f76 abbe 792a f03d 69f7 51be
00000330: 85bc 67bd 42bc 413e dfe9 9fbe b560 8dbd
00000340: e5e0 1e3f dc09 87be eed1 12bd ef24 b9be
00000350: 9493 a43d a015 d23e 14e7 98be e337 26be
00000360: bfd4 81be 37f4 063f e4cc 3abc 462f c13d
00000370: 0855 173c 1723 eb3e 1b3a 463f b7ac 363e
00000380: 1225 113d 6eb1 2bbe 124f 77bd 039e 1cbe
00000390: 578b 863d cc75 143e 18ac e6bd 00ba 0ebd
000003a0: 60fd 483d d3f6 c23e 4998 fb3c 22c0 a6bd
000003b0: 550b 9dbe 370f c3bd 2c34 0e3f 26bc d9bc
000003c0: 1d04 73bd 5535 a43b 7a3f 94bc 9b3b 11be
000003d0: 9db2 ebbd 377b 833c d268 8f3e 2e17 22be
000003e0: 4549 a73e ba47 72be 644f 87be 0ef1 983d
000003f0: 7a6a ccbd 5fd2 13bd 1f43 d0bd fff7 a43e

lstm.bias_ih_l0 f4 [512]
0.07620824 -0.10977827 -0.3891035 -0.34642616 -0.093682505 -0.12219514 -0.1692396 -0.355941
-0.07884641 -0.1315346 -0.17434974 -0.16207306 -0.12521258 0.08847065 -0.08912373 -0.29246455
-0.097342275 -0.18337329 -0.06354288 -0.068780266 -0.049066633 -0.23068315 -0.15626363 0.063004546
-0.042703025 -0.23685795 -0.04895649 -0.107641585 -0.089369126 -0.25244233 -0.01871176 0.11174139
-0.036479034 -0.034671597 -0.0032413632 -0.0776426 -0.35631615 -0.04410595 0.07457115 -0.093890086
-0.41374993 -0.21121196 -0.46588093 -0.08751819 -0.037815545 -0.121104546 -0.095003225 -0.6175298
-0.01329181 -0.2041688 -0.09960298 -0.36973175 -0.18894903 -0.3968864 0.12915073 -0.02467215
-0.100126326 0.110493675 -0.1620335 0.087119594 -0.10394378 0.11992324 -0.10155684 -0.0713062
-0.062609695 0.10603887 0.11098013 -0.24874642 -0.09534034 0.12891045 0.07705058 -0.3651288
-0.43194276 -0.25611204 -0.101193175 -0.120830834 -0.25348604 0.031602036 -0.14832737 0.009556587
0.053320624 -0.035298277 -0.17014965 -0.066605456 -0.18694966 -0.24447921 -0.23970214 0.07598347
-0.30679122 -0.11086608 -0.16327742 -0.10946815 -0.16257118 -0.054375634 0.11105696 0.108370796
-0.22636014 0.074801415 0.022996219 -0.34266144 -0.120491065 0.122138545 -0.11630402 -0.34811488
-0.12192676 -0.27704892 -0.30002668 -0.2938037 -0.07196841 -0.14888948 -0.24657421 -0.1916456
-0.20449564 0.16259736 -0.6665784 -0.0020134866 0.34911767 -0.32838452 -0.36044782 -0.278401
-0.34431237 -0.12118836 -0.08091729 -0.0925514 -0.1633333 -0.115904175 -0.23353697 -0.08030667
0.22195064 0.032694526 -0.23189679 -0.12143593 -0.04639131 -0.09772784 -0.26629055 -0.05764196
-0.1658348 -0.17141132 -0.07578431 -0.20904683 -0.08390086 -0.1521488 -0.10516806 0.07800725
-0.1798596 -0.17243451 0.0142821465 -0.04064098 -0.046457008 -0.14273126 0.0063555352 -0.06437308
0.0023624888 -0.09241297 -0.34579659 0.0445564 -0.07345235 -0.15163226 -0.00986322 0.10096445
0.06388165 -0.06307394 -0.020933513 -0.21811338 -0.14666533 -0.15232246 0.0588661 -0.033771522
-0.107845016 -0.23056974 -0.18682054 -0.28827405 -0.02891966 -0.07669238 -0.030457929 -0.31889826
-0.20377268 0.051436428 -0.055255014 -0.31058258 -0.32106513 -0.23263538 -0.03650707 -0.17614734
-0.12526482 0.05607716 0.012843471 0.10646055 -0.2151009 -0.011029737 0.14856799 -0.058828965
-0.16855256 0.0099156 0.0014834143 -0.054060474 -0.059125837 0.23607816 0.2723384 -0.30207562
-0.15162098 -0.1847198 -0.12154965 -0.23766536 -0.17363305 0.033019897 -0.24837296 -0.10358752
-0.18854387 -0.2941283 -0.16102585 -0.23901893 -0.104946285 -0.13427879 -0.1488403 0.2909423
-0.26929942 -0.117635384 0.27174497 -0.023862991 0.12926447 -0.2145445 -0.21608014 0.38321838
-0.13057265 -0.16331565 0.05148598 -0.03349568 0.13445531 -0.045929275 0.1043898 -0.29180345
0.08253213 -0.017701589 -0.13050686 -0.14042445 0.12566921 -0.2528999 0.013513725 -0.1656658
-0.17083713 -0.089198016 -0.21612985 -0.021160914 -0.21022578 -0.0713846 -0.3618135 -0.12572473
-0.30719706 -0.12573802 -0.078605354 0.20008905 -0.1094686 -0.160183 0.1646192 -0.15150468
00000000: 1113 9c3d 6ed3 e0bd 9338 c7be c55e b1be
00000010: 9ddc bfbd 7241 fabd 254d 2dbe e63d b6be
00000020: 3a7a a1bd 02b1 06be bd88 32be 7bf6 25be
00000030: ba37 00be 1a30 b53d 8186 b6bd eabd 95be
00000040: 635b c7bd 35c6 3bbe c522 82bd abdc 8cbd
00000050: 18fa 48bd 3438 6cbe 9303 20be 8708 813d
00000060: 5ee9 2ebd e48a 72be 9a86 48bd 3173 dcbd
00000070: 2907 b7bd 1f40 81be 6849 99bc abd8 e43d
00000080: 0a6b 15bd ce03 0ebd 0d6d 54bb 1503 9fbd
00000090: 126f b6be 71a8 34bd c2b8 983d 7249 c0bd
000000a0: 08d7 d3be f347 58be f287 eebe bd3c b3bd
000000b0: 79e4 1abd a905 f8bd 0d91 c2bd 6f16 1ebf
000000c0: e4c5 59bc a011 51be a6fc cbbd 7b4d bdbe
000000d0: db7b 41be b234 cbbe 1740 043e 401d cabc
000000e0: 080f cdbd 824a e23d 1cec 25be c26b b23d
000000f0: 7ae0 d4bd 519a f53d 08fd cfbd fc08 92bd
00000100: 8339 80bd e82a d93d 8d49 e33d 62b7 7ebe
00000110: cc41 c3bd 1a01 043e b2cc 9d3d 29f2 babe
00000120: 9a27 ddbe 1e21 83be 5e3e cfbd 2876 f7bd
00000130: ecc8 81be 2371 013d 21e3 17be 3b93 1c3c
00000140: ba66 5a3d ed94 10bd b63b 2ebe 7168 88bd
00000150: bb6f 3fbe c258 7abe 7a74 75be 399d 9b3d
00000160: bd13 9dbe c10d e3bd 3232 27be d630 e0bd
00000170: 0f79 26be fcb8 5ebd d571 e33d 82f1 dd3d
00000180: f4ca 67be 7c31 993d 9162 bc3c 5271 afbe
00000190: 05c4 f6bd c623 fa3d cd30 eebd 1d3c b2be
000001a0: bdb4 f9bd 5bd9 8dbe 199d 99be 706d 96be
000001b0: 2c64 93bd 7c76 18be f37d 7cbe bf3e 44be
000001c0: 4e67 51be ec7f 263e e2a4 2abf b3f4 03bb
000001d0: 8dbf b23e 0422 a8be 9e8c b8be 938a 8ebe
000001e0: b649 b0be 9a31 f8bd f7b7 a5bd 978b bdbd
000001f0: d840 27be 2b5f edbd 5124 6fbe d377 a4bd
00000200: 0747 633e b2ea 053d 5a76 6dbe 67b3 f8bd
00000210: d004 3ebd 8925 c8bd 3c57 88be fa19 6cbd
00000220: 99d0 29be 7386 2fbe ce34 9bbd 5f10 56be
00000230: 37d4 abbd e5cc 1bbe 5a62 d7bd 44c2 9f3d
00000240: 1d2d 38be ac92 30be aaff 693c 2877 26bd
00000250: b449 3ebd 2528 12be 1842 d03b 09d6 83bd
00000260: fcd3 1a3b 0343 bdbd 400c b1be c680 363d
00000270: 306e 96bd 7d45 1bbe 5899 21bc 73c6 ce3d
00000280: 62d4 823d e92c 81bd c27c abbc 1d59 5fbe
00000290: 702f 16be 6bfa 1bbe 941d 713d 0254 0abd
000002a0: d9dd dcbd 791a 6cbe e24d 3fbe a898 93be
000002b0: ece8 ecbc e510 9dbd e882 f9bc a246 a3be
000002c0: c9a9 50be 01af 523d 1553 62bd ae04 9fbe
000002d0: a662 a4be f837 6ebe 7088 15bd f85f 34be
000002e0: 6c45 00be 2ab1 653d 6c6d 523c fd07 da3d
000002f0: 6943 5cbe 12b6 34bc 3522 183e a4f6 70bd
00000300: 0b99 2cbe 0a75 223c 206f c23a 846e 5dbd
00000310: ef2d 72bd 79be 713e f06f 8b3e a8a9 9abe
00000320: 8842 1bbe 3027 3dbe 06ef f8bd 8c5e 73be
00000330: ddcc 31be df3f 073d 7b55 7ebe b225 d4bd
00000340: a511 41be fc97 96be f6e3 24be 61c1 74be
00000350: 14ee d6bd 6180 09be 9769 18be 64f6 943e
00000360: 9de1 89be d2ea f0bd 2822 8b3e 527c c3bc
00000370: e85d 043e 8eb1 5bbe 1d44 5dbe 3335 c43e
00000380: d6b4 05be 383c 27be f7e2 523d c432 09bd
00000390: a7ae 093e 5620 3cbd 52ca d53d 4367 95be
000003a0: 9b06 a93d ec02 91bc 97a3 05be 6dcb 0fbe
000003b0: 6eaf 003e 187c 81be ac68 5d3c 4ca4 29be
000003c0: eeef 2ebe 73ad b6bd 2551 5dbe a759 adbc
000003d0: 6d45 57be 1732 92bd 9e3f b9be fcbd 00be
000003e0: ef48 9dbe 78c1 00be d8fb a0bd 25e4 4c3e
000003f0: 1331 e0bd 0307 24be f091 283e 0b24 1bbe

lstm.bias_hh_l0 f4 [512]
0.11013295 -0.075214386 -0.24340664 -0.3646334 -0.03190808 -0.15517287 -0.2978314 -0.3775814
-0.10133187 -0.14869437 -0.2866264 -0.13095929 -0.16000846 0.09265713 -0.039136067 -0.2594639
-0.16698374 -0.1132079 0.089828305 0.028773509 0.062978745 -0.17111048 -0.17888375 -0.009766762
-0.18942483 -0.3593565 -0.16001138 0.033284966 -0.18780547 -0.31952035 -0.111815706 0.12062089
-0.019304482 -0.10265095 0.0010053035 -0.03817914 -0.3549709 0.018281626 0.10019104 -0.03537756
-0.37060234 -0.2364399 -0.39420968 -0.15775935 -0.15333343 -0.10228134 -0.14330047 -0.5150869
0.03930594 -0.20762832 -0.023733316 -0.33401763 -0.2507672 -0.2532639 0.06815784 -0.19653463
-0.110854395 0.13213803 -0.12164288 -0.06577166 -0.05779466 0.06833421 -0.2052601 -0.07426508
-0.06635007 0.031234378 0.13711895 -0.1869297 -0.17540649 0.051673565 0.04222484 -0.34005508
-0.48684075 -0.2297925 0.008294149 -0.23578028 -0.34787667 0.007302633 -0.24588922 -0.058130912
-0.027822375 -0.09341433 -0.11286273 -0.020880502 -0.12440763 -0.22856565 -0.32239783 0.0791683
-0.33164367 -0.059984572 -0.21486498 -0.072750546 -0.28939942 0.035037335 0.132714 0.16388704
-0.2742352 0.08833239 -0.0070305467 -0.29490143 -0.10567233 0.13848662 -0.10732797 -0.386246
-0.23219925 -0.22595173 -0.3360597 -0.3327631 -0.027595885 -0.048110895 -0.24862057 -0.20303205
-0.25932285 0.0967365 -0.67288136 0.12288606 0.3778029 -0.2273778 -0.33277112 -0.2524955
-0.37656718 -0.17355388 -0.07027096 -0.035225283 -0.33073124 0.043990083 -0.28292763 0.0022205152
0.2623635 -0.10820136 -0.30185035 -0.2612577 -0.1442009 -0.119109005 -0.21492267 -0.058166683
-0.2275671 -0.04068076 -0.10859083 -0.21156406 -0.075774185 -0.12721747 -0.20110193 -0.055998787
-0.11273605 -0.13089085 -0.028939193 0.018805696 0.053785093 -0.10414698 -0.11513159 -0.12266817
-0.0012797054 -0.0996949 -0.21114819 0.118814014 -0.104334526 -0.09895566 -0.16424195 0.18601587
0.016110798 -0.034748722 0.025362786 -0.34820744 -0.21943171 -0.10169885 0.14914958 -0.01674462
-0.15285055 -0.1937127 -0.2313611 -0.24326302 0.057110373 -0.007706201 -0.076164156 -0.24597955
-0.054229278 -0.010205829 0.084585935 -0.31148246 -0.36256874 -0.20803902 -0.13601853 -0.032748602
-0.074245274 0.021244172 -0.010018041 0.013233122 -0.2924051 -0.1755863 0.0851347 -0.032988865
-0.1028223 0.00083648245 -0.036569655 -0.14661527 -0.1899086 0.2666136 0.16158016 -0.27861333
-0.14838566 -0.23861326 -0.07519452 -0.08990204 -0.15093085 0.122662485 -0.18992418 -0.075494684
-0.1490056 -0.16298923 -0.22658032 -0.19035439 -0.15412411 -0.10644909 -0.066622585 0.28874812
-0.22179775 -0.18150711 0.29707944 0.026568249 -0.021414561 -0.2779933 -0.23671082 0.31759748
-0.14936465 -0.12217173 0.009816718 -0.020246115 0.06803156 -0.11276288 0.09444069 -0.13942641
0.02575786 -0.015072726 -0.044059463 -0.07801677 0.089820966 -0.29751903 -0.09938553 -0.27190143
-0.05060148 -0.08856192 -0.18773021 0.095725775 -0.16369705 -0.13558306 -0.27514413 -0.073343545
-0.18656746 -0.18212278 -0.08982814 0.08722207 -0.17659411 -0.19878058 0.100628175 -0.083218925
00000000: 628d e13d 000a 9abd 973f 79be 3bb1 babe
00000010: 0cb2 02bd a3e5 1ebe 5b7d 98be 5952 c1be
00000020: 1587 cfbd 5643 18be b2c0 92be 311a 06be
00000030: 42d9 23be 05c3 bd3d 244d 20bd 74d8 84be
00000040: c9fd 2abe 8bd9 e7bd e7f7 b73d 6cb6 eb3c
00000050: 00fb 803d 9637 2fbe 4d2d 37be c504 20bc
00000060: 95f8 41be 93fd b7be 06da 23be d155 083d
00000070: 1450 40be 2c98 a3be a2ff e4bd 1608 f73d
00000080: 6f24 9ebc a93a d2bd 63c4 833a bb61 1cbd
00000090: bfbe b5be 59c3 953c f630 cd3d 0fe8 10bd
000000a0: 97bf bdbe 4d1d 72be dad5 c9be ab8b 21be
000000b0: 7003 1dbe e178 d1bd 5cbd 12be bcdc 03bf
000000c0: 44ff 203d 859c 54be 5f6c c2bc 5c04 abbe
000000d0: 8f64 80be ceab 81be 5696 8b3d 6040 49be
000000e0: a107 e3bd 314f 073e e71f f9bd 4bb3 86bd
000000f0: 18ba 6cbd cef2 8b3d b42f 52be 4a18 98bd
00000100: 8ce2 87bd 3ddf ff3c e968 0c3e 806a 3fbe
00000110: c29d 33be a9a7 533d f4f3 2c3d b31b aebe
00000120: 3143 f9be ba4e 6bbe 2fe4 073c 6370 71be
00000130: e41c b2be ed4a ef3b 62ca 7bbe ae1a 6ebd
00000140: c0eb e3bc 0350 bfbd 9324 e7bd 960d abbc
00000150: 6dc9 febd 1d0d 6abe 5411 a5be fd22 a23d
00000160: 33cd a9be 62b2 75bd 9105 5cbe 3dfe 94bd
00000170: 292c 94be 4f83 0f3d 2ee6 073e 01d2 273e
00000180: 8e68 8cbe 9de7 b43d 8060 e6bb 52fd 96be
00000190: bc6a d8bd 70cf 0d3e c4ce dbbd 09c2 c5be
000001a0: a4c5 6dbe e45f 67be 0410 acbe ed5f aabe
000001b0: c410 e2bc ee0f 45bd 6496 7ebe a2e7 4fbe
000001c0: f7c5 84be c91d c63d f441 2cbf b0ab fb3d
000001d0: 626f c13e bad5 68be fa60 aabe 1747 81be
000001e0: 6acd c0be 1cb8 31be 39ea 8fbd 6348 10bd
000001f0: 9b55 a9be f22e 343d e4db 90be 1086 113b
00000200: 8254 863e ad98 ddbd 218c 9abe 92c3 85be
00000210: 67a9 13be 6cef f3bd b014 5cbe 3040 6ebd
00000220: 5a07 69be dea0 26bd de64 debd 40a4 58be
00000230: 7f2f 9bbd 4c45 02be aaed 4dbe fc5e 65bd
00000240: 28e2 e6bd 4008 06be e311 edbc 670e 9a3c
00000250: c24d 5c3d 034b d5bd 1cca ebbd 7339 fbbd
00000260: cabb a7ba d72c ccbd 3b37 58be c354 f33d
00000270: 57ad d5bd 44a9 cabd 0b2f 28be f27a 3e3e
00000280: cbfa 833c ad54 0ebd 9ec5 cf3c 3f48 b2be
00000290: b5b2 60be 7d47 d0bd abba 183e 032c 89bc
000002a0: db84 1cbe 9f5c 46be ede9 6cbe f119 79be
000002b0: 91ec 693d 4d84 fcbb f4fb 9bbd 10e2 7bbe
000002c0: 851f 5ebd 5936 27bc 643b ad3d a17a 9fbe
000002d0: 9ca2 b9be 2e08 55be 7148 0bbe 6623 06bd
000002e0: e80d 98bd 4208 ae3c b622 24bc bdcf 583c
000002f0: 1fb6 95be e5cc 33be 1a5b ae3d 551f 07bd
00000300: 7f94 d2bd 6347 5b3a 10ca 15bd 5022 16be
00000310: 6677 42be 9481 883e 4575 253e 68a6 8ebe
00000320: 69f2 17be 0957 74be 96ff 99bd 901e b8bd
00000330: 9e8d 1abe 7836 fb3d 7c7b 42be f59c 9abd
00000340: ed94 18be a6e6 26be ac04 68be 43ec 42be
00000350: b6d2 1dbe fb01 dabd 6c71 88bd cbd6 933e
00000360: f31e 63be 00dd 39be cc1a 983e a8a5 d93c
00000370: 976d afbc 2355 8ebe 5264 72be 239c a23e
00000380: 0cf3 18be 2c35 fabd 4dd6 203c 2edb a5bc
00000390: 2154 8b3d 3af0 e6bd 1f6a c13d ccc5 0ebe
000003a0: 2602 d33c 98f3 76bc b277 34bd 42c7 9fbd
000003b0: 0ef4 b73d 6a54 98be a48a cbbd aa36 8bbe
000003c0: 7f43 4fbd f45f b5bd 593c 40be e00b c43d
000003d0: 33a0 27be 49d6 0abe b1df 8cbe 2435 96bd
000003e0: 8a0b 3fbe 657e 3abe d1f7 b7bd 7ca1 b23d
000003f0: 16d5 34be 238d 4bbe 2516 ce3d af6e aabd

fc.weight f4 [4, 128]
0.3937278 1.2079624 0.27129984 0.32824108 -0.4680723 -0.09001719 0.03914404 -0.45311794
-0.7521584 -0.9456015 -0.4269204 -1.0423288 0.19471632 -0.87650836 -0.06731444 0.40450314
1.25088 -0.85980856 0.24078727 -1.0877385 0.07578673 0.29273984 0.53932476 -0.7907409
0.8016629 0.17737767 0.33968884 0.19314916 0.013868778 0.33909273 -1.0075577 -0.45488507
0.46726912 0.1615742 0.38399768 -0.6372945 -0.45915696 0.2075326 0.5009309 0.48385543
0.63166803 -0.2627811 -2.0657682 0.3400377 0.0031891267 -0.0949801 0.9503582 0.32009146
-1.0431886 -0.017402895 -0.56046623 -0.3394078 0.79322886 -1.2950609 -0.13004874 1.2536577
0.25717205 0.47680843 0.35234284 -0.5451914 0.53814244 1.1461002 -0.11640302 -1.4094479
-1.5011921 -0.83243287 0.23136517 0.29950786 0.06372793 0.26146847 0.1903569 0.1268328
-0.4181733 -0.47643125 0.038085587 -0.044893842 0.009445271 -0.0122485515 0.6125746 -0.11710366
0.44497746 0.3892471 0.13882303 -0.40000933 -0.97332025 -0.36481568 0.21428128 -0.29776484
0.82909185 -1.2081687 0.33145088 -0.09975285 -0.08967657 -0.47555155 -0.12185544 -0.40193707
-0.008412988 0.46009603 -0.3469004 -0.07844691 -0.47424072 -0.31552234 0.2658394 1.0326879
0.30361205 -0.58097684 -0.22359845 0.55051714 0.6066939 -0.793184 -0.6186162 1.4369537
-0.14671318 -0.43900862 0.657202 0.21011041 -0.44965395 -0.21878466 -0.119137675 0.77970254
-0.2154012 -0.0070847324 0.10352503 -0.14095832 0.4020764 0.25744146 -0.17953941 -0.12107806
-0.25594157 -0.064132854 -0.3127734 0.9597462 -0.962179 -1.0811104 0.59096944 0.23319632
-0.591436 0.3709464 0.029843485 -0.24931471 0.05425825 0.2294318 -0.08161768 -0.13386132
-0.09476109 0.11090949 0.21704678 0.058589075 0.71469647 -0.24780902 -0.25392726 0.0076522254
-0.11151269 -0.1647527 0.86494505 -0.46050167 -0.35865045 -0.069817424 0.029109593 0.12984662
-0.058492657 -0.7066103 0.035072565 -0.2173011 -1.0505745 0.39567763 -0.15005046 -0.14778942
-0.33142504 0.057159983 -0.017788073 0.19757591 0.3062209 0.48671246 0.08790682 -0.010279947
-0.10254645 0.058622796 -0.67959905 0.19109024 -0.37830937 0.0600084 -0.42069215 0.06792066
0.07778318 -0.12423844 -0.23900114 -0.3399928 -0.29188907 0.3655554 0.40913883 -0.01963111
0.2387824 0.237985 0.16874482 0.19442897 -0.6758032 0.026129842 -0.03311181 0.049870867
-0.15917507 -0.86669177 -0.06495318 -0.3848308 0.533735 0.24577193 0.030697467 0.24723653
0.9646463 -0.464808 0.42287475 -0.8060117 -0.12727657 0.3032039 0.598363 -0.27772942
-0.062188875 0.12329928 -0.15810193 -0.15467878 0.37114972 0.14369419 0.15135492 0.121787615
-0.5017134 -0.21812735 0.47944862 -0.67920625 0.006379349 -0.048046783 -0.5702656 -0.064724214
-0.16975018 0.031806048 -0.034529164 -0.14679769 -0.20891528 0.30691707 0.06741323 -0.21666996
-0.54675 -0.20613076 -0.13923205 -0.2619378 0.36426932 -0.27622035 0.076894835 0.009901416
0.19441973 0.53446 0.16915908 -0.14253633 0.14573626 0.6231544 -0.12962295 -0.1469342
00000000: b196 c93e 839e 9a3f d0e7 8a3e 370f a83e
00000010: 2ca7 efbe ef5a b8bd 8055 203d 13ff e7be
00000020: 748d 40bf f112 72bf 5095 dabe 086b 85bf
00000030: b763 473e da62 60bf 27dc 89bd 091b cf3e
00000040: d61c a03f 6a1c 5cbf f090 763e 043b 8bbf
00000050: 1336 9b3d ffe1 953e 3011 0a3f ff6d 4abf
00000060: c839 4d3f 7ea2 353e b2eb ad3e e5c8 453e
00000070: df39 633c 909d ad3e a7f7 80bf b2e6 e8be
00000080: e63d ef3e b573 253e 589b c43e bb25 23bf
00000090: 9f16 ebbe 6d83 543e 023d 003f e6bb f73e
000000a0: ffb4 213f 3f8b 86be 8c35 04c0 6c19 ae3e
000000b0: ab00 513b ed84 c2bd ad4a 733f 07e3 a33e
000000c0: 3487 85bf 8490 8ebc b77a 0fbf dcc6 adbe
000000d0: 0c11 4b3f 8ec4 a5bf 7f2b 05be db77 a03f
000000e0: 0eac 833e 3c20 f43e 4866 b43e aa91 0bbf
000000f0: b4c3 093f 69b3 923f b564 eebd ca68 b4bf
00000100: 1027 c0bf 521a 55bf feea 6c3e 1859 993e
00000110: ca83 823d 32df 853e ebec 423e 75e0 013e
00000120: d01a d6be ccee f3be a2ff 1b3d 9be2 37bd
00000130: 57c0 1a3c 26ae 48bc b0d1 1c3f 0bd4 efbd
00000140: 16d4 e33e 654b c73e a027 0e3e 06ce ccbe
00000150: 842b 79bf 1fc9 babe 8d6c 5b3e a274 98be
00000160: 5d3f 543f 46a5 9abf eeb3 a93e 394b ccbd
00000170: 59a8 b7bd 7e7b f3be 588f f9bd b2ca cdbe
00000180: a1d6 09bc b591 eb3e ee9c b1be c6a8 a0bd
00000190: aecf f2be 258c a1be 1a1c 883e 1e2f 843f
000001a0: 0a73 9b3e e6ba 14bf fef6 64be b1ee 0c3f
000001b0: 4b50 1b3f 1b0e 4bbf a25d 1ebf 19ee b73f
000001c0: fb3b 16be bdc5 e0be 643e 283f 2f27 573e
000001d0: 0b39 e6be 1609 60be 74fe f3bd 969a 473f
000001e0: 2292 5cbe 0b27 e8bb ee04 d43d 6157 10be
000001f0: f5dc cd3e 5ecf 833e 2ed9 37be c6f7 f7bd
00000200: c60a 83be 1658 83bd d623 a0be edb1 753f
00000210: 5d51 76bf d361 8abf c649 173f 04cb 6e3e
00000220: 5a68 17bf b0ec bd3e 537a f43c 5b4c 7fbe
00000230: e63d 5e3d 2bf0 6a3e 2c27 a7bd f112 09be
00000240: 1a12 c2bd 8424 e33d 8341 5e3e 19fb 6f3d
00000250: 59f6 363f a6c1 7dbe c102 82be 85bf fa3b
00000260: c460 e4bd efb4 28be 0a6d 5d3f e0c6 ebbe
00000270: 08a1 b7be 70fc 8ebd 3e77 ee3c 83f6 043e
00000280: ff95 6fbd 6ae4 34bf 40a8 0f3d 2e84 5ebe
00000290: 3a79 86bf 4296 ca3e d4a6 19be 1c56 17be
000002a0: 8bb0 a9be 9620 6a3d 4bb8 91bc 5751 4a3e
000002b0: fcc8 9c3e 6032 f93e 7e08 b43d 396d 28bc
000002c0: e003 d2bd 751e 703d 34fa 2dbf 29ad 433e
000002d0: c4b1 c1be 5ecb 753d f664 d7be fd19 8b3d
000002e0: ca4c 9f3d b970 febd b7bc 74be 8913 aebe
000002f0: 7c72 95be 142a bb3e a57a d13e 6cd1 a0bc
00000300: 6083 743e 57b2 733e 71cb 2c3e 6318 473e
00000310: 7001 2dbf 400e d63c 40a0 07bd 6545 4c3d
00000320: cafe 22be 83df 5dbf 2c06 85bd 8b08 c5be
00000330: dba2 083f a3ab 7b3e 4179 fb3c 932b 7d3e
00000340: 0ff3 763f 50fb edbe 0a83 d83e c856 4ebf
00000350: ca54 02be 8b3d 9b3e 512e 193f 8d32 8ebe
00000360: c3b9 7ebd 5584 fc3d 79e5 21be 1d64 1ebe
00000370: 5607 be3e 9224 133e c9fc 1a3e c96b f93d
00000380: 4a70 00bf c75c 5fbe 4a7a f53e 76e0 2dbf
00000390: dc09 d13b b4cc 44bd edfc 11bf 218e 84bd
000003a0: fed2 2dbe 0f47 023d 746e 0dbd 2252 16be
000003b0: e3ed 55be 3c24 9d3e f30f 8a3d bbde 5dbe
000003c0: cff7 0bbf f113 53be d992 0ebe b61c 86be
000003d0: 8281 ba3e c16c 8dbe 0a7b 9d3d 8c39 223c
000003e0: f715 473e 5fd2 083f 0a38 2d3e 0bf5 11be
000003f0: e33b 153e 0c87 1f3f e1bb 04be eb75 16be

fc.bias f4 [4]
-0.035948176 -0.046413463 0.0074714595 -0.05385823
00000000: 653e 13bd 0b1c 3ebd 25d3 f43b 739a 5cbd
