LSTM/Data_2/LSTM4/model.pth (torch, 275939 bytes, 6 tensors)

lstm.weight_ih_l0 f4 [512, 3]
00000000: 438d 24be e773 debd c8ef 05be fc16 58be
00000010: 6de1 fcbd f453 503e c2fe 6c3e a3d2 32be
00000020: ad08 babe b076 6cbd 5a34 7f3e b281 5cbd
00000030: 37e6 d6bd 9313 4dbd 20b1 44bb 9368 5ebe
00000040: 0238 95bd 1976 c9bd f728 9fbe 8006 62be
00000050: 05cd 77be 6b3d 603d c216 e6ba 5bcf 7f3e
00000060: b78d 9bbd 2fe2 9dbe 839a b6bd c660 a8be
00000070: e3c5 4bbe 0fcd 8cbe cc56 dcbd 1b73 b2be
00000080: 98c6 95bf 8105 32bf 7109 02be fece 0fbe
00000090: bdb1 40be 9311 9b3c ac72 82bd 607d ddbe
000000a0: 2df1 c9bb 7401 13be d176 54be 5ce7 cabe
000000b0: 96ef 0dbf 41a8 80be 44a4 febe 4542 e4be
000000c0: 7233 c2be 1576 b1be d892 d1be 7268 2bbd
000000d0: 993f febd 5267 95be 14db 83be c661 77be
000000e0: eaa9 a8be f8ce 183d f488 6dbe a9a5 0ebf
000000f0: b11d ecbc 1fd6 30be 6634 84bf 3ce8 4abe
00000100: f90c 39be 14e1 aebe 055b d6bd 6cda f53c
00000110: 4ed8 57bd 5158 4e3e e410 36be eaa2 fabc
00000120: af8b 4fbd 1ca5 163d f08c 3b3e a091 02be
00000130: ce30 eb3c 077a 97be 48e5 153e 20d8 583e
00000140: 3483 e3be 1120 8dbe 96b5 65be 5c04 2c3e
00000150: e91f abbd 924a d23d 6286 57be 8b44 44be
00000160: 9a97 9f3d 24a8 b43d 3101 c0be bcf6 2e3e
00000170: da80 eb3e 863a 8f3e 0446 6abd 3380 04bd
00000180: 6163 0c3e 624d 963c 4ed3 ad3e d4be ddbe
00000190: eec7 ffbe b2ad e1be 11da e3bd c909 0b3d
000001a0: 64e9 b93e b698 c13d 854f 553d 4543 92be
000001b0: 2893 cc3d e42c 9ebe c4d0 5abf 3842 babe
000001c0: d26d 67be 4c4b 873e 5af7 d3be ce45 1ebc
000001d0: 94b4 a53d fc98 1f3e f55f 893e 8707 73bd
000001e0: 49f4 08be a3ba 86bc 419c 2b3c a2d2 b33a
000001f0: 60ce afbd 4ade 9ebe c3d3 e53d e407 f5bd
00000200: 8e38 8bbe 6b91 4a3e cf32 13be 11ad 73be
00000210: 6533 c93d 5d17 b93d 281b 01be 0ca4 143c
00000220: 3fcb fb3d 3590 e53d 309f 0a3e e74b 6abe
00000230: 6c41 15bf bf24 4e3e 4ec1 91bd 5550 9c3d
00000240: 89c6 04bf ebfa fcbd 2b11 053e dd6b 98be
00000250: ead9 d4be 1da0 7ebe 66f8 0f3f d633 d03e
00000260: 1dde 823e ba8c 9dbe 1df3 b43e ee82 d63e
00000270: 72a2 82be 6cd8 fbbd 499d 48bd c10c 62be
00000280: e24d 29be db43 07bf 1200 88be 6e0b 1bbd
00000290: 70f3 9fbd ffa3 a33e deb2 4f3e 3dbd 2dbd
000002a0: cf5f 12bf 5ef6 23be 8a3b 82be fd46 0a3e
000002b0: 7531 533d de2d 74be 0be8 1fbe 921b 963d
000002c0: 823d a03d f06b 6c3c 9799 b53c d4b5 aabe
000002d0: 7ba9 c7be 8bab a1be e8cb 75be ec66 5ebe
000002e0: e7be 073e 8236 0c3f 6060 8c3d 2757 54bd
000002f0: 9303 59bd 78ab ea3d ee7b 883e ceab 9f3d
00000300: 9be4 50bf 942b 41be d7d2 3cbb af15 adbd
00000310: 99dc 013e 9743 40bd a30a 2ebe 706a 8dbe
00000320: f2be c3be 8361 afbe 6124 133e bdc5 463e
00000330: 408e 43bd 0cc9 0b3e a978 a73e bd7e 61bf
00000340: 7cf6 373b 149f acbe 2293 c1bc e990 273d
00000350: 90fe 863d 4c71 e0bf 6726 853f b93b 3a3e
00000360: 1a3b 0e3e f79a eb3d ea7e 183e 196f fdbe
00000370: a198 8fbe 9f16 90bc 9940 3ebe 7dc3 963c
00000380: fd0b 6ebe a460 9a3d 140e 5b3e 77a7 8fbd
00000390: 5405 8a3e c6e4 2b3e c040 b13e df81 b23e
000003a0: 0115 c8bd a1d2 43be 6deb 1abd 21b3 dbbc
000003b0: 31ab b8bd 6972 51bd c162 5c3e 0c98 1f3f
000003c0: 1c9a 58bf 6ccc 3c3a 4fec 88bd 741a 56be
000003d0: c788 f0bd 0cef e5bd 438a 78bd 6442 2dbe
000003e0: 297d 423e bc4f 98bd 5501 a43e 42f6 e33e
000003f0: 05a7 5abf a4b4 193e bd63 8d3e 29a8 07be
-0.16069512 -0.1086195 -0.1307975 -0.21102518 -0.12347684 0.20344526 0.23144057 -0.17463164
-0.36334744 -0.057730377 0.24922314 -0.053834625 -0.10493129 -0.050067496 -0.0030012801 -0.2171958
-0.07286073 -0.098369785 -0.3108594 -0.22072792 -0.24199302 0.054746073 -0.001755439 0.24981444
-0.07595389 -0.30836627 -0.089161895 -0.32886332 -0.19899707 -0.27500197 -0.10758743 -0.34853444
-1.1701231 -0.6953965 -0.12698914 -0.14043805 -0.18817802 0.018929278 -0.06369528 -0.43259716
-0.0061627836 -0.14356023 -0.2074845 -0.39629638 -0.55443704 -0.25128368 -0.497347 -0.4458181
-0.37929875 -0.34660402 -0.40932345 -0.041847654 -0.12414474 -0.2918039 -0.2575308 -0.24158391
-0.32942134 0.037306756 -0.23196775 -0.5572153 -0.028822752 -0.1726918 -1.0328491 -0.19815153
-0.18071355 -0.34156096 -0.10466579 0.030011378 -0.05269652 0.20150878 -0.17779881 -0.030595262
-0.050670322 0.036778554 0.18315482 -0.12750864 0.028709795 -0.29585287 0.14638245 0.21176195
-0.44436038 -0.27563527 -0.22432551 0.16798538 -0.08355696 0.102681294 -0.21047357 -0.19166772
0.077925876 0.08821133 -0.3750091 0.17086309 0.45996743 0.27974337 -0.05719568 -0.032348823
0.13709785 0.018347446 0.33950275 -0.43309653 -0.49957222 -0.44077832 -0.11125577 0.03394488
0.36310875 0.094529554 0.05207779 -0.28566948 0.09989005 -0.30893624 -0.854748 -0.36378646
-0.22600487 0.26424634 -0.41399652 -0.009660197 0.08091083 0.15585703 0.26831022 -0.05933335
-0.13374437 -0.016446417 0.010474266 0.001371939 -0.08584285 -0.31028968 0.11222031 -0.11964396
-0.27191585 0.19782035 -0.1437485 -0.23796488 0.09824256 0.09037659 -0.12608016 0.009072315
0.122946255 0.11209146 0.13537288 -0.22880517 -0.5830295 0.20131205 -0.07116948 0.076325096
-0.5186544 -0.12352546 0.1299483 -0.29769793 -0.41572505 -0.24865766 0.562384 0.40664548
0.25560084 -0.30771428 0.3534173 0.41896766 -0.2551456 -0.122971386 -0.048978124 -0.22075178
-0.16533616 -0.52837914 -0.26562554 -0.037852697 -0.07810104 0.31961057 0.20283076 -0.0424168
-0.5717744 -0.1601195 -0.2543605 0.13503642 0.051560838 -0.23845622 -0.15615861 0.07329477
0.07824232 0.014430031 0.022167964 -0.3334185 -0.3899649 -0.3157619 -0.24003565 -0.21718949
0.13256417 0.5477067 0.068543196 -0.051840927 -0.052981924 0.11458486 0.2665705 0.07796441
-0.81598824 -0.1886428 -0.0028812194 -0.084514014 0.12681808 -0.04693946 -0.16996245 -0.27620268
-0.38231617 -0.34254083 0.14369346 0.19411369 -0.047743082 0.13650912 0.32709244 -0.8808401
0.00280705 -0.33715117 -0.023629729 0.04090968 0.06591523 -1.7534575 1.0402344 0.18186845
0.13889733 0.115041666 0.14892164 -0.49498823 -0.28046134 -0.017588912 -0.1857933 0.018403763
-0.2324676 0.07537964 0.21392089 -0.07014363 0.2695719 0.16786489 0.34619713 0.3486471
-0.09769631 -0.19123317 -0.037822176 -0.026818814 -0.09017027 -0.0511345 0.21522047 0.6234138
-0.8461015 0.0007202092 -0.06685697 -0.20908529 -0.11744838 -0.11227235 -0.06067873 -0.16919857
0.18993057 -0.07437083 0.32032266 0.44523817 -0.854111 0.15010315 0.27615157 -0.13247742

lstm.weight_hh_l0 f4 [512, 128]
00000000: 2d55 1ebe 0e1e 94be f922 94be 4cef 15be
00000010: 7ffa 473e e46a 04be 416f 8f3d 352d f7bd
00000020: 87be 13bd 7ba3 06be f984 4abe 5dea 13be
00000030: ddb4 2dbe 33b8 e6be db7a 943e 9e78 52be
00000040: bd9d ac3d b270 7c3f 77cd 763d 2afc 113d
00000050: d9bc 803e 2591 abbe a3e3 103f be41 d03d
00000060: e36e 86be 6b80 523d 915c ef3e 2594 b4be
00000070: bbdf 36be 2133 c63c f0c8 ba3c d410 58bc
00000080: 96fa 75be 985f 09be a083 0c3d 85e3 783e
00000090: c30d 3dbc 44f3 99be 1b16 a83e ed5d 9a3e
000000a0: 09ce be3c 9ee4 34bc 1125 5fbd 5358 b83e
000000b0: 9bdd b3bc 350c a33e 85da 923b ffd4 a0be
000000c0: d421 033e de26 8fbd 1ba9 49be a734 71bd
000000d0: 5cd3 ed3c 3a85 293e 7151 0d3c 2561 d33d
000000e0: 8491 5c3d aa57 063e c284 aebd fc7d 6e3e
000000f0: 6700 933c b364 d9bd 44e1 e1b6 74cd 9fbe
00000100: ca2a ad3e f55b 88bd ef66 c53d a7b6 403c
00000110: d958 223e f769 dabe 296f c43d d38e b03d
00000120: 7f49 e33d 8a78 893e a169 81be 483c 15bf
00000130: 8b6d 38bd eab8 ed3b 715b 12be f861 d23e
00000140: 7fcf 703b 4cac c23d 9041 013f 6cad b5bc
00000150: b1d0 9b3e d3c6 93be 77cf fc3e da12 edbc
00000160: 474f e73d 7fe5 1d3e cce7 abbe 1dad 763e
00000170: 8b5b 6bbe 065d 62bf 5e37 a93e d856 653d
00000180: 721c f03e 826d 513e 1594 113e d127 97bc
00000190: 454f ce3e e419 0d3e fcfc db3e ffe2 8fbe
000001a0: d888 c23e 2576 663e 0519 b5be dbe7 8f3e
000001b0: 3786 5fbe 887e 14bd 7038 b73e db5e d2bd
000001c0: a181 b8be 528e b83e 93bb 133e 6ba1 8d3c
000001d0: cddd 6b3e 2a14 923d ad0f 5dbe 2b9f 703e
000001e0: 4f79 82bd dd75 a3be 9a25 44bd 43c3 023e
000001f0: d89e aabe b1df 763e 2309 b8bd 9ced a6be
00000200: 5389 193e 6d54 a2be 058d d73e aca6 fbbd
00000210: 6f18 7bbd 6bdf 483e 7146 0e3f 2ba3 be3e
00000220: 8d7a 943e 3240 5fbd 2bd2 213d bc56 1abe
00000230: b557 11bf ec64 83be f03c 453e 496f 82be
00000240: 5664 1cbe 3901 313e f205 063d f77a 853e
00000250: 2b7a 90be 1ac7 8d3d 3032 bebd 1b67 783e
00000260: 82b2 813e 006b 213e f324 55bd a4ed 8cbc
00000270: 3621 2a3e fef3 d53c 7fce 963e 610d 29be
00000280: cdc3 2b3e 932b 7fbe 91e3 973e 76ba 213d
00000290: b611 6fbe d8c2 803e b58f b53c e8ea 69be
000002a0: 34a1 93be af22 be3c c54c 82be b0ee 963d
000002b0: d145 abbe 04e5 01be caa0 c43d 252c 223d
000002c0: 826c 543e 86a1 93be 189e b6be e6f7 573c
000002d0: c5e2 803e ad41 cf3d 96cb 7ebe f466 a3be
000002e0: 778e 873e 3746 3b3d bb55 ac3e 768f 83bd
000002f0: 22fb b7be 4039 0a3f d6c7 cbbd c6c1 a7be
00000300: 935f 8b3e 4c2b 05be ad02 fd3d fdc8 27bd
00000310: 2e32 debe 19f1 88bd 216f a53e e1cc 95be
00000320: b4f5 583e 1902 af3e 8b28 993d fb02 f7be
00000330: ac22 793e c428 76be 5b17 a8bd a22b debc
00000340: 3636 8abe b723 22be 6090 b63d 2955 893d
00000350: a09d 68be 58df 873d 0bbe aebd 2979 e5bd
00000360: e5c5 21be 6e7e 42be f593 853d 0ff5 923e
00000370: c238 cbbd fff3 933e f23c 85be 29ff 80be
00000380: bd9d 17be e4e7 cb3e 9928 f23d d8ea 13be
00000390: 849d 55be e3f5 30be 2d3a acbe 16f5 19bd
000003a0: 5de9 ee3d 1664 8f3e a372 01be 548f 623e
000003b0: 3dd7 83be c3e0 71be bfc4 283c 0bdb 88bd
000003c0: 9d88 adbd 4397 93bd 16cc a1bd 2d83 703e
000003d0: 1f12 cf3d c8eb afbe 67a8 2ebe 35c5 3c3e
000003e0: d928 08be c40a c03c bd0d 033e 7492 a83e
000003f0: 9557 72bd d71a 06bd cf9f e8be 11b7 9c3d
-0.1546218 -0.2892918 -0.28932932 -0.14642066 0.1952915 -0.129314 0.07003642 -0.120691694
-0.036070373 -0.131483 -0.19777288 -0.14444871 -0.16963525 -0.45062408 0.2899998 -0.20553824
0.08428524 0.9860946 0.06025454 0.035640873 0.2514408 -0.33509174 0.56597346 0.10168789
-0.26256475 0.051392 0.4675031 -0.35269275 -0.17858784 0.024194302 0.022800893 -0.013187606
-0.24021372 -0.13415372 0.034305215 0.24305542 -0.011538926 -0.3006841 0.32829365 0.30149785
0.023291605 -0.011040835 -0.05447871 0.36004886 -0.021956256 0.3184525 0.004481616 -0.31412503
0.12805873 -0.06989835 -0.19693415 -0.058888104 0.029031448 0.16554728 0.008625374 0.10321263
0.053849712 0.13119379 -0.08521415 0.23290247 0.017944528 -0.1061491 -6.731747e-06 -0.31211436
0.33821708 -0.066581644 0.09638774 0.011762298 0.15854205 -0.4265897 0.095915146 0.086209916
0.11098003 0.26849777 -0.252759 -0.58295107 -0.045026343 0.0072547095 -0.14292695 0.4109037
0.003674477 0.09505519 0.50490665 -0.02217742 0.30432656 -0.28862628 0.49377033 -0.028939653
0.11294418 0.15419577 -0.33575284 0.24089475 -0.2298414 -0.8842319 0.33050054 0.055991024
0.46896702 0.2045193 0.14216645 -0.018451603 0.40294853 0.13779408 0.4296645 -0.28102872
0.37995028 0.22506006 -0.3537065 0.2810658 -0.21828543 -0.036253482 0.35785246 -0.102719985
-0.360364 0.36046082 0.14427023 0.017288884 0.23033829 0.07132752 -0.21588011 0.23498218
-0.06370794 -0.3192586 -0.047887422 0.12769799 -0.33324313 0.24108769 -0.08986118 -0.32603157
0.14993791 -0.31705037 0.42099777 -0.122876495 -0.0613026 0.19616477 0.55576235 0.37233862
0.2899975 -0.05450458 0.039507072 -0.15072149 -0.56774455 -0.25662935 0.19261527 -0.2547553
-0.1527265 0.17285623 0.032720514 0.26070377 -0.28218207 0.06922741 -0.09286916 0.24258082
0.25331503 0.15763474 -0.05203719 -0.01720316 0.16614231 0.026117321 0.2945442 -0.1650901
0.16773911 -0.24918966 0.29665807 0.039484464 -0.233466 0.25148654 0.022163251 -0.22843516
-0.28833926 0.023209898 -0.25449196 0.07369745 -0.33451703 -0.12685019 0.096009806 0.03959288
0.20744517 -0.2883417 -0.3566749 0.013181662 0.2517301 0.101199485 -0.2488235 -0.31914485
0.2647588 0.04572126 0.33659157 -0.064238474 -0.35933787 0.53993607 -0.09950225 -0.32765025
0.27221355 -0.13004798 0.12354026 -0.04096316 -0.4339766 -0.06686611 0.32311347 -0.29257873
0.21187478 0.34181288 0.07478436 -0.4824446 0.24329633 -0.24038988 -0.0820758 -0.027120415
-0.26994485 -0.15833937 0.08914256 0.06705696 -0.22716379 0.06634396 -0.085323416 -0.1120475
-0.15798147 -0.18993542 0.06522361 0.2870259 -0.09922935 0.28897092 -0.2602306 -0.25194672
-0.14806266 0.39825356 0.1182415 -0.14445055 -0.20860869 -0.17281298 -0.33638135 -0.037587248
0.11665604 0.28006047 -0.12641387 0.22124988 -0.2575015 -0.23620896 0.010300814 -0.06682404
-0.084733225 -0.07206585 -0.079002544 0.2348754 0.10110878 -0.34359574 -0.17056428 0.18434604
-0.13296832 0.023442633 0.1279821 0.32924235 -0.059165556 -0.03274044 -0.45434424 0.07652105

lstm.bias_ih_l0 f4 [512]
00000000: 36fc 77be 4df5 89bd ed2d abbd 87c1 ea3d
00000010: e86e 80bd 850a 91bd 8580 61be b5da f03b
00000020: 7886 2cbe 42a3 b7bd 84f7 78be a115 19be
00000030: a0f4 01bd a532 8fbe 8bb1 8cbe e914 01bf
00000040: d770 acbe 8b2e c0bc caa8 98be c41e 92bd
00000050: 5b4a 10be 2de2 87be bb0c 4fbd 4b22 c0bd
00000060: a53a 80bd bc89 463c 58f7 3f3e dce1 84be
00000070: 37fa acbc 8a4b d4bd 8ba9 a2bc f70c 323e
00000080: bfcb 4f3d 3eef c4be ec73 94bc 21b6 53bd
00000090: 79f3 66bd 6e14 55be 255e 9fbe 0353 563e
000000a0: 18bc b8bd e392 65be 7a3d c8bc e67f 553d
000000b0: 48c4 f3bc 41e3 80bc 3129 02be c30a e73c
000000c0: 0c67 90be a8c3 5cbe f89b a23e dcd8 c13d
000000d0: 5444 13be 3dea 77be 3063 1fbe 7a2e 523e
000000e0: fbf6 91be 55e7 d93d 6bd8 c73d 4f0a 0dbe
000000f0: 8e9a f8be 1015 34bb adc5 61bd 5c5b 563e
00000100: 6e22 8ebe aec1 5d3c a2a2 acbe 62d3 17be
00000110: 5d4c cd3c 2b67 98be 2fbf f3bd 3c39 0e3e
00000120: 6335 c43d 1e0b c3be 7550 85bb 775c 3f3e
00000130: 5e3f e43d ef3e 1c3e 0f5c 60bd 6bbc 443d
00000140: d5f6 bebe b9b6 ed3c 1c77 0cbd a11d d13d
00000150: 1036 43be f757 a2bd ae0a 473d 6567 77be
00000160: dea1 95be 922b 85bd 381f 803d 86c0 17be
00000170: 35a3 dabd 47a2 cb3d 37f5 06be 2e2b fdbd
00000180: 7e1c 243e 9ec8 b5bc 05a3 33be 1de5 a2bd
00000190: 472e 1fbe 3ed9 8b3c f604 8abd adb2 d5be
000001a0: 8a1f 26be e4fe 203e 9332 27be 7e04 bdbe
000001b0: aea1 093e bf62 d9bd 8849 ee3d 136c 65be
000001c0: ad99 74be 425b a6bd d312 c2be c2d0 18be
000001d0: af4e c6be 6273 f8be 2086 59bc d3ac 71bd
000001e0: 95a6 8abd bf5d 73be 28af cfbd 4304 eabe
000001f0: 881b db3d 1956 04bf b7c1 0ebd 0c2b 333d
00000200: a980 79be 7ece a8bc cea7 593c 0bc5 ed3d
00000210: fdf4 13be 5092 17be 4c31 1dbe e6ff 6d3c
00000220: 9e4e 08be dbf9 44be 3a31 efbd 0504 b9bd
00000230: 995f 7cbd 2c8d b6bd 59ee 1cbe 7153 afbd
00000240: 8eea 79be cec1 88bd ea54 4dbe 1581 9dbd
00000250: 6a5c 4bbe 28d6 5ebe 26ad e03b 25b6 01be
00000260: 5ce0 fa3a aab0 57bd 3f64 f33d e698 aebe
00000270: 3759 acbd 758f 55be 459d 3dbd f595 f83c
00000280: c5a4 f63d d7f4 71be 756c 45be 261d 253e
00000290: 1e42 47be 9c79 7cbe a0da a2be 8abd 453e
000002a0: 6548 42be 5738 2bbd 5d3a 02be 1d20 23bc
000002b0: 1055 59bd b9da e93a c0c3 a53b 893f 5fbe
000002c0: 6176 9bbe 6cac 17be 489f 043f 5e3a 023e
000002d0: 162f c3bd 64c1 52be 026a 97bd a07f 293e
000002e0: af2c 14be 413e 163d 91da 593d cad4 99bc
000002f0: aa92 41be 4359 72bd f319 a6bd 1cd0 3c3e
00000300: 5a32 19be 46ff dcbd 8de0 dfbd db48 4c3d
00000310: b7af 273d b2fb 80be e6d2 2ebe e61d 24be
00000320: e2e2 423d 3d0a 69be 24d2 aa3c 1940 ac3e
00000330: 068f 5a3e 08db a13d 47e0 42bc 3439 2fbd
00000340: 7165 67be f652 81bd 4657 39be a558 193d
00000350: 9c1a 05be e32d 993d 26b8 083e 593c 40be
00000360: 253b 46be e38f 87be fa70 8cbc 5f45 64be
00000370: 688f 3d3d 9c57 273d b2fa 133c eef4 83bc
00000380: e7ac 963b cbf3 fbbd 699b 06be 5ad7 26be
00000390: b355 a4be 607b d3bd e868 b8bd dbc8 61be
000003a0: 1fd8 16be 6680 a7bc 69ff 74be 5f3a 0fbc
000003b0: 41fa 9e3e 52eb 683c e4a1 273d 2933 45be
000003c0: 4174 82be 691e 88bc cf6f 66be 6ada 1c3d
000003d0: c4db 8dbe b1cd 41be acbf 65bd cf13 0c3e
000003e0: 6345 533e 3664 8dbe 8806 9dbd 4d3c 39be
000003f0: 3969 ff3d 3029 5cbe c4e6 e9bd a1f6 abbb
-0.24217305 -0.067362405 -0.08358369 0.11462694 -0.06271154 -0.070820846 -0.22021683 0.0073502907
-0.16848171 -0.08966686 -0.2431317 -0.14949657 -0.031727433 -0.27968326 -0.27479205 -0.5042253
-0.3367984 -0.023459693 -0.29816276 -0.07134774 -0.14090864 -0.26539746 -0.05054925 -0.09381541
-0.062611856 0.012117799 0.18746698 -0.25953567 -0.021115405 -0.103659704 -0.019856235 0.17387758
0.050731417 -0.38463777 -0.018121682 -0.051687364 -0.056384537 -0.20808575 -0.31126514 0.20930104
-0.09020251 -0.22419314 -0.024443377 0.052123927 -0.02975668 -0.015733363 -0.12711026 0.028203374
-0.2820362 -0.21559012 0.3175962 0.09465191 -0.14381534 -0.24210449 -0.15565181 0.20525542
-0.28508744 0.10639826 0.09758075 -0.13773464 -0.48555416 -0.0027478375 -0.05512016 0.20933288
-0.27760643 0.013534946 -0.3371783 -0.1482673 0.025060827 -0.2976621 -0.119017 0.1388902
0.09580495 -0.3809442 -0.004068429 0.18687616 0.11144899 0.15258382 -0.054775294 0.048031252
-0.37297693 0.029017793 -0.03429328 0.102107294 -0.19063592 -0.07926934 0.04859417 -0.24160536
-0.29225057 -0.06502451 0.062559545 -0.14819536 -0.106756605 0.09943061 -0.1317948 -0.123617515
0.16026494 -0.022190388 -0.17542656 -0.07953856 -0.15544997 0.017071363 -0.067392275 -0.4173788
-0.16222969 0.15722233 -0.16327886 -0.3691749 0.13440582 -0.106145374 0.11635119 -0.22404508
-0.23886748 -0.08122875 -0.37904987 -0.14923385 -0.38731906 -0.4852553 -0.013276607 -0.05900271
-0.06770054 -0.2376623 -0.1014083 -0.45706376 0.106986105 -0.51693875 -0.03485271 0.043742225
-0.24365486 -0.020606276 0.013284637 0.116098486 -0.14448924 -0.14801908 -0.15350837 0.014526343
-0.1331124 -0.19235937 -0.11679311 -0.0903397 -0.061614607 -0.08913645 -0.15325297 -0.08560837
-0.24405882 -0.0667759 -0.20051923 -0.07690636 -0.19859472 -0.21761382 0.0068565784 -0.12667139
0.0019140351 -0.052658714 0.11884355 -0.34101027 -0.08415454 -0.20855506 -0.046292562 0.030344943
0.12043146 -0.23628555 -0.19279654 0.161244 -0.19458815 -0.24655765 -0.31807423 0.19310585
-0.18972929 -0.041801777 -0.12717576 -0.009956387 -0.053059638 0.0017841674 0.0050587356 -0.2180158
-0.30363753 -0.14811867 0.51805544 0.12717578 -0.09530465 -0.20581585 -0.07393266 0.16552591
-0.1447017 0.036680464 0.053186957 -0.018778224 -0.18903604 -0.059167158 -0.08110418 0.18438762
-0.14960614 -0.10790877 -0.109315015 0.049874168 0.04093906 -0.25192028 -0.17072639 -0.1602703
0.047579654 -0.22757812 0.020852156 0.33642653 0.21343622 0.07903105 -0.011894292 -0.042779163
-0.2259729 -0.06314652 -0.18099698 0.037438054 -0.12998432 0.07479455 0.13351497 -0.18773021
-0.193585 -0.26476964 -0.017143715 -0.22292088 0.04627934 0.040855035 0.009031938 -0.016108003
0.0045982483 -0.12302359 -0.13145222 -0.16293088 -0.32096633 -0.10326266 -0.09004384 -0.22049277
-0.14730881 -0.020446967 -0.23925556 -0.008741944 0.31050304 0.014216261 0.040925875 -0.19257797
-0.2547932 -0.016616063 -0.22503589 0.038294233 -0.2770673 -0.18926121 -0.056090996 0.13679431
0.20631938 -0.27615517 -0.07667261 -0.18089409 0.124712415 -0.21500087 -0.11420968 -0.0052479063

lstm.bias_hh_l0 f4 [512]
00000000: 5d85 30be b1c1 e5bd 77de 023d eb32 4b3d
00000010: 5efa 873c fd06 00be 6f6f 61be e442 ae3c
00000020: 3703 61be ea81 dbbd 0ba2 75be 18b7 95be
00000030: b914 2abe b6ad 3ebe 7f20 50be 6757 b7be
00000040: dc1b eabe 8134 17bd a685 b6be 4edc 2fbd
00000050: 64d3 95bd 0200 7abe 7cdf a83c 076b f7bd
00000060: ff5e 5b3b b3ec e9bd 633d 323e b542 79be
00000070: a619 9d3d c3bc aebd d095 2cbc 7c15 df3b
00000080: 0e22 303d 93ce 03bf 8381 0cbd 7d5b cfbd
00000090: 502a 2ebd 520a a2be 867b 42be fde2 7b3e
000000a0: 3a51 94bd d917 53be 0d20 d5bd b535 053d
000000b0: 8d8b 8ebd 1d2f 113e 72db 91be 32ba ce3d
000000c0: 25d0 7dbe 5292 84be f478 dc3e 75c2 f23d
000000d0: ded7 62be cc9d b5be 89dc 8fbe 4e09 503e
000000e0: b327 55be 6b87 18bd e516 f23d 8a37 cabc
000000f0: 1cda bfbe 267b d63d 1890 b53d 0a10 283e
00000100: a822 ccbe 0430 9e3d b1c3 c0be 800d e4bd
00000110: 1478 223d a7aa 77be 6d95 edbd 6a14 a73d
00000120: 524f bf3d cfb5 6abe edcb 8c3d ddf8 2b3e
00000130: 7dd7 233e 802c 3c3c 49b6 98bd e7f2 283e
00000140: 5376 aebe d30a 13bd 5be6 18be e468 683e
00000150: f18c 7abe be09 5dbc b8aa d43d 7ddd 77be
00000160: 6a8e a7be 8d1f 09be 788d 8ebd bd6c ffbc
00000170: 8a82 ca3c fcaf a03d 9662 aebc 5381 a6bd
00000180: 8bd0 203e fe4b 283d 0c99 a3bd d862 c3bd
00000190: d796 ecbd f24b 34bd 5506 82bd a35f 00bf
000001a0: cae9 74be e3c1 3a3e 32bf 44bd ec5c 8fbe
000001b0: 91d4 793e 87ed a0bd 50b0 bf3c dd7d 59be
000001c0: 10e4 4dbe 676b e4bd 7ac2 bdbe 8bdd 0bbe
000001d0: 9ccd 85be 1624 14bf 43e0 b93d 97e2 893d
000001e0: 0332 0b3d 5f58 9dbe 2cf3 b5bc 620d e6be
000001f0: 7604 b13c 6661 12bf 33ff 0ebd ce24 08bd
00000200: bac8 48be 1db4 98bd 144c d8bc b61a 2f3e
00000210: 4de3 b8bd 32ea 7bbd fa7c e6bd eea2 71bd
00000220: 3dfb 9cbe 02ad e6bd 0d34 72be 302a 97bd
00000230: 4ad1 05bd e9ed 1fbe 8667 7bbe b136 a1bd
00000240: 8d56 14be 283f 97bd 1643 2fbe ef02 33be
00000250: 5415 79be 61c8 12be a2c3 d1bb 3961 ffbd
00000260: a37d 9fbd cb02 63bd 2d47 793d 3b0c adbe
00000270: 451f c5bd fba6 6ebe aaf3 933b 1fad debb
00000280: 4abd 0c3e abcf 81be bd54 3bbe 7f20 243e
00000290: 8a30 79be 98da 7ebe f35a 51be bb04 a83d
000002a0: a22d ebbd 64ba 97bd bf8f 39be 55e1 fdbd
000002b0: 9995 3d3d 0478 b73d 76d9 013d d2f5 09be
000002c0: 931f 86be 9941 34be 6ec0 cf3e 4f78 d43d
000002d0: 3bca 7f3d c9d5 93be 9650 b2bd e5b6 283e
000002e0: c6bb 02be 9b3b 7b3d 20ab 2f3e 04fa 3fbc
000002f0: ff25 26be ba55 3abd 6378 d8bd 7ba7 2a3e
00000300: ae2b 2dbe 4d89 9c3c b6ca d1bd 39c7 0f3e
00000310: 6249 8e3d 6e34 90be 9490 e7bd 2423 51be
00000320: a5d9 6d3d ac77 8bbd 4060 ebbc 5867 523e
00000330: fb74 843e 3e72 433d d073 86bd f9f5 013e
00000340: 8cde 5bbe e2ed 0cbd b728 aebd 198e 95bd
00000350: 49f1 cc3c c5e3 9c3d e5c4 843d e5d4 8abd
00000360: 463d 0abe 4cd5 3cbe f544 d0bd cc5e 35be
00000370: 49a9 dd3c 5c46 5abd 9ced 24bd 492c bfbc
00000380: 61e3 4e3d 31d5 12be a630 06be a967 19be
00000390: acc6 cebe d225 83bd 910d 0cbe 5d35 8cbe
000003a0: e28b d1bd 7640 11bd 2240 20be 5394 803d
000003b0: 70f3 903e dd00 cb3d c69b 2a3d 9e8d 55be
000003c0: c0df 5abe c703 9c3c a72b 29be a302 133e
000003d0: f083 8ebe 8365 6fbe 2ffe 9fbd 9ff8 3fbc
000003e0: 4224 2d3e 443a 5bbe 03ac 44be f5df 59be
000003f0: 138f ae3d 73db 81be 9129 82be f18d 95bd
-0.17238374 -0.11218584 0.03195044 0.049609106 0.016598877 -0.12502666 -0.22015165 0.02127213
-0.21973883 -0.107181385 -0.23987596 -0.29241252 -0.16609468 -0.18620953 -0.20324896 -0.3580887
-0.4572438 -0.036915306 -0.3564884 -0.04293471 -0.0731571 -0.24414065 0.020614378 -0.12080961
0.003347337 -0.114221 0.1740623 -0.24341853 0.07670908 -0.08532097 -0.010533765 0.006807981
0.043001227 -0.5148708 -0.0343032 -0.10124872 -0.04252082 -0.316485 -0.18992433 0.24598308
-0.07242055 -0.20614566 -0.10406504 0.032521922 -0.06960211 0.14178129 -0.28487736 0.10094108
-0.24786432 -0.25892884 0.4306103 0.11853496 -0.2215266 -0.35471952 -0.28097942 0.2031605
-0.20815925 -0.03723852 0.11820773 -0.024684686 -0.37471092 0.104727075 0.08865374 0.16412368
-0.3987019 0.07724002 -0.376493 -0.111353874 0.039665297 -0.24186192 -0.11600766 0.081581905
0.09341301 -0.22920917 0.06874833 0.16794153 0.16000171 0.011485219 -0.07456643 0.1649891
-0.3407465 -0.035898995 -0.14931624 0.22696263 -0.24467827 -0.013491092 0.103841245 -0.24205585
-0.3272584 -0.13390942 -0.06960577 -0.03117978 0.024720449 0.07846066 -0.021287244 -0.081301354
0.15704553 0.041088097 -0.07988176 -0.09540337 -0.11552208 -0.04401774 -0.06348864 -0.5014593
-0.23917308 0.18238024 -0.0480339 -0.2800058 0.24397494 -0.07857805 0.023399502 -0.2123942
-0.2010653 -0.11153298 -0.37062436 -0.1365873 -0.2613343 -0.5786756 0.09075978 0.06732672
0.03398324 -0.30731484 -0.02221068 -0.44932085 0.021608572 -0.5717987 -0.034911346 -0.033238225
-0.19607821 -0.07456229 -0.026403464 0.17100033 -0.09027729 -0.061502643 -0.11254306 -0.058993272
-0.3066043 -0.11263467 -0.23652668 -0.073810935 -0.032670297 -0.156181 -0.2455121 -0.0787176
-0.14486142 -0.07385093 -0.17115435 -0.17481588 -0.24324542 -0.14334251 -0.006401495 -0.124697156
-0.07787635 -0.055422585 0.060858894 -0.33798394 -0.09625105 -0.23305885 0.004515131 -0.00679554
0.13744083 -0.2535375 -0.18294044 0.16028021 -0.24334922 -0.24888074 -0.2044485 0.08204027
-0.11483313 -0.07408598 -0.18121241 -0.12396494 0.046285246 0.08958438 0.031701528 -0.1347268
-0.26195964 -0.17603149 0.405765 0.103745095 0.06244872 -0.28874043 -0.08706777 0.16476019
-0.12766942 0.06133614 0.17155123 -0.011717323 -0.16225432 -0.04549191 -0.10569837 0.16665451
-0.16911194 0.019108439 -0.10243742 0.14040841 0.069475904 -0.28165 -0.11306873 -0.20423561
0.05806889 -0.06809935 -0.028732419 0.20547235 0.258705 0.04771637 -0.06565058 0.12691487
-0.21471614 -0.03440655 -0.085038595 -0.073024936 0.025017397 0.07660631 0.06482867 -0.06778888
-0.13499936 -0.18440741 -0.101694025 -0.17711943 0.02705826 -0.053289756 -0.040265664 -0.023336546
0.050509814 -0.14339139 -0.13104495 -0.1498095 -0.4038595 -0.06403698 -0.1367705 -0.27384463
-0.10231759 -0.035461865 -0.15649465 0.062782906 0.28310728 0.09912274 0.041652463 -0.20854804
-0.21374416 0.01904477 -0.16520558 0.14356475 -0.27835035 -0.23378567 -0.078121535 -0.011716991
0.16908363 -0.21408945 -0.19206242 -0.21276839 0.08523383 -0.2536274 -0.25422338 -0.07302464

fc.weight f4 [4, 128]
00000000: 5612 7abe a483 043d 5a7a d5bb ead6 36be
00000010: 8345 5ebe b23a 193d 3c85 e0bd b1b2 44bc
00000020: f4c7 b1be c5d7 c1bc 4679 723e d8b1 4c3e
00000030: a327 553e f21d c33f f6cd c3be 40e6 2d3d
00000040: 16e0 893f 4a36 7ebe 1cba 3bbe e9c3 cebd
00000050: 05b6 b8bd a115 473e 71d7 27be c0de b5be
00000060: d580 5a3e b50d b53d 816b a13b ebba 823e
00000070: dfe0 61bd 85ff 12bf 33bb 70be 11f3 333e
00000080: d3c0 573d 63f8 aa3e 2540 92be 9d5c 943d
00000090: 2225 d4bd 07d2 16bd 3666 adbd 961d 933d
000000a0: ce2c bbbe c3ce d13d 3821 c53e 65eb 89bd
000000b0: 8d7d 0c3d b0e7 02bd 02dc 51bd bc7f d93d
000000c0: bbf9 b9be 5ee4 de3c 778e b03d 915d 363e
000000d0: e005 13bc 8612 3d3d 5bc3 b3be 8391 14bc
000000e0: 5ba7 e7be 95ca 073e 8d77 93bc bf05 23be
000000f0: 915e 553e 13fd 62be 9f1f 08bf 22d3 893d
00000100: 6943 8abf f435 563f 4940 aebe 6add 83be
00000110: 8f0a adbe 7e83 efbe cc3f b5bd cd5a a53d
00000120: 5aaa 18be 04fd a0be 7ce9 d83e 3157 5d3e
00000130: b139 003e 9033 d23d b343 a63c 7fa4 c9be
00000140: 9acd 60be 0f77 18be 4535 03be 8176 df3c
00000150: 3cf3 3c3d 5ad0 5b3e c416 bebe 6284 d0bd
00000160: 4775 d33d 2010 c1bd 2c79 8dbd 3c3d eebd
00000170: 9a10 61be 2a88 5d3e 3d77 94bc 01c9 9f3b
00000180: ae5b efbd 0729 3abe 3f65 86be 1fa8 96bd
00000190: ba08 a73b 196a 36be 1aaa 10bf e14e 3c3e
000001a0: bb1f 88be 191f 4fbe 994e d53e 0006 08be
000001b0: ef5f 6f3d 7a14 4dbe 8cb3 88be a099 6d3e
000001c0: 7f37 913d 2a94 603d 8669 0a3f e17f 67be
000001d0: 5fae 9ebf 884d f9bc b230 ff3c f299 4e3e
000001e0: 53cc b33c 8b9d 823e ae25 1d3e a92b 8ebf
000001f0: d87f 133e 1713 ffbe bb7f a33e c269 05be
00000200: 07fa 733d 50f8 12be 26d7 00bd 8e93 013e
00000210: 1a3a 983c 0d9b febd dab0 0ebe 4ac2 df3d
00000220: 2efc 3ebc 072b 453d 74ff debd a752 43bd
00000230: d6d9 bdbd 91ae bbbd 1686 bcbe bbc0 133f
00000240: 1b19 b83c 5665 103f ef6f 2f3d 40c0 f7bc
00000250: 571f bb3e 06e4 13bd 4d6d 903e fe3f 833e
00000260: 7c78 15be 7f87 95bd 7fc1 903d 8b48 223d
00000270: fdf0 833d f8d6 093e d9ae 1ebe 1967 ec3c
00000280: e5a0 89be e8e1 c3bd bc25 6a3d c796 32be
00000290: 56f2 ae3e cf19 e8be 8a49 9eba 7fc4 6d3d
000002a0: c986 be3d 4600 9d3d f3e7 2abe d93c 3fbc
000002b0: 8b20 983d c264 2ebe d415 afbd 4573 0ebf
000002c0: b288 aa3d 019b 763e b2a7 b43d 4f11 09bf
000002d0: b992 20c0 5f8c d1bd 9b1a 013d 4631 da3d
000002e0: 0b79 df3d 5287 033e 6aae 143e 9969 8cbc
000002f0: 4998 a8bb 7893 3abd 3c76 f0bb 4acc 1cbd
00000300: a792 f83d 90c8 91bc 671a f33d 5032 023e
00000310: 43ab 043d 1a88 a43d 6614 d33c 5f5e 9dbf
00000320: 4bad b23e 391a 3f3e fc8e bf3d c25f a4bd
00000330: e2b1 143c ac70 6a3d 6342 36be 1664 6c3e
00000340: 77e6 0c3e 91cb 9e3d 403a 353e a277 903d
00000350: 9524 793d 0286 1ebe 6470 653d f359 4a3e
00000360: 9a0c b03d a50f ca3d 62de 983d 82a4 773d
00000370: 7fec 623d 0416 89be a7e9 ec3d 671f 7d3e
00000380: a3c9 3e3e 1c64 083e c746 b93d fbcb 213d
00000390: 88ef 8d3f e960 2c3e 2f58 46bd 60a4 3dbe
000003a0: 936e 573e b751 123d af2a 9e3d c337 be3c
000003b0: cfaa cabe cb3a bd3c e79e e0bd 934e ccbe
000003c0: 1993 c8bd b4c0 803d 00b9 dcbc 828f 813d
000003d0: 785f c13d c08a 093e 9907 4abe 9eb5 04be
000003e0: da5f 3e3e f930 083e d7ff bd3b 00a4 003e
000003f0: ef30 90be b359 8d3c 3f2a e93d 6e25 8fbc
-0.24421057 0.032352105 -0.0065148296 -0.1785542 -0.21706204 0.03740949 -0.109629124 -0.012005494
-0.34722865 -0.023662457 0.23679075 0.19989717 0.20815901 1.5243514 -0.38243073 0.04245591
1.0771511 -0.24825397 -0.18332714 -0.10095961 -0.090190925 0.19441845 -0.16390778 -0.35521507
0.21338208 0.08840505 0.0049261455 0.25533232 -0.055146094 -0.5742114 -0.23508911 0.17573191
0.052674126 0.3339263 -0.28564563 0.07244227 -0.10358645 -0.03682139 -0.08466761 0.071833774
-0.3655762 0.10244515 0.38501906 -0.06734351 0.034299422 -0.031959236 -0.051235206 0.106200665
-0.36323342 0.027208503 0.08620923 0.1780913 -0.008973569 0.046160243 -0.35109982 -0.009067896
-0.4524487 0.13260873 -0.018001342 -0.1592016 0.20836855 -0.22166853 -0.5317325 0.067297235
-1.0801822 0.83676076 -0.3403342 -0.25754863 -0.33797118 -0.46780008 -0.08850059 0.080739595
-0.14908734 -0.31443036 0.42365634 0.21615292 0.12522008 0.10263741 0.020295953 -0.39383313
-0.21953431 -0.14889167 -0.1281329 0.027278187 0.046130404 0.21466199 -0.37126744 -0.101815
0.10325103 -0.09426904 -0.06907877 -0.11632773 -0.21978989 0.21633974 -0.018123263 0.0048762565
-0.116874084 -0.18179713 -0.2624912 -0.07356285 0.005097476 -0.1781391 -0.56509554 0.18389465
-0.26586708 -0.20226707 0.41661528 -0.13283539 0.0584411 -0.20027342 -0.26699483 0.23203135
0.07090663 0.0548288 0.54067266 -0.22607376 -1.2396964 -0.030432478 0.03115115 0.20175913
0.021948015 0.2551082 0.15346405 -1.1107074 0.14404237 -0.49819252 0.31933388 -0.13028625
0.059564617 -0.14352536 -0.03145518 0.12653944 0.018582392 -0.12431917 -0.13934651 0.109257296
-0.011656804 0.048136737 -0.108885676 -0.047686245 -0.092700645 -0.09164155 -0.3682105 0.5771596
0.022472909 0.56404626 0.042831358 -0.03024304 0.36547348 -0.036106132 0.2820839 0.2563476
-0.14596742 -0.073012345 0.070681565 0.039619964 0.06442449 0.1346091 -0.15496387 0.028857755
-0.26880565 -0.095645726 0.057164893 -0.1744033 0.34169263 -0.4533219 -0.001207636 0.05804872
0.09303052 0.07666068 -0.16690044 -0.011672222 0.07428082 -0.17030624 -0.08549085 -0.5564464
0.08326854 0.24082567 0.08821048 -0.53542036 -2.5089552 -0.10231852 0.031519514 0.106539294
0.10911759 0.1284459 0.14519659 -0.017140197 -0.005145107 -0.045550793 -0.0073383134 -0.038280763
0.12137347 -0.017795831 0.1187027 0.12714505 0.03238989 0.08033772 0.025766563 -1.2294425
0.34897837 0.18662347 0.09353444 -0.08026077 0.009075614 0.05723636 -0.17798762 0.23085055
0.1375979 0.07753671 0.17698002 0.07054068 0.060825903 -0.15480807 0.056015387 0.19760875
0.085961536 0.09866265 0.07464291 0.06045962 0.05540132 -0.2677461 0.11568003 0.2471901
0.18631606 0.13319439 0.09046703 0.03950117 1.1088724 0.16833843 -0.048423942 -0.18519735
0.21038274 0.03572246 0.07722985 0.023219949 -0.39583442 0.023099324 -0.10967808 -0.39903697
-0.09793682 0.06286755 -0.026943684 0.063262 0.09442037 0.13431835 -0.19729461 -0.12959906
0.18591252 0.13299932 0.0057983208 0.12562561 -0.28162333 0.017254686 0.11385011 -0.017473903

fc.bias f4 [4]
00000000: 76db 69be c459 4bbe f3a7 6f3e d86c 353e
-0.22837624 -0.19858462 0.23403911 0.17717302
