CNNV2/CNNV22/model.pth (torch, 51535 bytes, 8 tensors)

conv1.weight f4 [16, 3, 3]
0.20044479 -0.20938858 0.21427599 -0.33018327 -0.03320977 -0.027698487 -0.22282279 -0.25040528
-0.21945608 0.17508015 0.03061948 0.38134268 -0.6328744 -0.6334236 -0.80159503 0.4826091
0.20574367 0.44831455 0.021269422 0.15187106 0.22822182 -0.53931266 -0.90556014 -0.022341322
-0.25901133 0.38036805 -0.33509338 0.48692197 0.4716009 0.3502575 -0.5668879 -0.3507655
0.25741202 -0.8547446 -1.1710358 -0.8329964 0.27642018 0.15281814 0.40842146 -0.36212802
-1.1667113 -0.77083075 -0.019649848 -0.19576275 0.2813511 -0.3475039 -0.25166664 -0.56069106
-0.095418274 0.47135386 0.66400254 -0.28340903 0.16468495 0.40289006 -0.41975337 -0.21495254
-0.31492746 0.26739362 0.44149503 0.43192324 -0.40834373 -0.15017201 -0.30872068 0.41826093
0.31802782 -0.49223968 -0.35432425 -0.37264076 -0.1259838 0.19613662 -0.1754807 -0.36972752
-0.16441977 -0.0030960143 -0.11798 -0.05269298 -0.19125256 0.034334928 0.18114713 0.06997025
0.049859315 0.30903614 0.42417124 0.36137086 -0.7780662 -1.6334323 -1.3151097 -0.31207645
-0.55807304 0.43861035 0.19079615 0.5192789 0.055888493 -0.14749548 -0.891647 -1.6992644
-0.35656536 -0.5025626 0.44057658 -0.46152312 -0.28916422 -0.2600295 0.91280717 0.9495738
0.12604542 -0.028656153 0.07870522 -0.037792955 0.085469656 -0.21997988 0.28460693 -0.76546913
0.123863466 0.15333638 -0.70258415 -0.3011631 0.63355935 -0.60046893 -0.09693077 0.15269959
0.06145494 0.39250377 -0.21802676 0.06377054 -0.30743465 -0.07097093 0.5715751 0.004416972
-0.066746466 -1.5162964 -0.7317496 -0.022749484 0.40712234 0.35655165 0.50372106 0.14477132
0.015109163 -0.21241598 -1.5316926 -1.1204969 -1.2272028 0.42512763 0.10611863 0.49715385
00000000: 6641 4d3e f669 56be 2a6b 5b3e c80d a9be
00000010: f806 08bd f0e7 e2bc a82b 64be 1f35 80be
00000020: 18b9 60be 3648 333e b4d5 fa3c 593f c33e
00000030: 0f04 22bf 0d28 22bf 5535 4dbf 8a18 f73e
00000040: 78ae 523e 7c89 e53e 363d ae3c 1684 1b3e
00000050: fbb2 693e 6510 0abf cad2 67bf 2605 b7bc
00000060: 229d 84be 9abf c23e 5c91 abbe d64d f93e
00000070: ac75 f13e f354 b33e 911f 11bf 8997 b3be
00000080: 82cb 833e 8bd0 5abf 80e4 95bf 413f 55bf
00000090: f286 8d3e 5c7c 1c3e 9e1c d13e d868 b9be
000000a0: cc56 95bf 2a55 45bf b8f8 a0bc 0876 48be
000000b0: 400d 903e 08ec b1be 73da 80be 7389 0fbf
000000c0: a86a c3bd 4b55 f13e 12fc 293f fd1a 91be
000000d0: 2ca3 283e 9b47 ce3e eae9 d6be 851c 5cbe
000000e0: 2c3e a1be d1e7 883e a30b e23e 0b25 dd3e
000000f0: 6e12 d1be b1c6 19be a310 9ebe 4c26 d63e
00000100: 8bd4 a23e d706 fcbe fd69 b5be c5ca bebe
00000110: e601 01be 0ad8 483e 36b1 33be ed4c bdbe
00000120: a85d 28be 80e6 4abb 809f f1bd 98d4 57bd
00000130: b6d7 43be c8a2 0c3d a27e 393e 904c 8f3d
00000140: 4839 4c3d fc39 9e3e f92c d93e 9a05 b93e
00000150: 592f 47bf 4f14 d1bf 8455 a8bf 7cc8 9fbe
00000160: e0dd 0ebf 8991 e03e 1160 433e 76ef 043f
00000170: 55eb 643d 0e09 17be fa42 64bf 7f81 d9bf
00000180: bc8f b6be f1a7 00bf 4193 e13e c24c ecbe
00000190: 550d 94be 9622 85be bbad 693f 4517 733f
000001a0: 0d12 013e 4fc0 eabc 3430 a13d c9cc 1abd
000001b0: b70a af3d 6842 61be 00b8 913e c9f5 43bf
000001c0: 21ac fd3d 3604 1d3e 8edc 33bf 0d32 9abe
000001d0: f230 223f 55b8 19bf a483 c6bd 485d 1c3e
000001e0: 2db8 7b3d 41f6 c83e 6842 5fbe 219a 823d
000001f0: 1368 9dbe 3559 91bd bf52 123f 3fbc 903b
00000200: 5fb2 88bd 0016 c2bf f153 3bbf 205d babc
00000210: 5772 d03e f08d b63e ddf3 003f ef3e 143e
00000220: 6c8c 773c 9383 59be 810e c4bf 716c 8fbf
00000230: fb14 9dbf 54aa d93e b954 d93d f38a fe3e

conv1.bias f4 [16]
-0.17615919 0.2196525 0.11811172 0.14150807 0.60952187 -0.19377618 -0.012509998 0.29685503
-0.25880453 0.33720112 0.2914323 -0.5676346 0.23855159 0.06057237 -0.12244818 0.13358541
00000000: 1363 34be 96ec 603e 8fe4 f13d 7ee7 103e
00000010: a009 1c3f 436d 46be bcf6 4cbc 62fd 973e
00000020: 0782 84be a0a5 ac3e 9d36 953e 8050 11bf
00000030: de46 743e bc1a 783d 1dc6 fabd 9dca 083e

conv2.weight f4 [32, 16, 3]
0.143686 -0.029347956 0.052986383 -0.54319566 -1.8520536 -1.6658221 -1.1555421 -0.64383876
0.46134892 -0.24023913 -0.40709254 0.3703403 0.08860399 1.0143081 2.0713255 0.05538164
0.5697535 0.20644715 0.6078482 0.17336611 -0.41065845 -1.094646 -0.76812714 0.29119304
-0.015702993 -0.10689802 0.029752165 -0.12586002 -1.2355319 -1.5917288 -0.013583743 -0.8683047
-0.29320616 1.2735287 0.86170655 -0.5547308 -0.10381803 -0.88530934 0.71840507 0.13882685
0.0783671 -0.4077597 -0.1855787 -0.21398136 -0.15689845 -0.018216344 -0.19750646 -0.27533674
0.0715718 0.058373347 -0.13606365 -3.0464206 -2.4606583 -1.0802922 0.23797195 -0.22355315
-0.03240253 0.11030187 0.19575353 -0.062004015 0.17602059 0.6595129 -0.23337212 0.3183451
0.21394633 0.4768651 -0.5664627 -0.10857881 -1.2122548 0.087195046 -0.052079175 0.031543538
0.02523826 -0.12924248 0.036471933 -0.7590401 -1.3814692 -1.9499924 3.6489316e-06 0.15801567
-1.6268382 0.030559186 0.85184693 -0.058146637 -0.37208024 -0.03457567 0.31468353 -0.23283285
0.24484672 -0.26626772 0.4546643 0.67647684 -0.08366276 -0.14452134 0.02320176 0.086988464
-0.06889857 0.011389911 -0.120235726 0.451248 -0.5565962 -0.5972125 0.32377902 0.23979442
0.2881983 -1.2480588 -1.9499974 -0.24347644 1.0460649 -0.24233148 -0.7994922 -0.18540831
0.29102945 0.4851959 -0.94836825 -0.21554168 -0.0040497445 0.32402432 -0.50725514 -0.20090406
-0.06218729 0.0032569468 -0.080200925 1.3513273 1.1123518 0.83256537 0.9512114 1.181843
1.3898524 -0.11778382 0.44859737 0.90387547 -0.28299552 -0.50261647 1.0145539 -1.8403094
-0.4788901 -1.3364255 1.0946159 -0.41610786 -0.80035996 0.27132675 -0.15731977 -0.64340496
0.09755269 -0.07395967 0.117949456 0.010674745 -0.13873127 -0.15388553 0.09347826 -0.008985236
0.013014972 -0.052751727 0.043205738 -0.05103319 0.07704118 -0.123198345 -0.013107069 -0.11718193
-0.05331848 -0.0013016394 0.10106303 -0.087115124 0.0013540895 -0.05200647 0.028282514 0.10830378
0.11491236 -0.05564686 -0.12924235 0.06017047 -0.09552338 -0.12843332 0.01669243 -0.031391382
-0.015893519 0.042578995 0.01296702 0.08600733 -0.12982887 0.0420372 -0.05206645 -0.034847423
0.033891197 -0.017190695 -0.08709249 -0.13303705 0.058046114 0.029895216 0.12885106 0.08730791
0.101523295 0.14346159 0.066799715 -0.036864605 0.749737 0.7744561 -0.30698684 -0.21897106
-1.1546878 -0.94655025 0.19568197 0.88427037 0.03774563 0.17357714 -0.22213858 0.32836017
0.23558255 -0.6990577 -0.08549675 -0.34430638 -0.03742572 -0.26656297 0.24840035 -0.54371315
0.13171679 -0.058169656 -0.066123955 -1.7767085 -2.968563 0.23977198 -1.7042334 -2.6784835
0.1916219 -0.93404263 -0.08836826 -0.14900935 -0.27452606 -0.58951044 0.3699538 -0.0077033294
-0.31454986 0.03414651 -0.49206156 -0.19739667 -0.6148933 -0.3209751 0.1645318 0.015951265
-0.056135222 -0.040824905 -0.056424104 -0.24574691 -0.8006259 0.17405294 -0.038668342 -0.30816215
0.52416515 -0.3160279 -0.20132937 0.60624903 0.2896866 0.39507458 0.95630604 0.2742837
00000000: 6c22 133e 206b f0bc 4008 593d df0e 0bbf
00000010: 1810 edbf a939 d5bf cee8 93bf 9ed2 24bf
00000020: ed35 ec3e 3f01 76be 6f6e d0be 3e9d bd3e
00000030: 0276 b53d d9d4 813f 9990 0440 dcd7 623d
00000040: 5edb 113f e266 533e f19b 1b3f e386 313e
00000050: d341 d2be 5c1d 8cbf fba3 44bf 4117 953e
00000060: 90a3 80bc 59ed dabd d0ba f33c 73e1 00be
00000070: e925 9ebf c5bd cbbf 598e 5ebc 3849 5ebf
00000080: 1e1f 96be fd02 a33f cd98 5c3f d602 0ebf
00000090: 8c9e d4bd a2a3 62bf 65e9 373f a028 0e3e
000000a0: ee7e a03d e1c5 d0be 5808 3ebe ee1d 5bbe
000000b0: fda9 20be 713a 95bc 223f 4abe f0f8 8cbe
000000c0: 3c94 923d e418 6f3d 4554 0bbe 8ef8 42c0
000000d0: 6d7b 1dc0 0447 8abf ebae 733e 1eeb 64be
000000e0: 84b8 04bd f2e5 e13d 9d73 483e ecf7 7dbd
000000f0: be3e 343e d6d5 283f 1af9 6ebe 21fe a23e
00000100: bf14 5b3e aa27 f43e b303 11bf 915e debd
00000110: 2a2b 9bbf 5193 b23d f950 55bd cc33 013d
00000120: 78c0 ce3c 2458 04be 9863 153d 7450 42bf
00000130: fcd3 b0bf 5a99 f9bf 2be0 7436 dcce 213e
00000140: 3c3c d0bf 4257 fa3c a412 5a3f 2b2b 6ebd
00000150: 4d81 bebe 389f 0dbd 331e a13e bc6b 6ebe
00000160: 19b9 7a3e 3e54 88be c2c9 e83e 962d 2d3f
00000170: 6257 abbd 67fd 13be 9e11 be3c 0227 b23d
00000180: b21a 8dbd c09c 3a3c 263e f6bd fa09 e73e
00000190: 177d 0ebf ebe2 18bf 5dc6 a53e ab8c 753e
000001a0: ba8e 933e 64c0 9fbf 8499 f9bf e351 79be
000001b0: 74e5 853f be25 78be 85ab 4cbf addb 3dbe
000001c0: d001 953e 996b f83e 43c8 72bf f5b6 5cbe
000001d0: b8b3 84bb 84e6 a53e 79db 01bf cbb9 4dbe
000001e0: 1ab8 7ebd 8072 553b 6240 a4bd 4bf8 ac3f
000001f0: 8b61 8e3f 0123 553f 9782 733f a246 973f
00000200: afe6 b13f a538 f1bd 8eae e53e 6264 673f
00000210: cae4 90be 79ab 00bf e7dc 813f 428f ebbf
00000220: 1531 f5be fe0f abbf 601c 8c3f 170c d5be
00000230: 64e4 4cbf 57eb 8a3e 6f18 21be 30b6 24bf
00000240: b4c9 c73d 2b78 97bd 7c8f f13d 20e5 2e3c
00000250: 920f 0ebe 2b94 1dbe 8871 bf3d d036 13bc
00000260: c03c 553c 3212 58bd 80f8 303d 2e08 51bd
00000270: c4c7 9d3d 6a4f fcbd 08bf 56bc 14fd efbd
00000280: 7a64 5abd c59b aaba 22fa ce3d 6a69 b2bd
00000290: b47b b13a bc04 55bd bbb0 e73c 5fce dd3d
000002a0: 2c57 eb3d f6ed 63bd 1b58 04be 5075 763d
000002b0: c3a1 c3bd 0684 03be 90be 883c 4094 00bd
000002c0: 2033 82bc 5067 2e3d a073 543c 9c24 b03d
000002d0: dcf1 04be 332f 2c3d a143 55bd 2cbc 0ebd
000002e0: 7fd1 0a3d 80d3 8cbc 8c5d b2bd dd3a 08be
000002f0: c3c1 6d3d d0e6 f43c 88f1 033e 7dce b23d
00000300: 72eb cf3d 98e7 123e 4ace 883d 57ff 16bd
00000310: c4ee 3f3f c142 463f 612d 9dbe f339 60be
00000320: cfcc 93bf 1e51 72bf db60 483e 8b5f 623f
00000330: 299b 1a3d 35be 313e 4c78 63be d31e a83e
00000340: 8d3c 713e 72f5 32bf ec18 afbd ed48 b0be
00000350: b64b 19bd f17a 88be a95c 7e3e c930 0bbf
00000360: c4e0 063e 4e43 6ebd ff6b 87bd 2f6b e3bf
00000370: f0fc 3dc0 c986 753e 5224 dabf 466c 2bc0
00000380: 8838 443e 6b1d 6fbf 6bfa b4bd e895 18be
00000390: ae8e 8cbe 28ea 16bf 966a bd3e 366c fcbb
000003a0: ae0c a1be 36dd 0b3d 7eef fbbe 5a22 4abe
000003b0: a669 1dbf d956 a4be 067b 283e 3aac 823c
000003c0: 0cee 65bd 0438 27bd f61c 67bd 14a5 7bbe
000003d0: d2f5 4cbf ef3a 323e b262 1ebd 6ec7 9dbe
000003e0: b02f 063f 69ce a1be 4929 4ebe 2333 1b3f
000003f0: cd51 943e 3747 ca3e 79d0 743f ea6e 8c3e

conv2.bias f4 [32]
-0.99574023 -0.037723888 -0.53707343 -0.13880406 -0.07703103 -0.6331087 -0.5846818 -0.5528998
-0.15856303 -0.8709113 -0.14274989 -0.76327455 0.34245628 -0.13363175 0.14961426 -0.2525182
0.18532506 -0.39146492 0.060285214 0.29859772 0.21496351 -0.078739546 -0.054254197 0.1851073
-0.3051756 -0.080156125 0.2716719 0.1800791 0.18823408 -0.73802674 -0.2719274 -0.80635464
00000000: d5e8 7ebf 5d84 1abd a57d 09bf a722 0ebe
00000010: 72c2 9dbd 6913 22bf b5ad 15bf d78a 0dbf
00000020: 595e 22be 0bf4 5ebf 072d 12be f665 43bf
00000030: 6e56 af3e c3d6 08be 7b34 193e 114a 81be
00000040: dac5 3d3e 176e c8be a1ed 763d cde1 983e
00000050: 651f 5c3e 3342 a1bd a639 5ebd c58c 3d3e
00000060: fa3f 9cbe e528 a4bd 9418 8b3e a866 383e
00000070: 6fc0 403e 52ef 3cbf 113a 8bbe 426d 4ebf

fc1.weight f4 [64, 160]
-0.43753022 0.6468974 1.5620124 0.6069916 -1.8887924 -0.027566079 0.5890971 0.8973096
0.26330483 0.28147733 -0.5099558 0.6196862 0.03421701 -0.058163665 -1.0478563 -0.07023302
0.07191267 -0.013989486 0.02089034 -0.02972953 0.4309931 0.38293204 0.6457006 0.85289407
0.14739089 -0.9219689 -1.5180249 -1.1183846 -0.5402208 -1.3602537 -1.6024891 -1.0812564
-0.8863313 -0.43279383 -0.84379417 -1.0494862 -0.1023877 0.12136649 0.13584885 -0.21720473
-0.0041667586 -0.0492742 0.07083855 0.02363909 -0.01896678 -0.69944376 -0.8098637 -0.3461704
-0.6590895 -0.9583815 -0.056200203 0.050463088 0.044965554 0.14303264 0.1568499 -0.7121917
-1.1373842 -1.0404162 -0.65712285 -0.57678336 -0.10162924 0.071332455 0.11400758 -0.057130966
0.08293574 -0.01696716 0.025521714 0.016225394 0.013935215 -0.016621491 -0.06789736 0.22488026
0.50054044 0.24967383 0.37613702 0.4906134 1.125822 1.2166033 1.2178378 0.82619846
0.16681823 0.3139635 0.24799642 0.45092762 0.11773207 -0.02540169 0.5869534 0.35694733
0.5859461 -0.22933769 0.3370239 0.4167037 -0.038285945 0.28109542 0.2978052 -0.029491425
0.21098864 0.34584126 0.25000235 0.22879602 0.09862641 0.21132874 0.36279938 -0.06596639
0.23030189 -0.121010475 0.0377729 0.141334 -0.0020661184 0.038541038 0.28324485 0.21673426
0.5545964 0.39079165 0.5528207 -0.004745605 0.14927042 -0.06326331 -0.010618832 0.11016141
-0.11019203 -0.45843953 -0.33653647 -0.39319938 -0.2048434 0.9051959 1.1570637 0.40253183
0.19851382 0.25083685 -0.05697342 0.012672033 0.11586578 0.12935877 0.1597302 0.11682311
0.22630875 0.3397726 0.42996946 0.046007257 0.0956348 0.19495513 0.28675655 0.25126407
0.29250738 -1.0196781 -1.5550946 -0.8987914 -0.66828364 -0.65521896 0.0468021 -0.42401585
-0.22802755 -0.4791685 -0.02774767 -0.64249325 -1.2169888 -1.1585535 -1.1744925 -1.6761286
0.026922857 -0.52971333 -0.099971354 0.18987589 -0.99261296 0.16188051 -0.66294605 -0.6106776
-0.9082695 -0.52432376 -0.5634261 -1.1243459 -0.5159513 -0.42283177 -0.50076437 -0.026305856
-0.078464285 0.01888106 -0.03431914 -0.053972073 -0.103784345 0.42666516 0.06856753 -0.1593897
-0.25558555 -0.65711665 -1.0822951 -0.44039574 -0.4011695 0.15883689 -1.0552322 -0.6448132
0.009379806 -0.28176388 -0.24576062 -0.46871454 -0.3530429 0.0030087607 0.25513187 -0.15564024
-0.0075955996 -0.011121884 -0.0337453 -0.034274865 0.06736275 -0.3504603 -0.4408781 -0.04681531
0.096138924 0.13810939 -0.049132686 -0.011947104 -0.026365448 0.06394723 -0.019024253 -0.8250141
-0.7407674 -0.55629015 -1.4922874 -1.2999507 -0.09211554 0.20608382 0.018144466 0.3300982
0.2065117 -0.08613073 0.043920763 0.036635146 -0.025541328 -0.06996223 0.6478887 0.09318079
0.24093775 0.016184049 0.32529667 -0.012770805 -0.019170744 0.13318492 0.11768977 0.21971487
-0.38837466 -0.45448482 -0.18159015 -0.12364396 -0.07116159 -0.9776807 -0.95431346 -0.70728827
0.0052448395 -0.41383448 -0.4783835 -1.0288911 -0.88095707 -0.51858634 -0.2900506 0.23414445
00000000: f603 e0be 119b 253f 06f0 c73f cd63 1b3f
00000010: f3c3 f1bf 42d2 e1bc 11cf 163f 15b6 653f
00000020: e4cf 863e cc1d 903e 778c 02bf c1a3 1e3f
00000030: 2327 0c3d 063d 6ebd 2820 86bf 54d6 8fbd
00000040: f346 933d 2834 65bc 3822 ab3c 588b f3bc
00000050: 21ab dc3e ab0f c43e a24c 253f 4457 5a3f
00000060: a3ed 163e 2706 6cbf a44e c2bf 3a27 8fbf
00000070: e94b 0abf cb1c aebf 5d1e cdbf 9c66 8abf
00000080: 9ce6 62bf 2797 ddbe e502 58bf 9055 86bf
00000090: a4b0 d1bd ff8e f83d f61b 0b3e eb6a 5ebe
000000a0: 4e89 88bb bed3 49bd cd13 913d c4a6 c13c
000000b0: 3860 9bbc bf0e 33bf 3a53 4fbf 3f3d b1be
000000c0: 17ba 28bf 7d58 75bf 2f32 66bd 62b2 4e3d
000000d0: cd2d 383d 2677 123e 439d 203e 3252 36bf
000000e0: ce95 91bf 5c2c 85bf 3439 28bf 13a8 13bf
000000f0: fe22 d0bd c016 923d ce7c e93d 2902 6abd
00000100: 37da a93d b7fe 8abc ea12 d13c 1eeb 843c
00000110: 8750 643c cb29 88bc c50d 8bbd 0347 663e
00000120: 6b23 003f 7faa 7f3e 0895 c03e ae31 fb3e
00000130: ef1a 903f a8b9 9b3f 1ce2 9b3f be81 533f
00000140: 66d2 2a3e d3bf a03e c6f2 7d3e fcdf e63e
00000150: 831d f13d 3417 d0bc 9442 163f cdc1 b63e
00000160: 9000 163f 80d7 6abe 668e ac3e 305a d53e
00000170: b9d1 1cbd bdeb 8f3e ec79 983e 0098 f1bc
00000180: 680d 583e 1b12 b13e 4f00 803e 8149 6a3e
00000190: a5fc c93d 9066 583e d7c0 b93e 6319 87bd
000001a0: 42d4 6b3e 57d4 f7bd c2b7 1a3d dcb9 103e
000001b0: b767 07bb 35dd 1d3d 7805 913e 96ef 5d3e
000001c0: 08fa 0d3f d815 c83e a885 0d3f 0581 9bbb
000001d0: 58da 183e 3290 81bd 9cfa 2dbc 4e9c e13d
000001e0: 5cac e1bd 96b8 eabe 824e acbe 6e51 c9be
000001f0: 78c2 51be ebba 673f aa1a 943f a718 ce3e
00000200: 3547 4b3e b06d 803e f65c 69bd 5c9e 4f3c
00000210: 0a4b ed3d a076 043e 5090 233e f440 ef3d
00000220: 7bbd 673e adf6 ad3e f524 dc3e 1b72 3c3d
00000230: 2edc c33d 51a2 473e c1d1 923e afa5 803e
00000240: 87c3 953e d084 82bf 570d c7bf 3117 66bf
00000250: a314 2bbf 6ebc 27bf 8fb3 3f3d 9b18 d9be
00000260: 0e80 69be 9355 f5be 154f e3bc 707a 24bf
00000270: 4ac6 9bbf 7b4b 94bf c555 96bf 628b d6bf
00000280: 538d dc3c 4b9b 07bf c8bd ccbd d36e 423e
00000290: e21b 7ebf 01c4 253e d5b6 29bf 5e55 1cbf
000002a0: 5a84 68bf 153a 06bf b13c 10bf 91ea 8fbf
000002b0: 6215 04bf 687d d8be 1832 00bf 617f d7bc
000002c0: e2b1 a0bd 74ac 9a3c 3a92 0cbd d211 5dbd
000002d0: e38c d4bd db73 da3e 226d 8c3d 0e37 23be
000002e0: 1cdc 82be cc38 28bf a588 8abf 8d7b e1be
000002f0: 1766 cdbe 23a6 223e d911 87bf 7a12 25bf
00000300: c2ad 193c 5b43 90be aca8 7bbe 5afb efbe
00000310: 0ac2 b4be a12e 453b a5a0 823e 2860 1fbe
00000320: 82e4 f8bb 9038 36bc 8338 0abd cd63 0cbd
00000330: 7bf5 893d 886f b3be c6ba e1be 69c1 3fbd
00000340: 7ce4 c43d 8c6c 0d3e 5b3f 49bd c9bd 43bc
00000350: 5afc d7bc c4f6 823d c0d8 9bbc 2034 53bf
00000360: efa2 3dbf 0869 0ebf 4603 bfbf c964 a6bf
00000370: 12a7 bcbd a307 533e b4a3 943c a202 a93e
00000380: ce77 533e 4f65 b0bd 42e6 333d bc0e 163d
00000390: 0c3c d1bc 5c48 8fbd 09dc 253f 92d5 be3d
000003a0: 63b8 763e 6994 843c 498d a63e a33c 51bc
000003b0: f70b 9dbc a161 083e 5607 f13d effc 603e
000003c0: 0bd9 c6be 3cb2 e8be c5f2 39be 0b39 fdbd
000003d0: 2bbd 91bd 4849 7abf e34d 74bf d810 35bf
000003e0: e7dc ab3b 1de2 d3be afee f4be b4b2 83bf
000003f0: 6786 61bf 13c2 04bf 8381 94be 90c3 6f3e

fc1.bias f4 [64]
-0.015141343 0.3198842 0.46284202 -0.50561494 0.45711452 -0.6473406 0.3726711 0.26384556
-0.18575497 0.81242734 -0.48564973 0.029702289 -0.10622603 -0.63984567 -0.1380768 0.14221136
-0.6754025 -0.10177111 0.09599386 -1.3728892 -0.060092147 1.0267857 0.28993976 0.7193021
-0.07350203 -1.0758349 -0.6992918 0.10861399 0.49938118 -0.024879059 -0.15483965 0.04507659
-0.12926862 0.061257962 0.5796177 0.557992 -0.1386793 -0.56520957 0.05484867 -0.1828959
0.04599853 -0.79535574 0.7138823 0.5650337 0.058987662 -0.22938074 0.1407689 -0.7443057
-0.72583914 0.013923408 0.4854499 0.4505207 -1.0860897 -0.07667258 -0.29127434 -0.07206647
-0.27973932 -0.34593534 0.36264652 -1.3071318 -0.3642158 0.48496073 -0.032283656 1.1223847
00000000: 6513 78bc ddc7 a33e a1f9 ec3e fb6f 01bf
00000010: ea0a ea3e 1db8 25bf bfce be3e c416 873e
00000020: 8d36 3ebe 3dfb 4f3f 15a7 f8be 3752 f33c
00000030: 088d d9bd edcc 23bf 0164 0dbe db9f 113e
00000040: 2ee7 2cbf 5f6d d0bd 6e98 c43d d5ba afbf
00000050: 2f23 76bd b76d 833f fc72 943e 2f24 383f
00000060: 3b88 96bd f5b4 89bf ca04 33bf 0371 de3d
00000070: e4ae ff3e 2bcf cbbc 498e 1ebe 3ba2 383d
00000080: fe5e 04be a1e9 7a3d d361 143f 90d8 0e3f
00000090: f201 0ebe 93b1 10bf 00a9 603d 1049 3bbe
000000a0: f468 3c3d 6f9c 4bbf fec0 363f 0ca6 103f
000000b0: 0c9d 713d c9e2 6abe b925 103e d18a 3ebf
000000c0: 98d0 39bf 021f 643c e48c f83e a6aa e63e
000000d0: fd04 8bbf 8306 9dbd e921 95be 9697 93bd
000000e0: fe39 8fbe 701e b1be ceac b93e 1850 a7bf
000000f0: 7e7a babe c64c f83e de3b 04bd 4daa 8f3f

fc.weight f4 [4, 64]
-3.2229273 0.42072368 -2.2085629 -0.29350403 1.7717167 0.15597567 0.97025084 -1.5862697
-1.0922086 1.0275522 -0.35538462 -1.9947709 -2.3969193 -1.7885501 0.078422666 -2.7575383
-2.0514987 -2.2054062 -2.7056794 0.0215653 -1.7359247 0.484284 0.8069315 0.6971781
-2.6245933 -0.819863 -0.53420323 -3.87518 0.9046668 -3.4385214 -0.19324696 -1.0132757
-2.4498687 -3.63459 0.6393245 1.4005847 -3.652698 -0.14838053 -2.8679419 -2.0036626
-2.1613462 0.3724117 0.3270815 0.65616477 -5.194044 -0.08980268 0.41632238 -1.1865284
-0.49984837 -2.0962222 0.83410865 0.90159345 0.4149768 -2.7062523 -3.2583134 -2.493137
0.9196946 0.33199868 0.43605956 -0.043859676 -3.6345248 0.79402584 -2.5383801 0.36356938
0.21779506 -1.1182077 0.19548394 -0.99377143 -11.790366 1.2022861 -0.70681816 0.012795132
0.41034195 -0.7541326 -1.2482779 0.0884029 0.033743635 -0.47319055 0.04039138 0.03679688
-0.8442036 0.05992813 0.06739146 -0.8100249 -0.060048427 0.063364394 -0.19513193 -0.8476675
-0.0028729865 -0.6940882 -1.8681458 0.27861452 -0.25444025 0.23786701 0.051289264 -0.35083815
-0.17400329 0.26784742 -0.3438044 -5.473522 0.14937554 1.251753 -0.0038456793 -0.53409517
-0.2089441 -0.34367332 0.027491678 0.4302738 0.2921155 -0.07818012 -2.2021434 -0.96683717
-0.85226357 0.2348337 0.17009833 -0.17649333 -0.53144544 -0.2882712 0.31206968 0.13723019
0.21917026 -2.9110148 -1.4098501 1.4475789 -0.15386717 -0.37029505 0.24696727 -0.5341314
0.12425214 -0.2572615 0.3722025 0.43954146 1.7409611 -1.292495 -0.5258192 0.2907883
-0.6136595 0.017552959 1.2651588 -0.11926186 -0.01247582 0.3995675 0.076042235 0.35852447
0.91223425 0.07465427 0.27429065 0.67235625 -0.022098666 -0.69978213 -1.5361432 -0.8726172
0.044544365 0.8354131 0.20009588 0.17419596 -0.5866849 -0.15923782 -0.17858855 -0.4920963
0.054189693 0.0903111 -0.37909943 1.6012329 0.10955667 -1.2434577 0.19338608 0.46808037
-0.066312686 0.35003263 -0.24002153 -1.3624586 0.20214877 -0.05128911 -0.5562217 0.8172207
0.9145514 -0.009887726 -1.3339021 -0.5094448 0.4523755 -0.022113439 -0.28868878 0.08303067
-0.65176696 -0.18828067 -0.11662796 -1.5201713 0.34758514 0.11439311 0.026460962 -0.5834153
-0.0021913429 0.120028146 -1.8203429 -0.29968658 -3.7510135 0.20015964 0.5730563 -2.445988
0.47632766 0.47900295 0.075569406 0.30612874 0.039200388 0.46137366 0.07076041 -0.35619515
-0.39699334 0.19018245 -1.4500315 -0.10573837 0.31537876 0.14729764 0.883878 1.611887
0.14372236 0.45309153 0.074617125 -3.6553032 0.5529101 -0.19010176 0.44185022 1.2153411
0.23884861 -0.09701683 0.6899571 -3.4476535 -0.29253048 -0.4724441 0.24601029 0.1637184
0.5381306 -0.177896 0.25150236 0.1655757 -4.6017547 -0.09326682 0.3826754 0.05872586
-0.1456843 -0.036222067 0.81328773 0.6729642 -0.4130513 -0.043553844 0.22938788 0.21697779
-0.1074993 0.1018029 0.124718 -0.7763824 -0.07727121 0.8018442 0.11816701 0.7104689
00000000: 7144 4ec0 1869 d73e 1859 0dc0 2946 96be
00000010: 9dc7 e23f 16b8 1f3e 5c62 783f e30a cbbf
00000020: 7ecd 8bbf d586 833f f9f4 b5be a754 ffbf
00000030: 2067 19c0 36ef e4bf 109c a03d 827b 30c0
00000040: c14b 03c0 6025 0dc0 da29 2dc0 b6a9 b03c
00000050: c832 debf 13f4 f73e 1093 4e3f 447a 323f
00000060: 56f9 27c0 8be2 51bf 8bc1 08bf f302 78c0
00000070: 3e98 673f bc10 5cc0 88e2 45be 05b3 81bf
00000080: a6ca 1cc0 1f9d 68c0 c5aa 233f 5c46 b33f
00000090: cec5 69c0 11f1 17be 5c8c 37c0 023c 00c0
000000a0: 7f53 0ac0 bfac be3e 3a77 a73e 6afa 273f
000000b0: 9c35 a6c0 78ea b7bd 3528 d53e 2ae0 97bf
000000c0: 20ec ffbe 8128 06c0 2588 553f d4ce 663f
000000d0: d777 d43e 3d33 2dc0 3588 50c0 8e8f 1fc0
000000e0: 1b71 6b3f bbfb a93e 3343 df3e 34a6 33bd
000000f0: 0e9c 68c0 4745 4b3f d274 22c0 c425 ba3e
00000100: ab05 5f3e 6e21 8fbf f12c 483e ce67 7ebf
00000110: 57a5 3cc1 83e4 993f 09f2 34bf aca2 513c
00000120: 5718 d23e d60e 41bf 92c7 9fbf 940c b53d
00000130: c436 0a3d 0846 f2be 6f71 253d 53b8 163d
00000140: ba1d 58bf 3377 753d 8904 8a3d cb5d 4fbf
00000150: 57f5 75bd 31c5 813d aad0 47be bd00 59bf
00000160: b748 3cbb c4af 31bf 671f efbf 90a6 8e3e
00000170: fe45 82be 6993 733e b114 523d 0fa1 b3be
00000180: eb2d 32be 4c23 893e 2107 b0be 1827 afc0
00000190: e7f5 183e 7139 a03f cb07 7cbb 76ba 08bf
000001a0: 71f5 55be f3f5 afbe 3a36 e13c d94c dc3e
000001b0: 2a90 953e e61c a0bd ebef 0cc0 a482 77bf
000001c0: f22d 5abf 3f78 703e 422e 2e3e abba 34be
000001d0: cf0c 08bf 4898 93be 99c7 9f3e 1286 0c3e
000001e0: 2b6e 603e 114e 3ac0 f875 b4bf 444a b93f
000001f0: 5b8f 1dbe 5097 bdbe fde4 7c3e d6bc 08bf
00000200: e877 fe3d c8b7 83be 5391 be3e 940b e13e
00000210: d0d7 de3f 7a70 a5bf 169c 06bf 34e2 943e
00000220: ca18 1dbf 39cb 8f3c b9f0 a13f 903f f4bd
00000230: 6267 4cbc 1d94 cc3e 08bc 9b3d 8590 b73e
00000240: 2f88 693f 57e4 983d d36f 8c3e 8a1f 2c3f
00000250: 4308 b5bc ec24 33bf 57a0 c4bf d763 5fbf
00000260: 2774 363d a2dd 553f efe5 4c3e 6d60 323e
00000270: fb30 16bf 3d0f 23be ebdf 36be 0cf4 fbbe
00000280: 03f6 5d3d 07f5 b83d 5219 c2be 33f5 cc3f
00000290: 3f5f e03d 9f29 9fbf 0007 463e 3ba8 ef3e
000002a0: f2ce 87bd 7a37 b33e 34c8 75be 0b65 aebf
000002b0: 1600 4f3e 8814 52bd 8c64 0ebf 6035 513f
000002c0: 0a20 6a3f 2100 22bc 4ebd aabf f96a 02bf
000002d0: c39d e73e 3e27 b5bc 04cf 93be fc0b aa3d
000002e0: 33da 26bf a6cc 40be a4da eebd f994 c2bf
000002f0: aef6 b13e ef46 ea3d a9c4 d83c b55a 15bf
00000300: a29c 0fbb 51d1 f53d ff00 e9bf 8570 99be
00000310: 9b10 70c0 a6f6 4c3e d1b3 123f 118b 1cc0
00000320: 38e1 f33e e03f f53e 22c4 9a3d e8bc 9c3e
00000330: 9690 203d 2b39 ec3e d5ea 903d 365f b6be
00000340: b642 cbbe 30bf 423e a29a b9bf 5c8d d8bd
00000350: 5379 a13e 31d5 163e d445 623f 5052 ce3f
00000360: f42b 133e 9dfb e73e ddd0 983d 7df0 69c0
00000370: 848b 0d3f 09aa 42be 313a e23e 4c90 9b3f
00000380: bb94 743e c3b0 c6bd 07a1 303f 5ba6 5cc0
00000390: 8ec6 95be 31e4 f1be 1fea 7b3e cca5 273e
000003a0: edc2 093f 5e2a 36be ebc4 803e ad8c 293e
000003b0: 9341 93c0 ad02 bfbd 08ee c33e 878a 703d
000003c0: 442e 15be 975d 14bd a033 503f 6247 2c3f
000003d0: 767b d3be 8465 32bd a8e4 6a3e 6d2f 5e3e
000003e0: 9828 dcbd 0a7e d03d 276c ff3d ffc0 46bf
000003f0: 5e40 9ebd a945 4d3f 8c01 f23d 4ae1 353f

fc.bias f4 [4]
0.1761831 -0.09971266 -0.29636487 0.1661644
00000000: 5869 343e 2736 ccbd 23bd 97be 0027 2a3e
