LSTM/lstm1/lstm1.pth (torch, 818211 bytes, 14 tensors)

lstm.weight_ih_l0 f4 [400, 3]
000000 73 55 82 3e e6 f2 90 bc 38 4a 1b 3f be 08 7e 3e
       0.25455818 -0.017693948 0.60660124 0.24808022
000010 5d 51 5d 3e 86 77 f8 3e c6 3f 88 3e be 02 f2 3e
       0.21613069 0.4852869 0.26611155 0.47267717
000020 62 62 b7 bd f8 be a5 3d 61 f1 18 3d 16 3e 2d be
       -0.08954312 0.08093065 0.037339572 -0.16918215
000030 33 f0 b6 3d 61 e3 2e 3e 31 5e 39 be 32 84 80 3e
       0.08932533 0.17078926 -0.18102337 0.25100857
000040 a3 a2 6c 3e c0 c8 8b be dd 93 8f 3e d5 8a 16 3f
       0.23108916 -0.27301598 0.28042498 0.5880559
000050 d4 a9 a1 be 0e 4b df 3d 3e 69 80 3e 81 71 92 be
       -0.3157488 0.109029874 0.25080293 -0.28602222
000060 f4 7d 84 3d ac 4b 16 3e eb 81 6a be 92 cc 3a 3e
       0.06469336 0.14677304 -0.22901122 0.182421
000070 20 b4 bf 3d c6 90 94 3e cb c7 82 3e a8 f3 aa 3e
       0.09360528 0.29016703 0.25543055 0.3338902
000080 55 21 b2 be a3 3e 67 3e bf 08 6f 3e e7 43 77 be
       -0.34791055 0.22582488 0.2334318 -0.24146996
000090 b3 1f 5b 3e 28 6a 08 3e 02 ed 99 bd 36 02 3a 3e
       0.21398811 0.13321745 -0.07515909 0.18164906
0000a0 1d 59 11 3e bc 80 c3 be 34 36 49 3e 1b 0f 97 bc
       0.1419415 -0.38184154 0.19649583 -0.01843982
0000b0 9e 0f 3d be 88 bb 60 3e 30 7b 02 3f 6e 1a 9a be
       -0.18462989 0.21946537 0.5096922 -0.3009829
0000c0 c3 ee fa 3d 08 cc 0a 3e 24 8c c1 3e 0e 6d 0a 3d
       0.122525714 0.13554394 0.3780223 0.03379541
0000d0 84 d5 56 3e cd 10 b3 be f5 d8 2b 3e c5 1e 2d 3e
       0.20979887 -0.34973755 0.16781981 0.16906269
0000e0 e5 80 80 be 8a 46 f8 3d a3 29 7e 3d 1d f1 d1 3e
       -0.2509834 0.12122829 0.062051427 0.41004267
0000f0 31 4b ae 3e 6f 72 04 3f 5b 8a 14 3d ce 21 54 3e
       0.34041741 0.5173711 0.03626476 0.2071602
000100 1c e5 0c 3f 2a 9f df bc 1d a1 4a 3e cf fd fc 3e
       0.55037093 -0.027297575 0.19788022 0.4941239
000110 ac f9 fa be f4 2e 8a 3e 44 d8 b3 3e f4 64 9e be
       -0.4901861 0.26988947 0.35125935 -0.30936396
000120 1a da 2f 3e 84 71 0a 3d 04 bf e3 bd 31 21 1c 3e
       0.17173043 0.033799663 -0.11120418 0.15247037
000130 4d 65 57 3e 3b a4 c9 be 59 ef 2a 3e 68 4b 78 3e
       0.21034737 -0.3938311 0.16692866 0.24247515
000140 55 26 98 be b6 ea 27 3e 8a ea b7 3e 49 dc fa 3e
       -0.29716745 0.16398129 0.35921127 0.4899619
000150 da 7b a7 3d dd ea 4e 3e ff f5 8b be a5 0d 67 3e
       0.0817792 0.2020678 -0.27336118 0.22563799
000160 be 17 8d bc 67 13 d8 3e 6e b9 af 3e 69 aa 37 3f
       -0.017223235 0.42202303 0.3432116 0.717444
000170 45 52 2c bf c9 b9 c3 3e 9b ce 39 3f cb b1 10 bf
       -0.67313033 0.3822768 0.7258088 -0.5652129
000180 8a 88 aa 3d 70 bb 93 3e 64 05 be be e0 e1 a7 3d
       0.08326824 0.2885394 -0.37113488 0.08197379
000190 5b 31 1e 3d 3f b8 b8 3e e4 c3 ec 3d d3 82 29 3e
       0.038621288 0.3607807 0.11560801 0.16553812
0001a0 a4 d6 21 bd eb 93 cb 3d 48 98 65 3e 2f 4e 84 be
       -0.039511338 0.099403225 0.22421372 -0.258409
0001b0 ab 9e 0b 3e 59 32 f1 3e 97 71 e6 be f3 7f 9c 3e
       0.13634746 0.47108725 -0.45008537 0.30566368
0001c0 f8 c3 37 3e f6 a9 05 3f 6a 5a 4d 3e 1a 60 ee 3d
       0.1794585 0.52212465 0.20054021 0.11639424
0001d0 6e f0 9d bd bd bb 88 3e c8 b0 d4 3e d8 aa 46 be
       -0.07711874 0.26705733 0.41541123 -0.19401109
0001e0 3a 91 19 3e 69 0f 4e 3e e0 68 db 3e 1a 12 15 3e
       0.14996806 0.20123066 0.4285345 0.14557686
0001f0 be 35 74 3c 71 2f 3a be d8 b0 aa 3e 78 7a 01 3f
       0.014905391 -0.1818216 0.33338046 0.505775
000200 23 98 b8 be b4 5b 0a 3e 79 24 74 3e f9 9a 8d be
       -0.3605357 0.13511544 0.23842038 -0.27657297
000210 7e 6c 03 3e d5 de 91 3e 24 eb c3 be cf 05 35 3d
       0.12834355 0.2849032 -0.38265336 0.044194993
000220 a5 88 d6 3d fa b5 5d 3d 7f b6 57 3e fd a5 99 3e
       0.104752816 0.054128624 0.2106571 0.30009452
000230 72 49 5e be cd e1 8b 3e 58 21 1b 3f 9b 51 bd be
       -0.21707705 0.2732071 0.60597754 -0.36976323
000240 68 cb 11 3d af e8 12 3e cb f5 e0 bd a3 e5 c0 3e
       0.035594374 0.14346574 -0.10984381 0.376752
000250 ea b8 19 3f 0c 5c d3 be 59 a1 81 3e 9e a6 09 3f
       0.6004778 -0.41281164 0.2531841 0.5376986
000260 34 a2 9a be c6 93 a9 3e ae 2a 2b 3f 78 33 ef be
       -0.30201876 0.33120555 0.66862 -0.46718955
000270 34 05 e2 3d d1 46 1d 3e 5f 7d 22 bd 89 59 13 3e
       0.11036149 0.15359046 -0.039670344 0.14389624
000280 42 81 09 3e 4d 06 bf 3e 84 64 2a 3d 9f 85 7f 3e
       0.13428214 0.37309495 0.041599765 0.24953316
000290 30 b1 cf be b0 ba 8c 3e b0 e5 84 3e 78 dd e9 3e
       -0.4056487 0.2748618 0.25956488 0.4567678
0002a0 8a 35 ab 3d 5a 85 a1 3e ae 7d af be 2e 65 95 3e
       0.08359821 0.31547052 -0.34275573 0.29178756
0002b0 57 b5 ea 3e 0b 1c 4e be 6e 33 05 bd 51 3d 8e bc
       0.45841476 -0.20127885 -0.03251975 -0.017363222
0002c0 15 e9 14 be a1 df 16 3e 49 cf 65 3e da 92 bb 3e
       -0.14542039 0.14733745 0.22442354 0.36635476
0002d0 7f 61 c7 3e 80 40 30 3f 3e 8d 27 bf f1 54 1a 3e
       0.3894157 0.6884842 -0.65449893 0.15071465
0002e0 a4 89 06 3e 98 6c 54 be 26 b6 d3 3d bc 7b e9 3d
       0.13138443 -0.2074455 0.103374764 0.114005536
0002f0 0c e5 2c 3e 0e 55 07 3e 97 bf 9e 3d da ba c5 bd
       0.1688425 0.1321604 0.077513866 -0.0965478
000300 50 78 0f 3d ba bc 0a 3e 9d 3c 8c be 3e c0 01 3e
       0.03502685 0.13548556 -0.27389994 0.12670991
000310 38 78 49 3e 94 54 33 be 08 ee 0b 3e d9 6a 47 3d
       0.19674766 -0.17512733 0.1366502 0.048685882
000320 d9 82 a3 3d e2 7f 1d 3e 84 6f 8c 3d b8 42 d0 3e
       0.079839416 0.15380815 0.068572074 0.40675902
000330 c8 80 bf 3e 9b 6c 00 3f 08 ab de be e0 a8 58 3e
       0.3740294 0.5016572 -0.4348986 0.2115817
000340 ed c9 78 3e 8d 0b e9 3e 8d 62 eb bc b2 2d 01 3e
       0.24295779 0.45516625 -0.028733516 0.12615088
000350 c3 56 88 be 18 5b 81 3e ec 59 be 3d f4 f3 db 3e
       -0.26628694 0.25264812 0.09294495 0.4295956
000360 06 27 22 3e ee a5 27 3e c5 28 e3 3e 2b 17 be 3e
       0.15835199 0.16371891 0.44367042 0.3712705
000370 90 96 22 3f ce 62 2c be 59 ee f4 3c 58 da 87 3a
       0.6351099 -0.16834566 0.02989881 0.0010364754
000380 bd 50 59 3a ff 99 b5 3d b1 8c 9e 3e 71 bd e2 be
       0.0008289924 0.08867263 0.30966714 -0.44285157
000390 bd 09 14 3e 20 1f 42 3e 82 a3 d0 3e 1a 43 b5 3e
       0.1445684 0.18957186 0.40749747 0.35402757
0003a0 3d e8 04 3f 1e 63 b7 be ec d6 4d 3e 7b fd 57 3e
       0.5191687 -0.35817808 0.20101517 0.21092789
0003b0 b9 6a da 3e 52 b0 d7 3d e1 bb 8d 3d 63 46 92 bd
       0.42659548 0.10531677 0.06920601 -0.071423315
0003c0 6b f7 57 3e f3 bd 13 3e 90 ea 8a 3e f4 e4 7f 3d
       0.21090476 0.14427929 0.27132082 0.062474206
0003d0 ce eb b6 3d d3 ae 5e bd 0b ff 4c 3e 8b f7 91 3e
       0.08931695 -0.054365944 0.20019166 0.28509173
0003e0 17 7c 1a be b7 04 51 3c 9d eb 17 3e bc b8 f4 bd
       -0.15086399 0.012757472 0.14835973 -0.11949298
0003f0 71 80 5d 3e e0 d3 5c 3e b1 16 df 3e dc 0b 97 3d
       0.21631028 0.21565199 0.43572 0.07375309

lstm.weight_hh_l0 f4 [400, 100]
000000 27 3e 8c 3d 60 00 cd 3b 02 c5 93 bd bd 1d 66 bd
       0.06847792 0.006256148 -0.07215311 -0.056180704
000010 4a 99 59 bd bd 8d 3f bd f0 51 14 3c f4 3c 90 3c
       -0.053124703 -0.04676603 0.009052739 0.01760719
000020 19 a0 a9 3d 49 72 b6 3d a8 3c 32 3c c1 25 9b 3d
       0.08282489 0.08908517 0.010878719 0.0757556
000030 a0 52 45 3b 03 94 92 3d 88 20 c0 bc 1b 2d 9b bd
       0.0030109063 0.07157137 -0.023453012 -0.075769626
000040 78 7c cb 3c 7b e1 95 bd 02 9d 7e 3d 2d f7 46 bd
       0.024839625 -0.073183976 0.062161453 -0.04857557
000050 f0 8e 3d 3c 38 31 b5 bc f2 95 5e 3d 65 2e ab bd
       0.0115697235 -0.022118196 0.054342218 -0.083584584
000060 5e 0a 03 3d 5a c4 7f 3d c0 5e 7b 3c c0 8c 31 bd
       0.03199231 0.062443115 0.015342414 -0.04334712
000070 7a 97 05 bd aa f3 30 bd e2 05 34 3d 6a 11 30 bd
       -0.032615162 -0.043201126 0.043950923 -0.042985357
000080 30 1e a9 bb 11 89 ba 3d b3 ec b4 bd 60 2e 06 bd
       -0.0051610693 0.091081746 -0.08834209 -0.03275907
000090 d1 1b 9e 3d 97 28 76 bd 22 81 08 3d ff 3a b1 bd
       0.07720149 -0.060097303 0.033326276 -0.08653831
0000a0 62 3b 63 3d 7b 0a 9c 3d 2c 87 f0 bc be da 28 3d
       0.055476554 0.076191865 -0.02936133 0.041224234
0000b0 f0 1e 3a bd b0 c6 07 bd a8 b3 96 3c 1a 67 53 3d
       -0.04543966 -0.033148468 0.018396214 0.051611997
0000c0 b6 9e 08 3d bc 8c 8c bd 96 a3 14 3d 76 1b 7e 3d
       0.033354484 -0.068627805 0.03628882 0.062037908
0000d0 07 68 89 3d 8f a2 b8 3d 40 06 1d bd 83 1b 99 3d
       0.06709295 0.090153806 -0.03833604 0.074759506
0000e0 52 76 7f 3d 34 a3 fd bc d8 96 a2 3c ba 1e 1b 3d
       0.0623687 -0.03096161 0.019847319 0.0378711
0000f0 f2 3a 01 3d 39 bc 9e 3d 0d 46 1f bd 28 e0 f3 bc
       0.031550355 0.077507444 -0.038885165 -0.029769972
000100 04 a7 87 bd 94 b2 91 3c 42 b1 1e 3d e0 a3 b0 3c
       -0.066236526 0.017785348 0.038743265 0.021562517
000110 28 77 a3 bc 46 82 2c 3d 1d 5a 95 bd d2 e4 3b 3d
       -0.019954279 0.042116426 -0.07292578 0.045872517
000120 64 23 10 bd 2e b1 1f 3d 6d 35 bf 3d 6a e7 7a 3d
       -0.03519 0.03898733 0.09336362 0.06125585
000130 64 30 fd 3c 81 03 81 3d 22 a7 21 3d 73 2a 87 3d
       0.030906864 0.062994964 0.03946603 0.065998934
000140 52 27 02 3d 6b f1 97 3d c6 bf 03 bd da f4 42 3d
       0.03177578 0.07419094 -0.03216531 0.04759679
000150 e9 8c ab 3d 70 c7 5b 3c d0 da ec 3b e3 45 30 bd
       0.08376486 0.013414249 0.007228233 -0.0430354
000160 a2 25 ca bd fa d4 3c bd fe be 55 3d 4e b7 8b bd
       -0.09870459 -0.046101548 0.052184097 -0.06822072
000170 ae 38 3a 3d 94 0b dd 3c 30 31 77 bd a8 5c cb bd
       0.04546421 0.02698306 -0.060349643 -0.09929782
000180 00 b4 59 bb 4c f1 da 3c c2 35 5a 3d 00 f6 c4 ba
       -0.003321886 0.026726387 0.053273924 -0.0015026927
000190 33 ed 24 bd 82 1b 8b bd 29 56 97 3d e2 17 22 3d
       -0.040265273 -0.06792356 0.073894806 0.039573558
0001a0 23 c7 b4 3d bf 23 99 3d 50 a6 14 bc d8 81 c2 bd
       0.08827045 0.07477521 -0.009072855 -0.09497422
0001b0 90 6b 1e bd c2 a4 10 3d df eb 83 3d cb 2f 92 3d
       -0.0386768 0.035313375 0.06441473 0.07138022
0001c0 f6 8e 51 3d 10 48 01 bc 80 59 56 3a a0 fc c3 3b
       0.05116173 -0.007890716 0.00081767887 0.005981043
0001d0 de 46 14 3d b0 20 f6 bb 12 2e 25 3d e0 e6 3a bd
       0.036200397 -0.007511221 0.04032714 -0.045630336
0001e0 ec 03 f3 3c 40 78 3e 3b 20 23 f0 bc 1b 9c c2 3d
       0.029664956 0.0029063374 -0.029313624 0.09502431
0001f0 40 27 70 3b e8 3c 68 3c 52 0e 4e 3d 7a 44 1b 3d
       0.0036644489 0.014174677 0.050306626 0.0379071
000200 2d 02 1a bd 68 1d cb 3c 94 de e4 bc c0 d4 21 bd
       -0.03759973 0.024794295 -0.027938165 -0.039509535
000210 a0 69 98 3b a2 2b 1f 3d 8d 78 7c bd 2c 1b c0 bc
       0.0046512634 0.03885997 -0.061638404 -0.023450457
000220 e2 b1 5a 3d d0 b6 42 3c 6b 33 af 3d 61 f7 ad 3d
       0.0533923 0.011884406 0.08554729 0.084944494
000230 4a 7d 10 3d 87 40 ca 3d 0e 99 6d 3d 98 c4 91 bc
       0.035275735 0.09875589 0.058007292 -0.017793939
000240 f5 00 bf 3d 62 9f 36 3d 81 60 9f 3d 83 c3 39 bd
       0.093263544 0.044585593 0.077820785 -0.04535247
000250 79 17 a6 3d a0 4a 3a 3b 20 fd 36 bd 01 1b c8 3d
       0.08109946 0.0028425828 -0.044674993 0.097707756
000260 80 ca 32 3a 80 a7 7f bc ea a6 8e bd da 95 12 bd
       0.0006820336 -0.0156039 -0.0696543 -0.03578744
000270 63 f0 c8 bd a0 78 ec bb 74 ba 95 3c 28 7f 5c bc
       -0.09811475 -0.007216528 0.018277384 -0.013458051
000280 58 89 01 3c f4 12 05 bd 4d fb b3 3d b0 fa 08 bd
       0.00790628 -0.03248878 0.08788166 -0.0334422
000290 6a 03 45 3d e6 9b 98 bd 2c 57 90 3c 80 51 83 ba
       0.04809896 -0.0745161 0.017619692 -0.0010018796
0002a0 a6 bd 37 3d ba 72 50 bd ec b6 d1 bc 34 0f 93 bc
       0.044858597 -0.05089066 -0.02559992 -0.017951585
0002b0 00 21 33 3b 87 db 4a bd 3d d7 6f bd 6b 84 cc 3d
       0.0027332902 -0.049525764 -0.058554877 0.09986194
0002c0 1b c5 ba 3d b3 ee a7 bd 58 4d a5 bc 7d f8 a1 3d
       0.09119626 -0.08199825 -0.020178482 0.079087235
0002d0 50 59 86 bb b0 c6 ed bb 8a 09 56 3d e6 ef 48 3d
       -0.0041000023 -0.0072563514 0.05225519 0.04905691
0002e0 00 68 1b bc ec dd fb bc 28 d9 5c bc a8 75 b7 bc
       -0.009485245 -0.030745469 -0.013479508 -0.02239497
0002f0 ea 5d c8 bd c9 c6 9a 3d af 7a 9c 3d f5 49 b5 3d
       -0.09783538 0.075574465 0.076405875 0.08851997
000300 07 30 ae bd 0d c8 30 bd 8b e4 8b 3d 40 1d 70 3b
       -0.08505254 -0.043159533 0.068307005 0.0036638528
000310 13 e7 8e 3d 86 a7 2b 3d 25 9d 8f 3d fa 7b 0e bd
       0.06977668 0.04190781 0.07012395 -0.034786202
000320 2d 08 8c 3d 32 d0 10 3d 22 58 49 3d d0 f2 89 3b
       0.06837497 0.0353548 0.049156316 0.0042098537
000330 f1 f5 ab 3d d4 5f 84 3c 32 12 7f 3d d0 80 18 bd
       0.08396519 0.016158976 0.06227321 -0.03723222
000340 77 7d a5 3d b1 7d 80 3d f0 56 49 bc 65 d3 85 bd
       0.08080571 0.06273974 -0.012288794 -0.06534461
000350 e0 d2 92 bc 8e c1 5c 3d 81 1d 97 3d c0 ce 11 3b
       -0.017922819 0.053895526 0.07378674 0.0022248477
000360 98 b6 80 bc a2 4f 00 3d ce 64 83 bd a2 ed b0 bd
       -0.015712067 0.031325944 -0.06415711 -0.08639075
000370 ee 20 aa bd 00 3d 36 3b 40 fa d0 bc b5 6f a5 3d
       -0.08307062 0.0027807355 -0.025509953 0.08077947
000380 c7 54 9b 3d 92 d8 3e 3d 1e ca 11 3d 22 25 45 3d
       0.07584529 0.046593256 0.035593145 0.048131116
000390 fd b5 81 bd b9 6c 83 3d 27 5d 51 bd 74 4b db bc
       -0.0633354 0.064172216 -0.051114228 -0.026769377
0003a0 40 d5 68 3b 80 69 b5 3c e7 da 20 bd 80 03 99 bd
       0.0035527498 0.022145033 -0.03927126 -0.07471371
0003b0 40 4d a0 3c 95 2c a6 bd fe 36 5a 3d 97 ae 1d bd
       0.019568086 -0.08113972 0.0532751 -0.03849658
0003c0 20 88 de 3b 5d fa 92 bd 73 98 35 bd ba e8 25 3d
       0.0067911297 -0.07176659 -0.04433484 0.04050515
0003d0 20 2e 92 3b 5c d5 0c bd bf 29 b3 bd 5e ee 6a 3d
       0.004461065 -0.034383163 -0.08748197 0.05735623
0003e0 88 1d c7 bc 30 b5 42 bd 21 b9 ac 3d b2 d7 23 3d
       -0.024306074 -0.047536075 0.08433748 0.040000625
0003f0 eb 70 b3 bd 46 86 08 bd a7 24 a0 3d 86 d6 46 3d
       -0.08761772 -0.033331178 0.07819491 0.04854443

lstm.bias_ih_l0 f4 [400]
000000 71 49 25 3e e9 69 e4 3d 5b 3e 95 3e 89 fb 22 3d
       0.16141297 0.11153013 0.29149136 0.039790664
000010 15 04 b4 3d 73 a4 89 3d e3 82 ce 3e 68 de 0c 3e
       0.08789841 0.06720819 0.40334234 0.13756716
000020 30 52 48 3e ae b3 ca 3c 66 fe 1f 3e 21 0c 64 3d
       0.19562602 0.024743881 0.15624389 0.05567563
000030 e6 81 23 3d 05 cc c5 3d a9 9d b3 3c ed b6 8a 3e
       0.039918803 0.09658054 0.021925764 0.27092686
000040 47 f3 97 3e ea a7 9d 3d 43 27 09 3e 46 e4 84 3d
       0.29677793 0.07698043 0.13393883 0.06488852
000050 eb e7 d1 3e 0a eb a1 3e 6c 14 68 3e 31 12 18 3e
       0.40997252 0.31624633 0.2266404 0.1485069
000060 ed 0a 35 3e 7d 84 50 3e a1 c9 ad 3d ff bb 78 3e
       0.17679949 0.2036304 0.08485723 0.24290465
000070 53 da 37 3e fe 0b 29 3e ce 1e f5 3e b3 f4 de 3e
       0.17954378 0.16508481 0.47875065 0.43546066
000080 f0 ac 34 3e 82 77 65 3e 36 2f 20 3d 65 5b 9b 3d
       0.17644095 0.2240887 0.039107524 0.075857915
000090 0d e6 1a 3e a9 70 23 3e 4d 7e 07 3d 90 a0 6b 3e
       0.1512682 0.15960945 0.033079434 0.23010468
0000a0 9d d9 a2 3d c5 2e e7 3d 12 1d 71 3e 05 60 c9 3d
       0.07951663 0.112882175 0.23546246 0.098327674
0000b0 9a 2b f3 3d 6e 9b 42 3d ca bd 09 3e a3 1b b9 3e
       0.11873551 0.04751151 0.13451305 0.36153898
0000c0 9f cf 74 3d d4 60 f6 3e db e0 8d 3e 79 d1 d5 3e
       0.059768315 0.4812075 0.27710614 0.41761377
0000d0 a3 14 a9 3d e4 56 7f 3e f3 3a a9 3d 23 1a 87 3e
       0.08255889 0.2493549 0.08263197 0.26387128
0000e0 fe 85 86 3e 4c 46 93 3e 29 52 16 3d 27 35 37 3e
       0.26274103 0.2876457 0.036699448 0.1789137
0000f0 58 1e ce 3e ef 98 2d 3d 7f 05 5a 3e c1 59 67 3d
       0.40257525 0.042382177 0.21291159 0.05648208
000100 36 59 84 3d 5f 9b 29 3e 79 92 52 bb dd 86 57 3e
       0.06462328 0.16563176 -0.0032130762 0.2104754
000110 00 2f a5 3e 97 d9 17 3e ae 1a 5f 3d fb a2 15 3e
       0.3226242 0.14829098 0.054468803 0.14612953
000120 7f ab 41 3e 61 21 a5 3e be 6c 9f 3c 3f 8d 3d 3e
       0.18913077 0.3225203 0.019461032 0.18510912
000130 ce fb 4e 3e 53 dc bf 3e 20 f3 6f 3e 1e 1a 4a 3e
       0.20213243 0.37472782 0.23432589 0.19736525
000140 b0 6b b9 3d 9f 53 f8 3d e6 3c 5d 3e c0 15 88 3d
       0.09053743 0.121253245 0.21605262 0.066447735
000150 9b f4 7d 3e 65 79 36 3e e5 77 24 3d 7c 53 32 3e
       0.24800341 0.17819746 0.040153403 0.1741466
000160 38 5e 68 3e 52 8d 72 3e 10 1a 49 3e d9 05 87 3e
       0.22692192 0.23686722 0.19638848 0.2637165
000170 6a 73 32 3e 1b 9f 80 3e a1 4b 1c 3e 76 33 4b 3e
       0.1742684 0.25121388 0.15263225 0.1984385
000180 ed c7 7b 3e 14 52 9d 3d 2c e1 9e 3e ed 16 20 3e
       0.24587984 0.07681671 0.31031168 0.15633745
000190 14 f6 08 bd ce 89 9e bd 10 62 0d 3c 02 d9 37 3d
       -0.033437803 -0.07741128 0.008629337 0.04488469
0001a0 10 93 7b bc 07 cf b2 bd ac 8e f3 bc 6e de 00 3d
       -0.015354887 -0.087308936 -0.029731117 0.031462125
0001b0 55 f9 98 3d 40 a1 ae 3a c0 31 c5 bd f0 b6 71 bc
       0.07469431 0.0013323203 -0.0962863 -0.014753088
0001c0 d5 31 90 bd b4 5b 9e 3c 94 38 f4 3c 5d c5 56 bd
       -0.07040755 0.019330837 0.029812135 -0.052434314
0001d0 9b 50 a4 3d 4c 7b 93 bc 8e d3 95 bd 7d cd 86 bd
       0.08023187 -0.018003128 -0.073157415 -0.065821625
0001e0 e0 80 8c bc 0b 9a c0 3d 42 f3 63 3d 74 33 af 3c
       -0.017151296 0.09404381 0.05565191 0.02138684
0001f0 17 75 cc 3d 28 54 bb 3c a3 9d 34 bd a5 53 a4 bd
       0.099832706 0.022867277 -0.044095647 -0.080237664
000200 4a 51 cc bd 2c 66 9a 3c 7b 38 ca bd 8c 42 a2 3c
       -0.09976442 0.018847547 -0.09874054 0.019807123
000210 c0 7a af 3c 88 73 ac bc cc eb 8c bc 75 93 99 3d
       0.021420836 -0.021051183 -0.01720228 0.07498828
000220 cb 19 90 bd 02 eb 9c bd b3 b3 22 bd a7 a0 b8 bd
       -0.070361696 -0.07662012 -0.039722156 -0.09015017
000230 ed e7 3c bd 51 d7 81 3d 88 75 a7 bd ad 53 92 bd
       -0.04611962 0.063398965 -0.08176714 -0.07144866
000240 ca 97 39 bd 92 a5 6d 3d f0 07 6d 3c 94 bb a3 bc
       -0.045310773 0.05801923 0.0144672245 -0.019986905
000250 aa a0 1b bd 18 d0 b8 bc 87 a9 79 bd f2 91 58 3d
       -0.037995018 -0.022560164 -0.06095269 0.05287356
000260 18 ae 2e bc 3a 47 1b bd 90 ab b1 bd 50 ab 32 3c
       -0.010661624 -0.037909724 -0.08675301 0.010905102
000270 37 9e 93 3d e0 2b b9 bc 37 79 9c 3d 5d b4 8c 3d
       0.072079115 -0.022603929 0.076403074 0.06870339
000280 c0 16 05 3c c0 43 a1 bc 4a 91 94 bd 18 ee fc bc
       0.0081231 -0.019685626 -0.07254274 -0.03087525
000290 74 76 ff 3c f1 96 c5 3d 72 76 22 3d 60 e0 b7 3c
       0.031184413 0.096479304 0.03966374 0.022445858
0002a0 b6 05 88 bd 40 88 0d 3b a0 da 49 3b dd c0 9d bd
       -0.06641714 0.0021596104 0.0030800477 -0.077028014
0002b0 85 13 80 3d 00 01 a5 3c 80 83 de 3b 7d 85 c4 3d
       0.06253723 0.020142078 0.0067905784 0.09595773
0002c0 32 1a 02 3d 08 50 c7 bd e0 fd f9 3b b0 02 88 bd
       0.031763263 -0.097320616 0.007629141 -0.066411376
0002d0 7e 9c 62 3d 60 9e ef 3b 65 a0 c3 3d 9a 82 52 bd
       0.055325024 0.007312581 0.09552077 -0.051394083
0002e0 48 66 b4 3c e3 e9 31 bd 5b c6 87 3d 37 c8 a7 3d
       0.022021428 -0.043435942 0.0662963 0.08192485
0002f0 80 82 a9 3c 68 1d fa bc 12 52 5a 3d 72 e7 0e 3d
       0.02069211 -0.0305316 0.053300925 0.034888692
000300 a3 69 bc bd ff a7 99 3d e3 46 4c bd 07 de 71 bd
       -0.09199836 0.07502746 -0.04987229 -0.059049632
000310 08 79 b4 3c 80 fc cc ba ce aa a0 bd 76 a6 5b 3d
       0.022030368 -0.0015639216 -0.078450784 0.053625546
000320 3f 9c be 3d 93 09 94 3d 07 7e 31 3d 1c 46 17 be
       0.09307145 0.07228389 0.04333308 -0.14772838
000330 8b 95 ee 3d e4 83 9e 3c 04 da 46 3d 2f 1a 03 3e
       0.11649617 0.01935 0.04854776 0.12802957
000340 ae af 1c be 95 35 0c be 68 cd c2 bd f1 16 89 bd
       -0.15301391 -0.13692315 -0.095118344 -0.06693829
000350 11 f3 7c bd 47 5a 14 3e 0c 97 3a 3e 9b d2 05 3d
       -0.061755244 0.14487563 0.18221682 0.032671552
000360 ee cb 35 be 79 ed 1d 3e 13 d5 de 3d dd a5 4e 3d
       -0.17753574 0.1542262 0.108804844 0.05045115
000370 7e 44 3b bc 44 fd 19 3e fd ce f5 bd d3 48 d2 bd
       -0.011429904 0.1503802 -0.120023705 -0.10267796
000380 51 86 2e 3e 26 21 13 3e 06 56 4d 3d a4 e5 3e 3e
       0.17043425 0.14368114 0.050130866 0.18642288
000390 ce 70 78 bd 5b cb c8 bd da b4 41 3c 9c 15 d9 bd
       -0.060654454 -0.09804412 0.0118229035 -0.10599825
0003a0 f1 ea 44 3d fa eb ed bd 1f 1c 48 3e ee e4 f3 bd
       0.04807562 -0.116172746 0.19541977 -0.11908899
0003b0 ab 91 fe bd 9c 1b 6b bc 3a d4 04 3e ca 8b 10 3e
       -0.12430128 -0.014349844 0.12971583 0.14115825
0003c0 e2 a4 34 3e a5 c1 88 3d 17 55 16 3e 61 02 b8 3d
       0.17641023 0.0667756 0.14680897 0.08984829
0003d0 96 76 d2 bd 3c 62 29 3e a2 44 9d bb dd 7b d8 3c
       -0.10276525 0.1654138 -0.0047994414 0.02642625
0003e0 9f 8f 93 3d 44 cd 15 bd 20 0d 8f 3d d5 69 db bd
       0.07205128 -0.03657271 0.06984925 -0.10713545
0003f0 66 fe 1f 3e 86 b2 b0 3d 2a d5 2f bd bd c3 0b 3e
       0.15624389 0.08627801 -0.0429279 0.13648887

lstm.bias_hh_l0 f4 [400]
000000 09 6e 80 3e cf 38 11 3e 2a ed 7c 3e 39 1f 2e 3e
       0.2508395 0.14181827 0.24699846 0.17004098
000010 11 98 04 3e 7f 29 7c 3e 23 5b c5 3e dc f5 01 3e
       0.12948634 0.24625205 0.38546094 0.12691444
000020 86 e2 22 3e 49 b8 89 3d 7f a5 68 3e 4e 7d 75 3e
       0.15906724 0.06724603 0.22719382 0.23973581
000030 d9 07 d8 3c b6 77 68 3e c5 23 38 3e 7d 9a 6e 3e
       0.02637093 0.22701916 0.17982395 0.2330112
000040 93 b5 2f 3e 1a a3 bf 3d bc 6c 27 3e 2b 30 c7 3d
       0.17159109 0.09357281 0.16350073 0.09725984
000050 50 04 8f 3e de 53 9c 3e a1 92 ed 3d 5d c1 5a 3e
       0.27932978 0.30532736 0.11600233 0.21362825
000060 d9 7e f8 3d 57 ef 07 3d 4b 47 14 3d 0c 89 8b 3e
       0.12133569 0.033187237 0.036200803 0.27252996
000070 cf 1a 86 3d 56 c1 2e 3d c7 5a f3 3e 50 43 e3 3e
       0.06548082 0.04266485 0.47530195 0.44387293
000080 12 18 89 3e 93 d5 29 3e e4 7a bd 3d 99 43 48 3e
       0.26776177 0.16585378 0.09251955 0.19557036
000090 b2 52 84 3e 67 37 7b 3e f2 f1 5d 3e f3 f3 3b 3e
       0.25844342 0.24532853 0.21674326 0.18354778
0000a0 a1 18 57 3e 5b 70 f0 3c 18 fd 5c 3e 57 f3 6a 3e
       0.21005489 0.02935045 0.21580923 0.2294439
0000b0 93 e9 51 3d 4b b5 fb 3d 85 10 a6 3e 10 5d bf 3e
       0.051248144 0.12290438 0.32434478 0.3737569
0000c0 6b 4b fd 3d a9 e7 a0 3e 7a ef b7 3e 06 62 d0 3e
       0.123679005 0.31426743 0.35924894 0.40699786
0000d0 ff 10 3e 3e 3f 1b ea 3d 58 fa b2 3d 3e bf b0 3e
       0.18561171 0.11430978 0.087391555 0.34520906
0000e0 ab 87 23 3e e9 5a a1 3e 98 3d 22 3e 6c 45 43 3e
       0.15969722 0.3151467 0.15843809 0.19069451
0000f0 d8 f5 9f 3e 55 16 4d 3e 69 03 3d 3e 7e 7d 3f bc
       0.3124225 0.2002805 0.18458332 -0.0116876345
000100 87 d4 43 3d 7a b6 fd 3d ac bf 6c 3d d8 d8 9c 3e
       0.047810104 0.1238832 0.05779998 0.3063419
000110 c0 ff b3 3e 50 a9 24 3e 14 58 b0 3d be f2 7a 3e
       0.3515606 0.16080213 0.086105496 0.24506661
000120 66 87 6a 3e fa b1 b3 3e 04 6a 26 3e 64 c5 86 3e
       0.22903213 0.35096723 0.16251379 0.26322472
000130 fd 98 da 3d 43 07 97 3e e7 5a 51 3e cb b5 cc 3d
       0.106737114 0.29497728 0.20444833 0.09995612
000140 86 07 18 3e c8 21 a3 3d ba d8 3f 3e 7f 6c ca 3c
       0.1484662 0.07965428 0.18735018 0.024709938
000150 59 76 09 3e 14 b4 2e 3e f2 9f b8 3d be ae 3f 3e
       0.13424052 0.17060882 0.09014882 0.18719003
000160 32 77 0d 3e 3d b4 7e 3e 7b f3 18 3e 20 45 98 3e
       0.13815 0.24873443 0.1493663 0.29740238
000170 c2 2c 9d 3d b5 2e b0 3e 26 44 28 3a a3 5a b3 3e
       0.076745525 0.34410635 0.00064188463 0.35030088
000180 45 4f 34 3e 61 8c 5d 3e 7b df 7e 3e ab d2 4e 3e
       0.17608364 0.21635582 0.24889939 0.20197551
000190 b1 bc a5 3d b5 43 ad bd 33 9a 4e bd 0f 8f 92 3d
       0.08092631 -0.0846018 -0.050440025 0.071561925
0001a0 60 62 72 bb 00 01 f7 bc 48 98 a8 bc 9a a6 7c 3d
       -0.0036984906 -0.030151844 -0.020580426 0.06168232
0001b0 52 7c 35 3d 60 ae 88 bd 0e bf 24 3d a0 c5 13 bd
       0.044308014 -0.066738844 0.040221266 -0.03607714
0001c0 14 c4 0d bd b7 f0 a7 3d d2 8e 54 3d 0a 63 17 3d
       -0.034610823 0.082002096 0.051894017 0.036959685
0001d0 45 16 80 bd 41 06 94 3d 4e 81 a2 bd d0 2a 81 bb
       -0.062542476 0.07227755 -0.07934819 -0.003941871
0001e0 e0 7f 6b bd a5 1e c6 bd f0 6f 79 bc ea 1d 86 bd
       -0.057494998 -0.09673814 -0.015224442 -0.065486744
0001f0 47 82 aa 3d 49 81 b8 3d 2f 17 8a 3d 01 06 c6 3d
       0.0832563 0.09009034 0.06742703 0.09669114
000200 e2 ee 5b 3d 92 13 8e bd ba 1a 5c 3d 00 94 76 bc
       0.053694613 -0.069373265 0.053736426 -0.015049934
000210 20 aa 00 bd c0 00 6d bb b7 56 4e bd 1a 1a 69 3d
       -0.031412244 -0.0036163777 -0.050375666 0.056909658
000220 e4 0f d6 3c 4e 44 8f bd ec 90 f7 3c 04 39 ff 3c
       0.026130624 -0.0699545 0.030220471 0.031155117
000230 71 e1 b3 3d 72 ec 2f 3d 87 50 4e bd 86 4f 1f 3d
       0.08783234 0.0429501 -0.050369766 0.0388942
000240 1b fc ad bd 9e 76 33 3d fd e8 58 bd 0c f8 d8 3c
       -0.08495351 0.043814294 -0.05295657 0.026485465
000250 93 33 ab 3d 98 a7 9e 3c 70 30 47 bc d7 fe 2b bd
       0.083594464 0.019367024 -0.0121575445 -0.04199108
000260 63 06 3f bd 3f f5 b3 3d 3d ef c2 bd 4a 6f 49 bd
       -0.04663695 0.08787011 -0.09518287 -0.0491784
000270 94 ee 9b 3c 2e 3a 7d 3d 9a 3d 1a 3d 3a 54 b5 bd
       0.019034661 0.061823063 0.037656404 -0.088539556
000280 ba 9f 0c bd 76 82 88 bd 57 29 2b bd c0 32 0f bd
       -0.034332015 -0.066655084 -0.04178747 -0.03496051
000290 2d 4c 81 3d 00 a8 56 b8 08 ab f7 bc 46 50 3a 3d
       0.063133575 -5.1178038e-05 -0.030232921 0.04548671
0002a0 d0 57 8f bb 42 fa cb bd 52 03 6a 3d 86 78 81 bd
       -0.0043744817 -0.09959842 0.057132073 -0.06321816
0002b0 80 b6 0d 3a d3 72 9e 3d f1 80 c4 3d b5 9f 9f bd
       0.0005405918 0.07736745 0.09594906 -0.077941336
0002c0 18 9b 98 3c b0 97 fc bb 50 48 e6 3b a3 35 48 bd
       0.018628642 -0.0077085122 0.0070276633 -0.048879277
0002d0 45 57 b6 bd 82 06 67 3d 96 cf 04 3d c7 36 2b bd
       -0.08903364 0.05640269 0.032424532 -0.041800287
0002e0 0d e2 4c bd 00 58 d1 39 4d 47 55 bd 32 86 0c 3d
       -0.050020266 0.00039929152 -0.05206995 0.034307666
0002f0 b7 4c b1 bd 59 50 cb 3d 80 de 3f ba 28 9f 82 bc
       -0.0865721 0.099274345 -0.0007319227 -0.015945032
000300 aa c1 21 3d da cf 77 3d f5 e2 b6 3d a0 11 e6 bb
       0.039491333 0.060500957 0.08930007 -0.007021144
000310 b6 db 17 bd fd 79 bd 3d 7a 8a 4b bd 3c a4 0b bd
       -0.037074767 0.09251783 -0.04969261 -0.034092173
000320 d5 bc f1 bc f6 05 93 3d c7 fe ac bd 74 0b 8c bd
       -0.029508987 0.07178871 -0.084470324 -0.06838122
000330 5c 11 c4 3d 18 8e f0 3d 5a 58 7e 3d f3 0e 1b bd
       0.095736235 0.11745852 0.062095977 -0.037856054
000340 c1 62 b7 bd c8 4e 0e bc f2 1f c0 bd cd 0e 00 bd
       -0.08954383 -0.008685775 -0.09381093 -0.031264115
000350 3c b8 66 be 0c e5 15 3e 35 49 35 3e 24 00 86 3d
       -0.22531217 0.14638156 0.17703708 0.065429956
000360 f3 ec 59 bd 8a 20 4b bc 50 7d 9e 3c 7b 1a 0c be
       -0.053204488 -0.012397895 0.019346863 -0.13681976
000370 bf d8 eb bd 0a a1 66 3d 13 c4 51 bd 23 37 07 be
       -0.115159504 0.056305923 -0.05121238 -0.13204627
000380 17 ee 5a 3e d5 92 f0 3c 73 c2 b3 3d fd 92 bb 3c
       0.21379887 0.02936689 0.087773226 0.022897238
000390 de 9e 46 bd 0e ed 7e bd 93 62 3b bd fa 5a 19 3d
       -0.04849135 -0.06223779 -0.045748305 0.037440278
0003a0 09 db 05 3e 0b 1f ca bd 1a 3d 5a 3e e2 c9 09 bd
       0.13071837 -0.09869202 0.21312371 -0.033639796
0003b0 ae 67 16 3d 03 26 3a be 70 31 60 3e 05 ce bc 3d
       0.03671997 -0.18178563 0.21893859 0.092189826
0003c0 1d ed 03 3e b0 5e 14 3e fc 92 15 bd b9 c0 c1 3d
       0.1288342 0.14489245 -0.03651713 0.09460587
0003d0 9a 8c 8a bd 04 7b 4b 3e cd aa f9 bd 1e 94 02 3e
       -0.06765099 0.19871145 -0.12190781 0.12751815
0003e0 1d 89 32 3e 7d 1e bd bc fe dc d1 3d a4 e9 2a 3d
       0.17435117 -0.023085827 0.10247229 0.041726723
0003f0 f5 77 c3 3c ae 27 a5 3d f4 68 2f be 57 fb 00 3e
       0.02386091 0.08064209 -0.1712988 0.12595879

lstm.weight_ih_l1 f4 [400, 100]
000000 1c 10 e4 ba e9 ad 30 3e 6d f1 e5 bd 1b 69 8c be
       -0.001739982 0.17253841 -0.11227689 -0.2742394
000010 32 0f 89 3e 40 95 61 3e 54 35 af 3e 7e 18 9c 3e
       0.26769406 0.2202959 0.34220374 0.30487436
000020 1a 67 9f be 4e 0a b0 bc 64 1f 71 be f3 4f 74 be
       -0.31133348 -0.021489289 -0.23547131 -0.23858623
000030 f6 57 06 be 28 48 8e 3e 90 b9 ba 3d 11 00 60 3e
       -0.13119492 0.27789426 0.091174245 0.21875025
000040 ad 29 35 be 89 38 9f 3e b6 b2 3f 3e 22 48 a9 bd
       -0.1769168 0.3109782 0.18720517 -0.08265711
000050 d0 7b 9b be c4 74 7f 3e 02 55 ca be 9b d5 af be
       -0.303679 0.24946886 -0.3951798 -0.34342656
000060 06 4b 59 3e 5d 7e a4 3e 42 ed 3c 3e 97 6d 7e 3e
       0.21220025 0.32127658 0.18449882 0.24846493
000070 eb 7e a0 be e5 31 9e bc 3a e7 1b bf 32 ca 0c bf
       -0.3134683 -0.019310901 -0.608997 -0.54996026
000080 15 33 51 3e 98 36 c9 bd 0c 21 f7 3d 63 da 80 be
       0.20429642 -0.09824866 0.1206685 -0.25166616
000090 44 66 d3 be 7f 05 e6 bd ff 8b f6 3d 1a d2 80 3e
       -0.4128896 -0.11231517 0.12038421 0.25160295
0000a0 61 7a 12 3e 04 b4 77 3e 6d 40 de 3e e7 42 5c 3e
       0.14304496 0.24189764 0.43408528 0.21509896
0000b0 f5 94 80 be 91 52 97 3d 67 46 90 be 26 2f c3 3e
       -0.25113645 0.07388795 -0.28178713 0.3812191
0000c0 cf f8 8c 3e 46 95 ad be 07 a2 85 3e 93 8f 08 bf
       0.27533576 -0.3390295 0.2610018 -0.53344077
0000d0 c8 0d 08 3e 03 10 8f 3d 7c 54 bb be be e5 6a 3e
       0.13286507 0.06985476 -0.36587894 0.22939202
0000e0 f3 4a 84 be 39 28 b8 3e a5 fe 7b 3d 73 fa 56 3e
       -0.25838432 0.35968187 0.061522145 0.20993976
0000f0 4e 78 e4 be a3 f1 60 be b6 57 cf bd fc 2e 74 3e
       -0.44623035 -0.21967177 -0.101241514 0.23846048
000100 d4 19 9b be 3c 0e 60 be 2b 85 fe 3d 7c 53 27 3d
       -0.30293143 -0.2188043 0.124277435 0.0408511
000110 1d b3 eb be aa c2 d7 bd f2 34 8a 3e 70 20 05 3e
       -0.4603509 -0.10535176 0.2699352 0.13000655
000120 b8 02 a1 3d 5a 78 40 3e f7 c7 72 be 81 3b da 3e
       0.07861847 0.1879591 -0.23709093 0.42623523
000130 92 95 23 3d 9e ed 81 3e 5a 69 4b be 35 5c 67 3d
       0.039937563 0.253766 -0.19864407 0.05648442
000140 ab 76 2f 3e 7b 7b 43 3d e4 ee 73 be eb 14 2e 3e
       0.17135112 0.047725182 -0.23821598 0.17000167
000150 fd 1f e3 bd 6f 9f 9a 3e ee 71 47 be 09 60 56 3e
       -0.11090086 0.30199763 -0.19477054 0.20935072
000160 63 a3 80 3e f5 81 a3 3e f0 7c 13 be 7b 3a c4 be
       0.25124654 0.31935087 -0.14403129 -0.38325867
000170 89 76 9b be e3 a9 b7 3e 31 6c 94 3e 7c 57 75 3e
       -0.30363873 0.358718 0.28988793 0.23959154
000180 b2 f5 3f be 21 c0 f4 3d 10 b3 9a be 78 82 c6 3e
       -0.18746069 0.11950708 -0.3021474 0.38771415
000190 98 4f a5 3e 5c 54 a5 3e 25 c6 c5 3d 43 9c 43 be
       0.32287288 0.32290924 0.09656934 -0.19102578
0001a0 18 06 8a 3e 5e 4b 9e 3d bc 2d 59 3e 23 aa f6 3d
       0.26957774 0.07729219 0.21208853 0.1204417
0001b0 86 04 44 be b0 39 8a be 1c 89 1d be fb 05 7d be
       -0.1914235 -0.26997137 -0.15384334 -0.24709313
0001c0 4d 66 b5 be 4b 7e a0 3e 58 8e 9f 3e 2a ba 4d 3e
       -0.35429612 0.31346354 0.31163287 0.20090547
0001d0 59 4d bb be 6c c4 9b 3e 04 78 93 3e 5c 9b ed be
       -0.3658245 0.30423295 0.28802502 -0.46407592
0001e0 f3 64 cd bd 1e e1 80 3e 5c 50 b4 bd 16 01 2b be
       -0.1002902 0.2517175 -0.0880439 -0.16699633
0001f0 05 85 7f 3e 13 5e 29 3e 0f 34 8d 3e 1d ee 08 3f
       0.24953087 0.16539793 0.2757878 0.5348833
000200 de e3 91 be 98 de 8b be a3 da 36 be b5 69 0f be
       -0.2849416 -0.27318263 -0.17856841 -0.14005168
000210 52 20 7f 3e f4 1e 8b be 33 1f 98 3e 78 a6 36 be
       0.24914673 -0.27172053 0.29711303 -0.1783694
000220 c9 31 3a be 8d 5c ae be 43 64 a0 3e 2e 2c 6a 3e
       -0.18183054 -0.34054986 0.31326494 0.22868416
000230 9f 8d d3 3e 8d e5 88 3e 39 17 32 3e 23 51 5a 3e
       0.41318986 0.26737633 0.17391671 0.21320014
000240 db 81 08 be 34 f4 a0 3e 39 6d 3d be cc ad f8 3c
       -0.13330786 0.31436312 -0.18498696 0.03035631
000250 03 8a 84 3e 08 15 d5 3b b0 f4 c7 3d 1c fc 08 be
       0.25886545 0.0065027513 0.09763467 -0.13377422
000260 fe 39 b1 3e c3 fa b1 3e b2 9d 83 be ce a9 ff 3e
       0.34614557 0.34761629 -0.2570625 0.49934238
000270 8e c6 6d be 4b db 8f 3e f7 26 77 3e 70 b2 95 3e
       -0.23220274 0.28096995 0.24135958 0.292377
000280 53 7b a7 bc fb 43 0e be 5c fb cc be 7e 05 b2 3e
       -0.020444548 -0.1389312 -0.40035522 0.34769815
000290 8d e0 89 be 11 2a 6d be 39 63 79 3e 46 31 04 3f
       -0.2692913 -0.23160578 0.24354257 0.51637685
0002a0 e2 1b d7 3d c8 a2 aa be 01 53 bf 3e 92 93 a2 3e
       0.10503365 -0.33327317 0.37368014 0.31753212
0002b0 34 e5 f3 3e 33 1a 27 3e c4 38 93 be 3e 7d 89 3e
       0.47635806 0.16318588 -0.28754246 0.26853365
0002c0 d0 30 92 3e ff 8b e0 3b a2 eb 94 be fa c5 7b 3e
       0.28552866 0.0068526263 -0.29086024 0.24587241
0002d0 63 80 ca 3e 8f b2 b1 bd 35 9c 9c be 5a 01 82 3e
       0.39551076 -0.086766355 -0.30587927 0.25391656
0002e0 91 02 ac be f8 60 29 3e 28 4d 89 be 69 a7 79 3e
       -0.33595708 0.16540897 -0.26816678 0.24380268
0002f0 aa 87 81 3e 5a e1 51 3e b9 7a b2 be 68 4f 85 be
       0.25298816 0.20496121 -0.34859255 -0.26037145
000300 f3 28 86 be 29 e3 77 3e 05 d5 9d 3e 6d 2b 2f 3e
       -0.26203117 0.24207748 0.30826584 0.1710641
000310 ce b2 d7 be 40 d7 b3 3e 90 0f 18 bd c7 21 45 3e
       -0.42128605 0.3512516 -0.037124217 0.19251166
000320 76 56 f9 bd 8a be 20 bd a9 45 0d be f3 8e 2e be
       -0.12174694 -0.039244212 -0.13796104 -0.17046718
000330 e1 04 10 3e 7c 8f cd 3d fb 8a 98 3e 20 a0 ff 3d
       0.14064361 0.10037133 0.29793534 0.12481713
000340 cb b4 5b bd ab cc 95 3d 64 60 bf bd 94 94 1c be
       -0.053639214 0.07314428 -0.09344557 -0.15291053
000350 31 08 d9 bd df 6c b4 3d 6c ae fc 3d a6 88 67 3e
       -0.105972655 0.08809828 0.12337956 0.22610721
000360 6d 21 9a bd ef 73 19 3e e3 8a a2 3c ef 49 88 bc
       -0.07525907 0.14985631 0.019841617 -0.016636817
000370 5d 50 34 be 98 3a fa 3d 79 79 30 be ac 04 c2 bd
       -0.17608781 0.12218207 -0.17233838 -0.09473547
000380 fa 48 2e 3d 86 c0 3e 3e 15 03 89 3d 0b 24 3d bd
       0.042550065 0.1862813 0.06690041 -0.04617695
000390 72 99 6a be 48 a0 b4 3d c6 bc 21 bf 3a 15 06 bf
       -0.22910097 0.08819634 -0.6317867 -0.5237614
0003a0 24 99 b0 3d ec f9 99 bd a9 f0 e2 3d d2 40 07 be
       0.08622959 -0.07518372 0.110810585 -0.1320832
0003b0 1a 7e a1 be a2 dc 1d 3d d4 9f bb bc 56 11 8c 3d
       -0.3154152 0.03854049 -0.02290336 0.06839244
0003c0 02 c6 7f bd e9 c3 e6 3c fd 3d 89 3e 6d d4 4c 3e
       -0.062444694 0.02816959 0.26805106 0.20002909
0003d0 8b d5 19 be 3b 51 f7 3c ff 8e 4e be b9 7a a5 3e
       -0.15022866 0.0301901 -0.20171736 0.32320192
0003e0 26 bd a0 3d 12 8b b7 be 19 9f 39 3e 29 93 c8 be
       0.07848577 -0.3584829 0.18127097 -0.39174774
0003f0 c1 63 a2 3d 7b 72 1d bb 1e c2 35 be d6 52 aa 3b
       0.07929183 -0.0024024535 -0.17749831 0.005197863

lstm.weight_hh_l1 f4 [400, 100]
000000 76 ef 95 bd 6a 36 7e bd 59 ac cc 3d 28 7d a8 bd
       -0.07321064 -0.062063612 0.0999381 -0.08226997
000010 4a 77 69 bd 3a d0 8b bd b3 a4 bc 3d 86 2b 5f 3d
       -0.05699853 -0.068268254 0.092111014 0.054484867
000020 00 ef 35 bb 83 49 31 bd d3 56 c9 3d 00 59 a1 bd
       -0.0027760863 -0.043282997 0.098310135 -0.078783035
000030 cf 77 b9 bd a8 ab 39 3c 28 f3 06 3c f9 70 98 3d
       -0.09056055 0.01133243 0.008236684 0.07443423
000040 ed 0d 9d bd 61 1f 9a 3d 8a 34 60 bd c0 8c f0 bc
       -0.07668672 0.07525516 -0.054737605 -0.02936399
000050 7a dc 63 bd 30 d0 f4 bb d4 95 ee bc 39 a6 c6 3d
       -0.055630185 -0.007471107 -0.029124178 0.09699673
000060 ad cb b6 3d 78 66 c5 bd 8c 15 f4 bc f7 db cb 3d
       0.08925567 -0.09638685 -0.02979543 0.09954064
000070 5a 86 71 bd 23 18 b7 bd f0 07 11 bd cf 31 b4 bd
       -0.05896602 -0.089401506 -0.03540796 -0.08798563
000080 64 cb 89 bd ec 58 92 bc ed 9f 87 bd 73 72 9c 3d
       -0.06728247 -0.017864667 -0.066223 0.07639017
000090 68 ce 80 bc 68 60 76 3c 40 0a 33 3c 28 cb 4d 3c
       -0.015723422 0.0150376335 0.010927737 0.012560643
0000a0 ed 21 84 bd 00 16 96 3c 67 ac a3 3d 58 7e 24 3c
       -0.06451783 0.018321037 0.079918675 0.010039888
0000b0 20 be 77 bd be c8 95 bd 61 fc 9e 3d be f2 a5 bd
       -0.06048405 -0.07313679 0.07762981 -0.0810294
0000c0 f8 1e 99 3c c0 11 e7 bc af dc b7 bd 78 74 9e 3c
       0.018691525 -0.028206706 -0.08977639 0.019342646
0000d0 93 65 37 bd 75 df a2 bd 00 2d 9a bc bf e1 81 3d
       -0.044774603 -0.07952777 -0.018820286 0.06341886
0000e0 37 5f 84 3d 72 b5 2c 3d 85 3d b3 bd 9c 57 e2 3c
       0.06463473 0.042165227 -0.08751968 0.027629666
0000f0 c2 ad 50 3d c6 0e 17 bd f3 7a 89 3d 97 3a 22 bd
       0.05094696 -0.036879323 0.06712904 -0.039606657
000100 73 94 33 bd 8d b0 2c bd 61 d2 94 3d f6 92 8c bd
       -0.043842744 -0.04216056 0.07266689 -0.06863968
000110 b0 03 ac bd e8 ec f1 bc 38 b5 d2 bc dd 05 6f bd
       -0.08399141 -0.029531911 -0.025721177 -0.0583552
000120 43 86 3c bd c0 8f 70 bd 68 90 25 bc 40 58 6b 3c
       -0.04602648 -0.05873084 -0.01010523 0.014364302
000130 d0 1e 9b 3b 4e c7 4c 3d 53 cf a7 3d 00 7c 18 bd
       0.0047338977 0.04999476 0.08193841 -0.03722763
000140 a8 a6 59 bc 40 05 3d bc 71 53 c6 3d 2e bd 54 3d
       -0.013284363 -0.011536896 0.09683884 0.05193823
000150 d5 50 c5 bd bf 82 a7 3d 85 49 99 3d 98 40 13 bc
       -0.09634558 0.08179235 0.07484726 -0.008987568
000160 d7 dd a4 3d 28 d9 97 3c 58 62 23 bc d2 4a a0 bd
       0.08050125 0.018536165 -0.009972177 -0.07826771
000170 e5 11 a1 bd aa 09 7a 3d a4 56 e0 3c 24 65 e3 3c
       -0.07864741 0.061044373 0.027385063 0.027758189
000180 e8 66 48 3c 3f 22 c3 3d a5 13 88 3d 49 ab a4 3d
       0.012231566 0.09528016 0.06644372 0.080404826
000190 ca 5d ab bd 9d 72 a5 3d e4 47 df 3c a0 9c fd 3b
       -0.08367498 0.080785014 0.02725596 0.0077396184
0001a0 50 f2 d4 3b 00 49 92 3b 06 ab 05 bd d1 0a b9 3d
       0.0064986125 0.0044642687 -0.032633804 0.09035266
0001b0 35 b1 b1 3d 93 59 be bd 94 6a d0 3c ea 06 75 3d
       0.08676378 -0.09294429 0.025441445 0.059821047
0001c0 a8 da 65 3c d6 4e 03 3d 97 68 36 bd f0 41 bb bd
       0.0140291825 0.032057606 -0.04453334 -0.09143436
0001d0 22 e5 77 3d a5 ad 81 bd ab 5a bf 3d cc d1 bc 3c
       0.060521252 -0.06331948 0.093434654 0.023049258
0001e0 4e 8f 67 3d 08 c5 b4 bd 1c bb 14 bd 47 b8 86 3d
       0.05653315 -0.08826643 -0.036311254 0.06578117
0001f0 c0 10 a2 ba ae 31 a1 bd 12 18 37 3d 08 31 ca bd
       -0.0012364611 -0.07870804 0.04470069 -0.09872633
000200 b2 2d 3d 3d 99 52 9b 3d 81 bc a4 3d 2e 74 44 3d
       0.046186157 0.07584114 0.08043767 0.04796236
000210 d6 40 89 bd 87 2d 1e bd 31 0b 86 3d 40 cf 64 bc
       -0.067018196 -0.038617637 0.06545103 -0.013965428
000220 f9 71 a8 3d 67 07 42 bd 2d 0e b3 bd db eb bb bd
       0.082248636 -0.04737034 -0.08742938 -0.09175845
000230 42 2b 76 3d 2b b2 aa bd af eb c8 3d fa c7 29 3d
       0.060099848 -0.08334764 0.09810578 0.041450478
000240 00 72 c7 3a ea 48 1f bd d2 ae 08 3d bb 52 aa bd
       0.001521647 -0.038887896 0.033369847 -0.08316561
000250 51 f6 9e 3d 84 02 e5 3c c0 90 c3 3c d2 c3 27 3d
       0.07761825 0.027955301 0.023872733 0.040958233
000260 5d 09 58 bd f2 90 03 3d 91 eb b3 3d 2a dc 1a bd
       -0.052743305 0.032120652 0.08785165 -0.03780762
000270 64 70 19 bd f0 9d 87 bd 08 96 c4 bd b1 d5 8a 3d
       -0.0374607 -0.06621921 -0.09598929 0.0677904
000280 8c fc eb bc 6c 5a 8c 3c 9a f8 9f bd e2 44 63 3d
       -0.028806947 0.01713296 -0.07811089 0.055485614
000290 58 ff 9e 3c ea e6 0e 3d 09 d1 8e 3d 4d 70 2f bd
       0.019408867 0.034888186 0.06973464 -0.042831708
0002a0 18 06 af bc 2c 58 8c bd 5d ad 29 bd dd 8c 20 bd
       -0.02136521 -0.06852755 -0.041425098 -0.039196838
0002b0 6f d3 af 3d 8a e6 64 bd 9a b7 5a bd 87 2b b5 3d
       0.0858525 -0.05588392 -0.053397752 0.08846193
0002c0 8d b2 be 3d 6c 09 a2 bc 53 94 c2 bd dd b8 ca bd
       0.093113996 -0.019779883 -0.09500947 -0.09898541
0002d0 3a 45 43 3d e9 60 98 3d 00 f0 54 39 95 d4 80 bd
       0.04767344 0.07440359 0.00020307302 -0.06290547
0002e0 a0 23 c0 bb 1a a3 a5 bd 30 93 79 3c d4 c5 cf 3c
       -0.005863622 -0.0808775 0.015232846 0.025362886
0002f0 94 de f5 3c 8c 3a 9b bc d5 6d b3 bd c6 44 07 3d
       0.03001336 -0.018948816 -0.08761183 0.03302457
000300 a2 b2 76 3d a2 68 67 3d 67 64 58 bd 14 bd f9 bc
       0.06022895 0.05649627 -0.052830126 -0.030485667
000310 c4 93 d7 3c 30 3f 80 bd a2 ab 9a bd 00 73 cb b9
       0.026315577 -0.06262052 -0.075522676 -0.0003880486
000320 98 65 9a bc 90 9e a3 bd e5 38 b6 3d e8 0f 4f 3c
       -0.018847272 -0.07989228 0.088975705 0.01263807
000330 ff bc 84 3d 55 39 ad 3d a8 aa be bc 25 eb 9b 3d
       0.06481361 0.08458201 -0.023274735 0.0761321
000340 8a bd 5d 3d 60 12 94 3b 21 c5 96 3d f7 3f af bd
       0.054135837 0.004518792 0.07361818 -0.08557122
000350 6d 11 a1 3d 00 a0 d5 b7 58 b7 a4 3c 94 49 fc bc
       0.07864652 -2.5466084e-05 0.020106956 -0.030796804
000360 3a 0b 5b 3d c0 43 21 3b 94 61 cc bc bc d3 0f bd
       0.053477503 0.0024607033 -0.024948873 -0.035114035
000370 ea 55 0d 3d ab 72 bf bd 70 74 0b bd a8 74 4c 3c
       0.034505762 -0.09348043 -0.03404659 0.012478985
000380 4a b3 a8 bd ee 41 0b 3d 9d 64 74 bd 70 10 9a bd
       -0.08237322 0.033998422 -0.059666265 -0.075226665
000390 00 91 d4 3b 1d 3a b9 3d d3 c3 54 bd 42 7f 7f 3d
       0.006487012 0.09044287 -0.051944565 0.062377222
0003a0 c2 bb 20 3d 68 b0 f2 bc 33 4e bb bd 99 f2 9f 3d
       0.03924156 -0.029625133 -0.09145775 0.07809944
0003b0 5d fb 80 bd 68 69 38 bc 05 f9 92 3d e3 9e ac 3d
       -0.06297944 -0.0112556 0.07176403 0.08428743
0003c0 e0 3f d0 bb 39 33 c9 3d 9b 68 96 bd 56 20 19 bd
       -0.0063552707 0.09824223 -0.07344171 -0.037384354
0003d0 d8 03 6f bc 4c 04 00 bd ea fa 66 3d d7 73 45 bd
       -0.014588319 -0.031254098 0.056391634 -0.048206177
0003e0 23 18 ab bd 06 e7 a4 bd 29 da ca 3d 81 7c 8f 3d
       -0.08354213 -0.08051877 0.09904892 0.07006169
0003f0 98 6a d1 bc 10 d0 14 bc 45 3c 96 3d 9e 9a 09 3d
       -0.025563523 -0.009082809 0.07335714 0.03359472

lstm.bias_ih_l1 f4 [400]
000000 8e af 99 3d 25 d4 37 3e 58 e5 8c 3d 60 93 04 3e
       0.075041875 0.1795202 0.06879681 0.12946844
000010 2c 51 41 3e 0e 5e 5e 3e e4 b9 22 3b f0 72 c0 3d
       0.18878621 0.21715567 0.0024830038 0.093969226
000020 0a e4 68 3e 1d 8d e3 3d f7 e4 b2 3d c5 0d 49 3d
       0.2274324 0.111108996 0.08735078 0.049085397
000030 b3 9e 13 3d ae ca 39 3e 9a 65 ba 3d 98 8f 3e 3e
       0.03604002 0.18143722 0.0910141 0.18609464
000040 25 3e 32 3e 12 6f ad 3e 23 bf 9c 3d 43 47 f9 3d
       0.17406519 0.33873802 0.07653644 0.12171795
000050 56 21 23 3e 17 d9 00 3e c8 06 f8 3d f9 6f 4d 3d
       0.15930685 0.12582813 0.121106684 0.050155614
000060 ea 19 0f 3d 90 fc fa 3d 96 2e 1a 3d 44 b1 fa 3c
       0.034936823 0.12255204 0.037642084 0.030602105
000070 fc 52 91 3d 1e 0e 97 3d 9d 2a 51 3c f0 bd 5c 3e
       0.07095906 0.073757395 0.012766507 0.2155683
000080 31 f9 d0 3e 02 cc 10 3e 8b f8 01 3e 6d db 50 3e
       0.40815118 0.14140323 0.12692468 0.20396204
000090 6a 29 a3 bc 95 df 26 3e 6b 80 29 bd 41 2a 52 3d
       -0.019917209 0.16296227 -0.041382235 0.051309828
0000a0 9a e4 2a 3e 49 e3 36 3e d8 05 4c 3e bc bd 03 3e
       0.16688767 0.1786014 0.19924104 0.12865347
0000b0 82 b7 1b 3e a0 16 57 3d e6 43 5c 3e 9a 6f 8f 3d
       0.15206721 0.05251181 0.21510276 0.07003708
0000c0 90 08 96 3d 19 3f 4f 3e 3a 5f 0e 3d db 81 bb 3d
       0.07325852 0.20238914 0.034758784 0.09155627
0000d0 13 fc fc 3d 6e 89 57 3e ae 09 81 3d 95 d9 b9 3d
       0.12352767 0.21048519 0.063006744 0.090747036
0000e0 fc e0 11 3e 9a 55 26 bd bd 4c 8f 3d bc 37 07 3d
       0.14245981 -0.04060898 0.069970585 0.033012137
0000f0 67 65 3a 3e a9 23 a6 3e d7 af 03 3e 19 15 ee 3b
       0.18202744 0.32449082 0.12860046 0.0072656986
000100 bf 1a 5e 3d 81 bb 78 3e ee 69 46 3e 58 11 00 bd
       0.054224726 0.24290277 0.19376346 -0.03126654
000110 ac 03 b2 3d 31 3e 69 3e 67 6e 13 3e 9a b9 55 3e
       0.086921066 0.2277763 0.14397584 0.20871583
000120 02 82 c5 3d 9c df 5e 3d 8e 9d de 3c 82 6f e3 3d
       0.09643938 0.05441247 0.027174737 0.11105253
000130 d5 19 a4 3d e5 bc e7 3d fd 7b b2 3d 61 ab c6 3d
       0.080127396 0.11315326 0.08715055 0.09700657
000140 a0 66 23 3e a6 b5 25 3e d1 eb f1 3c f0 3e 2a 3e
       0.15957117 0.16182575 0.029531391 0.16625571
000150 ed 4f 8d 3d 79 b3 74 bd 13 79 1c 3e 56 07 13 3e
       0.0690001 -0.05974147 0.15280561 0.14358267
000160 1a 48 16 3d 54 8f 64 3d 58 66 8d 3d ff ab e6 ba
       0.036689855 0.05580075 0.06904286 -0.0017598866
000170 b7 ad e6 3c 74 86 a9 3d 99 ce f6 3d 4c 3a b6 3d
       0.028159006 0.08277598 0.12051124 0.08897838
000180 1c 2b 12 3e 19 ee d3 3d 60 ee 26 3e 31 de 27 3d
       0.14274257 0.10348148 0.1630187 0.040983383
000190 48 98 91 bc 55 c2 8e 3d 37 7d b0 3d 4a b9 91 bd
       -0.017772809 0.0697066 0.08617633 -0.07115419
0001a0 e7 85 36 bd 6d 1c 22 bd 60 d5 83 bb 51 21 a0 3d
       -0.044561293 -0.03957789 -0.004023239 0.078188546
0001b0 c0 55 3f bb 3e 21 91 bd fa 73 4d 3d 04 b2 d0 3c
       -0.0029195398 -0.070864186 0.050159432 0.02547551
0001c0 45 e5 af bd 3a f4 7c 3d 58 0f cb 3c 6a 5d 47 bd
       -0.085886516 0.06175635 0.02478759 -0.04867307
0001d0 3e cc 1e 3d 86 af 23 3d 40 cb e3 ba cb 58 81 3d
       0.038769 0.039962314 -0.0017379299 0.06315764
0001e0 07 90 76 bd 25 c5 ac 3d b2 70 18 3d b5 77 ba 3d
       -0.06019595 0.0843604 0.03721685 0.091048636
0001f0 a2 2a 3c 3d a0 b6 83 3c 9e 80 1a 3d 85 11 ba 3d
       0.045939095 0.016078293 0.037720315 0.09085373
000200 4a e9 38 bd d0 3f db bb 3e 35 47 3d 0d 84 66 bd
       -0.045144357 -0.0066909567 0.04863476 -0.056278277
000210 af c4 c5 bd 20 37 b1 bc 12 fa 2f 3d 69 43 c2 3d
       -0.09656655 -0.021632731 0.042963095 0.09485514
000220 52 1b 29 3d 6c 8a a2 3c 41 f6 83 3d 73 4d a6 bd
       0.04128582 0.019841395 0.064434536 -0.08120241
000230 b6 4b 30 3d 9d eb 49 bd 18 97 13 bc 2e d0 25 3d
       0.043040954 -0.049296964 -0.0090081915 0.04048174
000240 ba ac 06 bd ca 99 74 bd e8 a9 9f bc 8a 89 bc bd
       -0.03287957 -0.059716977 -0.019490197 -0.09205921
000250 40 fe a8 bc d0 6a 3a 3c 58 22 ae bd 4c a4 98 3c
       -0.020629048 0.011378005 -0.08502644 0.01863303
000260 93 8d 96 3d 82 b1 25 3d 87 3d 74 bd 47 26 49 bd
       0.07351222 0.040452488 -0.05962899 -0.04910877
000270 ca 1d 41 bd 7e a9 8d bd 22 7f ac bd 78 ee 94 bd
       -0.04714755 -0.06917094 -0.08422686 -0.07272047
000280 e8 b6 c3 bc 60 eb fa 3b 1d 46 28 bd 0d a8 1f bd
       -0.023890927 0.0076574534 -0.04108249 -0.038978625
000290 10 2d 85 bd 32 7b 4f 3d 55 a0 c7 bd f7 7e 56 bd
       -0.065027356 0.050654598 -0.09747378 -0.052367177
0002a0 b0 8c 44 bd 9a 67 1b 3d 00 e0 83 3a a2 ab 18 3d
       -0.047985733 0.0379406 0.0010061264 0.037273057
0002b0 a2 ba 51 3d 00 25 37 bd 40 92 29 3c 0e 77 36 3d
       0.051203378 -0.04471302 0.01034981 0.044547133
0002c0 00 d1 c1 bc 06 51 63 3d b2 28 86 bd b0 e4 68 bc
       -0.02365923 0.05549719 -0.06550731 -0.01421468
0002d0 0e d9 54 3d 4c 19 84 bc c5 f1 ad 3d 8d 71 ae 3d
       0.051964812 -0.016125344 0.084933795 0.08517752
0002e0 03 46 4d bd 0c 73 83 bc 96 c6 11 3d 6e 4c 23 3d
       -0.050115597 -0.01604607 0.035589777 0.03986781
0002f0 9d 0a 5a bd 81 f0 b2 3d 41 59 a7 3d 24 29 cd 3c
       -0.053232778 0.08737279 0.08171321 0.025044031
000300 b7 f4 1a bd 48 fc c9 3c 02 f8 44 3d a3 91 a2 3d
       -0.037831035 0.02465643 0.04808808 0.07937934
000310 30 c9 04 3c c0 be 9d 3a 10 bf 1f bc 59 d9 c2 3d
       0.008104607 0.0012034997 -0.009750143 0.09514112
000320 54 4a e5 bc f0 c3 b6 bd dd 62 9e bd c0 14 82 3d
       -0.027989544 -0.08924091 -0.077337004 0.06351614
000330 aa 11 e0 3d 56 95 14 be 2c 1e 89 3d 76 1d 5b 3d
       0.10940869 -0.14510092 0.06695208 0.053494893
000340 e3 7f 9e bd 6a ea b6 bd 2a 63 1e 3d d9 97 05 3d
       -0.07739236 -0.0893143 0.03866879 0.032615516
000350 ac 5e 9f 3d e8 51 38 3d 3e 2f 13 3e 7c 22 c4 3d
       0.07781729 0.044999987 0.1437349 0.0957689
000360 c1 61 17 3e 08 87 ee 3d c3 e7 f8 3c 4b d4 8a 3d
       0.14783384 0.11646849 0.03038395 0.06778773
000370 25 80 58 bd 5a 9b 88 bd 71 a1 1e 3d 7e e5 c0 3d
       -0.052856583 -0.06670256 0.03872818 0.09418772
000380 e2 dc 9f 3d 7c bb 04 3d 9d 41 49 bd 2f e8 94 bd
       0.07805802 0.03240536 -0.04913484 -0.07270848
000390 3a 7d f0 3d 40 6f ee bd 62 76 c3 3d cd f4 2b 3e
       0.11742635 -0.11642313 0.09544064 0.16792603
0003a0 de 1e 9a bd 15 34 21 3e 4d be 16 3c c2 2a 1b 3e
       -0.07525419 0.15742524 0.009200645 0.1515303
0003b0 2f be 19 bd cc f1 f5 3d de 6a 08 3e a6 64 9d 3d
       -0.03753489 0.1200901 0.13322017 0.07685213
0003c0 c8 81 25 bd f3 03 e9 3d 44 aa 1b 3e b9 9d 20 3d
       -0.040406972 0.113777064 0.1520167 0.039212916
0003d0 6f c4 2e 3e 2a 29 a3 3d 79 42 a4 3d 8a 37 f4 3d
       0.17067121 0.07966836 0.08020491 0.11924656
0003e0 50 d0 ca 3d 80 15 db 3d b1 48 15 be 39 79 f5 3d
       0.09903014 0.1069746 -0.14578511 0.11986012
0003f0 40 ae a8 bd c6 36 ab 3d 4b 47 15 3e ee 15 08 be
       -0.082363605 0.083600566 0.14577977 -0.13289616
