LSTM/Data_3/LSTM9/model.pth (torch, 275939 bytes, 6 tensors)

lstm.weight_ih_l0 f4 [512, 3]
00000000: 265c b0be f283 d2be b901 8fbd 054c 37be
00000010: b546 593e 43ee 1b3f e91b 21be 1efc 2fbf
00000020: 1191 0dbf 2eda d2be 7bd3 22bf 1f60 00bf
00000030: 62d0 bf3e 9384 aebe 3624 833e 45e8 923c
00000040: 16fa 1abf 6e9a a73e 00dc 373d b6ff 6dbf
00000050: 7e84 30be 7b84 8dbe cf1f d0be 664b 83bd
00000060: e640 b3bc f93b b8bf cd16 8d3e 942b a0be
00000070: 1d37 61be 6e8d b1be d4f2 32be e1a1 26bf
00000080: f70c bebe 3f85 11be a80c f53e a0cd 2e3d
00000090: 1c0a 3bbe 4751 60be 7353 5fbd 2e5e d43e
000000a0: b70b e7bd 66b4 1a3f 69df 99be e66d 6f3e
000000b0: 5f01 10bf ff02 f5bd 80c3 bd3e 7bda 20bd
000000c0: d43a 2cbe 7d66 133e 3983 f03e 3221 8cbe
000000d0: 4703 de3e 65ab 2b3e 4fbb 6fbd e839 36bf
000000e0: 2842 203e cef6 54be 2fcd bebe d679 cbbe
000000f0: 66ac 6dbe 532f c6be a39e 19be 48ec bfbe
00000100: 7601 2dbf ba82 a5be 9075 c6be 6f27 25bf
00000110: 0a37 b7be 524a debb 8a7a 49bf f945 43bd
00000120: 2856 b1bc 7faa 463e 6ee9 32bf 5ade b4bd
00000130: b4a7 0abf 1db9 c33e 2be0 aa3d 8da4 20bf
00000140: 54fe 93be 8067 86be ddf6 51be 0af4 c13c
00000150: 49aa bdbe 3d3a 60be c1c8 d83d 296d 26be
00000160: 975e 09bf 2aed 06be c479 4abd d178 3e3e
00000170: ee1f febd 0baa 6ebd 9585 423e 9e25 583e
00000180: d6c7 39be b099 f6be 6f6a b8be cb6b 7d3e
00000190: 4281 683e f07d c63e a6c5 aabe f252 2bbf
000001a0: 4bf6 eabc 2fe5 473e 42e3 923e e905 ca3e
000001b0: 65f8 bcbc 1a95 fb3d e235 fbbe aff6 1bbd
000001c0: 733f 2ebf a87e f5bd 762d 91bc 9703 293f
000001d0: cb49 a43e 9d11 dd3d 8771 f6bd 7d38 bd3d
000001e0: 6866 36be 7418 09bd eec5 26bf 6d51 d3bd
000001f0: 4f05 a5be 86f9 b1be 3163 aebe 33e0 f1be
00000200: 7161 d6be eb40 94bd b8de 11bf b7c4 95be
00000210: c733 6fbe 0c09 97be cf03 d0be c3ea 14bd
00000220: 99cd 003f 8037 6abe ba64 fbbe e8d4 7bbf
00000230: 28aa a7be b044 d9be 036a 25bf b9e3 0dbd
00000240: 204f 4cbe 7cbc 23bf 3f9c 973e 9614 7bbe
00000250: 77fe 45bf 73f2 e33d 605b dabd 22d8 11bf
00000260: 7c68 0cbe 70f2 3bbe 5ab1 7abe bf9f 02be
00000270: 05f0 94be 014b 913d 52d0 71bc bbf6 44be
00000280: 6c13 c73e 3b36 d03b a4ca a6be 0b8d 903d
00000290: 3c82 3bbe 7875 b43b 262a 0fbf fed6 59be
000002a0: 7095 b4be 6ce0 13be 651f f5be 57d4 13be
000002b0: a05d 17bf 77f5 c23d 73a8 8bbe 14d1 333d
000002c0: ba2f 00bf deaa 5bbe c7a7 4dbe a0cc 4dbe
000002d0: 2149 d2be 0a1b 0bbf d18f 993d 2b3d a4bd
000002e0: 9949 773e e631 42be 62a8 33be 4ba2 a7be
000002f0: d0b8 d13e fbbe 91be 3800 1ebe ee23 31bf
00000300: fe5f efbd d14f ef3e a89c 783e 0ce0 0ebe
00000310: b1e8 40bf 0456 bdbe a701 67bd 50d5 73bf
00000320: d89e 053f f75c 7dbc 1eb2 de3d a414 f4be
00000330: e08d 09bf 8df1 37bf 0421 bdbe 4b34 0dbd
00000340: 5462 ae3c 7d89 28be 887b a0be fcfd 4abe
00000350: e460 5bbe 797b 83be 2bb6 ac3d 0d5a 50bf
00000360: c78c 95bb ec3a 593e 8fad 23bf 528a cbbd
00000370: 608e 993d f972 973e 3907 63be 1abd 593e
00000380: 2128 793e 4e0a 79be e754 0ebf c63e 47be
00000390: 96ed 19bd fef9 2abf 559d 133e e55e a13e
000003a0: acd3 cb3e b887 3c3e f6d9 88be aac7 00bf
000003b0: e05c 71be f7e3 003e d798 eb3e 6d4f 793e
000003c0: c9b5 8bbe 8c57 883e faf2 f0be 8b94 27be
000003d0: 2e8c 7bbf 2a43 553e f4a7 c6be e102 f3bd
000003e0: 9728 0abf bc51 c03d cb44 b8be 6e2e 1ebd
000003f0: 9bad 83be f481 aabe 691a ba3a 7795 07be
-0.34445304 -0.4111629 -0.069827504 -0.17900093 0.21218379 0.60910434 -0.15733303 -0.68744075
-0.5529948 -0.41182083 -0.63603944 -0.5014667 0.3746367 -0.3408552 0.25613564 0.01793302
-0.6053785 0.32735008 0.044887543 -0.9296831 -0.17238042 -0.27640137 -0.40649268 -0.064108655
-0.021881532 -1.4393302 0.27556458 -0.31283247 -0.2199368 -0.34678215 -0.17475444 -0.6509076
-0.37119266 -0.14210986 0.47861218 0.042676568 -0.18265575 -0.21906005 -0.054522943 0.41478103
-0.11281531 0.60431516 -0.3005326 0.23381767 -0.5625209 -0.11963462 0.37063217 -0.03927086
-0.16819316 0.14394565 0.46975115 -0.27369076 0.43361875 0.167646 -0.05852824 -0.7118211
0.15650237 -0.20797274 -0.37265918 -0.3974139 -0.23210296 -0.3870798 -0.15001921 -0.37484956
-0.67580354 -0.323263 -0.38761568 -0.64513296 -0.3578418 -0.006783762 -0.78702605 -0.047674153
-0.021647528 0.19400977 -0.69887435 -0.08831473 -0.54162145 0.38227168 0.08343538 -0.62751085
-0.28904974 -0.2625084 -0.20504327 0.023675937 -0.3704398 -0.21897216 0.10585166 -0.16252579
-0.5365996 -0.13176408 -0.04943253 0.18600775 -0.12408434 -0.058267634 0.1899627 0.211081
-0.18142638 -0.4816413 -0.36018702 0.24748151 0.22705558 0.38767958 -0.3335392 -0.6692344
-0.028681895 0.1952102 0.2868901 0.39457634 -0.023067662 0.12284298 -0.49064547 -0.038077053
-0.68065566 -0.119870484 -0.017721873 0.660211 0.3208755 0.10794375 -0.12033372 0.0923929
-0.17812502 -0.033470586 -0.65145767 -0.10318265 -0.32230613 -0.34760684 -0.34060052 -0.47241363
-0.41871217 -0.072389446 -0.56980467 -0.29251644 -0.23359595 -0.2949909 -0.40627906 -0.0363567
0.5031372 -0.22872734 -0.49100286 -0.98371744 -0.32747006 -0.42435217 -0.64614886 -0.034641
-0.19952059 -0.6395948 0.29611394 -0.24519572 -0.7734141 0.11130228 -0.1066196 -0.5697042
-0.13711733 -0.18354201 -0.24481717 -0.12756251 -0.2908937 0.07094384 -0.01475914 -0.19234745
0.38882005 0.006354121 -0.32576478 0.07058152 -0.18311399 0.0055071674 -0.5592369 -0.2127342
-0.35270262 -0.14441079 -0.47875515 -0.1443647 -0.59127235 0.09519475 -0.27276954 0.043900564
-0.50072825 -0.214519 -0.20083533 -0.2009759 -0.41071418 -0.54338133 0.07498134 -0.08019479
0.24149169 -0.18964347 -0.17544702 -0.32741007 0.40961313 -0.2846602 -0.15429771 -0.6919545
-0.11688231 0.46740583 0.2427851 -0.13952655 -0.7535506 -0.36979687 -0.05639806 -0.95247364
0.521955 -0.015464059 0.10873817 -0.47671998 -0.5373211 -0.7185295 -0.3693925 -0.0344737
0.02128712 -0.16458698 -0.31344247 -0.1982345 -0.2142368 -0.2568014 0.08433183 -0.81387407
-0.004563901 0.21213883 -0.63936704 -0.09938492 0.07497859 0.29579905 -0.22170724 0.21263543
0.24331714 -0.24320337 -0.555983 -0.1945754 -0.037580095 -0.6678771 0.14415486 0.3151771
0.3980993 0.18411148 -0.2672879 -0.50304663 -0.23570585 0.12586962 0.46015045 0.24346705
-0.2728713 0.26629293 -0.47060376 -0.16365258 -0.9826077 0.20826402 -0.38800013 -0.118657835
-0.53968185 0.093905896 -0.35989985 -0.038618498 -0.25718388 -0.3330227 0.0014198545 -0.1324061

lstm.weight_hh_l0 f4 [512, 128]
00000000: d638 8dbe 0cec 8a3e 7ff0 0ebf 9ecb e73e
00000010: 6a71 f83d 4ecb cebd 3d26 833d d6d8 043f
00000020: 046b 633e c23b 70bc 1055 f9bd 0d61 a13c
00000030: 5109 da3d 2035 8abd c382 b43e 2bb5 d6bb
00000040: 91cc cd3c b5fc fc3d 68da 083d 1f93 ebbe
00000050: b048 633e bd1a 0c3f 319e c0bd e442 4abf
00000060: cb34 91be b721 95be 8fdc 883e 3edb 09bf
00000070: f440 13be 1f2f 513d adcb c0bd 950f 8e3c
00000080: 4b0c 853e 07b9 053e b58c 5b3e e838 9f3c
00000090: efec c23e b83b 9c3e 9334 93be efa0 993e
000000a0: b892 3abf 41a3 e8bd 37a0 3ebd e337 853e
000000b0: 1ba5 06be f710 dc3e e482 debd 9e4a d03d
000000c0: c642 d1be 35ac 003e 3091 ee3e 7c13 61be
000000d0: 4a63 43be c54b d63c eb36 cfbe 143a 32bd
000000e0: cd70 d4be fa8c c03e 0c70 c0be 868a 9ebe
000000f0: e0ec 253e 9424 693e abd0 b8bc 4156 85be
00000100: 3022 af3e b80e 33be e16d 0f3f 8b4a 5dbe
00000110: e754 343b 40be 033f 9205 9b3e 6b2b 813d
00000120: 76de 97be f90c dbbc 20f7 833e 447c 07bc
00000130: 0404 e5be f10a 733e 46ab 80be 8404 b8be
00000140: ff8b 913d 73d4 2b3e a11d 583e a301 f5be
00000150: 943e debd a776 97be cc40 ff3e 0888 06bc
00000160: bfef 43be 2652 9ebe bc10 c53d 8190 e93d
00000170: 068f a8be 3c39 e13e e4ec afbe 81a4 b63e
00000180: 8518 fe3d 185a 13bf 3283 3d3b 326a bfbd
00000190: 13ce 26be 9d36 c33c 33f8 95be a378 513e
000001a0: dc1d cc3e d621 a1be 99df 43be fa6b 953d
000001b0: 3fe7 0fbe ea46 e83c cc23 813e 9a90 68be
000001c0: caaa 0c3f d87e b4bd ed33 113e d882 333e
000001d0: 2b8a 1bbf 415b 633d d04a da3e e0b9 a33e
000001e0: faae dabd d50e 053f e239 b63e 904e c8bd
000001f0: af76 393e fb4b 503e 7423 bc3d fe2a b63e
00000200: 9a2e 03be eaad 6d3d 0c8f 2c3e d1bf b8bd
00000210: 004d a1bd 6bf7 073d b8ea 2c3e bfe3 9f3e
00000220: 7a3a 753d 8f69 1bbe 9fbb aabd d5e0 48be
00000230: 798c 81be 3259 1dbe 6635 f53d cb29 643c
00000240: 7023 b8bd 97a4 3bbe 84f7 093e 83f5 75be
00000250: 2987 f43d f484 c4be 8a3b 2bbd eaa3 e13e
00000260: ca68 3d3e 5492 b4be 91bc 473e b2de 393e
00000270: b321 43be 8ee2 5dbe b22c 64bc 9c7f 8dbe
00000280: ab91 083e df62 c8be 6156 2fbd f7e8 bdbe
00000290: 7f82 d23d a164 e8bd 20ea 863d 69bf e23e
000002a0: fdfa 9e3d 2268 763e c1f5 843d de7e d8bd
000002b0: 61a3 07be 1cb7 39be ea6f c5be 4337 0fbe
000002c0: 99f8 f63d 0964 083e efed 0bbe ba11 5cbe
000002d0: 21b2 43be 2fa3 20be 2339 dfbd e8db f1be
000002e0: 04ee bf3d df71 d23b 0da3 02be 12d9 b3bd
000002f0: f8ee 953e c1e2 e83c 9a57 9bbe 37f7 72bb
00000300: a471 53bb b8ef 3bbd 0721 4d3c 6323 323c
00000310: 8520 a03e 0d34 7abd a334 e9bd 6712 05be
00000320: 94d5 eebd dea3 323d 8277 e9bc db4e a7be
00000330: fdce b6bd 4b94 3a3f d82d de3d efb6 3f3e
00000340: 655b 003d ce65 acbd b4d7 913d 6786 853d
00000350: 34c2 283e 07d0 5e3c 5d89 203d 7043 513e
00000360: 8003 0dbd ef96 1bbe 046d c6bd 9cec 2f3e
00000370: e879 f2bc a5eb 13be ecf1 50bd 7cc3 e9bd
00000380: 1486 3cbd 0cfd d0bb 72bd 763c cc1f 093e
00000390: 62d5 b2bd 58cd 3cbe 956d de3c f749 b13e
000003a0: 06ba cdb7 85cf aabd 403f 633d c90d 0b3e
000003b0: e8e7 bfbd 0fb6 c03e e2f7 773d c9d0 74be
000003c0: 2228 41be b301 25bf 6493 cd3b e4c3 68be
000003d0: 11f7 5a3e e44c b63c 0763 36bc 53d4 d5bc
000003e0: 74ab b1be 3009 463d a621 74be 3c58 03be
000003f0: ef0c 613d e229 903c 94d3 8c3e 6b7b 74bd
-0.27582425 0.27133214 -0.5583572 0.45272535 0.12131007 -0.10097371 0.06403778 0.51893365
0.22208792 -0.014662685 -0.121744275 0.019699598 0.10646308 -0.06748414 0.35256013 -0.0065523586
0.025121959 0.123528875 0.033411413 -0.46010682 0.22195697 0.547283 -0.094051726 -0.79008317
-0.2836059 -0.29127285 0.26730773 -0.5385016 -0.14380246 0.05107033 -0.09413848 0.017341414
0.2598594 0.13058864 0.21440394 0.019436315 0.3807139 0.30514312 -0.28751048 0.30005595
-0.72880125 -0.11359263 -0.04653951 0.260192 -0.1314892 0.42981693 -0.10864809 0.10170482
-0.40871257 0.12565692 0.46595144 -0.21980089 -0.19080845 0.026159177 -0.40471587 -0.04351242
-0.4149231 0.37607557 -0.37585485 -0.3096506 0.16203642 0.2276786 -0.022560438 -0.2604237
0.3420577 -0.17486084 0.56027037 -0.21610467 0.0027516426 0.51462173 0.30277687 0.063071094
-0.29661912 -0.026739584 0.2577448 -0.008269373 -0.44729626 0.23734643 -0.2513067 -0.35940945
0.0710678 0.16780262 0.21105053 -0.4785281 -0.108517796 -0.29582712 0.49854124 -0.008211143
-0.19134425 -0.3092205 0.096223325 0.11404515 -0.32921618 0.4398898 -0.3436042 0.35672382
0.124070205 -0.5755935 0.002891731 -0.09346427 -0.16289549 0.023829753 -0.29290923 0.20456176
0.3986653 -0.31471127 -0.19128264 0.072959855 -0.14053057 0.028354127 0.25222623 -0.22711411
0.54948103 -0.08813256 0.14179964 0.17530382 -0.607577 0.05550695 0.42635202 0.3197775
-0.106779054 0.51975757 0.35591036 -0.097806096 0.1811168 0.20341484 0.0918645 0.35579675
-0.12810746 0.058027185 0.16851443 -0.09020961 -0.07876015 0.03319494 0.16886413 0.31228444
0.05987022 -0.15176986 -0.08336567 -0.19617017 -0.25302485 -0.15366057 0.119730756 0.01392598
-0.08991134 -0.18324505 0.13473326 -0.24019437 0.11939842 -0.38382685 -0.041804828 0.4407037
0.18497005 -0.3526789 0.19505526 0.18151358 -0.19055824 -0.21668455 -0.013926672 -0.2763642
0.13336818 -0.39137933 -0.042806987 -0.370918 0.102787964 -0.113473184 0.065876245 0.4428666
0.07762716 0.24063161 0.06492186 -0.10571073 -0.13245918 -0.18136257 -0.38561946 -0.13985924
0.12059135 0.1331941 -0.13664983 -0.21491137 -0.1911092 -0.1568725 -0.1089957 -0.47238088
0.0937157 0.006422266 -0.12757511 -0.08781637 0.2928388 0.028428437 -0.30340272 -0.003707362
-0.003226378 -0.04588291 0.012520081 0.010872695 0.3127481 -0.061084796 -0.11386993 -0.12995301
-0.116618305 0.043613307 -0.028499369 -0.3267735 -0.08926199 0.7288253 0.10848588 0.18722127
0.03133716 -0.08417855 0.0712122 0.06519776 0.16480333 0.013599402 0.0391935 0.20435882
-0.034427166 -0.15194295 -0.09688762 0.17180103 -0.029599145 -0.1444536 -0.051011965 -0.11414239
-0.046026304 -0.006377822 0.015059816 0.13391036 -0.08732106 -0.18437707 0.027151862 0.34626743
-2.4524528e-05 -0.083403625 0.05548024 0.13579477 -0.093704045 0.376389 0.060539134 -0.2390777
-0.18862966 -0.6445572 0.006273674 -0.22730976 0.21383311 0.022253461 -0.011132008 -0.02610222
-0.3470112 0.048348606 -0.23840961 -0.12826627 0.054943975 0.017598096 0.2750517 -0.059688013

lstm.bias_ih_l0 f4 [512]
00000000: 2042 1bbe f00f c1bd f685 d7bd 56d5 dcbe
00000010: 1cf0 853e 7f23 b9bc d1fe 8fbd f99f 64be
00000020: 4392 c9bc c0da 86be 5127 9abe f2b2 fcbd
00000030: 9fcf f6bd 7396 b73e 120a 73be b808 ecbc
00000040: 2d0c c7bd a966 74be 0639 653d a627 76be
00000050: 7848 0ebe 5460 9ebe b033 0cbf 84f6 09be
00000060: 3e77 eabd f57f b4bd 9730 bf3d 67ee 9cbe
00000070: abfd b6be 0bcc 81be a8fd fb3a fcd2 09bd
00000080: c887 58be cb25 483e ad10 84be c4bf 873e
00000090: 3d83 dfbb c601 f8bd 0e5a 89bc eb7a c83d
000000a0: 5426 08be 8225 31be 4756 25be 4ab8 cbbd
000000b0: deb4 17be df73 033d 799a c0be 3392 babe
000000c0: 847c 07be cf39 51be b9c7 05bd f733 50be
000000d0: 47d7 42be 1e24 9ebe a450 debe 3480 acbd
000000e0: 2af4 84be e5cc 08be 9e38 81be 7edc eabd
000000f0: 6311 88be 6dd8 13be 0d1e 7bbe 60ad 88be
00000100: 8091 523d 5c8d c8bd bb47 3f3d ff74 6abc
00000110: 2223 debe b2a7 b43d 8ad1 c0be 9b92 2abe
00000120: 7bc2 c4bd fd7d 42be 7f88 05be 288f 91be
00000130: 1b4f cdbd b9b4 a13e f3e8 a8be e31a 053d
00000140: 2605 dbbd d7e7 36be f61a c2be 94ab af3d
00000150: 75ef 9fbe 440e 6ebe b6a5 34be 18d1 93be
00000160: 6e42 e2be 47ef b3be 27eb 2a3e 0eb9 64be
00000170: bfec 00bc 1c06 91be 1a6b 01be 9a3b d7bd
00000180: fbca 15be 8cfe 5ebe 3644 90be 72ff 17be
00000190: 62e6 de3c b998 13be f651 89be 1f0e ebbe
000001a0: 9383 01bf 11a0 043d 64c9 2ebe 150a 4cbe
000001b0: 504c 4bbe 3c6e dabd af4a 5bbe 65e4 a3bd
000001c0: da31 47be 4aa3 d43e 505a a1be 4649 913d
000001d0: 742a 6abe 4a6a 293d 7494 5fbe 2654 a33d
000001e0: 3297 ca3b a7b0 17bd b92e 4abe 94a9 b13d
000001f0: 3278 8bbe f37c c6be 2f02 cebe 64bc eebd
00000200: 4e33 953e 50c3 0b3e b914 47bc 0f01 89be
00000210: aac8 5bbe a828 04be c83d 9bbb 1342 abbe
00000220: 17c7 f9bd 877d 18bd 35e2 22be a1d9 4abe
00000230: d807 a5be 6c2f 54bd fdbe e4bb 245d bd3d
00000240: 7c17 fd3d aaf8 c7bd da04 28bc e663 2cbe
00000250: 102e ae3d 9f41 fcbd 8a3b dbbe a73e 83bc
00000260: 67e0 993e b628 063e f136 403d 78d7 3cbe
00000270: 7ba3 55be 4ca4 99be d3d1 f7bd 2952 19bd
00000280: 1e62 2bbe 3b56 243e f2d7 b5be a034 61bc
00000290: 791e 8e3e c023 4fbe 0221 c0bd 177d 36bd
000002a0: a1d5 3cbe e8cd 71be 5958 63be 2f2b dc3d
000002b0: 592e 3dbe 1005 73be 276c 4cbe 4cf1 7ebe
000002c0: 24c6 05be 94dc 51be fd7d 133e c633 b9bd
000002d0: dc70 adbc 21ad 95be 73d2 a1be 35f6 92be
000002e0: d14c 313e c2d9 dcbe 2e82 adbe 54de 883d
000002f0: 417e d8bd 15a0 383d c0e6 95be 87f7 98be
00000300: 8741 323d 80b8 b33d ada0 9cbd d546 d7bd
00000310: 0f13 03bf b994 42be 6317 45be 6e46 9c3e
00000320: b4cd d03d 80e5 013d 9891 773e 8419 52be
00000330: 4227 4fbe 6513 5ebe 31aa 2bbe 16a7 9cbd
00000340: 541a 6fbe 1645 053e 528c 02bd 2a0f d3be
00000350: a2bb a0be fdd2 45be c97f 90bd f4c2 a0be
00000360: da15 bdbe 4de3 20be 8191 8c3e 5597 44be
00000370: ede8 953e 59d0 aabd c453 4ebe b6a2 193e
00000380: 0fd0 553e f7f0 84be 35c3 febd 8de5 8fbd
00000390: ff2b a93e 2978 6dbe 10b9 0b3d b2fc 8cbe
000003a0: eedf 97be be6e 8d3e 3281 c9bc ad78 29be
000003b0: 9f1d 533d 55ce 00be 1170 88bc 8278 6a3d
000003c0: 74a8 9dbd 5f05 63be ec23 29bd 408c f0be
000003d0: 6932 85be 1f85 cabe 643c 6cbd b5e4 24bd
000003e0: 3449 343d 735e fc3d dbb4 cebc e978 1a3e
000003f0: b280 14be b1e6 04be a29c ebbd 0906 2e3e
-0.15161943 -0.09426868 -0.10523598 -0.43131512 0.2615975 -0.022599934 -0.07031024 -0.2232665
-0.024605876 -0.26338768 -0.3010812 -0.123388186 -0.12051319 0.3585697 -0.2373431 -0.028812751
-0.09719119 -0.23867287 0.055962585 -0.24038562 -0.13894832 -0.30932868 -0.5476637 -0.13472944
-0.11448525 -0.08813468 0.0933544 -0.30650637 -0.35740408 -0.25350985 0.0019225376 -0.033648476
-0.21145546 0.19545667 -0.25793973 0.26513493 -0.0068210647 -0.12109713 -0.016766574 0.0978907
-0.13295871 -0.17299464 -0.16146193 -0.0994726 -0.14815089 0.032092925 -0.37617853 -0.36439666
-0.13231093 -0.20432208 -0.032661173 -0.20332323 -0.19027434 -0.3088693 -0.434209 -0.0842289
-0.25967532 -0.13359411 -0.25238508 -0.11467837 -0.26575765 -0.14438029 -0.24523182 -0.26694775
0.05140829 -0.09792587 0.046699267 -0.014310121 -0.4338618 0.08821048 -0.37659866 -0.16657488
-0.09607407 -0.18993373 -0.1304035 -0.28429532 -0.10024854 0.31583193 -0.32990226 0.032496344
-0.10694341 -0.17861877 -0.37911195 0.08577648 -0.3123738 -0.2324763 -0.17641339 -0.28870463
-0.44191307 -0.35143492 0.16691266 -0.22336218 -0.007868945 -0.28324974 -0.12638512 -0.10509415
-0.14628212 -0.2177679 -0.2817704 -0.14843538 0.027209464 -0.14413728 -0.26820344 -0.4590921
-0.5059139 0.032379214 -0.17069012 -0.19925721 -0.1985333 -0.10665557 -0.21415208 -0.08002547
-0.1945261 0.4153083 -0.31514215 0.07094054 -0.22867757 0.04136113 -0.21833974 0.079750344
0.0061825747 -0.037033703 -0.19744386 0.086749226 -0.2724014 -0.38767204 -0.4023604 -0.116570264
0.29140705 0.13648725 -0.012150937 -0.2675862 -0.21463266 -0.12906134 -0.0047375895 -0.33448848
-0.121961765 -0.037229087 -0.15906604 -0.19809581 -0.32232547 -0.051803038 -0.0069807754 0.09246281
0.12357995 -0.09764226 -0.010255063 -0.16834983 0.085048795 -0.12317204 -0.42818862 -0.016021086
0.30054018 0.13101467 0.046927396 -0.1844157 -0.20863144 -0.3000816 -0.12100568 -0.03743187
-0.16736647 0.1604852 -0.35516316 -0.013745457 0.27757624 -0.20228481 -0.09381296 -0.04455289
-0.18440868 -0.23613703 -0.2220167 0.10750424 -0.18474711 -0.237324 -0.19963132 -0.24896735
-0.13063866 -0.204943 0.1440353 -0.09043078 -0.02117198 -0.2923365 -0.31605873 -0.28703466
0.1731446 -0.43134886 -0.33888382 0.06683031 -0.10570956 0.04507454 -0.2927761 -0.29876348
0.043519523 0.08775425 -0.07647834 -0.10511557 -0.51200956 -0.19002046 -0.19247203 0.30522484
0.10195485 0.03171301 0.24176633 -0.20517546 -0.2022982 -0.21687086 -0.16764142 -0.076490566
-0.23349887 0.13014635 -0.0318721 -0.41222507 -0.31393152 -0.19318767 -0.07055623 -0.31398737
-0.36930734 -0.15711708 0.2745476 -0.19198354 0.2927927 -0.083405204 -0.20149142 0.15003476
0.2088015 -0.25965092 -0.124395765 -0.07026205 0.3304138 -0.23190369 0.034112036 -0.2753654
-0.29663032 0.27623552 -0.024597738 -0.1654994 0.05154192 -0.1257871 -0.016655 0.05724383
-0.076981455 -0.22170018 -0.041294023 -0.46982002 -0.26015022 -0.39554688 -0.05767478 -0.040257175
0.044015124 0.12322702 -0.025232723 0.15085186 -0.14502218 -0.12978627 -0.11504485 0.1699449

lstm.bias_hh_l0 f4 [512]
00000000: 1b35 93be 867f d6bc f6f9 0ebe 9ef7 cfbe
00000010: cab3 5a3e 1972 e6bc d08f 8abb e277 8dbe
00000020: 60ef a1bd e906 b1be 3853 9fbe 07e0 b83b
00000030: 322b d6bd 0767 8e3e 7ea2 14be 081f f9bc
00000040: 10cb 4cbe 3e3e 5ebe cc98 803d b5dc 4fbe
00000050: ac07 1fbd 6cda afbe 94a8 0dbf 043a 70bd
00000060: 917e 83bd 92d1 42be 18ec fb3d 083d 9dbe
00000070: de1c c0be 1c12 3abe fad0 443d 3237 1bbd
00000080: ccaa 4ebe 0d33 a83e 17d2 c5be 6c89 8e3e
00000090: 9622 6fbd 1b14 72be d2fc f7bd ca86 0ebd
000000a0: 4117 59be cba9 1dbe ba47 9dbe a67f abbc
000000b0: c1e7 4dbe 03e4 b63d 8b0e f0be 7446 86be
000000c0: 4115 0ebe 9e29 52be ce96 1bbd 0a04 28be
000000d0: 8a55 5fbe a304 91be 0a5e a3be 5cb2 e0bd
000000e0: 849c 5bbe 088c 6bbe 46b6 95be 77fd b5bd
000000f0: d74a a1be b0d9 5abd 96a5 0bbe af3b 84be
00000100: cd71 96bd a8ad e8bd 1fd7 c5bc 53cb 01be
00000110: c2d8 02bf edce e1bc 5a41 bebe cc27 57be
00000120: b86e 76bd 7d35 41be 2a33 82be 8562 91be
00000130: a380 b2bd 4750 963e 4462 b9be 98aa 2b3d
00000140: b00b adbd 1f37 c3bd 7d2d d0be 1a90 5e3b
00000150: ac37 63be 9e61 0abe dbc3 44be 2642 cbbe
00000160: c8c2 b2be e87a 6bbe c1d0 553e a464 7cbe
00000170: 0680 1abc 89d4 25be 0949 35be 9ae3 08be
00000180: 9eb1 3cbe c19e 58be 0bed 5bbe 9310 16be
00000190: e5f0 5f3d 1232 81bd bb9c a8be f5a4 eabe
000001a0: d5e4 16bf 59a5 30bd 4027 28be b3e6 87be
000001b0: 369f 46be b974 2fbe 6262 8fbd 3996 b2bd
000001c0: 669a 31be cb31 f73e 40c9 74be 4713 c93d
000001d0: b9a7 36be 12c7 c63b d21c 71be 18e2 853d
000001e0: ee18 583d 1fe1 a2bc 4b1f f4bd 7642 df3d
000001f0: 3109 98be 302f 83be 62d7 87be 151c c53c
00000200: f1df 073e 784f 273d dcc3 9ebd 37f9 86be
00000210: b8e5 86be 3887 61bd 6ff7 253d a612 7bbe
00000220: f4c8 b4bd e942 513d 1bcc 76be 1677 42be
00000230: ba15 d6be 7395 12be fd42 7ebd 58cb 783e
00000240: f769 983d 55f1 fabd a749 98bd 6cb8 51be
00000250: 1aa7 f13d e912 6abe 4a4d e5be 5c16 64bd
00000260: 53ad 5c3e 5e98 403e a291 8e3d d1fd 67be
00000270: 8161 c6bd 6e0a 2ebe 0f60 22be 4e17 b73c
00000280: a1aa 81be 2853 713e d13b 7ebe b341 b5bc
00000290: c3ee 6f3e c332 59be 8a31 07be 093f 32be
000002a0: abb4 48be fdf1 52be ee22 88be f706 dc3d
000002b0: 4e3c 3ebe 3d4f 63be a793 92be 9fce 86be
000002c0: 89a0 28be e3c2 5abe 368e ff3d 56b1 d1bd
000002d0: 21c0 b33c 2a8b 00be c73d dbbe a69a 5abe
000002e0: dea9 223e bb05 b3be 768e f5be 1348 53bd
000002f0: d721 1bbd 477e 6d3d a2f4 99be 4f1b a6be
00000300: 4ac2 0f3e 1400 973c 5fa0 b9bd d978 c6bd
00000310: de13 bbbe 45e0 14be c4bc 35be f43d 6b3e
00000320: 98f1 0a3e 6123 9c3d e7f4 ff3d 37f0 60be
00000330: ce04 8abe ec3d 68be ef2d d1bd 2b29 80bc
00000340: 8532 5ebe b0da 343e 5660 8a3d cd43 aabe
00000350: 7ca9 9fbe e067 6abe 7fed 703d ab33 8fbe
00000360: 4485 c1be 48fd 86be 433f 623e 2e4e 7abe
00000370: 7fb2 b53e 876f afbc 2d55 cebd 589f 1a3e
00000380: 2927 a73d 1b6b 9bbe 517d 14be 60ef 5dbd
00000390: 5b98 af3e 1ab7 58be e23b e3bd ced1 87be
000003a0: 6723 a0be 5f9a 703e bfba d93c a90d 4ebe
000003b0: 45bb 203e 43cc 8bbe 59ab 103c b4c9 1a3e
000003c0: d510 b73d 98db c8bd 22f6 823d ccc9 cebe
000003d0: 2ea0 27be be96 b2be c829 6ebc b5a9 34be
000003e0: 71ca 1f3d faa7 493e 726a ad3b 1697 3a3e
000003f0: 669a 22be bb85 40be ec5a 01bd 6bc9 4b3d
-0.28751454 -0.026183855 -0.1396254 -0.40618604 0.21357647 -0.028130578 -0.0042285696 -0.27630526
-0.07906985 -0.34575585 -0.31118178 0.0056419405 -0.104574576 0.2781298 -0.14515111 -0.030410305
-0.19999337 -0.21703431 0.06279144 -0.20299037 -0.038825676 -0.3434633 -0.55335355 -0.058649078
-0.06420625 -0.19025257 0.12300891 -0.30710626 -0.37522024 -0.1817097 0.048050858 -0.037894435
-0.20182341 0.3285145 -0.38636848 0.2783922 -0.058382593 -0.23640482 -0.121087685 -0.034796514
-0.21200277 -0.15396802 -0.30718786 -0.020934891 -0.20107938 0.089302085 -0.46886095 -0.26225626
-0.13875295 -0.20523688 -0.037985615 -0.16407791 -0.21809974 -0.2832385 -0.31907684 -0.10971519
-0.21446425 -0.23002636 -0.29240626 -0.08886235 -0.3150241 -0.05343026 -0.13637385 -0.25826785
-0.073459245 -0.11361247 -0.02415043 -0.12675218 -0.51111996 -0.02756449 -0.37159234 -0.21011275
-0.060164183 -0.1886806 -0.2542966 -0.28395477 -0.08715942 0.29358122 -0.36207783 0.041910738
-0.08449495 -0.09531998 -0.40659705 0.0033960403 -0.22189206 -0.135138 -0.19215338 -0.39698905
-0.3491423 -0.22996104 0.20880415 -0.24647766 -0.009429937 -0.16194357 -0.17703642 -0.13368073
-0.1842713 -0.2115431 -0.21477143 -0.1465476 0.054673094 -0.06308378 -0.32932076 -0.45828977
-0.5894292 -0.043126438 -0.16421223 -0.26543197 -0.19396672 -0.1713437 -0.07001187 -0.08720059
-0.17344055 0.48280177 -0.23904896 0.0981813 -0.17837419 0.0060662115 -0.2354615 0.065372646
0.05275815 -0.019882737 -0.11920031 0.10901348 -0.29694512 -0.2562194 -0.26531512 0.024061242
0.1326902 0.04084727 -0.07752201 -0.2636201 -0.26347136 -0.055060595 0.040519174 -0.24518833
-0.08827391 0.0510892 -0.24101298 -0.1899074 -0.4181345 -0.14314823 -0.062075604 0.2429632
0.07442086 -0.12253062 -0.07435923 -0.20480508 0.1179945 -0.22858776 -0.4478553 -0.055685386
0.21550493 0.18808123 0.06961371 -0.22655417 -0.09686566 -0.16996166 -0.15856956 0.02234998
-0.25325492 0.23566878 -0.24827506 -0.022126054 0.23430924 -0.2121077 -0.13202491 -0.17406859
-0.1960017 -0.20600124 -0.2658915 0.10743516 -0.18577692 -0.22198196 -0.28628275 -0.26329514
-0.1646749 -0.21363406 0.124782965 -0.10238902 0.0219422 -0.12553087 -0.4282057 -0.21348056
0.15885112 -0.3496531 -0.47960252 -0.051582407 -0.03787407 0.057981756 -0.30069453 -0.3244271
0.14038959 0.018432654 -0.090637915 -0.096910186 -0.36538595 -0.14538677 -0.1774779 0.22972852
0.13568723 0.076239355 0.12497883 -0.21966635 -0.2695679 -0.22679871 -0.10213839 -0.01564463
-0.21698959 0.17661548 0.06756656 -0.33254853 -0.31183994 -0.22891188 0.058820244 -0.27969107
-0.37796986 -0.26365113 0.22094445 -0.24443886 0.35487744 -0.021415485 -0.1007484 0.15099847
0.08161766 -0.30355152 -0.1450093 -0.054183364 0.34295925 -0.21163598 -0.11095406 -0.26527256
-0.3127701 0.23496388 0.026578305 -0.20122398 0.15696438 -0.27304277 0.008829915 0.15116006
0.08938757 -0.09807509 0.06394602 -0.40388334 -0.16369697 -0.34880632 -0.014536329 -0.17642863
0.039011423 0.19692984 0.0052922303 0.18221697 -0.15879211 -0.18801014 -0.03158085 0.049752634

fc.weight f4 [4, 128]
00000000: 96d2 9640 d159 c43f 7e08 8c3e b4ff 663e
00000010: 32ef 253d 6bd3 0a3f 5ebe 91bd d344 e23e
00000020: 9856 4cbf cfe9 ce3e 0d8a 3dbd d06b 3940
00000030: 1589 9d3e 3a76 94bf bc2f 4cbe e15a 573f
00000040: 0e67 c0be 544b d53e c1cc 373f a966 7cbe
00000050: 77b9 bb3e b9d9 313f 1c8f 6cbd 77ce abbf
00000060: ec9d a73f fa45 6c3f 3623 de3f 56f4 783d
00000070: cb50 e53e bd64 2cbe 0dff da3f 9077 833f
00000080: ce86 25bf 0a90 71be fbb5 813f 5d7a 42bf
00000090: fce7 b6be ce09 8f3d b92b adbf 51de 40bd
000000a0: 39fd c63d 9cd2 003f 4b60 bc3e fcfd f3be
000000b0: 1aa2 cbbe a476 063f 5a09 6c3d ca2e 843d
000000c0: 0c7c 36be ce3c aebf 1a42 ac3f 8ff8 a73d
000000d0: 86ce 02bf 1f73 1b40 2c4d 94bd 6401 62bf
000000e0: 7bf6 753f 1be7 973e 296f 023f acae 78be
000000f0: 8f07 fabe 72b2 c63a 449e cf3e 0204 3d3f
00000100: 9611 793e ca7b 123e 9cf9 08bf 6eef 5c3e
00000110: 10d2 ad3d d9ad bf3e c9ef 853d 79b9 adbf
00000120: ea53 e6bf 7f9c 8ebf bb76 3bbf 4093 07be
00000130: 8ecd a2bb 9947 4b3f dd60 5e3e 44d8 c6bf
00000140: 6810 6a3e dffd 95bf b844 303e d9ff babe
00000150: c0ec cb3c 79c3 9dbf fd39 ab3e ad63 123e
00000160: c530 f3be 9142 4b3f 575b 61be 9208 50be
00000170: 25c2 79bc 839e 0e3f c950 0cc0 7168 a7be
00000180: da23 1abf 1fff 0d3f af63 5f3f 8342 36be
00000190: 36f7 503f 0457 a13f c7b9 a9bf d5a9 22bf
000001a0: d1af 6bbe d830 cf3e ed3f bfbd b3c2 3bbe
000001b0: 76c4 d03e f1ee 4f3f 255d 0540 de81 b83d
000001c0: 6a20 83be d043 34bf a2be bbbd df28 9cbe
000001d0: b45f f6bd c432 87bf b85e 33bf eb74 e03e
000001e0: 1e8b 98bf e1d8 593f af55 893f efd6 073f
000001f0: d02e 113f cb5b c23b ee2a 533f 0925 07be
00000200: be97 90bd 688e f3be 7cdb 85be bab8 013f
00000210: 7860 af3b 5113 a13f 3fe4 dfbe 6a8e b73e
00000220: e7b4 3ebe af9d a03e d9b9 373f ca90 11be
00000230: 6bfb adbe fb86 b33c ede9 0e3e 11a4 2ebf
00000240: d567 823d a2a4 28bf 7613 c73d a28f 11bf
00000250: 1dff 2fbe 3e1f d03e d32d 133e 3b31 dd3e
00000260: 6e72 82be 77ad 5e3b 0a4f 5bbe b405 8bbe
00000270: 510c 783d 8781 e5bd bef4 3dbd f56a 44bf
00000280: fbb5 9e3d 497d 97bf 95dd 3bbf ad3d 543c
00000290: ef58 983e 725d c8bf 5ae7 2dbe d146 5a3e
000002a0: d887 74be e8e9 d6bd b3cd 48be a999 2fbd
000002b0: 1ab4 373e 9ab7 1d3f 7f0e 143e 499f aa3b
000002c0: e2ae 6a3d 0abc f43d 5c9d ab3e 2669 fabe
000002d0: b5f9 4c3f 253a 1d3e 4cad 0ebf 40e7 003e
000002e0: 80e8 82bf 83ac c4be 2a18 1cbe 550a e03e
000002f0: cb31 a43d 1972 f2be 8359 8bbe 5b89 403e
00000300: 6279 7b3e 1030 3b3f 2cf5 2fbd 8040 6c3d
00000310: 0c48 83bb 2055 7ebe 47fa c93e 982d c43d
00000320: 25a2 dcbc 013d 833f a9d4 2b3f 1753 643f
00000330: 60bf 953f 414d 78be a7c9 d1be eb08 39be
00000340: 83dc d13f e8a9 b33e 0c91 8fbd 1b6e b43d
00000350: 986f c1be 20b1 babe 4de5 533f f8bb ec3d
00000360: 916b c7be b6a7 13bf 7a87 303f a364 10bf
00000370: a217 cbbe 1898 ab3e dcec 803d 6fb9 fe3e
00000380: af9f 793e 962e 5c3e dc85 493d fe30 b2bd
00000390: ecbc abbe 1116 9abe 8b6a bdbb 82a6 d63e
000003a0: 5081 ac3e 4a60 f9be 9513 81bf 37fa 59bf
000003b0: 40d5 703d 7f15 22be 2dc5 183e b945 473f
000003c0: 0849 333f f401 043f 9268 8e3e 6dd8 31be
000003d0: 4264 b5be 962d e63c 16e5 f83e d359 6abf
000003e0: c726 913e 9cdb 043d 97cc a63f 8c81 8a3e
000003f0: 3138 e0be a6f4 3c3f 0450 aebe 99dc 61bf
4.7132063 1.533991 0.2735023 0.2255848 0.040511318 0.5422885 -0.07116388 0.44193134
-0.7981963 0.40412757 -0.046274234 2.8972054 0.30768648 -1.159858 -0.19940084 0.84123045
-0.37578624 0.41659033 0.71796805 -0.24648537 0.36664936 0.69472843 -0.057753667 -1.3422383
1.3095069 0.92294276 1.7354496 0.060779892 0.44788203 -0.16835304 1.7109085 1.0270863
-0.6465882 -0.23590103 1.0133661 -0.7596796 -0.35723865 0.06984292 -1.3528968 -0.047087017
0.09716267 0.50321364 0.36792216 -0.47654712 -0.3977211 0.5252478 0.057626106 0.06454237
-0.17820758 -1.3612306 1.3457673 0.08201706 -0.5109638 2.4289014 -0.07241282 -0.8828337
0.96079224 0.29668507 0.50950867 -0.24285382 -0.48833892 0.0015159382 0.40550435 0.7383424
0.24323115 0.14305034 -0.53505874 0.2157571 0.08487332 0.37437323 0.06539876 -1.3572227
-1.7994359 -1.1141509 -0.73228043 -0.13239765 -0.0049683517 0.79406124 0.21716638 -1.5534749
0.22857821 -1.17181 0.17213714 -0.3652332 0.024893165 -1.2325279 0.3344268 0.14295836
-0.47498146 0.7939845 -0.220075 -0.2031577 -0.015244042 0.5571062 -2.1924307 -0.3269687
-0.60210955 0.5546741 0.8726148 -0.1779881 0.81627214 1.260468 -1.325982 -0.63540393
-0.23016287 0.40466952 -0.09338365 -0.1833599 0.40774888 0.8122397 2.08381 0.09009145
-0.25610667 -0.70415974 -0.0916722 -0.30499932 -0.12029973 -1.0562367 -0.70066404 0.438392
-1.1917455 0.85096556 1.0729274 0.5306234 0.56712055 0.0059313527 0.8248738 -0.13197722
-0.070601925 -0.47569585 -0.26144016 0.50672495 0.005352076 1.258402 -0.43728825 0.3585084
-0.18623696 0.31370303 0.71767956 -0.14215389 -0.3398088 0.02191495 0.13956423 -0.68219095
0.06367461 -0.6587621 0.09720509 -0.5685979 -0.17187162 0.40648836 0.1437295 0.43201622
-0.25477928 0.0033977905 -0.2141687 -0.2715279 0.06055862 -0.11206346 -0.046375982 -0.76725703
0.07749554 -1.1835109 -0.7338498 0.012954158 0.2975535 -1.5653517 -0.16982785 0.21316077
-0.23879945 -0.10493833 -0.19609718 -0.04287115 0.17939797 0.6160828 0.14458655 0.0052069766
0.057295687 0.11949928 0.33518493 -0.48908347 0.8006852 0.15354212 -0.5573318 0.12588215
-1.0227203 -0.38412866 -0.15243593 0.43757883 0.0801731 -0.47352675 -0.2721673 0.18802397
0.24558023 0.7312021 -0.042958423 0.0576787 -0.0040063914 -0.2483716 0.3944876 0.09579009
-0.026932785 1.0252992 0.6712137 0.89189285 1.1699028 -0.2424822 -0.4097416 -0.18069808
1.639542 0.35090566 -0.07010087 0.088100635 -0.37780452 -0.3646326 0.8277176 0.1155929
-0.38949254 -0.5767778 0.6895672 -0.5640356 -0.39666468 0.33514476 0.06295177 0.4975085
0.2437732 0.21502146 0.049199924 -0.08700751 -0.33542573 -0.3009496 -0.005780523 0.4192391
0.33692408 -0.48706275 -1.0084101 -0.8514742 0.05879712 -0.15828513 0.14918967 0.77840763
0.7003331 0.5156548 0.27814156 -0.17367716 -0.35428053 0.028097909 0.4861228 -0.9154331
0.28349897 0.032436 1.3031186 0.2705196 -0.4379287 0.73810804 -0.34045422 -0.8822723

fc.bias f4 [4]
00000000: e781 58bf e71c 8b3d a03b 053e 682b 20bf
-0.84573215 0.06792622 0.13011026 -0.6256623
