LSTM/Data_3/LSTM5/model.pth (torch, 275939 bytes, 6 tensors)

lstm.weight_ih_l0 f4 [512, 3]
-0.31022173 0.32597628 -0.12734169 -0.4289708 -0.54314137 -0.4945133 -0.16991583 0.04107241
-0.08632498 -0.41437167 -0.33109194 -0.85549366 -0.081669696 -0.18024525 -0.6943393 -0.98013395
-1.1858149 -0.49268964 -0.105945595 0.13776949 -0.30759293 -0.390962 0.5846467 -0.09995323
0.052216146 -0.14559817 -0.30729204 -0.15747489 -0.28925294 -0.5472615 -0.38973287 -0.31166694
-0.25076276 -0.20729542 0.086535186 0.45442805 -0.5283405 -0.8554504 -0.87074095 -0.72918284
-1.2134441 -0.6065227 -0.30061665 -0.24488567 -0.10016317 -0.2744746 -0.64369893 -0.124753974
-0.22768146 0.23779862 0.09317949 -0.75921804 -0.60998684 -0.5626536 -0.34504437 -0.06973588
0.28452992 -0.27499446 0.19286768 0.024397798 -0.0682103 -0.1534162 -0.24744594 -0.35535988
-0.2794509 0.19039603 -0.3093041 -0.13681296 -0.18379495 -0.1756918 0.13704233 -0.06969163
-0.26332065 0.44952786 -0.27810904 0.038419366 -1.3473746 -0.09767801 -0.3149814 -0.02523065
0.138518 -0.43529478 -0.73022854 -0.22266707 0.14526531 -1.050238 0.21097054 0.042288374
-0.34527844 0.24910559 0.0034452323 -0.04352948 -0.57266486 -0.5792579 -0.8919697 -0.47942558
-0.45492047 -0.33215168 -1.1418141 0.27389604 0.21410322 0.07407337 -0.49757695 -0.6356304
-0.8811247 -0.3446353 -0.18477401 -0.4233908 -0.4562122 -0.59660906 -0.29436255 -0.48614645
0.20357159 -1.2761806 -0.20986639 -0.58697015 0.023812816 -0.521083 -1.159104 -0.44127256
-0.41310158 -0.4167366 -0.45729464 -0.05187702 -0.38790286 -0.33249137 0.061043605 -0.3421931
0.10007903 -0.14734502 0.13895233 0.41053972 0.02296368 -0.3721424 0.17960551 -0.46965927
-0.42775616 -0.16978227 -0.08421406 -0.68975633 -0.12557507 -0.14641972 -1.1088822 0.048756048
-0.3826818 -0.7485175 -0.13209158 -0.07502885 -0.9624557 0.12313675 -0.3196365 -0.65554214
-0.6885027 -0.17855868 -0.11166505 -0.08245899 -0.1892136 0.24057744 0.20664048 -0.458343
0.3855296 -0.42857754 -0.13845924 0.4189479 -0.17870647 0.0030153696 0.045176122 -0.11715419
-0.1273052 -1.3768034 -0.30803618 -0.5352639 0.045892846 -0.41451195 -0.6327762 -0.6339967
-0.66207427 -0.00082034006 -0.8534657 -0.46352756 -0.27491277 -0.07588939 -0.5463821 -0.31531316
-0.9124454 -0.20236768 -0.19377342 -0.040559486 0.18014348 -0.15693456 0.04108618 -0.47285137
0.09976969 0.45212448 0.21777156 -0.88285786 -0.7308205 -0.95081675 -0.17654827 -0.6613418
-0.1660073 -0.11723974 -1.0406015 -8.202627e-05 -0.6976115 -0.62394744 -0.5633487 -0.516879
-1.0060129 -0.22126263 -0.14485203 -0.989429 -0.4909476 -0.22460322 0.008233154 0.10231646
-0.17321306 -0.071690425 -0.18828887 -0.026300948 -0.24884309 -0.04363444 0.122670844 0.008359547
-0.0518949 -0.4764735 -0.3301459 -0.13121918 0.23745137 -0.5625888 0.1330664 -1.107209
-1.0203114 -0.78465277 -0.35546675 -0.8950225 -1.2036719 -0.081566595 -0.51391774 0.045827888
0.42790455 0.42599666 0.2988339 -0.24100724 -0.5830071 -0.7661021 -0.27923164 -0.5942766
-0.283609 -0.36209536 -0.50292295 -0.05081791 -0.38041458 -1.2235441 -0.6989859 -0.45245555
00000000: 62d5 9ebe 5de6 a63e dc65 02be 10a2 dbbe
00000010: 500b 0bbf d930 fdbe 6afe 2dbe 8b3b 283d
00000020: 27cb b0bd 8628 d4be e284 a9be a201 5bbf
00000030: 7142 a7bd 3692 38be 38c0 31bf 0fea 7abf
00000040: c8c8 97bf d141 fcbe 01fa d8bd 7213 0d3e
00000050: d27c 9dbe 2c2c c8be 68ab 153f 47b4 ccbd
00000060: 99e0 553d b017 15be 6255 9dbe 1941 21be
00000070: f618 94be 5419 0cbf 118b c7be cf92 9fbe
00000080: fa63 80be 4045 54be 5c39 b13d cbaa e83e
00000090: 5341 07bf ccfe 5abf e1e8 5ebf baab 3abf
000000a0: 2352 9bbf 1245 1bbf 6dea 99be 4fc3 7abe
000000b0: 5922 cdbd ef87 8cbe 74c9 24bf 037f ffbd
000000c0: 5425 69be 7b81 733e e3d4 be3d 1d5c 42bf
000000d0: 1928 1cbf 110a 10bf a8a9 b0be afd1 8ebd
000000e0: e8ad 913e 13cc 8cbe 1b7f 453e e4dd c73c
000000f0: d7b1 8bbd 2319 1dbe 7862 7dbe bbf1 b5be
00000100: 3014 8fbe 2df7 423e 1b5d 9ebe b218 0cbe
00000110: be34 3cbe 8de8 33be d354 0c3e 7cba 8ebd
00000120: f7d1 86be 8428 e63e 4f64 8ebe a05d 1d3d
00000130: c576 acbf 690b c8bd 3e45 a1be 82b0 cebc
00000140: aad7 0d3e f5de debe 42f0 3abf d602 64be
00000150: 6ec0 143e 336e 86bf a908 583e 9336 2d3d
00000160: 56c8 b0be 8915 7f3e 68c9 613b f84b 32bd
00000170: 2a9a 12bf 3f4a 14bf 2058 64bf 4577 f5be
00000180: 56eb e8be c90f aabe f726 92bf 1a3c 8c3e
00000190: e03d 5b3e c7b3 973d 68c2 febe adb8 22bf
000001a0: 6391 61bf 0a74 b0be 6635 3dbe aec6 d8be
000001b0: a594 e9be 5fbb 18bf b0b6 96be 30e8 f8be
000001c0: 1275 503e e359 a3bf 37e7 56be ad43 16bf
000001d0: 1813 c33c b265 05bf 855d 94bf 7aee e1be
000001e0: 0d82 d3be 805e d5be 8622 eabe 007d 54bd
000001f0: 349b c6be 4f3c aabe dc08 7a3d ef33 afbe
00000200: 3cf6 cc3d 9de1 16be 8549 0e3e 4332 d23e
00000210: 541e bc3c 7389 bebe 82ea 373e 2e77 f0be
00000220: db02 dbbe 67db 2dbe 6c78 acbd df93 30bf
00000230: c096 00be 0def 15be daef 8dbf 6cb4 473d
00000240: deee c3be d89e 3fbf 0443 07be baa8 99bd
00000250: 7f63 76bf 1f2f fc3d 65a7 a3be 9cd1 27bf
00000260: b741 30bf 16d8 36be a5b0 e4bd 42e0 a8bd
00000270: 36c1 41be ef59 763e 9099 533e efab eabe
00000280: 2364 c53e 846e dbbe 42c8 0dbe 5780 d63e
00000290: d4fe 36be 829d 453b 990a 393d 89ee efbd
000002a0: 4b5c 02be 183b b0bf ebb6 9dbe 0e07 09bf
000002b0: 23fa 3b3d e93a d4be 9ffd 21bf 9c4d 22bf
000002c0: b37d 29bf 170c 57ba ba7c 5abf 7c53 edbe
000002d0: 5ec1 8cbe e66b 9bbd b3df 0bbf ba70 a1be
000002e0: 0696 69bf 7939 4fbe 8a6c 46be b421 26bd
000002f0: 8877 383e 74b3 20be fb49 283d 9319 f2be
00000300: 0d54 cc3d dc7c e73e 82ff 5e3e f902 62bf
00000310: 0d17 3bbf ba68 73bf 12c9 34be b24d 29bf
00000320: d1fd 29be 641b f0bd 6e32 85bf 8505 acb8
00000330: ab96 32bf 05bb 1fbf 9f37 10bf 2f52 04bf
00000340: 08c5 80bf ac92 62be 1754 14be 384b 7dbf
00000350: 7c5d fbbe 63fe 65be 5ae4 063c 4b8b d13d
00000360: c45e 31be 6ed2 92bd ccce 40be 1675 d7bc
00000370: b9d0 7ebe 07ba 32bd da3a fb3d 7bf6 083c
00000380: bf8f 54bd 56f4 f3be e208 a9be 525e 06be
00000390: 7426 733e d205 10bf 8f42 083e 06b9 8dbf
000003a0: 9099 82bf 01df 48bf bdff b5be 3220 65bf
000003b0: ec11 9abf 630c a7bd 1d90 03bf 06b6 3b3d
000003c0: 4e16 db3e 3c1c da3e c200 993e 9aca 76be
000003d0: f43f 15bf 441f 44bf 73f7 8ebe 8322 18bf
000003e0: 3335 91be 9064 b9be 8fbf 00bf 7126 50bd
000003f0: b3c5 c2be 189d 9cbf bdf0 32bf 41a8 e7be

lstm.weight_hh_l0 f4 [512, 128]
-0.18895923 -0.09685364 0.84649056 0.36252263 0.14881527 -0.013811989 -0.2212549 -0.34254172
-0.23329788 -0.53076285 0.36100638 0.032292705 -0.45634472 0.22633457 -0.4933899 0.31216168
-0.37085915 0.23576793 0.23907502 0.24041723 0.38156742 0.026822625 0.31971186 -0.15246461
-0.012317854 0.22522162 0.10151655 -0.022834837 0.21710803 -0.11350277 -0.06498927 -0.12116002
-0.01880749 0.2651444 -0.058729775 0.10336991 -0.18870585 0.18451118 -0.026806936 0.078014225
-0.43354392 0.2253189 0.15640756 0.047914535 0.18653607 0.06217611 -0.23565927 0.4207842
-0.31783143 0.16458239 -0.29432833 0.13383438 -0.16401513 -0.11101532 -0.07140616 -0.047363523
-0.2803019 0.013878203 0.10332979 0.34454274 -0.053575866 0.27365083 -0.116643794 -0.007869705
-0.24626231 -0.09830811 -0.30397812 0.1216785 0.18771107 0.57187957 0.6247494 0.037509624
0.78726846 0.5404362 -0.5788135 0.4147763 0.08684681 0.18196209 -0.07290348 0.25566685
0.39707646 0.53219527 0.47571966 0.024655154 -0.17091984 -0.3250135 0.0063645723 -0.09562368
0.072580665 -0.28980902 0.49472257 0.037075 0.06358929 -0.688497 0.06079009 -0.41571173
-0.003258191 0.01702962 0.34424573 -0.13844465 0.04421498 -0.33080226 -0.3044506 -0.11174945
-0.11792577 0.4318146 -0.3899879 0.015834788 0.67539626 0.02343648 0.14178635 -0.06714634
-0.43912417 0.17439964 -0.14382975 -0.022079222 -0.16959451 0.24454166 -0.060525298 0.18211481
-0.393654 -0.059365813 -0.001975271 -0.09379269 0.29978177 -0.32206064 0.16415806 -0.029569369
0.043383043 -0.46322545 -0.035779115 0.3018398 -0.21901725 -0.43206683 -0.025400857 0.09366368
0.35613492 0.22338781 0.23925166 0.1028207 0.24531668 0.2062216 0.16928434 0.3324113
0.18999912 -0.18664916 -0.07833276 0.2326468 0.4003412 0.56487453 0.25167716 0.05796058
-0.28977406 0.21025725 0.031125003 -0.11382972 -0.3793178 -0.22383982 -0.13883728 -0.36185914
0.05154827 -0.2974805 0.019216424 0.20555452 -0.30857903 0.29889408 0.21474832 0.26845944
0.59586656 -0.3130666 0.2606058 -0.47608024 -0.32779136 0.016492698 0.11398367 -0.24797805
-0.12080004 0.2803642 -0.35401148 0.109122455 -0.17229256 0.17116852 -0.070732206 -0.3368266
-0.74484086 -0.08228689 -0.3669488 -0.48573497 -0.31542018 0.4247719 0.114782184 0.33138922
0.3010488 0.063024044 -0.14498065 0.25928023 0.105089925 0.15434574 0.19288234 -0.075490646
-0.36101812 -0.22286479 0.17141253 -0.113431826 -0.12566769 -0.102591924 -0.060963087 -0.35383958
-0.34568664 0.410368 0.2339958 0.3993397 0.17329277 -0.1964875 -0.3232967 -0.0668728
-0.30289054 -0.11855767 0.052503426 0.44003963 0.033094388 0.12814686 -0.2028751 0.46364942
0.28159794 0.07966463 -0.006684491 0.0151054505 0.1461295 0.20585224 -0.020937618 -0.39311427
0.5531841 -0.19969155 0.0781077 -0.07179734 -0.4418135 0.40893823 0.06628007 0.50617874
-0.004424677 -0.09144467 0.49643686 -0.25127977 -0.20590642 0.32424542 0.10340539 0.11788165
0.19084774 0.45561484 0.40276226 0.0856867 0.13679357 0.18470001 -0.37699765 0.13357855
00000000: 877e 41be 345b c6bd 9bb3 583f 919c b93e
00000010: 0863 183e ae4b 62bc a590 62be a161 afbe
00000020: a4e5 6ebe 13e0 07bf d4d5 b83e 5b45 043d
00000030: 04a6 e9be 40c4 673e 9a9d fcbe a8d3 9f3e
00000040: 40e1 bdbe 266d 713e 15d0 743e ef2f 763e
00000050: ce5c c33e 1fbb db3c 46b1 a33e af1f 1cbe
00000060: d3d0 49bc 7fa0 663e e9e7 cf3d 2010 bbbc
00000070: 9151 5e3e 2474 e8bd 1819 85bd bf22 f8bd
00000080: 2a12 9abc 02c1 873e a28e 70bd 9ab3 d33d
00000090: 1b3c 41be 80f0 3c3e 389a dbbc ecc5 9f3d
000000a0: 78f9 ddbe ffb9 663e 4e29 203e 0842 443d
000000b0: 5003 3f3e 60ac 7e3d aa50 71be 0771 d73e
000000c0: cdba a2be 4988 283e 34b2 96be e10b 093e
000000d0: 95f3 27be 005c e3bd 653d 92bd 4100 42bd
000000e0: bb83 8fbe 6761 633c 929e d33d e867 b03e
000000f0: 5e72 5bbd f61b 8c3e f1e2 eebd efef 00bc
00000100: 302c 7cbe c355 c9bd 05a3 9bbe 9432 f93d
00000110: 5537 403e b366 123f 94ef 1f3f b1a3 193d
00000120: 6d8a 493f 075a 0a3f 1f2d 14bf 8f5d d43e
00000130: bedc b13d 4554 3a3e 6b4e 95bd c4e6 823e
00000140: 9b4d cb3e f33d 083f 8791 f33e 9bf9 c93c
00000150: 9c05 2fbe 2b68 a6be e78d d03b 59d6 c3bd
00000160: 2ca5 943d d961 94be 474c fd3e f5db 173d
00000170: 1a3b 823d 5741 30bf 08ff 783d 2bd8 d4be
00000180: 6087 55bb b481 8b3c fa40 b03e 6fc4 0dbe
00000190: c41a 353d ea5e a9be f3e0 9bbe e5dc e4bd
000001a0: 1183 f1bd ce16 dd3e 7eac c7be f5b7 813c
000001b0: c5e6 2c3f dcfd bf3c 7130 113e 0584 89bd
000001c0: e2d4 e0be d295 323e 1b48 13be 7cdf b4bc
000001d0: 2faa 2dbe 2169 7a3e 60e9 77bd 4e7c 3a3e
000001e0: 048d c9be 9129 73bd 8c73 01bb 6216 c0bd
000001f0: ff7c 993e 22e5 a4be 0d19 283e 763b f2bc
00000200: 6bb2 313d e32b edbe 1f8d 12bd bf8a 9a3e
00000210: 0f46 60be dd37 ddbe 7515 d0bc bed2 bf3d
00000220: 5157 b63e c6bf 643e 63fe 743e a993 d23d
00000230: 4c34 7b3e c12b 533e e058 2d3e d031 aa3e
00000240: 218f 423e f520 3fbe ed6c a0bd f63a 6e3e
00000250: 86f9 cc3e 9e9b 103f d4db 803e 1368 6d3d
00000260: 445d 94be ad4d 573e ddf9 fe3c 8e1f e9bd
00000270: f135 c2be 4436 65be 5c2b 0ebe 9a45 b9be
00000280: 4724 533d 5d4f 98be c36b 9d3c e27c 523e
00000290: 12fe 9dbe a508 993e fce6 5b3e 8473 893e
000002a0: b68a 183f 444a a0be 206e 853e cac0 f3be
000002b0: 45d4 a7be b21b 873c 4570 e93d f5ed 7dbe
000002c0: 0366 f7bd e58b 8f3e fe40 b5be 987b df3d
000002d0: 766d 30be cd46 2f3e 0cdc 90bd 8974 acbe
000002e0: e4ad 3ebf 0786 a8bd b7e0 bbbe 41b2 f8be
000002f0: c17e a1be b47b d93e ec12 eb3d d9ab a93e
00000300: 1123 9a3e c012 813d cf75 14be 61c0 843e
00000310: 6339 d73d cf0c 1e3e f382 453e d79a 9abd
00000320: 5ed7 b8be ab36 64be c486 2f3e f24e e8bd
00000330: 08af 00be b71b d2bd 6eb4 79bd 762a b5be
00000340: d7fd b0be c11b d23e 989c 6f3e 4176 cc3e
00000350: a973 313e 0534 49be 2587 a5be 9bf4 88bd
00000360: 7814 9bbe 5dce f2bd d50d 573d e04c e13e
00000370: fb8d 073d ee38 033e 7dbe 4fbe 7563 ed3e
00000380: 9b2d 903e 3627 a33d 9309 dbbb da7c 773c
00000390: f9a2 153e eeca 523e 5e85 abbc 4646 c9be
000003a0: 799d 0d3f f17b 4cbe eef6 9f3d 7c0a 93bd
000003b0: 6135 e2be 5a60 d13e d8bd 873d ee94 013f
000003c0: e2fc 90bb 5847 bbbd f92c fe3e bea7 80be
000003d0: 22d9 52be 7f03 a63e 35c6 d33d ef6b f13d
000003e0: 976d 433e 5946 e93e db36 ce3e 827c af3d
000003f0: 9d13 0c3e 0022 3d3e d605 c1be d1c8 083e

lstm.bias_ih_l0 f4 [512]
-0.2130218 -0.38562438 -0.15932627 -0.2859151 0.0067629167 -0.94440734 -0.19726646 -0.33079904
-0.08963854 -0.35630524 -0.2454889 -0.18850702 -0.4760992 -0.6493272 -0.33458078 -0.21209592
-0.15325914 -0.83416003 -0.32359138 -0.17150684 -0.09832158 -0.35649422 -0.39077684 -0.15858148
-0.09697961 -0.03496961 -0.40719175 -0.5122393 0.030213315 -0.051872693 0.046210222 -0.6887451
-0.50759345 0.14488229 -0.4894948 -0.33056605 -0.34252167 -0.36326003 -0.39651462 -0.56136125
-0.456279 -0.090324596 0.040777065 -0.07554547 -0.063584894 -0.34236497 -0.21194677 -0.24245137
-0.46530482 -0.059680983 -0.38303608 -0.15474324 -0.21242903 -0.51670194 -0.19666094 -0.011861773
-0.15676929 -0.40244386 -0.6690005 -0.3042833 -0.27591452 -0.14746837 -0.17646033 -0.08666482
0.14647686 -0.7488094 -0.22532623 -0.2980722 -0.72306895 -0.33054662 -0.14113453 -0.2324717
-0.1592919 -0.13277687 0.07362252 -0.46926385 0.008522148 -1.0247049 -0.2707078 -0.10037716
0.42564467 -0.24163067 -0.18701598 -0.34264392 -0.40935344 -0.43589646 -0.6060584 -0.5554684
-0.47333473 -0.14377818 -0.1686587 -0.3017461 -0.2844486 -0.23495805 -0.47326693 -0.2565606
-0.44393513 -0.029966993 -0.09573386 -0.97288084 -0.35474548 0.1557508 -0.46462932 -0.10980632
-0.19696543 0.066981874 -0.08787688 -0.118494764 -0.025049211 -0.34743142 -0.59710234 -0.3512749
0.18159863 -0.3162609 -0.1687124 -0.10486085 -0.6234551 -0.44332787 -0.3429983 0.15543416
-0.45262274 -0.41266295 -0.65300703 -0.29635814 -0.7122799 -0.3893972 -0.30105764 -0.633076
-0.17282437 -0.09872077 0.020338811 0.04934626 0.44049597 -0.90681916 0.48944274 -0.37210467
0.11566346 -0.14687467 0.18853302 0.1512619 -0.26923263 -0.5315526 -0.15768602 -0.13760473
0.09905335 -0.23578675 0.019526603 -0.16977058 0.507771 -0.0029942675 -0.20141917 0.118790425
-0.34674 -0.08809083 0.04890021 -0.2657275 -0.03461475 -0.048023023 0.30061263 -0.33751708
-0.1678174 -0.016050149 -0.26331687 0.25369465 0.09179771 -0.32483667 0.06293015 -0.28190795
0.006873447 0.37493148 -0.08551976 0.12286672 0.06175494 -0.119525164 -0.08271748 -0.32513016
-0.3037096 -0.22185028 -0.39716202 -0.06611233 -0.4929508 -0.35610828 0.040189046 -0.23827735
-0.08522931 -0.23512463 -0.3615945 -0.1865776 0.007083783 -0.08346642 -0.42755705 0.38835087
-0.12934053 -0.37532878 0.15557542 -0.19362445 -0.43865564 0.24938299 -0.28908736 0.040159333
-0.15924981 -0.1391288 -0.12171081 -0.20688146 -0.34035876 -0.66516405 -0.17930076 -0.31109953
-0.025989799 0.14598711 -0.1428374 0.165066 -0.1693599 -0.5964371 -0.43405446 0.047062647
-0.2876321 -0.114726074 0.2841214 -0.03883153 -0.113237746 -0.17836663 -0.37647536 -0.11762929
-0.15659142 -0.108120315 -0.10880785 -0.7484977 0.046077512 -0.033395156 -0.35073623 -0.26610744
0.09331391 -0.23316823 -0.10120836 -0.029112754 -0.11483225 0.03535985 -0.29085985 0.49235117
0.42835715 -0.23396897 0.26122487 0.16104493 -0.4556605 -0.46030447 -0.06659573 0.26044953
-0.4022498 0.0015592234 -0.64135355 0.18245035 -0.34408152 -0.6054369 0.2291776 -0.55941963
00000000: 6322 5abe 8f70 c5be 6d26 23be 7763 92be
00000010: 759b dd3b aec4 71bf 3800 4abe 7e5e a9be
00000020: 6994 b7bd a46d b6be 7161 7bbe fc07 41be
00000030: 46c3 f3be 4f3a 26bf 2c4e abbe ac2f 59be
00000040: f7ef 1cbe 838b 55bf c5ad a5be 7d9f 2fbe
00000050: d35c c9bd 6986 b6be e713 c8be 2f63 22be
00000060: 3f9d c6bd 4b3c 0fbd 707b d0be 1d22 03bf
00000070: ea81 f73c 7678 54bd ee46 3d3d 9951 30bf
00000080: a5f1 01bf 065c 143e 109f fabe f43f a9be
00000090: 005f afbe 38fd b9be f703 cbbe 5fb5 0fbf
000000a0: 679d e9be 1afc b8bd da05 273d 95b7 9abd
000000b0: cc38 82bd 764a afbe 9308 59be 2c45 78be
000000c0: 6f3c eebe 0c74 74bd 4e1d c4be 0375 1ebe
000000d0: ff86 59be 9446 04bf 7c61 49be e257 42bc
000000e0: 2188 20be 1f0d cebe 9e43 2bbf 05cb 9bbe
000000f0: ab44 8dbe f301 17be 04b2 34be 537d b1bd
00000100: 08fe 153e f9b1 3fbf ebbb 66be eb9c 98be
00000110: 0c1b 39bf 683d a9be 9285 10be 100d 6ebe
00000120: 6a1d 23be a9f6 07be 67c7 963d 5a43 f0be
00000130: 7ba0 0b3c 8829 83bf 369a 8abe 8a92 cdbd
00000140: 19ee d93e 086e 77be 1e81 3fbe 066f afbe
00000150: c696 d1be d22d dfbe a526 1bbf 2d33 0ebf
00000160: ee58 f2be 963a 13be deb4 2cbe 777e 9abe
00000170: 3fa3 91be d898 70be 0b50 f2be e95b 83be
00000180: 774b e3be 577d f5bc 1d10 c4bd b80e 79bf
00000190: 33a1 b5be 237d 1f3e e5e3 edbe 23e2 e0bd
000001a0: 4eb1 49be cb2d 893d cbf8 b3bd 62ad f2bd
000001b0: 0134 cdbc 88e2 b1be b3db 18bf 4eda b3be
000001c0: fef4 393e f3ec a1be f2c2 2cbe 49c1 d6bd
000001d0: c19a 1fbf dffb e2be 799d afbe 222a 1f3e
000001e0: 2bbe e7be 8f48 d3be 782b 27bf 41bc 97be
000001f0: fa57 36bf 125f c7be 3a24 9abe 4511 22bf
00000200: dff8 30be 1d2e cabd 949d a63c 4e1f 4a3d
00000210: b088 e13e 4d25 68bf 3d98 fa3e 8184 bebe
00000220: f7e0 ec3d 5066 16be cd0e 413e 66e4 1a3e
00000230: dcd8 89be d513 08bf 7278 21be 41e8 0cbe
00000240: 7cdc ca3d 1572 71be 41f6 9f3c 57d8 2dbe
00000250: 48fd 013f 793b 44bb d440 4ebe 6548 f33d
00000260: e887 b1be f768 b4bd 964b 483d 6f0d 88be
00000270: 32c8 0dbd cab3 44bd e6e9 993e 0acf acbe
00000280: 53d8 2bbe 9a7b 83bc 78d1 86be 44e4 813e
00000290: 7000 bc3d fe50 a6be 86e1 803d 3d56 90be
000002a0: a73a e13b 05f7 bf3e fc24 afbd 8ca1 fb3d
000002b0: bff2 7c3d 9cc9 f4bd c867 a9bd 7677 a6be
000002c0: d37f 9bbe b82c 63be d258 cbbe e765 87bd
000002d0: 0c64 fcbe d353 b6be 459d 243d fafe 73be
000002e0: b48c aebd 83c4 70be ea22 b9be 330e 3fbe
000002f0: 141f e83b 71f0 aabd c2e8 dabe edd5 c63e
00000300: d871 04be 182b c0be 2a4f 1f3e 7d45 46be
00000310: 7997 e0be 415e 7f3e 4203 94be 1d7e 243d
00000320: 6212 23be c877 0ebe 8443 f9bd bcd8 53be
00000330: 8143 aebe 3148 2abf 9e9a 37be 7048 9fbe
00000340: 8fe8 d4bc a57d 153e f843 12be 1007 293e
00000350: ae6c 2dbe 1ab0 18bf 633c debe c3c4 403d
00000360: 8444 93be 81f5 eabd 5c78 913e cf0d 1fbd
00000370: 31e9 e7bd bea5 36be 61c1 c0be a0e7 f0bd
00000380: 8059 20be 2f6e ddbd a6d6 debd 8c9d 3fbf
00000390: c6bb 3c3d 5cc9 08bd b393 b3be 3c3f 88be
000003a0: 5d1b bf3d a7c3 6ebe 5446 cfbd df7d eebc
000003b0: 2c2d ebbd 7dd5 103d 95eb 94be 7415 fc3e
000003c0: a151 db3e 9095 6fbe 44bf 853e f6e8 243e
000003d0: 554c e9be 07ad ebbe 5863 88bd a459 853e
000003e0: b0f3 cdbe db5e cc3a bf2f 24bf 44d4 3a3e
000003f0: 742b b0be eafd 1abf 88ad 6a3e 2036 0fbf

lstm.bias_hh_l0 f4 [512]
-0.20624354 -0.5014405 -0.054035943 -0.33390027 -0.072994664 -0.89612925 -0.10955827 -0.2717185
-0.13378689 -0.26243812 -0.25907615 -0.16715914 -0.39315188 -0.6406455 -0.25559396 -0.26835886
-0.22148092 -0.8306945 -0.36066896 -0.19685456 -0.0011395672 -0.41573784 -0.4056782 -0.3050803
-0.14480491 -0.17977929 -0.2706953 -0.42314595 0.1389535 -0.17304447 -0.051212996 -0.60464966
-0.49895656 0.2120269 -0.35240442 -0.47309983 -0.41303456 -0.4024452 -0.43505925 -0.5021202
-0.4304533 -0.1018682 0.0376111 -0.17659158 -0.0072864303 -0.39270452 -0.17946963 -0.18536639
-0.44409367 -0.050158635 -0.33289018 -0.19390875 -0.07616805 -0.5157359 -0.13342912 -0.05390158
-0.15069851 -0.43803728 -0.7393649 -0.20168272 -0.15591803 -0.25052792 -0.22868101 -0.10536552
0.13896693 -0.87059563 -0.17993948 -0.3152094 -0.61151904 -0.3529838 -0.2378213 -0.16201413
-0.16590807 -0.20352261 0.12148184 -0.53678405 -0.08515335 -0.9754728 -0.39714757 -0.025677579
0.4185259 -0.20323147 -0.1639639 -0.24496537 -0.28609645 -0.49200788 -0.7232652 -0.58440566
-0.4599701 -0.12412826 -0.11716071 -0.29241365 -0.36832225 -0.21307164 -0.41942456 -0.36761263
-0.43069926 0.03897144 0.04692684 -0.8853416 -0.32941756 0.19929798 -0.4396117 -0.120502554
-0.17465322 0.11493573 -0.25061542 -0.16809301 0.01170047 -0.3557497 -0.520016 -0.29523364
0.20010152 -0.339906 -0.09801589 -0.083558396 -0.670536 -0.5470566 -0.4167361 0.081201255
-0.37398365 -0.41210014 -0.6347585 -0.3676064 -0.61972845 -0.33630735 -0.18397391 -0.65017724
-0.18494885 -0.17349654 -0.022846682 0.05094692 0.4196846 -0.7940909 0.546063 -0.36809254
0.1297604 -0.2622081 0.25560093 0.1087123 -0.30265513 -0.5337876 -0.09155749 -0.12184195
0.11993194 -0.2057296 -0.0466352 -0.057016086 0.46319008 0.011703917 -0.26599267 -0.0053189937
-0.38937083 -0.049580228 0.02243769 -0.13715392 -0.15414418 -0.100158006 0.36526725 -0.2571271
-0.082838014 0.00993442 -0.28373674 0.10771261 0.16016516 -0.28433374 0.022671241 -0.32965598
-0.14581208 0.4015086 0.0019743755 0.21256602 0.08718888 -0.06758551 -0.13524862 -0.23009059
-0.33539876 -0.16951579 -0.2666927 -0.153905 -0.48681137 -0.2636829 -0.072245374 -0.09933091
-0.021612609 -0.25185773 -0.36790225 -0.035763584 -0.009989023 -0.23361936 -0.49810466 0.33175075
-0.15925589 -0.4683012 0.038410313 -0.31658298 -0.47108987 0.2895583 -0.24245946 -0.120824605
-0.19355245 -0.08542862 -0.15801692 -0.20758252 -0.3083561 -0.70820904 -0.16682592 -0.24164395
-0.018035613 0.03580333 -0.18257482 0.1252436 -0.25262517 -0.528496 -0.3206524 -0.09069012
-0.33012462 -0.28270063 0.32541448 -0.018721858 -0.1642455 -0.12311552 -0.32596484 -0.11135342
-0.15886211 -0.10911827 -0.14975351 -0.6949199 0.16957138 -0.011193375 -0.43766016 -0.23195882
-0.021755587 -0.1650769 -0.12113181 -0.057549115 -0.17143454 0.14478166 -0.25935248 0.48102865
0.4443108 -0.28064823 0.23750354 0.03397749 -0.5272514 -0.42916507 -0.07392432 0.23690908
-0.2553502 0.019240506 -0.5581468 0.16071013 -0.4230753 -0.70180917 0.20513304 -0.51684487
00000000: 8231 53be 685e 00bf cb54 5dbd faf4 aabe
00000010: 3a7e 95bd ba68 65bf 1660 e0bd b01e 8bbe
00000020: 6eff 08be 4a5e 86be a1a5 84be c42b 2bbe
00000030: 344b c9be 5801 24bf 36dd 82be 5566 89be
00000040: e5cb 62be 65a8 54bf 9aa9 b8be 3e94 49be
00000050: 885d 95ba 97db d4be 0eb5 cfbe 7c33 9cbe
00000060: bd47 14be 1018 38be 9398 8abe 96a6 d8be
00000070: d449 0e3e 9232 31be b8c4 51bd 52ca 1abf
00000080: 3c77 ffbe 941d 593e 5a6e b4be 243a f2be
00000090: 4479 d3be 4c0d cebe 16c0 debe f38a 00bf
000000a0: 6064 dcbe 46a0 d0bd 190e 1a3d 6cd4 34be
000000b0: 02c3 eebb 9110 c9be e3c6 37be b0d0 3dbe
000000c0: 3f60 e3be 2473 4dbd 9570 aabe 0490 46be
000000d0: fffd 9bbd 4507 04bf a5a1 08be e7c7 5cbd
000000e0: b650 1abe 6c46 e0be 0547 3dbf ea85 4ebe
000000f0: faa8 1fbe 3245 80be 5b2b 6abe e1c9 d7bd
00000100: 594d 0e3e 5bdf 5ebf 0e42 38be 2063 a1be
00000110: 838c 1cbf 4bba b4be 6d87 73be 08e7 25be
00000120: cee3 29be 3b68 50be 79cb f83d ae6a 09bf
00000130: e164 aebd 96b8 79bf ed56 cbbe c959 d2bc
00000140: 0749 d63e e91b 50be 27e6 27be 34d8 7abe
00000150: 3c7b 92be 75e8 fbbe e827 39bf 9c9b 15bf
00000160: 3381 ebbe f536 febd f4f1 efbd 3eb7 95be
00000170: bc94 bcbe 742f 5abe d1be d6be b937 bcbe
00000180: 9d84 dcbe 84a0 1f3d 5c36 403d bfa5 62bf
00000190: 6ba9 a8be c514 4c3e c914 e1be 0bca f6bd
000001a0: 4bd8 32be 6d63 eb3d aa50 80be 9320 2cbe
000001b0: 54b3 3f3c d324 b6be c51f 05bf dd28 97be
000001c0: 6ae7 4c3e 2908 aebe 8ebc c8bd aa20 abbd
000001d0: 3fa8 2bbf e70b 0cbf 6f5e d5be d84c a63d
000001e0: c97a bfbe cafe d2be 887f 22bf e836 bcbe
000001f0: 86a6 1ebf 7a30 acbe a863 3cbe 0472 26bf
00000200: 3b63 3dbe 14a9 31be f728 bbbc b8ad 503d
00000210: e6e0 d63e 8b49 4bbf c9ca 0b3f a076 bcbe
00000220: e9df 043e 2440 86be 20de 823e 8ea4 de3d
00000230: 9df5 9abe 4ea6 08bf 7e82 bbbd 4688 f9bd
00000240: e19e f53d c8aa 52be 8d04 3fbd b389 69bd
00000250: 4027 ed3e c9c1 3f3c 3130 88be f44a aebb
00000260: 9d5b c7be a314 4bbd 3fcf b73c 1472 0cbe
00000270: f9d7 1dbe a41f cdbd 4f04 bb3e 2aa6 83be
00000280: faa6 a9bd fac3 223c f145 91be 6e98 dc3d
00000290: 5602 243e 3194 91be 0ab9 b93c abc8 a8be
000002a0: c34f 15be 8992 cd3e 8664 013b e8aa 593e
000002b0: 1590 b23d 466a 8abd 9d7e 0abe de9c 6bbe
000002c0: 63b9 abbe 8c95 2dbe f28b 88be 4699 1dbe
000002d0: 573f f9be 7201 87be 62f5 93bd 016e cbbd
000002e0: ed0c b1bc 7ff3 80be af5d bcbe d67c 12bd
000002f0: 00a9 23bc ea39 6fbe 9307 ffbe 3cdb a93e
00000300: fa13 23be 2dc5 efbe 2254 1d3d 2a17 a2be
00000310: b132 f1be fc40 943e 4b47 78be e472 f7bd
00000320: 9d32 46be 33f5 aebd 30cf 21be 8390 54be
00000330: dae0 9dbe 304d 35bf 6ad4 2abe 8371 77be
00000340: 6cbf 93bc 83a6 123d e5f4 3abe dc3f 003e
00000350: 1658 81be 844b 07bf 8d2c a4be bebb b9bd
00000360: 1806 a9be 23be 90be ba9c a63e 955e 99bc
00000370: f92f 28be fd23 fcbd dde4 a6be 430d e4bd
00000380: c0ac 22be 6679 dfbd fc58 19be 45e6 31bf
00000390: 1fa4 2d3e 6b64 37bc fe14 e0be 9d86 6dbe
000003a0: c638 b2bc eb09 29be f413 f8bd 9fb8 6bbd
000003b0: 898c 2fbe a541 143e d9c9 84be 6349 f63e
000003c0: b57c e33e 20b1 8fbe 2134 733e fb2b 0b3d
000003d0: f3f9 06bf 86bb dbbe a265 97bd 4b98 723e
000003e0: 43bd 82be 449e 9d3c b5e2 0ebf 3291 243e
000003f0: 539d d8be c4a9 33bf 650e 523e f24f 04bf

fc.weight f4 [4, 128]
1.7606235 1.0287896 0.86517453 -0.88538146 -0.15439029 -0.16941518 0.53647685 1.1002564
0.074732855 -0.6822808 -0.26347327 -0.45249286 -0.46802986 0.45539743 -0.18217178 -0.5808828
-0.17724788 0.14474872 0.11386937 -0.38625586 -0.06978208 -0.4140511 0.060359824 1.9807426
-0.50912803 -1.6252599 0.40413728 0.25853336 3.6852696 0.7600002 -0.22692294 -0.040426113
0.36361292 0.5506207 -0.71667844 -1.0503073 -0.304781 0.22369094 -0.6144337 -0.11574486
-0.12112731 -0.70045537 -0.02083382 0.60692036 -0.42058176 -0.48289597 0.0185485 1.0004119
-0.07836965 -0.6289608 0.5150458 0.8153683 0.5623299 0.33047405 -1.317785 -0.17382026
0.24463701 0.8951496 -0.86175007 0.9485806 -0.36622941 0.4386216 -0.5171896 1.4706924
0.14388964 -0.46932584 0.94225484 -0.43505365 0.17345007 -2.3023906 1.2667972 0.016814053
0.15848102 0.47944662 -0.5406009 -0.108582616 0.1517557 -0.36912522 0.24860425 0.6248839
-0.1779766 -0.5883199 -0.28622743 0.8942931 -0.013872424 -0.21394396 -0.966536 2.4612942
-0.20914748 -0.28109768 -1.035294 -0.14193708 1.757543 -0.2841317 0.46453923 -0.17452386
0.4751479 -1.9252037 -0.93892354 0.41711834 -3.4673264 -0.06673784 0.54504323 0.1348014
0.649862 -0.9743653 0.36783832 -0.23758604 0.074498296 -0.33837867 -0.08727803 2.6675608
1.5554266 0.9457835 2.106282 0.5714422 0.0895772 -0.84375906 -0.4889053 0.47794092
-0.4278939 0.35169733 -0.37938175 -0.20302944 -0.13663709 0.20902228 -1.7152079 0.86252534
-0.14838627 -0.15598072 0.36069646 0.3477927 0.06600279 0.021664008 -0.8534685 -0.20450498
-0.32093626 0.4011927 0.21842769 0.78619194 -0.5788977 -0.28726095 0.28543952 -0.36689404
-0.49536142 -0.021782156 0.50394106 -0.08594593 0.5357149 0.6771021 0.47146618 -0.15209952
-0.9106754 0.16335206 -0.4264966 0.2126236 -0.08408139 -0.073491596 0.23150925 -0.23776686
-0.29811293 -0.01005526 -0.7012029 0.2121879 -0.50586003 0.43814224 0.019425351 -0.66742086
0.0027674856 0.1871276 -1.0998548 -0.6991944 1.0922295 0.07737274 -1.1314702 0.55851424
0.07907419 -0.93647754 -0.25782627 -0.082873814 0.07027302 0.5168827 0.12693553 -0.31665343
0.9684563 -0.025068458 0.055113703 0.16385177 0.40841872 -0.26425594 -0.8861979 -0.37322786
-0.029433832 0.15800288 -0.029885432 -0.19476388 0.5179723 -0.36996123 -0.30555046 0.17183642
-0.6814749 -0.2653364 -0.22965847 -0.8680843 0.89254975 -0.13511659 -0.83588994 0.45135108
0.046418414 0.419811 0.9225964 -0.09387767 0.8722415 -0.62801707 0.09631482 -0.13846432
-0.18236174 -1.4111091 0.47024825 1.170815 0.28330076 0.30777314 -0.10025363 -0.79379433
-0.039011426 0.14320989 0.1358952 0.26854402 0.14297462 0.1487878 -0.6610517 -0.06723934
-0.38556942 -0.37037927 0.17803946 0.14038786 0.025624413 0.10330543 0.07231387 -0.18507639
-0.31211513 1.7152168 -0.15189378 -0.8274555 0.9133732 0.17392842 0.25023973 -0.43375072
0.42704618 0.63590527 0.24716169 0.5620636 0.6942128 -0.5858021 0.001532892 -0.03461964
00000000: 1c5c e13f 61af 833f 147c 5d3f 5ca8 62bf
00000010: 7d18 1ebe 2c7b 2dbe 8c56 093f 34d5 8c3f
00000020: 8a0d 993d f4a9 2ebf f8e5 86be 25ad e7be
00000030: 9ca1 efbe da29 e93e 3d8b 3abe bcb4 14bf
00000040: 7880 35be 0239 143e 5834 e93d 54c3 c5be
00000050: e8e9 8ebd 81fe d3be dd3b 773d f988 fd3f
00000060: 3756 02bf 8408 d0bf 15eb ce3e 7c5e 843e
00000070: 75db 6b40 608f 423f 7d5e 68be da95 25bd
00000080: 792b ba3e 7af5 0c3f 3d78 37bf 7870 86bf
00000090: 410c 9cbe 3d0f 653e 874b 1dbf a40b edbd
000000a0: 9811 f8bd 0b51 33bf b0ab aabc 225f 1b3f
000000b0: 7e56 d7be 243e f7be 06f3 973c 7f0d 803f
000000c0: 4480 a0bd 9303 21bf 0bda 033f fabb 503f
000000d0: daf4 0f3f e533 a93e 2ead a8bf f0fd 31be
000000e0: 2082 7a3e 8628 653f a79b 5cbf 2ed6 723f
000000f0: 6c82 bbbe 0393 e03e 8a66 04bf a63f bc3f
00000100: ce57 133e 7a4b f0be 9d37 713f 5abf debe
00000110: e59c 313e 5e5a 13c0 6926 a23f a0bd 893c
00000120: d948 223e 077a f53e d264 0abf 9060 debd
00000130: d965 1b3e fbfd bcbe 1d92 7e3e 64f8 1f3f
00000140: 7f3f 36be 229c 16bf 678c 92be 65f0 643f
00000150: 2a49 63bc 2014 5bbe e76e 77bf d885 1d40
00000160: c22a 56be 09ec 8fbe 8484 84bf f457 11be
00000170: 2bf7 e03f b679 91be 16d8 ed3e 62b6 32be
00000180: 9646 f33e 136d f6bf 4b5d 70bf 8990 d53e
00000190: ade8 5dc0 d9ad 88bd f487 0b3f 6109 0a3e
000001a0: 5b5d 263f 0170 79bf 4e55 bc3e c149 73be
000001b0: 9092 983d f83f adbe d3be b2bd 51b9 2a40
000001c0: 3818 c73f de1e 723f 53cd 0640 094a 123f
000001d0: 4074 b73d 9800 58bf cc51 fabe acb4 f43e
000001e0: e914 dbbe ac11 b43e 533e c2be f3e6 4fbe
000001f0: 98ea 0bbe f009 563e ef8b dbbf 76ce 5c3f
00000200: 92f2 17be 69b9 1fbe 35ad b83e e311 b23e
00000210: 792c 873d b878 b13c e97c 5abf c169 51be
00000220: c251 a4be 2169 cd3e 82ab 5f3e e043 493f
00000230: a432 14bf de13 93be 2125 923e 89d9 bbbe
00000240: 03a0 fdbe 7e70 b2bc 4802 013f 6b04 b0bd
00000250: 9d24 093f 9056 2d3f 0464 f13e fabf 1bbe
00000260: 0622 69bf c345 273e c35d dabe 00ba 593e
00000270: dd32 acbd c382 96bd c310 6d3e 2879 73be
00000280: 42a2 98be d1be 24bc 0982 33bf c947 593e
00000290: 0b80 01bf 2e54 e03e ea21 9f3c 18dc 2abf
000002a0: b45e 353b 619e 3f3e 0bc8 8cbf 67fe 32bf
000002b0: 2dce 8b3f 9975 9e3d 04d4 90bf cafa 0e3f
000002c0: a6f1 a13d febc 6fbf ce01 84be bfb9 a9bd
000002d0: 4deb 8f3d 6d52 043f 63fb 013e 6620 a2be
000002e0: c1ec 773f 5e5c cdbc e8be 613d c2c8 273e
000002f0: 421c d13e 8e4c 87be dedd 62bf b917 bfbe
00000300: 381f f1bc 82cb 213e 4bd2 f4bc 2f70 47be
00000310: d599 043f 8f6b bdbe 1c71 9cbe e3f5 2f3e
00000320: 2475 2ebf 2cda 87be 972b 6bbe c63a 5ebf
00000330: 247e 643f 015c 0abe e2fc 55bf 7d17 e73e
00000340: 3c21 3e3d 78f1 d63e 472f 6c3f f042 c0bd
00000350: 384b 5f3f bac5 20bf b440 c53d 97c9 0dbe
00000360: 09bd 3abe 399f b4bf 61c4 f03e 44dd 953f
00000370: cc0c 913e 7194 9d3e c651 cdbd 1b36 4bbf
00000380: 72ca 1fbd 9da5 123e 1c28 0b3e 9a7e 893e
00000390: f067 123e d45b 183e af3a 29bf c7b4 89bd
000003a0: 5b69 c5be 5aa2 bdbe fa4f 363e d6c1 0f3e
000003b0: 4aea d13c cc91 d33d 4b19 943d aa84 3dbe
000003c0: 8ecd 9fbe 398c db3f 0b8a 1bbe 20d4 53bf
000003d0: d3d2 693f 4b1a 323e 6c1f 803e 9314 debe
000003e0: cca5 da3e b0ca 223f f417 7d3e 66e3 0f3f
000003f0: eeb7 313f 20f7 15bf 52eb c83a 53cd 0dbd

fc.bias f4 [4]
-0.49151245 0.014269157 0.02286698 -0.08212972
00000000: 85a7 fbbe 2fc9 693c 8853 bb3c a033 a8bd
