LSTM/LSTM10/model.pth (torch, 804697 bytes, 10 tensors)

lstm.weight_ih_l0 f4 [512, 3]
-0.39242443 -2.0385923 -0.47373825 -0.9191039 -0.44869897 -0.4026812 0.18520218 0.48018172
-0.4145917 -0.30739945 0.14908177 0.074288726 -0.9378455 -1.1060064 -0.28070325 -0.07694501
-0.023434525 -0.002533021 -0.22032464 -0.4516616 -0.73724073 0.008806304 0.19258483 -0.016636463
0.01184647 -0.10350429 -1.1344558 0.090763606 0.08619123 -0.14742492 -0.34064558 0.00059875386
-0.046498775 0.18448842 0.18687384 0.33685878 -0.28527105 0.12828028 -0.28871626 -0.36708573
-2.0150526 -0.4772217 0.029920159 -0.22572568 -0.018749248 -0.35690337 -0.17835036 0.2695854
-0.12864493 0.051536016 0.09324533 -1.1276841 -0.8489605 -1.2458253 -0.89628744 -1.1033317
-0.60328233 -0.31184235 -0.07428334 -0.030986823 0.10167832 -0.1966905 -1.2166195 -0.601864
-0.5580886 -0.31563917 -0.30887502 0.0097454535 0.00017796282 0.014183478 0.09333103 0.15410282
-1.3303508 -0.2105265 -1.0652589 -1.8294047 -0.39755458 -0.76025134 0.03223551 0.07908706
0.028141731 -0.33318743 0.16213621 -0.09790855 -0.65083957 -0.4798093 -0.90380514 -0.34449133
-0.8529339 -0.34491462 0.10059062 0.1388868 0.2660927 0.09583157 -0.91774714 -0.5399348
0.2511717 0.15998457 -0.014908411 -0.5766277 -0.36168537 -0.26196888 -0.7035116 -0.10131659
-0.1664803 0.055700183 -0.1646181 -0.43691117 -1.2524257 -0.81678396 -0.6667479 -0.37640056
-1.5613143 -0.5548989 -0.5723272 -0.48992294 -0.57089615 -0.34130174 0.14251515 0.042858917
-0.7143148 -0.21429299 -0.31417656 -0.40421665 -0.4973769 -0.7181759 -1.1774095 -1.8291537
-0.3877422 -0.26867187 -0.058810294 -0.26760495 -0.73610175 -1.1360314 -0.64778507 -0.3286637
-0.41855922 -0.1676173 -0.4449291 -0.3662008 -0.2759082 -0.50729114 -1.289641 -0.8404958
0.30854896 0.33943868 0.23221298 -0.2973368 0.16179398 0.025024563 -0.7987913 -0.2844522
-0.5488272 -0.4733776 -0.3027812 -0.112610914 -0.45852628 -0.74843556 -0.52889013 -0.32503903
-0.12739472 -0.11445222 -1.5848598 -0.10665193 -0.23163709 -0.356583 -0.3158731 -0.0837612
-0.39928782 -0.60842586 -0.7227684 -0.09290866 -1.0590353 -0.3421386 0.17866956 0.51980424
0.25101274 -0.42575985 -0.23287657 0.15932341 -0.4928502 0.14541365 -0.04640797 -0.8621653
-1.0439048 -0.73565924 -2.1760695 -0.32844147 -0.85243875 -0.03943068 0.13392867 0.15960449
-0.64901084 -0.9407717 -0.8145791 0.14879274 -0.9170151 -0.21446224 -0.85845745 -0.1118955
-0.3511029 0.22256683 0.44426492 -0.050212353 -1.2653122 -0.62752753 -0.4765962 0.2252828
0.30982843 0.38335997 0.18057097 0.48956883 -0.14345014 -0.39750385 0.0031320825 -0.113869704
0.064898096 0.19666807 0.111842655 -0.8108139 -0.08268877 -0.33071917 -1.2136788 -0.1615369
-0.10666319 -0.31720716 0.116151124 0.2413773 0.04178576 -0.053750772 -1.2205547 -0.7115334
-1.6645511 -0.36867478 -0.06909715 -0.020676108 -0.09513846 -2.006874 -0.5306965 -0.27155715
-0.5823908 -0.1633587 -0.4911785 -0.7468211 -0.6507211 -0.41790387 -0.91315067 -0.41976225
-0.30343875 -0.28934157 0.36639917 -0.06939675 -0.016031371 0.11719413 -0.060078654 0.1790137
00000000: dbeb c8be 4c78 02c0 d28d f2be 654a 6bbf
00000010: dfbb e5be 3b2c cebe a4a5 3d3e 61da f53e
00000020: 5d45 d4be 7663 9dbe e4a8 183e b024 983d
00000030: a516 70bf 9e91 8dbf 56b8 8fbe 5895 9dbd
00000040: c3f9 bfbc 0a01 26bb c89c 61be 3040 e7be
00000050: cfbb 3cbf 5148 103c f534 453e 3149 88bc
00000060: b217 423c 0ffa d3bd d935 91bf 45e2 b93d
00000070: 0785 b03d 8ff6 16be 1969 aebe b1f5 1c3a
00000080: 8075 3ebd 88ea 3c3e db5b 3f3e c178 ac3e
00000090: 0c0f 92be e85b 033e 9ed2 93be a9f2 bbbe
000000a0: 9ff6 00c0 6756 f4be 1f1b f53c a224 67be
000000b0: 0698 99bc 0abc b6be 7aa1 36be 1907 8a3e
000000c0: 7fbb 03be 6e17 533d 68f7 be3d f457 90bf
000000d0: 7a55 59bf 3477 9fbf 1873 65bf f939 8dbf
000000e0: b670 1abf cda9 9fbe dd21 98bd 14d8 fdbc
000000f0: b93c d03d 3c69 49be 30ba 9bbf c213 1abf
00000100: e5de 0ebf 759b a1be de24 9ebe 65ab 1f3c
00000110: 889b 3a39 d261 683c 5724 bf3d 21cd 1d3e
00000120: ef48 aabf 4294 57be 675a 88bf ef29 eabf
00000130: 468c cbbe d59f 42bf 6209 043d 66f8 a13d
00000140: 7d89 e63c 8b97 aabe 0907 263e 4784 c8bd
00000150: 6c9d 26bf 91a9 f5be c65f 67bf 2b61 b0be
00000160: e059 5abf a698 b0be 7402 ce3d 5738 0e3e
00000170: 4d3d 883e 5843 c43d 7af1 6abf 2b39 0abf
00000180: 9499 803e ffd2 233e 6842 74bc df9d 13bf
00000190: d32e b9be c920 86be 5619 34bf 137f cfbd
000001a0: d079 2abe e025 643d a691 28be d2b2 dfbe
000001b0: 7c4f a0bf c118 51bf feaf 2abf 93b7 c0be
000001c0: 26d9 c7bf db0d 0ebf 0984 12bf 2ed7 fabe
000001d0: 4026 12bf 1abf aebe 7eef 113e d58c 2f3d
000001e0: 56dd 36bf 9f6f 5bbe c0db a0be 7cf5 cebe
000001f0: 2fa8 febe 60da 37bf 5bb5 96bf b521 eabf
00000200: 2586 c6be 5c8f 89be 10e3 70bd 8403 89be
00000210: 2a71 3cbf 7a69 91bf 3ed5 25bf 9c46 a8be
00000220: 654d d6be dfa3 2bbe bfcd e3be ac7e bbbe
00000230: d743 8dbe d5dd 01bf f512 a5bf bc2a 57bf
00000240: 21fa 9d3e e8ca ad3e 3dc9 6d3e 873c 98be
00000250: 52ad 253e 5000 cd3c 967d 4cbf b8a3 91be
00000260: f07f 0cbf 8c5e f2be 2306 9bbe 8da0 e6bd
00000270: f5c3 eabe 7999 3fbf 5865 07bf 846b a6be
00000280: c373 02be ed65 eabd b0dc cabf 546c dabd
00000290: 4632 6dbe 0c92 b6be 1eba a1be fe8a abbd
000002a0: 746f ccbe ccc1 1bbf 5a07 39bf e546 bebd
000002b0: 788e 87bf ca2c afbe 27f5 363e e411 053f
000002c0: be84 803e 32fd d9be 3277 6ebe ad25 233e
000002d0: dd56 fcbe 51e7 143e 4916 3ebd ddb6 5cbf
000002e0: ac9e 85bf 2a54 3cbf b944 0bc0 7b29 a8be
000002f0: 6d39 5abf 1182 21bd 9924 093e 5c6f 233e
00000300: 9325 26bf 6ad6 70bf 4288 50bf 205d 183e
00000310: 80c1 6abf fd9b 5bbe dec3 5bbf 7829 e5bd
00000320: c2c3 b3be 8fe8 633e b176 e33e 78ab 4dbd
00000330: c0f5 a1bf a5a5 20bf 6b04 f4be 89b0 663e
00000340: d5a1 9e3e c247 c43e 99e7 383e c4a8 fa3e
00000350: 98e4 12be a085 cbbe a043 4d3b 8534 e9bd
00000360: 4be9 843d 5b63 493e c30d e53d 8091 4fbf
00000370: bb58 a9bd 0654 a9be d459 9bbf ee69 25be
00000380: 3b72 dabd fa68 a2be a4e0 ed3d 9c2b 773e
00000390: 8c27 2b3d c529 5cbd 233b 9cbf 0e27 36bf
000003a0: 0310 d5bf f1c2 bcbe ce82 8dbd f160 a9bc
000003b0: f4d7 c2bd a070 00c0 badb 07bf 8a09 8bbe
000003c0: 9017 15bf 8147 27be c07b fbbe ab2f 3fbf
000003d0: a895 26bf 7ff7 d5be 3ec4 69bf 14eb d6be
000003e0: 535c 9bbe 9424 94be ac98 bb3e e21f 8ebd
000003f0: 3954 83bc 7a03 f03d 0915 76bd 5e4f 373e

lstm.weight_hh_l0 f4 [512, 128]
0.36787805 0.18287778 -0.029961297 0.014355192 0.06763591 0.8562746 -0.1512036 0.21687268
-0.1574357 -0.38705385 0.2654635 -0.13690425 -0.030662414 0.17954777 0.007183504 0.3218616
0.13389301 -0.07547768 -0.07352564 0.054495633 0.15509778 -0.45817572 0.19177036 0.36311945
0.16871314 0.29082727 0.55278426 0.060845226 0.523667 0.3485419 -0.19335836 0.30485362
0.5799256 0.016964788 -0.32492498 -0.19065961 0.22600721 0.14428705 -0.5379428 0.44642705
-0.1062853 0.2920499 -0.38976815 -0.7845023 -0.025843551 -0.81499684 0.50469345 0.2262355
-0.42681628 0.2904295 -0.10767566 -0.097402826 -0.19161947 -0.10195417 -0.16882475 0.053264637
-0.02208108 0.11217326 -0.08158328 -0.18723218 0.2751964 -0.20149986 0.2044071 -0.5621353
-0.022021832 0.08673357 -0.015816934 -0.05165076 0.10682111 0.28431565 -0.012973891 -0.0841562
-0.3286203 0.07662801 -0.06663079 -0.2231463 0.20526695 0.12638663 0.060231987 -0.046591505
0.43246526 -0.1180637 0.36918756 -0.42629868 0.054901667 -0.94129074 0.13651952 0.3246494
-0.20513041 0.11476852 -0.0015616211 0.064464785 0.01817051 -0.23159288 -0.30873197 -0.05005885
-0.19101518 -0.057426743 0.2415154 -0.12549539 0.08696912 0.08530101 -0.2588956 -0.11293476
-0.1256269 0.05237253 0.028447062 -0.07356993 -0.23337379 -0.09832995 -0.011296916 0.36087692
0.23748112 -0.2169311 -0.20550808 -0.108387835 0.3868677 0.089369565 -0.14310437 0.18910871
-0.21444198 0.10871501 0.18087485 0.17453142 -0.90177613 0.09801267 -0.2818354 -0.15842025
0.21842769 0.04728741 0.42880112 -0.25802052 0.09972524 0.03704774 0.11726438 -0.041216373
0.12331054 0.23634791 0.026721774 -0.04094516 -0.08916763 0.12493069 0.13897853 -0.110285886
-0.24614154 -0.041854285 -0.101477705 0.14365533 -0.1339321 0.028533129 0.2743393 -0.4157118
-0.07309408 0.41346467 -0.26852462 -0.09471719 0.31851426 0.13999437 -0.18502824 0.004229902
-0.04929968 0.0027963866 0.26136085 0.29920065 -0.005007955 -0.17806928 -0.064076215 -0.2859886
-0.22863908 0.19436161 -0.20615934 0.03987914 0.19392443 0.3724423 -0.5391591 -0.2525604
-0.0458606 0.2076256 0.1731529 0.14603691 -0.20480697 0.13022222 0.177697 0.09718746
0.35927296 -0.08934099 -0.21248917 0.10627507 -0.30420712 -0.01386058 -0.32910258 -0.19739223
0.27982843 -0.20886955 -0.30089274 0.22965725 0.10080707 0.2173707 -0.4049188 -0.061586805
-0.027293669 0.26753482 0.115944475 0.16572623 -0.11559085 -0.020872751 0.20516214 -0.013315309
0.18630952 0.15788172 -0.106714204 -0.30616966 -0.44230592 -0.11791494 0.14352417 0.034059398
-0.00672704 0.3057033 -0.1507654 0.47367278 -0.243857 0.1791005 0.081345305 0.23154108
-0.2520455 0.03038792 -0.05691816 0.22749886 -0.062503435 -0.27799827 0.32016346 0.14682187
-0.19377981 -0.1746387 0.18091197 -0.23966517 0.5019266 0.06267983 0.40269202 -0.28314698
-0.45475388 0.12134057 0.16363162 -0.41662067 -0.21776263 0.10009139 0.34046927 -0.20723724
0.22950236 -0.08406596 -0.14694417 0.2480216 0.37845266 0.09124216 -0.074281186 0.06404455
00000000: 835a bc3e 5044 3b3e 6571 f5bc 0a32 6b3c
00000010: b284 8a3d d034 5b3f 1ed5 1abe df13 5e3e
00000020: d336 21be ec2b c6be d5ea 873e a130 0cbe
00000030: be2f fbbc 5fdb 373e 9963 eb3b 0bcb a43e
00000040: 401b 093e 0b94 9abd 9c94 96bd d036 5f3d
00000050: f4d1 1e3e 0296 eabe 735f 443e cbea b93e
00000060: 23c3 2c3e 50e7 943e 4583 0d3f d838 793d
00000070: 0a0f 063f 1574 b23e bcff 45be c615 9c3e
00000080: 0176 143f bdf9 8a3c 915c a6be 463c 43be
00000090: 6f6e 673e fcbf 133e 9fb6 09bf 1692 e43e
000000a0: 1bac d9bd 9187 953e b18f c7be 25d5 48bf
000000b0: dbb5 d3bc a2a3 50bf 9733 013f 47aa 673e
000000c0: aa87 dabe 2db3 943e 0e85 dcbd 227b c7bd
000000d0: e537 44be 59cd d0bd 65e0 2cbe 052c 5a3d
000000e0: 62e3 b4bc 18bb e53d 2215 a7bd cbb9 3fbe
000000f0: 8be6 8c3e fb55 4ebe 1850 513e 19e8 0fbf
00000100: 2167 b4bc 5fa1 b13d 8492 81bc bf8f 53bd
00000110: 07c5 da3d d291 913e 7190 54bc 165a acbd
00000120: ec40 a8be 25ef 9c3d b975 88bd 7780 64be
00000130: 8031 523e 7f6b 013e d1b5 763d bcd6 3ebd
00000140: 166c dd3e 62cb f1bd 2706 bd3e d243 dabe
00000150: 92e0 603d 6ef8 70bf c6cb 0b3e 7238 a63e
00000160: b50d 52be c20b eb3d 4faf ccba 1d06 843d
00000170: 52da 943c af26 6dbe 1e12 9ebe 820a 4dbd
00000180: 7c99 43be 4e38 6bbd d04f 773e dd81 00be
00000190: de1c b23d 4cb2 ae3d f78d 84be 574a e7bd
000001a0: 57a4 00be 9484 563d d009 e93c d5ab 96bd
000001b0: 8af9 6ebe 3661 c9bd b316 39bc dcc4 b83e
000001c0: 402e 733e 3023 5ebe b670 52be 71fa ddbd
000001d0: 8613 c63e 6407 b73d f489 12be b7a5 413e
000001e0: ae96 5bbe faa5 de3d 4237 393e 5db8 323e
000001f0: cdda 66bf deba c83d bb4c 90be eb38 22be
00000200: 82ab 5f3e 71b0 413d d28b db3e 441b 84be
00000210: bf3c cc3d 5fbf 173d 4f28 f03d 80d2 28bd
00000220: 3d8a fc3d 3005 723e 9fe7 da3c 1db6 27bd
00000230: 859d b6bd a9db ff3d 6350 0e3e 91dd e1bd
00000240: 870c 7cbe 666f 2bbd 8bd3 cfbd 621a 133e
00000250: 7f25 09be 4fbe e93c 3376 8c3e 2dd8 d4be
00000260: 59b2 95bd a4b1 d33e 0f7c 89be 16fb c1bd
00000270: 4d14 a33e af5a 0f3e 0b78 3dbe fd9a 8a3b
00000280: 76ee 49bd 9543 373b 17d1 853e d430 993e
00000290: c519 a4bb cb57 36be 643a 83bd 196d 92be
000002a0: 5d20 6abe bb06 473e 6f1b 53be 4f58 233d
000002b0: 2094 463e c2b0 be3e 5506 0abf 994f 81be
000002c0: 53d8 3bbd ce9b 543e fe4e 313e b38a 153e
000002d0: ebb8 51be f958 053e 34f6 353e 380a c73d
000002e0: a0f2 b73e 69f8 b6bd c396 59be bea6 d93d
000002f0: 09c1 9bbe 7c17 63bc 2280 a8be 3021 4abe
00000300: ac45 8f3e e6e1 55be 9d0e 9abe 452b 6b3e
00000310: f073 ce3d 6d96 5e3e 8451 cfbe 7242 7cbd
00000320: f996 dfbc 53fa 883e 4c74 ed3d 23b4 293e
00000330: e5ba ecbd 55fd aabc 0616 523e 7428 5abc
00000340: ecc7 3e3e bfab 213e fa8c dabd 45c2 9cbe
00000350: ec75 e2be 637d f1bd 00f8 123e de81 0b3d
00000360: 806e dcbb 2585 9c3e 3f62 1abe 3d85 f23e
00000370: a6b5 79be 1f66 373e 5e98 a63d 1b19 6d3e
00000380: 1c0c 81be 16f0 f83c 0423 69bd 76f5 683e
00000390: cd01 80bd ca55 8ebe 77ec a33e 7958 163e
000003a0: 376e 46be 7dd4 32be fd40 393e c96a 75be
000003b0: 437e 003f 485e 803d a62d ce3e a4f8 90be
000003c0: 80d5 e8be 6881 f83d 0c8f 273e 4e4f d5be
000003d0: 2bfd 5ebe b7fc cc3d fd51 ae3e 0036 54be
000003e0: ab02 6b3e c62a acbd 8878 16be 60f9 7d3e
000003f0: 8cc4 c13e 2bdd ba3d bc20 98bd ca29 833d

lstm.bias_ih_l0 f4 [512]
-0.29274857 -0.69529754 0.28123868 -0.21586485 -0.70250726 -0.00044739884 -0.3103876 0.19452733
0.10836396 0.14121069 -0.24710503 0.18873993 -0.12958881 -0.41658065 -0.17108142 -0.24870801
-0.119881555 -0.9336196 -0.77639747 -0.20888214 0.051837374 -0.590004 -0.3091727 -0.06954419
-0.5117398 -0.5550416 -0.08705449 -0.12126493 -0.40275174 -0.5132064 0.020653391 -0.11089913
0.22422488 -0.29420644 -0.38635278 0.015108236 -0.3657836 -0.6638993 -0.38029242 -0.14116305
-0.42909324 -0.3978993 -0.7129141 -0.3413494 -0.69980335 -0.23509757 -0.42277446 -0.7594868
0.14214434 -0.13438885 -0.5693925 -0.35620102 -0.5365449 -0.391062 -0.6023556 -0.17349681
-0.50792736 -0.38869214 0.25129092 -0.27713966 -0.26669326 -0.747759 -0.54311013 0.17538412
-0.53567123 -0.09048295 -0.43125507 0.16586104 -0.4521759 0.24877231 0.18993022 -0.1820224
0.08183961 -0.5656158 -0.47240642 -0.23174782 0.08474407 -0.48644605 -0.14482644 -0.5956298
-0.31688347 -0.668303 -0.6895458 -0.13923122 -0.14236274 -0.013433655 -0.3971433 -0.382983
-0.49195457 -0.15935431 -0.13079095 -0.106884465 -0.1903576 -0.5235424 -0.038129482 -0.23701751
-0.7096313 -0.39375183 -0.49076727 -0.78688866 -0.64468247 -0.07518218 -0.39527813 -0.060465235
-0.22411759 -0.6314767 -0.41082224 -0.79372203 -0.19549055 -0.25452322 -0.41020608 -0.25055543
-0.07335726 -0.0636316 -0.48624203 -0.15448666 -0.005286588 -0.23039405 -0.100262314 -0.46130943
0.114081696 -0.06135978 -0.03603338 -0.47953293 -0.95493364 -0.28140914 -0.52465975 -0.45623526
-0.04570933 -0.38343063 -0.11405822 -0.12589255 -0.33463383 -0.09275671 -0.0715175 -0.06591109
0.011193455 -0.07765015 -0.20136212 -0.100420244 0.0066061234 -0.12476756 -0.09286258 0.08350549
-0.032810967 -0.6643414 -0.49586445 -0.05400495 -0.012423332 -0.0988674 -0.15062405 0.06352077
-0.15208521 -0.19205615 -0.0054675783 -0.21307628 -0.12612481 -0.31834885 -0.042540338 -0.14141528
-0.19203381 -0.11319243 -0.23565485 0.30395082 -0.26854187 -0.42381182 -0.29920143 -0.25442982
-0.17882422 -0.07455479 -0.32937542 0.40677613 -0.5341588 -0.073835395 -0.01920031 -0.4757888
-0.066057086 -0.054873116 -0.23002753 -0.05609323 -0.22816442 -0.034483653 -0.27070695 -0.06301618
-0.34264666 -0.23799089 -0.033100355 -0.047233596 -0.37287277 -0.559855 -0.31952977 -0.22454454
-0.15897146 -0.20708874 -0.24124317 -0.061118506 -0.31985638 0.018527914 -0.034461603 -0.16116147
-0.12328678 -0.21129018 -0.12778991 -0.07520613 0.0053640455 -0.14541899 -0.02683063 -0.08636942
-0.22831246 -0.5418727 -0.19233122 -0.16008472 -0.06767023 -0.113705024 -0.2281655 -0.10181502
-0.24369314 -0.087805316 -0.0064435205 0.041224495 -0.15532193 -0.08674709 -0.11948581 -0.107597366
-0.29144183 -0.14515342 -0.21374425 -0.2800966 -0.15741822 0.13588761 -0.40003893 -0.007906688
-0.18908863 -0.57272273 -0.039678887 -0.3680479 0.075934656 -0.04266017 -0.28874585 -0.21870919
0.07676197 -0.08805594 -0.2144632 -0.037449274 -0.26267344 -0.12770426 -0.32112032 0.04939582
0.053760134 -0.13512602 0.1947265 -0.14870842 -0.16927391 -0.13692094 -0.28173554 -0.26517054
00000000: 24e3 95be 05ff 31bf 84fe 8f3e ad0b 5dbe
00000010: 84d7 33bf db90 eab9 20eb 9ebe 2c32 473e
00000020: eded dd3d 8999 103e 1a09 7dbe 0a45 413e
00000030: eeb2 04be 0f4a d5be f82f 2fbe 50ad 7ebe
00000040: 7684 f5bd b201 6fbf fcc1 46bf 33e5 55be
00000050: 6d53 543d 810a 17bf e24b 9ebe 2f6d 8ebd
00000060: 6101 03bf 3517 0ebf a049 b2bd bf59 f8bd
00000070: 7a35 cebe 7f61 03bf 4d31 a93c 151f e3bd
00000080: 359b 653e 3aa2 96be 08d0 c5be 8988 773c
00000090: fd47 bbbe 4ef5 29bf b0b5 c2be 0c8d 10be
000000a0: 1cb2 dbbe 75b9 cbbe 8a81 36bf 59c5 aebe
000000b0: 5026 33bf 6bbd 70be e575 d8be ba6d 42bf
000000c0: 498e 113e 3b9d 09be b5c3 11bf fb5f b6be
000000d0: 025b 09bf 4739 c8be fa33 1abf 26a9 31be
000000e0: 8707 02bf a802 c7be 34a9 803e 40e5 8dbe
000000f0: 058c 88be 226d 3fbf 4409 0bbf e597 333e
00000100: c021 09bf 204f b9bd 77cd dcbe 7ad7 293e
00000110: 9983 e7be 2bbe 7e3e 117d 423e 1464 3abe
00000120: 879b a73d 32cc 10bf 41df f1be 4d4f 6dbe
00000130: 4d8e ad3d 750f f9be 624d 14be 327b 18bf
00000140: 8d3e a2be e815 2bbf 1386 30bf a192 0ebe
00000150: 8ac7 11be d518 5cbc 5e56 cbbe 5916 c4be
00000160: 78e1 fbbe c72d 23be 10ee 05be 3ee6 dabd
00000170: 1aed 42be e006 06bf a92d 1cbd b8b4 72be
00000180: 66aa 35bf d799 c9be d945 fbbe 8971 49bf
00000190: e909 25bf 1df9 99bd e561 cabe 65aa 77bd
000001a0: 157f 65be 75a8 21bf 4b57 d2be 5e31 4bbf
000001b0: ad2e 48be de50 82be 8806 d2be cd48 80be
000001c0: 553c 96bd 4951 82bd b7f4 f8be c031 1ebe
000001d0: 1d3b adbb 6bec 6bbe 5456 cdbd c030 ecbe
000001e0: aaa3 e93d 6554 7bbd bd97 13bd 5785 f5be
000001f0: 8876 74bf dc14 90be 1a50 06bf ab97 e9be
00000200: b539 3bbd 0551 c4be 5b97 e9bd fae9 00be
00000210: 2055 abbe 3bf7 bdbd c477 92bd 65fc 86bd
00000220: c164 373c 0b07 9fbd df31 4ebe 21a9 cdbd
00000230: 2e78 d83b 2286 ffbd bd2e bebd ed04 ab3d
00000240: cb64 06bd 4712 2abf f2e1 fdbe 4b34 5dbd
00000250: 3b8b 4bbc fe7a cabd 313d 1abe 2d17 823d
00000260: 3abc 1bbe 5eaa 44be 5f29 b3bb ab30 5abe
00000270: dd26 01be 9ffe a2be c73e 2ebd 2bcf 10be
00000280: 83a4 44be 6fd1 e7bd 814f 71be 719f 9b3e
00000290: 527e 89be ddfd d8be ee30 99be a044 82be
000002a0: b21d 37be 2fb0 98bd e5a3 a8be f644 d03e
000002b0: a2be 08bf 0337 97bd f849 9dbc 979a f3be
000002c0: f048 87bd a2c2 60bd 568c 6bbe 04c2 65bd
000002d0: efa3 69be bb3e 0dbd 1a9a 8abe a10e 81bd
000002e0: 626f afbe e2b3 73be 3d94 07bd 0478 41bd
000002f0: 2ee9 bebe a852 0fbf 6899 a3be 01ef 65be
00000300: 6ac9 22be 120f 54be 7308 77be 6657 7abd
00000310: 37c4 a3be dac7 973c 9c27 0dbd 8307 25be
00000320: c87d fcbd 745c 58be 5cdb 02be ac05 9abd
00000330: e0c4 af3b b7e8 14be e9cb dbbc 73e2 b0bd
00000340: beca 69be 2bb8 0abf 7af2 44be 40ed 23be
00000350: b196 8abd 2ede e8bd 38a4 69be 6584 d0bd
00000360: b28a 79be 46d3 b3bd 2b24 d3bb 04db 283d
00000370: b60c 1fbe 75a8 b1bd fab4 f4bd 025c dcbd
00000380: dd37 95be 19a3 14be c6df 5abe d268 8fbe
00000390: 3e32 21be 1f26 0b3e e7d1 ccbe 0e8b 01bc
000003a0: 73a0 41be f59d 12bf 5486 22bd c670 bcbe
000003b0: a183 9b3d 6ebc 2ebd 7fd6 93be 4df5 5fbe
000003c0: 6135 9d3d ac56 b4bd 3e9c 5bbe 6964 19bd
000003d0: 227d 86be e8c4 02be e269 a4be 4553 4a3d
000003e0: 9633 5c3d 7a5e 0abe 6266 473e 0547 18be
000003f0: 2456 2dbe 0135 0cbe a43f 90be 6fc4 87be

lstm.bias_hh_l0 f4 [512]
-0.26240847 -0.594284 0.28571156 -0.32723126 -0.63441026 -0.054532185 -0.37002552 0.15683618
0.037152637 0.04588733 -0.25510493 0.20964924 -0.096237734 -0.28648946 -0.101690635 -0.2898988
-0.1493203 -0.9116318 -0.695024 -0.28860947 0.020038595 -0.5490789 -0.28054032 -0.0090601025
-0.5061808 -0.5792031 -0.024165006 -0.10576232 -0.49412647 -0.48991984 0.057013344 -0.22251636
0.1044302 -0.26634744 -0.43621174 0.062939614 -0.35938975 -0.5606864 -0.3671305 -0.18600792
-0.35910615 -0.4940559 -0.72657573 -0.32555002 -0.79976666 -0.2519615 -0.37825847 -0.67068017
0.20444262 -0.15422583 -0.5156682 -0.43992034 -0.5920836 -0.31657097 -0.56407297 -0.27633405
-0.5189362 -0.2859034 0.22742555 -0.25891832 -0.27899423 -0.6063669 -0.5844465 0.17278907
-0.55807453 -0.072581686 -0.38536608 0.20111477 -0.49027243 0.16969159 0.19235218 -0.17383035
0.010936686 -0.45292887 -0.49096107 -0.1812163 0.0557036 -0.49952033 -0.052700542 -0.6376589
-0.32147598 -0.62698025 -0.5364039 -0.17864862 -0.21400322 0.03228944 -0.35951453 -0.36965728
-0.4533962 -0.021293929 -0.15039855 -0.024708439 -0.15811607 -0.51858574 -0.027281025 -0.23896669
-0.6097668 -0.38053763 -0.3715276 -0.65372336 -0.5559318 -0.110008486 -0.38033035 -0.061783474
-0.2697217 -0.6778907 -0.3986244 -0.73248345 -0.2726583 -0.12342588 -0.5290469 -0.3449035
-0.14242844 -0.08434203 -0.56535053 -0.1531849 -0.09476266 -0.19259939 -0.2038796 -0.39149064
0.12827942 -0.14631625 -0.031667616 -0.5398041 -0.9229297 -0.28074107 -0.47095433 -0.4374
-0.17189088 -0.33373865 -0.05391332 -0.19682361 -0.24450627 -0.12916373 0.029536419 0.0795979
-0.01266056 0.004350496 -0.033114906 -0.034680463 -0.082867764 -0.1578612 -0.16074942 -0.040547203
-0.049727943 -0.78667945 -0.34310564 -0.049702656 -0.09562997 -0.072190605 -0.024596099 -0.07377707
-0.23364958 -0.28052178 -0.0952062 -0.28403708 -0.04568183 -0.27046686 0.055767987 -0.16621439
-0.17957857 -0.108799525 -0.2395711 0.3342647 -0.18319146 -0.43653816 -0.1289909 -0.15707603
-0.21106175 -0.16537239 -0.3135595 0.4147603 -0.44705212 -0.17346688 -0.032483835 -0.43725982
-0.1341114 -0.07980426 -0.21683918 -0.09387079 -0.30077767 -0.14034721 -0.15823586 -0.11916682
-0.28783965 -0.27253267 -0.036387883 -0.057453528 -0.49045262 -0.5485909 -0.3465238 -0.21602269
-0.22442348 -0.24521363 -0.17809787 -0.104791954 -0.30035108 -0.033106286 0.046233907 -0.13429242
-0.1875881 -0.3314463 -0.26393342 -0.10385862 0.07812893 -0.25105414 -0.059045665 -0.09920282
-0.0710436 -0.5411573 -0.16175944 -0.24698691 -0.08964408 -0.09191141 -0.21856521 -0.068950005
-0.30673093 -0.10920149 0.065487646 0.17493032 -0.16696692 -0.15038322 -0.04443593 -0.0037298067
-0.2078447 -0.1646524 -0.25343168 -0.22551705 -0.10918892 0.17259413 -0.37770635 -0.12159965
-0.060808778 -0.63951325 -0.09748402 -0.35964262 0.06228105 -0.07142383 -0.23729329 -0.34914517
0.08260851 -0.09783131 -0.22321187 -0.104740076 -0.2238454 -0.046807222 -0.28771687 0.028011233
0.05812136 -0.088304326 0.14160237 -0.15192153 -0.15569274 -0.057695705 -0.29725873 -0.26926252
00000000: 675a 86be ff22 18bf c948 923e db8a a7be
00000010: b668 22bf 245d 5fbd fc73 bdbe aa99 203e
00000020: 5d2d 183d 5af4 3b3d 1d9d 82be 4aae 563e
00000030: 4a18 c5bd bfae 92be 2e43 d0bd 9e6d 94be
00000040: 6ce7 18be b460 69bf 18ed 31bf 9fc4 93be
00000050: fb27 a43c 6f90 0cbf fba2 8fbe d370 14bc
00000060: 1195 01bf a846 14bf b1f5 c5bc ea99 d8bd
00000070: 25fe fcbe c6d6 fabe d386 693d 54db 63be
00000080: 80df d53d b15e 88be 2557 dfbe 7ce6 803d
00000090: ef01 b8be 2589 0fbf 87f8 bbbe dc78 3ebe
000000a0: c3dc b7be e5f4 fcbe de00 3abf 7eae a6be
000000b0: 82bd 4cbf 1901 81be 18ab c1be b2b1 2bbf
000000c0: 6859 513e 60ed 1dbe d502 04bf 3d3d e1be
000000d0: ca92 17bf 9715 a2be 1667 10bf a87b 8dbe
000000e0: 01d9 04bf ee61 92be 3ee2 683e f190 84be
000000f0: 55d8 8ebe dc3a 1bbf 499e 15bf 9eef 303e
00000100: f9dd 0ebf b5a5 94bd b44e c5be 08f1 4d3e
00000110: fd04 fbbe a2c3 2d3e f8f7 443e 9500 32be
00000120: c92f 333c 4be6 e7be 405f fbbe c490 39be
00000130: 7529 643d 21c1 ffbe 86dc 57bd 9d3d 23bf
00000140: 8098 a4be c781 20bf c451 09bf aaef 36be
00000150: a923 5bbe ef41 043d 4a12 b8be b843 bdbe
00000160: 8c23 e8be 9b70 aebc 1402 1abe 5a69 cabc
00000170: 2ee9 21be 09c2 04bf 757c dfbc afb3 74be
00000180: ad19 1cbf d4d5 c2be de38 bebe 6a5a 27bf
00000190: 8c51 0ebf 214c e1bd a9ba c2be ab10 7dbd
000001a0: f618 8abe 3f8a 2dbf 7f18 ccbe 0984 3bbf
000001b0: de99 8bbe b5c6 fcbd 9e6f 07bf 3197 b0be
000001c0: c3d8 11be 84bb acbd d0ba 10bf 81dc 1cbe
000001d0: ed12 c2bd c638 45be d0c5 50be 7671 c8be
000001e0: ae5b 033e edd3 15be e7b5 01bd 9a30 0abf
000001f0: 1f45 6cbf 4bbd 8fbe ed20 f1be e5f2 dfbe
00000200: 2a04 30be cbdf aabe 37d4 5cbd 218c 49be
00000210: da5f 7abe 7f43 04be 5cf6 f13c 3904 a33d
00000220: 3d6e 4fbc 9b8e 8e3b 7fa3 07bd 1a0d 0ebd
00000230: 93b6 a9bd 5ea6 21be 7f9b 24be d314 26bd
00000240: 87af 4bbd d363 49bf 8bab afbe 0395 4bbd
00000250: a5d9 c3bd abd8 93bd c27d c9bc 6f18 97bd
00000260: d641 6fbe 8da0 8fbe 78fb c2bd 4f6d 91be
00000270: df1c 3bbd a27a 8abe f96c 643d 1b34 2abe
00000280: 72e3 37be 49d2 debd 2052 75be be24 ab3e
00000290: 8b96 3bbe ee81 dfbe 3116 04be 8ad8 20be
000002a0: 9220 58be 6157 29be df8a a0be 765b d43e
000002b0: 04e4 e4be 4da1 31be c50d 05bd 85e0 dfbe
000002c0: 8054 09be 6a70 a3bd 170b 5ebe 543f c0bd
000002d0: 88ff 99be 2eb7 0fbe 9508 22be bc0d f4bd
000002e0: b85f 93be 6789 8bbe 760b 15bd 6454 6bbd
000002f0: 9b1c fbbe 7470 0cbf 916b b1be 0d35 5dbe
00000300: 45cf 65be 4819 7bbe 4a5f 36be 2a9d d6bd
00000310: 9ec7 99be 759a 07bd c45f 3d3d f483 09be
00000320: 1817 40be 54b3 a9be 4822 87be d4b3 d4bd
00000330: 0f02 a03d 2b8a 80be ded9 71bd d92a cbbd
00000340: 4f7f 91bd 4989 0abf 44a4 25be 23ea 7cbe
00000350: 5197 b7bd 0d3c bcbd 8fcf 5fbe a935 8dbd
00000360: d60b 9dbe 08a5 dfbd 631e 863d ef20 333e
00000370: 60f9 2abe 0ffe 19be 7302 36bd c66f 74bb
00000380: 3ed5 54be a49a 28be ccc1 81be f1ed 66be
00000390: 719e dfbd 84bc 303e ba62 c1be 3d09 f9bd
000003a0: a012 79bd 24b7 23bf b4a5 c7bd 1423 b8be
000003b0: 6a1a 7f3d a846 92bd 03fd 72be 28c3 b2be
000003c0: a72e a93d c85b c8bd a791 64be f781 d6bd
000003d0: bb37 65be eeb8 3fbd a04f 93be d077 e53c
000003e0: aa10 6e3d e6d8 b4bd 3600 113e 5191 1bbe
000003f0: eb6d 1fbe 5552 6cbd 4c32 98be c7dc 89be

lstm.weight_ih_l1 f4 [512, 128]
0.21989518 0.17898148 0.08850788 0.19759212 0.011167595 -0.018522585 0.07968013 0.014950941
-0.40410745 -0.43100673 0.2656446 0.03757786 -0.12991741 0.22518356 0.031125478 0.08476994
-0.11571778 0.1292436 0.07431099 0.21464288 0.538071 -0.22107992 -0.17790653 0.17211752
0.20285289 0.20798609 -0.035984494 0.44916585 0.042294066 0.46148175 -0.57857245 0.199478
0.4950539 0.058887806 -0.038526088 0.19316317 0.13657553 -0.02667489 0.26597625 0.30546865
0.098502226 0.25737205 0.014258376 -0.44604847 0.097773366 0.071929246 -0.06453404 -0.19566374
-0.4231031 0.36444288 -0.0074200467 0.11466006 -0.07082902 -0.27377695 0.20660083 0.15095766
0.09047238 -0.07870179 -0.23929769 -0.07010724 0.24201459 0.021926725 0.30133376 -0.12136504
0.009541132 -0.0060985195 -0.15677854 0.2377864 -0.28343225 0.59444296 -0.21012264 -0.14154445
-0.32828408 0.11743097 -0.019747281 -0.014123471 0.4852234 0.10260368 0.058629453 0.13890608
-0.04787318 0.008683545 0.15099883 -0.12922987 -0.32693562 -0.19691834 0.21102054 -0.19793841
-0.034397505 -0.3376429 0.20783693 -0.31464216 0.019704735 -0.26766077 -0.071429655 -0.17031588
-0.02497065 -0.104685366 -0.07455881 0.15247066 0.03741995 0.24850668 -0.11133721 0.070087016
0.038309477 0.037491128 -0.06458693 -0.028003437 0.18795218 -0.13910308 0.39124906 -0.007432525
0.19125935 -0.021649374 0.080726214 -0.23207766 -0.0047422554 0.084793545 -0.2767452 -0.17549434
0.18929142 0.078438714 0.310693 0.23201862 0.023785394 -0.057516966 -0.007358869 0.01903184
-0.2914909 -0.32484674 -0.7014922 0.7334009 0.3052306 -0.44071624 -0.34934518 0.46068454
-0.71274084 -0.628915 -0.124872334 -0.47608915 0.69907814 -0.395317 0.44853723 0.20350866
0.0745108 -0.29208282 0.52631754 0.41542828 0.51979554 0.051781494 -0.807147 -0.2801229
0.4408077 0.20263284 -0.55277807 -0.5539329 0.20531407 0.037672084 -0.08067391 -0.23735505
-0.4731399 0.09652541 0.279746 0.06441013 0.025697708 0.77036995 -0.6394652 -0.47008517
0.6772979 0.29827428 0.41436502 -0.09900579 -0.54914016 0.05004073 0.2015555 0.43367124
0.7473765 -0.73223174 0.20578025 -0.17417696 -0.46320403 -0.8142056 0.86061615 0.15438321
-0.719855 -0.37436274 0.6928538 -0.2872754 -0.6260614 0.57137376 -0.4436402 -0.525315
-0.31757483 -0.5284461 0.6498222 -0.4996889 -0.33067667 0.26251775 0.9422711 -0.016382461
0.45448405 -0.64389354 -0.69338256 -0.2868675 0.70092374 -0.46055576 0.086513214 -0.313053
0.30166644 -0.682457 0.06256248 0.72131336 0.7033314 -0.40247208 -0.5134001 -0.7385047
0.21200761 -0.6048545 -0.0019190422 -0.4495496 -0.5599216 -0.6573568 -0.16405277 0.8450156
0.09554806 0.43503648 0.23388909 0.17548181 0.482386 0.48671472 0.7619918 0.4145726
0.43823344 0.31904042 0.17281604 -0.056765594 0.5233758 0.7305531 -0.6863396 -0.2568255
0.89422625 -0.016261507 -0.5550809 0.58469796 -0.732544 0.18053105 0.47891572 -0.20003816
-0.5511251 0.027025975 0.46998078 -0.012597112 0.107235365 -0.372562 0.4914216 0.3212168
00000000: 342c 613e ec46 373e 9f43 b53d 9755 4a3e
00000010: 4af8 363c adbc 97bc 562f a33d cbf4 743c
00000020: 2ce7 cebe eaac dcbe 9202 883e 3eeb 193d
00000030: 1209 05be 8596 663e dcfa fe3c dd9b ad3d
00000040: 72fd ecbd 6f58 043e 5c30 983d 58cb 5b3e
00000050: 05bf 093f c662 62be 212d 36be 933f 303e
00000060: abb8 4f3e 4efa 543e 7a64 13bd 11f9 e53e
00000070: 8b3c 2d3d 5647 ec3e 531d 14bf f643 4c3e
00000080: b477 fd3e 5734 713d 88cd 1dbd 91cc 453e
00000090: 75da 0b3e 4d85 dabc 0a2e 883e 6366 9c3e
000000a0: 89bb c93d 45c6 833e f79b 693c 7760 e4be
000000b0: 673d c83d a44f 933d 6c2a 84bd 135c 48be
000000c0: f8a0 d8be 4298 ba3e dd23 f3bb e5d2 ea3d
000000d0: ce0e 91bd 7e2c 8cbe 2b8f 533e a594 1a3e
000000e0: 9549 b93d 672e a1bd 740a 75be 6294 8fbd
000000f0: acd2 773e ad9f b33c 6b48 9a3e 3c8e f8bd
00000100: 6852 1c3c 17d6 c7bb 8e8a 20be 477e 733e
00000110: 081e 91be 6a2d 183f 642a 57be 07f1 10be
00000120: da14 a8be a67f f03d 0dc5 a1bc 2266 67bc
00000130: 346f f83e e121 d23d 7025 703d 653d 0e3e
00000140: ab16 44bd 6d45 0e3c 709f 1a3e d654 04be
00000150: 1b64 a7be f6a4 49be c515 583e 5eb0 4abe
00000160: 66e4 0cbd 88df acbe 34d3 543e c718 a1be
00000170: d36b a13c d50a 89be b649 92bd 4967 2ebe
00000180: 408f ccbc 4865 d6bd 4ab2 98bd 4521 1c3e
00000190: a945 193d 8978 7e3e c304 e4bd c889 8f3d
000001a0: 66ea 1c3d 4c90 193d 2746 84bd 7767 e5bc
000001b0: 8976 403e 0a71 0ebe cc51 c83e 8a8c f3bb
000001c0: 7ed9 433e 075a b1bc c953 a53d c4a5 6dbe
000001d0: ec64 9bbb 3da8 ad3d 8cb1 8dbe cab4 33be
000001e0: 9cd5 413e 7aa4 a03d 2713 9f3e 4a96 6d3e
000001f0: 96d9 c23c e996 6bbd ab22 f1bb a9e8 9b3c
00000200: 4c3e 95be 5052 a6be fe94 33bf 29c0 3b3f
00000210: 2f47 9c3e 8fa5 e1be 5fdd b2be d8de eb3e
00000220: 2f76 36bf 9300 21bf 11bd ffbd f5c1 f3be
00000230: c9f6 323f fd66 cabe aca6 e53e 9364 503e
00000240: 1e99 983d e18b 95be bfbc 063f 04b3 d43e
00000250: 5211 053f d518 543d 30a1 4ebf 456c 8fbe
00000260: 8cb1 e13e fc7e 4f3e dd82 0dbf 8cce 0dbf
00000270: da3d 523e 0b4e 1a3d 5d38 a5bd 340d 73be
00000280: 653f f2be 1daf c53d de3a 8f3e 75e9 833d
00000290: 0084 d23c f736 453f feb3 23bf 01af f0be
000002a0: 6563 2d3f 68b7 983e a727 d43e 8cc3 cabd
000002b0: 7394 0cbf 82f7 4c3d 9164 4e3e 280a de3e
000002c0: 1154 3f3f 8a73 3bbf 0fb8 523e 725b 32be
000002d0: 1429 edbe c76f 50bf 5751 5c3f a216 1e3e
000002e0: 6b48 38bf 79ac bfbe de5e 313f c315 93be
000002f0: 8f45 20bf 8d45 123f cf24 e3be 0b7b 06bf
00000300: 2b99 a2be 3e48 07bf bf5a 263f 39d7 ffbe
00000310: 744e a9be ba68 863e ae38 713f 8334 86bc
00000320: 22b2 e83e 35d6 24bf 8581 31bf 4ce0 92be
00000330: bd6f 333f f7cd ebbe d72d b13d 7c48 a0be
00000340: 0674 9a3e 80b5 2ebf c220 803d fea7 383f
00000350: 870d 343f d210 cebe 306e 03bf a50e 3dbf
00000360: 8618 593e bfd7 1abf 5f88 fbba 5d2b e6be
00000370: 0657 0fbf 8948 28bf 73fd 27be f152 583f
00000380: b4ae c33d 1abd de3e 9f80 6f3e 81b1 333e
00000390: 4cfb f63e ac32 f93e e511 433f dc42 d43e
000003a0: 2260 e03e 4459 a33e b0f6 303e 0a83 68bd
000003b0: f5fb 053f 8705 3b3f f4b3 2fbf a27e 83be
000003c0: 03ec 643f da36 85bc c819 0ebf c4ae 153f
000003d0: 0188 3bbf 22dd 383e 7134 f53e ced6 4cbe
000003e0: 8916 0dbf 9465 dd3c 52a1 f03e 1e64 4ebc
000003f0: 379e db3d 72c0 bebe 9d9b fb3e 8776 a43e

lstm.weight_hh_l1 f4 [512, 128]
0.18103409 -0.367378 0.3932926 -0.13889344 0.25749448 0.11041581 0.34158462 -0.15907659
0.22938225 -0.30880004 0.26010194 0.39164823 -0.15261438 0.1914678 0.18676151 0.21236433
-0.27591696 0.060030036 0.34307715 -0.09724894 -0.36745003 0.567179 0.03417975 -0.15133101
-0.34022596 -0.41024423 -0.28114632 0.37422746 0.008995175 0.14385587 0.08768716 -0.1957229
-0.3078213 -0.025124049 -0.19694652 0.013173547 -0.22054109 -0.300226 0.37052134 0.42654118
0.35652632 -0.17912006 -0.0717907 0.4496899 -0.3384356 -0.7288223 0.26153466 0.4682103
0.1776017 -0.18166599 0.2000121 -0.23468728 0.32403478 0.045688216 -0.022661153 -0.3667751
-0.14879428 -0.13959852 -0.5588924 0.51894504 0.3031582 0.05800731 -0.014692786 0.14291835
0.15676713 -0.34189656 -0.14986965 -0.23235461 -0.058542307 -0.09476537 0.22523832 0.4512366
0.39122388 0.34699357 -0.12814528 -0.22721042 0.18262121 -0.45204905 0.40143952 -0.3019509
0.024978708 0.57131165 -0.008072558 0.21233886 -0.14584805 0.009778506 -0.10339129 -0.069455475
0.27171522 -0.15878414 0.025294024 0.029786587 0.63253695 0.2872725 0.41017526 0.2170997
-0.46359816 0.0651638 -0.21912517 -0.24838588 0.03073027 0.120871715 -0.105751164 0.382563
0.10922039 -0.03632134 -0.26797542 -0.35030133 0.31175235 -0.49751693 -0.15430024 0.17385566
-0.3078931 0.29703137 0.28531623 0.014829498 -0.16466081 0.2595756 -0.10358169 0.7517222
-0.12275926 -0.14262514 -0.39140445 -0.1914372 0.62313205 0.62357605 0.32231924 0.07223712
0.14357497 -0.05817978 -0.08795451 -0.15863512 -0.037645694 0.1711529 0.1885531 -0.5069569
-0.030953482 -0.43280146 0.061115324 -0.036942262 -0.28819633 -0.070903376 0.07793748 0.5176575
0.15085648 0.7807788 -0.10381339 0.0711899 0.031969704 0.16368444 -0.06950208 -0.32120103
-0.1758755 0.15587322 0.12190382 0.2071078 -0.021702072 0.12514451 0.1806964 -0.051381517
-0.061599992 -0.01741585 0.06575665 -0.062988564 0.038924158 -0.064678274 0.06239319 0.23847397
0.20041773 -0.011478454 -0.45744872 0.25537708 -0.4986532 -0.16535047 -0.08193085 0.7444788
-0.05799068 -0.29246512 0.09239643 0.061652504 0.13745023 -0.07007071 -0.36192492 0.048431758
0.08162363 -0.12166636 -0.3672256 -0.4224341 -0.020719316 0.109015316 -0.1340385 0.033706263
0.05655061 0.024731297 -0.060425233 -0.05715055 0.07373139 -0.22976537 0.26564503 0.2532923
0.08030003 -0.096067876 -0.29041287 0.13963878 0.19279532 -0.31482586 0.40992403 -0.1521826
-0.047481716 0.31025293 -0.35893366 -0.073909014 0.021227848 0.17312075 -0.17475629 -0.1979811
0.20687948 0.0047009 0.2373975 -0.05487426 0.18448865 0.05012226 0.2863952 -0.13232525
-0.0023077703 0.038015377 -0.16360451 0.19724728 0.07409855 0.013489649 0.2529286 0.2674963
0.20898765 -0.10768444 -0.22538418 -0.058503117 0.056056205 -0.15960912 -0.51443315 0.29922113
-0.14437301 0.26503918 0.1888451 -0.037298407 0.03909804 -0.118299514 0.09040565 0.072047345
0.045430977 -0.36540267 0.05435147 -0.004041687 0.6972633 0.2001011 -0.14142285 0.34116545
00000000: 0061 393e f818 bcbe a65d c93e 153a 0ebe
00000010: 51d6 833e af21 e23d 2ee4 ae3e f9e4 22be
00000020: 2ee3 6a3e 0a1b 9ebe 152c 853e 1e86 c83e
00000030: f246 1cbe 2310 443e 693e 3f3e 0976 593e
00000040: fd44 8dbe 0ee2 753d cfa7 af3e 742a c7bd
00000050: 6922 bcbe a532 113f 1100 0c3d 84f6 1abe
00000060: 1932 aebe 880b d2be 69f2 8fbe be9a bf3e
00000070: 8060 133c f44e 133e 5395 b33d 956b 48be
00000080: c19a 9dbe f3d0 cdbc 59ac 49be dcd5 573c
00000090: 86d5 61be 39b7 99be f9b4 bd3e 9b63 da3e
000000a0: 9e8a b63e 406b 37be 0107 93bd c13d e63e
000000b0: 6e47 adbe 1994 3abf dfe7 853e 43b9 ef3e
000000c0: 38dd 353e a606 3abe f9cf 4c3e dd51 70be
000000d0: e3e7 a53e 9123 3b3d e2a3 b9bc f2c9 bbbe
000000e0: 875d 18be eaf2 0ebe 9313 0fbf 95d9 043f
000000f0: 8d37 9b3e 1399 6d3d 03ba 70bc 3059 123e
00000100: 9087 203e 110d afbe 6e77 19be 5eee 6dbe
00000110: 0fca 6fbd 5914 c2bd e0a4 663e 7c08 e73e
00000120: 7f4e c83e 24a9 b13e 8438 03be d9a9 68be
00000130: 0e01 3b3e f972 e7be 7b89 cd3e 4f99 9abe
00000140: 26a0 cc3c 7b41 123f c342 04bc 5c6f 593e
00000150: 3159 15be 0736 203c d0be d3bd ac3e 8ebd
00000160: 421e 8b3e 4f98 22be 6a35 cf3c 0003 f43c
00000170: f1ed 213f 6215 933e 7e02 d23e 624f 5e3e
00000180: bd5c edbe 9974 853d 5962 60be de58 7ebe
00000190: 0cbe fb3c 978b f73d 1194 d8bd 4cdf c33e
000001a0: f1ae df3d afc5 14bd 1334 89be b25a b3be
000001b0: 019e 9f3e 8aba febe e200 1ebe 3807 323e
000001c0: 2aa4 9dbe 7f14 983e f814 923e 6cf7 723c
000001d0: d89c 28be 18e7 843e a322 d4bd de70 403f
000001e0: 3569 fbbd 530c 12be 2a66 c8be 1d08 44be
000001f0: 9585 1f3f aea2 1f3f 0707 a53e 0ef1 933d
00000200: 5105 133e ec4d 6ebd 7e21 b4bd 3f71 22be
00000210: 5f32 1abd b542 2f3e 1014 413e edc7 01bf
00000220: 2892 fdbc 2798 ddbe 1054 7a3d c550 17bd
00000230: 788e 93be ca35 91bd af9d 9f3d 3485 043f
00000240: 1f7a 1a3e 1fe1 473f 1d9c d4bd 03cc 913d
00000250: aaf2 023d e59c 273e 1b57 8ebd 7674 a4be
00000260: b518 34be 3b9d 1f3e b6a8 f93d 1114 543e
00000270: 8bc8 b1bc e225 003e 7a08 393e 6d75 52bd
00000280: 4650 7cbd afab 8ebc 6cab 863d 2600 81bd
00000290: f06e 1f3d 0b76 84bd 0090 7f3d 8532 743e
000002a0: 4e3a 4d3e 2010 3cbc b836 eabe c9c0 823e
000002b0: 794f ffbe a251 29be 5dcb a7bd 2a96 3e3f
000002c0: a387 6dbd fdbd 95be 573a bd3d 5687 7c3d
000002d0: c1bf 0c3e 3b81 8fbd 394e b9be 6160 463d
000002e0: 4a2a a73d 362c f9bd fe04 bcbe 4849 d8be
000002f0: 8ebb a9bc 6c43 df3d 6341 09be 940f 0a3d
00000300: 9da1 673d 4a99 ca3c 7380 77bd b216 6abd
00000310: 7c00 973d 9d47 6bbe a002 883e 87af 813e
00000320: 5874 a43d 3cbf c4bd ffb0 94be 78fd 0e3e
00000330: 236c 453e db30 a1be 90e1 d13e c1d5 1bbe
00000340: 307c 42bd 79d9 9e3e 27c6 b7be 9c5d 97bd
00000350: 06e6 ad3c 9146 313e 50f3 32be 8fbb 4abe
00000360: 37d8 533e 020a 9a3b 5518 733e d5c3 60bd
00000370: 98ea 3c3e 004d 4d3d 64a2 923e 4580 07be
00000380: f63d 17bb 03b6 1b3d f187 27be 31fb 493e
00000390: fbc0 973d b003 5d3c dc7f 813e 46f5 883e
000003a0: dc00 563e a989 dcbd 1ccb 66be f7a0 6fbd
000003b0: 319b 653d 9370 23be e4b1 03bf 8333 993e
000003c0: 85d6 13be 37b3 873e 9c60 413e 37c6 18bd
000003d0: 4425 203d 0447 f2bd 9926 b93d 8f8d 933d
000003e0: d515 3a3d 0f16 bbbe a69f 5e3d 2170 84bb
000003f0: d97f 323f 4ee7 4c3e 27d1 10be 3dad ae3e

lstm.bias_ih_l1 f4 [512]
-1.1408205 -0.5020653 -0.58997375 -0.35565963 0.19045016 -0.11749857 -0.28044152 -0.6247587
-0.24212737 -0.4319765 -0.43599936 -0.2979183 -0.6455017 0.0288715 -0.2125456 -0.13791719
-0.71107376 -0.38800994 0.20012435 -0.37217987 -1.1521393 -0.008091883 -0.037324198 -0.6755161
-0.20433289 -0.8451376 -0.14087673 -0.7772204 -0.14054228 -0.5177053 -0.7683096 -0.24280009
-0.65455914 -0.32191813 -0.51957846 -0.540925 -0.6468581 -0.29426897 -0.3996218 -0.556629
-0.53507024 -0.52346444 -0.03465569 -0.15899633 0.091008656 -0.5453711 -0.07061089 -0.23054056
-0.0072415927 -0.50890446 -0.54912925 -1.1590966 0.35415965 -0.50574195 -0.021505 -0.7266942
-0.7502828 -0.48794183 -0.1812102 -0.21122308 0.18554032 -0.35242206 -0.89954674 -0.45065087
-0.5381705 -0.19407767 -0.5163016 -1.0938524 -0.30232063 -0.035287846 -0.1654087 -0.15154253
-0.6432943 -0.16673137 -0.0067319856 -0.53951144 -0.43322048 0.15509301 -0.7270556 -0.7655193
-0.6270567 -0.7498143 -1.038962 0.24272162 0.21422946 -0.60248613 0.05977597 -0.19147652
-0.9464277 -0.87601674 -0.6049839 -0.7593273 -0.3360595 -0.7203776 -0.91956687 -0.36994714
-0.60198486 0.16171508 -0.51128143 -0.23233253 0.09129822 -0.30628133 -0.070236005 0.23241454
0.010428059 -0.110928915 -0.14446904 0.05369731 -0.40475124 -0.44591722 -0.30531564 -1.0563661
-0.025717342 -1.3383238 -0.37830022 -0.008671487 -0.052594982 -0.19814351 -0.42696077 -0.06965563
0.20504661 -0.49782422 -0.9091485 -1.207391 -0.275114 -0.13935433 -0.2913518 -0.43688688
-0.64213425 -0.0781179 -0.021592258 -0.2885811 0.30427545 0.15813464 -0.50035375 -0.31011075
-0.47287762 -0.3804664 -0.50562704 0.41421604 -0.52982926 -0.047117427 -0.5875384 -0.007899806
-0.6127915 0.0075422446 -0.13214058 -0.35070446 -0.52315843 0.08701392 -0.5059517 -0.5214364
-0.37834764 -0.46958464 -0.05299737 -0.5318133 -0.14534841 -0.42867813 -0.3454517 -0.56170505
-0.13396907 -0.20956801 -0.46304262 -0.24904782 -0.27173397 -0.023293188 -0.54962647 -0.46946406
-0.22309375 -0.23679547 -0.06212551 -0.33809572 0.1609897 -0.25329247 -0.2406933 -0.21053556
-0.12659681 -0.55308175 -0.75043136 -0.7785227 -0.27751932 -0.94681865 0.1201903 -0.5062751
-0.68897474 -0.6377229 0.051430244 -0.2585274 -0.3156623 -0.060956165 -0.712485 -0.20921989
-0.33051082 -0.33406192 -0.34680107 -0.5983681 -0.15119402 -0.21479334 -0.56258607 -0.51203793
-0.4182829 -0.6396208 -0.45691675 -0.95351875 -0.5085033 -0.03406392 -0.49183357 -0.37319297
-0.5279238 -0.3278615 -0.69483626 -0.17754129 0.044582326 -0.41307735 -0.13153467 -0.26192275
-0.9699718 -0.6602656 -0.325579 -0.57150626 -0.41694978 -0.67416775 -0.62449276 -0.21000016
-0.5972515 -0.21677408 -0.26782995 -0.16082913 0.05549474 -0.5301855 -0.06690417 0.052417256
-0.5260297 -0.29207817 0.033441573 -0.060890377 -0.25610894 -0.10870719 -0.49660614 -0.70272887
0.43446007 -0.90267026 -0.8061226 -0.01487171 -0.08054625 0.29616526 -0.40713993 0.44236687
-0.21514268 -0.20706329 -0.94115955 -0.8889914 -0.36338815 -0.14469314 -0.4079369 -0.4292074
00000000: 6806 92bf 5a87 00bf 8508 17bf 0519 b6be
00000010: 5e05 433e 17a3 f0bd 0896 8fbe 30f0 1fbf
00000020: 3df0 77be 062c ddbe 4f3b dfbe bf88 98be
00000030: 993f 25bf ed83 ec3c 8ea5 59be 2a3a 0dbe
00000040: ee08 36bf 3da9 c6be 66ed 4c3e 5c8e bebe
00000050: 4d79 93bf d193 04bc 42e1 18bd a0ee 2cbf
00000060: a43c 51be f05a 58bf fd41 10be ebf7 46bf
00000070: 51ea 0fbe 5688 04bf f0af 44bf 96a0 78be
00000080: 3091 27bf 74d2 a4be 1803 05bf 107a 0abf
00000090: 7e98 25bf 6caa 96be 3b9b ccbe 3d7f 0ebf
000000a0: 5dfa 08bf c401 06bf 20f3 0dbd efcf 22be
000000b0: bf62 ba3d 719d 0bbf 719c 90bd d312 6cbe
000000c0: e24a edbb 9047 02bf bc93 0cbf 475d 94bf
000000d0: 6a54 b53e 4e78 01bf 412b b0bc a208 3abf
000000e0: 8912 40bf 83d3 f9be 2b8f 39be dd4a 58be
000000f0: 48fe 3d3e aa70 b4be b248 66bf b6bb e6be
00000100: 8bc5 09bf 4cbc 46be 572c 04bf 5b03 8cbf
00000110: c5c9 9abe fd89 10bd e660 29be f72d 1bbe
00000120: efae 24bf a1bb 2abe fd97 dcbb 6c1d 0abf
00000130: 13cf ddbe b4d0 1e3e 5120 3abf 13f9 43bf
00000140: ca86 20bf d4f3 3fbf b5fc 84bf 048c 783e
00000150: f85e 5b3e 883c 1abf a6d7 743d 6c12 44be
00000160: 1649 72bf a242 60bf 3ae0 1abf 4663 42bf
00000170: fe0f acbe ab6a 38bf bc68 6bbf b669 bdbe
00000180: ae1b 1abf a398 253e 57e3 02bf 94e8 6dbe
00000190: 90fa ba3d e8d0 9cbe e5d7 8fbd 14fe 6d3e
000001a0: 73da 2a3c b32e e3bd b1ef 13be b6f1 5b3d
000001b0: 8e3b cfbe 434f e4be 5552 9cbe 0137 87bf
000001c0: 2dad d2bc 324e abbf 91b0 c1be da12 0ebc
000001d0: d66d 57bd 22e6 4abe 9a9a dabe 9ca7 8ebd
000001e0: bdf7 513e d1e2 febe f5bd 68bf ca8b 9abf
000001f0: bedb 8cbe e7b2 0ebe 102c 95be a3af dfbe
00000200: e962 24bf 47fc 9fbd 3fe2 b0bc e7c0 93be
00000210: fec9 9b3e 0cee 213e 2f17 00bf d6c6 9ebe
00000220: 041d f2be 7ecc c2be c670 01bf 2014 d43e
00000230: e4a2 07bf 34fe 40bd eb68 16bf 306e 01bc
00000240: e7df 1cbf ef24 f73b dc4f 07be 898f b3be
00000250: b6ed 05bf 5b34 b23d 0d86 01bf db7c 05bf
00000260: c8b6 c1be 666d f0be c513 59bd eb24 08bf
00000270: 37d6 14be b37b dbbe 0cdf b0be e7cb 0fbf
00000280: 302f 09be ff98 56be ec13 edbe 6406 7fbe
00000290: b720 8bbe 5bd1 bebc 52b4 0cbf 985d f0be
000002a0: b072 64be 837a 72be 5277 7ebd e21a adbe
000002b0: 7cda 243e 8daf 81be 4e78 76be a296 57be
000002c0: 98a2 01be c496 0dbf 451c 40bf 434d 47bf
000002d0: 0317 8ebe b562 72bf 5526 f63d 3f9b 01bf
000002e0: a660 30bf cf41 23bf 85a8 523d b45d 84be
000002f0: 7d9e a1be 2cad 79bd 6b65 36bf bd3d 56be
00000300: b738 a9be 2a0a abbe e98f b1be a72e 19bf
00000310: 9bd2 1abe c9f2 5bbe a405 10bf eb14 03bf
00000320: 2d29 d6be 30be 23bf fef0 e9be ce19 74bf
00000330: 462d 02bf 9c86 0bbd 9cd1 fbbe 2613 bfbe
00000340: 0426 07bf 76dd a7be cae0 31bf 62cd 35be
00000350: f59b 363d e07e d3be 06b1 06be bd1a 86be
00000360: 1250 78bf 2b07 29bf 4ab2 a6be 3c4e 12bf
00000370: 717a d5be 4296 2cbf c2de 1fbf 480a 57be
00000380: 79e5 18bf 06fa 5dbe 0221 89be 64b0 24be
00000390: 744e 633d 3dba 07bf 0e05 89bd 7ab3 563d
000003a0: e2a9 06bf 458b 95be 08fa 083d 3068 79bd
000003b0: b620 83be e0a1 debd 2943 febe 0ae6 33bf
000003c0: 8d71 de3e 6615 67bf 0d5e 4ebf 79a8 73bc
000003d0: 6ff5 a4bd f9a2 973e a574 d0be e97d e23e
000003e0: 5d4e 5cbe 6608 54be d5ef 70bf f194 63bf
000003f0: 030e babe 702a 14be 1bdd d0be 13c1 dbbe

lstm.bias_hh_l1 f4 [512]
-1.1836636 -0.4423667 -0.520641 -0.30521008 0.09214856 -0.048759725 -0.3837504 -0.7466382
-0.32945892 -0.40612027 -0.4279025 -0.2155232 -0.67643714 -0.026257854 -0.094716 -0.20037267
-0.67919457 -0.35072488 0.16660981 -0.36102927 -1.0309075 0.1186702 -0.02940392 -0.68967557
-0.06848823 -0.8457133 -0.09181822 -0.6514182 -0.096422955 -0.59162617 -0.7317607 -0.33218503
-0.5836354 -0.42551538 -0.5801759 -0.46882597 -0.68866056 -0.259233 -0.40578938 -0.6499021
-0.52858126 -0.57544905 -0.039488457 -0.20026234 -0.012895216 -0.4929983 -0.068036884 -0.29961163
0.04285286 -0.38674048 -0.5870098 -1.145226 0.39298213 -0.453173 -0.07401186 -0.6367393
-0.86062616 -0.5176162 -0.039915543 -0.13855797 0.14018606 -0.23428023 -1.0290618 -0.4690313
-0.5902618 -0.19172458 -0.56745857 -1.2333214 -0.30208465 -0.10184585 -0.12032799 -0.088091575
-0.60279506 -0.03486112 -0.09309028 -0.47916946 -0.44352326 0.103393495 -0.70421034 -0.774111
-0.7893708 -0.7365168 -1.098036 0.26346415 0.20405506 -0.71988994 0.030036772 -0.09387538
-0.94612527 -0.8216101 -0.53189725 -0.7847175 -0.31043655 -0.87245476 -0.9018218 -0.3620498
-0.6429498 0.2673383 -0.5086082 -0.30253416 0.10855944 -0.39373642 -0.039503165 0.08943135
-0.041462325 -0.025945669 -0.20087478 -0.012494544 -0.44249186 -0.589798 -0.25533706 -0.9042918
-0.070212685 -1.3775076 -0.26360807 -0.09344095 -0.078138836 -0.19651955 -0.52768373 -0.028253708
0.24952862 -0.5004449 -0.86637 -1.0453367 -0.2893257 -0.08581775 -0.17205718 -0.3812763
-0.6765625 -0.16616619 0.045837056 -0.33904615 0.26694998 0.0558475 -0.59392655 -0.37744936
-0.49261582 -0.35651645 -0.40010366 0.43391308 -0.49396223 -0.14478607 -0.5147156 -0.11696968
-0.6525529 -0.1363767 -0.2058666 -0.3511126 -0.49369553 0.06308348 -0.45595065 -0.5240931
-0.45525843 -0.49804968 -0.03808932 -0.5556952 -0.1570082 -0.33044797 -0.351726 -0.52558106
-0.2220684 -0.33169246 -0.4999316 -0.17230596 -0.15150152 0.06570981 -0.41324225 -0.56591946
-0.2442878 -0.2115161 -0.061972275 -0.40725893 0.17411141 -0.20374538 -0.13890487 -0.33507663
-0.0047536558 -0.4483008 -0.68578976 -0.77160305 -0.2209961 -0.883292 0.19586968 -0.47351488
-0.69211733 -0.5151516 0.118929066 -0.38386452 -0.20630962 -0.13998498 -0.5914468 -0.19484812
-0.23477596 -0.29775015 -0.50742644 -0.5033193 -0.13782555 -0.12912619 -0.59087616 -0.431089
-0.447687 -0.75767773 -0.4409379 -0.94011897 -0.60988545 -0.003422927 -0.40077475 -0.5090081
-0.49096715 -0.39382324 -0.690261 -0.15753907 0.118168 -0.31383544 -0.22211745 -0.3047922
-0.99670875 -0.7027193 -0.37215316 -0.6987092 -0.29860488 -0.5965705 -0.6445047 -0.2818263
-0.58162314 -0.3020824 -0.2736752 -0.32840782 0.01644766 -0.47862697 -0.071592525 0.073994614
-0.51653546 -0.4011469 0.17508234 0.01355158 -0.37377277 -0.17937583 -0.55505264 -0.7569892
0.3863574 -0.8891719 -0.74830145 -0.037644543 -0.22258075 0.17302793 -0.31268582 0.48051777
-0.14682329 -0.07453985 -0.9487299 -0.78574044 -0.37102675 -0.08880675 -0.41807705 -0.37762925
00000000: 4a82 97bf e37d e2be bb48 05bf 7f44 9cbe
00000010: 62b8 bc3d 47b8 47bd ef7a c4be ae23 3fbf
00000020: d7ae a8be ffee cfbe 0916 dbbe 1db2 5cbe
00000030: fc2a 2dbf b61a d7bc 76fa c1bd 7e2e 4dbe
00000040: b2df 2dbf 3692 b3be c39b 2a3e d4d8 b8be
00000050: c7f4 83bf 5d09 f33d 7de0 f0bc 948e 30bf
00000060: 8f43 8cbd ab80 58bf 310b bcbd 58c3 26bf
00000070: 6679 c5bd d074 17bf ab54 3bbf 2814 aabe
00000080: 2169 15bf 27dd d9be 6886 14bf f509 f0be
00000090: 0f4c 30bf 30ba 84be a0c3 cfbe fc5f 26bf
000000a0: 1a51 07bf a150 13bf a6be 21bd 9211 4dbe
000000b0: 7546 53bc 466a fcbe ec56 8bbd b266 99be
000000c0: 7b86 2f3d d902 c6be 4646 16bf c496 92bf
000000d0: f434 c93e 4b06 e8be 8893 97bd 5901 23bf
000000e0: ff51 5cbf 7f82 04bf 7b7e 23bd 24e2 0dbe
000000f0: ef8c 0f3e 28e7 6fbe 4cb8 83bf df24 f0be
00000100: 661b 17bf 7353 44be f744 11bf 7add 9dbf
00000110: d7aa 9abe 8f94 d0bd 856e f6bd 5b69 b4bd
00000120: c750 1abf 89ca 0ebd 1ea6 bebd b355 f5be
00000130: 7b15 e3be f8bf d33d 2147 34bf 232c 46bf
00000140: 3414 4abf 5d8c 3cbf 728c 8cbf c6e4 863e
00000150: cff3 503e b54a 38bf ad0f f63c bc41 c0bd
00000160: 4435 72bf 0a55 52bf 6b2a 08bf 3fe3 48bf
00000170: 8af1 9ebe 3259 5fbf cbdd 66bf 975e b9be
00000180: 5c98 24bf 91e0 883e 2634 02bf c2e5 9abe
00000190: 6954 de3d d297 c9be 12ce 21bd c927 b73d
000001a0: 66d4 29bd 038c d4bc 1eb2 4dbe eab5 4cbc
000001b0: 4b8e e2be 00fd 16bf 8abb 82be ab7f 67bf
000001c0: abcb 8fbd 2b52 b0bf a3f7 86be f85d bfbd
000001d0: 4107 a0bd 6c3c 49be 4816 07bf 5274 e7bc
000001e0: 6e84 7f3e 281d 00bf 6dca 5dbf 98cd 85bf
000001f0: 8022 94be 37c1 afbd c22f 30be a636 c3be
00000200: 3333 2dbf 7827 2abe a3bf 3b3d 7597 adbe
00000210: abad 883e 59c0 643d 920b 18bf 0b41 c1be
00000220: 2438 fcbe 5389 b6be 63da ccbe db29 de3e
00000230: 9ee8 fcbe cd42 14be 67c4 03bf cd8d efbd
00000240: b50d 27bf 55a6 0bbe b2ce 52be 08c5 b3be
00000250: a9c5 fcbe e931 813d 5d72 e9be f72a 06bf
00000260: a217 e9be 5e00 ffbe 8c03 1cbd 0a42 0ebf
00000270: c2c6 20be 7a30 a9be 6e15 b4be 7b8c 06bf
00000280: e665 63be 98d3 a9be 09f7 ffbe f970 30be
00000290: 3723 1bbe dd92 863d 7d94 d3be 19e0 10bf
000002a0: 9526 7abe ad97 58be a4d6 7dbd 3e84 d0be
000002b0: 434a 323e a1a2 50be 143d 0ebe 2a8f abbe
000002c0: 8ec4 9bbb af87 e5be eb8f 2fbf c787 45bf
000002d0: cd4c 62be 6d1f 62bf 1092 483e 8b70 f2be
000002e0: 9a2e 31bf fae0 03bf 1591 f33d e489 c4be
000002f0: d442 53be 3958 0fbe 0f69 17bf 4486 47be
00000300: 1c69 70be b572 98be b3e6 01bf 89d9 00bf
00000310: 2422 0dbe a839 04be a943 17bf b3b7 dcbe
00000320: 3b37 e5be 2bf7 41bf 9dc2 e1be a3ab 70bf
00000330: 7421 1cbf 3053 60bb 5932 cdbe 5b4e 02bf
00000340: 0c60 fbbe 33a3 c9be f2b4 30bf ec51 21be
00000350: 1002 f23d 0aaf a0be c272 63be b90d 9cbe
00000360: 4e28 7fbf 69e5 33bf dc8a bebe 9bde 32bf
00000370: bde2 98be d8b8 18bf 43fe 24bf 894b 90be
00000380: 41e5 14bf 8baa 9abe 281f 8cbe 1225 a8be
00000390: 3ebd 863c 980e f5be 1a9f 92bd 7d8a 973d
000003a0: ab3b 04bf 2063 cdbe c948 333e 7207 5e3c
000003b0: 255f bfbe 4cae 37be ee17 0ebf 0bca 41bf
000003c0: a3d0 c53e c5a0 63bf af90 3fbf 2a31 1abd
000003d0: 35ec 63be 3c2e 313e 5b18 a0be 6d06 f63e
000003e0: d858 16be 59a8 98bd f6df 72bf 4926 49bf
000003f0: 38f7 bdbe 50e0 b5bd 320e d6be 9f58 c1be
